surrogate/trained_model/BCRNet/model_rate_ll64_fold1.pth (torch, 179229 bytes, 18 tensors)

ds.proj_conv.weight f4 [16, 2, 7]
00000000: a23f bb3d 918a 8c3d af7c 983d 4091 c63d
00000010: 1e38 143e 997c d53d c8f1 cd3d 8128 e3bd
00000020: c555 4d3d 6e0f 923d 2054 fd3d 75bd e73d
00000030: 581f a33d 863d 2d3d 1ed8 eb3c c128 753d
00000040: 23b4 653d 566e 293d 23a5 6c3d 1550 e63c
00000050: b64b 2b3d 8cb4 7bbd d2a8 e3ba 1d9e 203e
00000060: 1620 133e d4d3 3a3e b9b3 233e d922 e23d
00000070: aa51 d03d ad9c b23d 219d b33d 39c7 9f3d
00000080: 5b0e 633d 1a9b 1f3d 98ce 893d 39d5 893d
00000090: 09c8 dc3d ec1b de3d b622 fa3d 191e 143e
000000a0: 54b3 183e 7bd4 c13d 5379 653d 47b2 b73d
000000b0: 1002 f03d 7b6a 173e 4303 d33d 88a3 ba3d
000000c0: 8d15 fd3c aa99 91bd c108 aebd f9ac 4ebd
000000d0: 7544 24bd fb1f 2abd 42a4 d4bd 1c37 85bd
000000e0: 5909 9abc 9ae9 063d ffc8 f23d 927c eb3d
000000f0: e1aa 2b3e a345 153e da70 513d 862c 46bd
00000100: fe8c 04bd 4992 a03c 6c6a 483d 0085 763d
00000110: 04b0 19bd 0e17 67bd 6e7b 453c 3b9e 6fbc
00000120: f276 e83a 4d07 63bc fa33 bcbc 489e 8bbc
00000130: e976 a63a 4861 153e b693 a83d 17a5 953d
00000140: 621d 5cbd bb86 6bbe e40b a6be 6839 0cbf
00000150: 5b7b 0fbd 4bd9 74bc b7d9 c63d 4593 373e
00000160: 0952 6b3e c772 263e 15db ca3d 8e92 6b3b
00000170: 2ef8 073d 555a 753d a006 af3d 85d4 713d
00000180: 5875 ea3c 8b4f 2e3d 4aea 1a3e 6036 103e
00000190: f56d 2e3e d9f4 e93d 4b74 033d 8242 5abd
000001a0: c976 53bd fb46 33bd 9fc9 abbc b72f 40bd
000001b0: c498 8abd dc77 6ebd 9896 8dbd 2080 56bd
000001c0: 9cd3 b93c 709c 83bd 4484 88be 5598 e5be
000001d0: bd65 ddbe 594b 92be 6d03 acbd 2a9e 02bd
000001e0: 3038 39bd 4e10 c7bc 8011 29bb 0ab2 5cbc
000001f0: 99de 093c 2976 023d 8313 853c 2d0a 42bc
00000200: 8ee2 07be d8d4 6bbe 280a 7fbe 634d 67be
00000210: 0f83 09bd f0a2 9b3d 634a 893d f1b8 913d
00000220: c4d5 6a3d 55f0 c4ba a042 c1bc 60b6 49bd
00000230: 16e8 58bc 20dc 9ebb 05ba 8f3b 613d 1e3d
00000240: b915 7bbc 8cfe 10bd 8e37 76bd bc7c 8c3d
00000250: 6460 85bc 763f d1bd f9a9 96be 6fdf 06bf
00000260: 26a5 9abd d30e 33bc 401b 073c 3289 763b
00000270: 1ac6 ac3d 3459 023e 0479 113e 3191 e63d
00000280: c1f9 5f3d ed91 64bd 546c 26bd 1b4a 5abd
00000290: ff7a 59bd 2b27 6bbd 940a e9bd bd39 eebd
000002a0: 94a7 62bd e631 bcbd ce26 febd 6c0b 61be
000002b0: bc4c 80be 5e34 72be 3bd2 88bd 26a0 413d
000002c0: 46e3 3b3d ac10 a83d f70f 583d 6087 c03c
000002d0: 1894 cbba fd52 66bd 67e3 b4bd ea1b 5dbd
000002e0: 0240 87bc 932e 033d aed4 a63c f380 9cb9
000002f0: 2255 a53b 9e18 bebd 80be 71be 412d 8abe
00000300: da6a 37be 27de f0be 48c6 46bd 0ba1 293d
00000310: b7c9 373d 8f10 4c3d b9b6 be3a ec00 613d
00000320: 2e00 883d c158 0a3d 1a82 0a3e bbe4 363e
00000330: 5bd5 853e 146b fc3d 5745 ad3d 213c 513d
00000340: 6248 943a e6d9 32bd fa5c 033e 76a7 f83d
00000350: 5de4 d63d 8865 ec3d 493d b03d 3356 c93d
00000360: 96ba 923d 5b31 943d 8d88 803c beda 113d
00000370: 93d9 323d 8ab4 1f3d ea79 4f3d 5a2d 313d
0.09142996 0.06862367 0.074456565 0.09695673 0.14474532 0.10424156 0.10055882 -0.1109171
0.050130624 0.07131849 0.12369561 0.11315433 0.07964963 0.042295 0.028789576 0.05985332
0.056079995 0.04136499 0.057774674 0.028114358 0.04182025 -0.06145148 -0.0017369038 0.15685315
0.14367709 0.18244869 0.15986528 0.11041803 0.10171826 0.0872129 0.08770204 0.078016706
0.055433612 0.038966276 0.06728858 0.06730122 0.10780341 0.108451694 0.12213652 0.14464606
0.14912158 0.094643556 0.056023907 0.089695506 0.117191434 0.14786713 0.103033565 0.09113222
0.030894065 -0.07109387 -0.084977634 -0.05045793 -0.04010435 -0.041534405 -0.10382892 -0.06504652
-0.018803285 0.032937624 0.11854743 0.11498369 0.16764404 0.14577346 0.051133014 -0.048382305
-0.032361023 0.019601004 0.048929617 0.060185432 -0.037521377 -0.05641847 0.012053354 -0.014625127
0.0017735644 -0.013856721 -0.022974003 -0.017043248 0.0012700233 0.14587891 0.082312986 0.07306879
-0.05373896 -0.23000614 -0.32430947 -0.54775095 -0.03502975 -0.014944385 0.097094946 0.17927273
0.22980513 0.16254722 0.09905068 0.0035945508 0.033195667 0.0599006 0.085461855 0.059040565
0.028620407 0.042556327 0.15128437 0.14083242 0.17034133 0.11423654 0.032093327 -0.053286083
-0.051626954 -0.043768864 -0.020970164 -0.046920504 -0.06767419 -0.058219776 -0.06913489 -0.052368283
0.022683911 -0.064263225 -0.2666341 -0.44842783 -0.43241683 -0.2857311 -0.08399091 -0.03188912
-0.0452196 -0.024299767 -0.0025797784 -0.013470182 0.008414888 0.031850968 0.016244655 -0.011843246
-0.13270018 -0.23030412 -0.24906218 -0.22588114 -0.033572253 0.07599437 0.06703641 0.07115353
0.05733277 -0.0015025238 -0.02359134 -0.049246192 -0.013238927 -0.0048480183 0.004386189 0.038632754
-0.015325003 -0.035399005 -0.060111575 0.06859729 -0.016281314 -0.10217182 -0.29426554 -0.5268468
-0.07551031 -0.010928827 0.008246243 0.0037618396 0.084362224 0.12729341 0.1420632 0.11258162
0.054681543 -0.05580323 -0.040630654 -0.05329333 -0.053095814 -0.0574104 -0.11378971 -0.116321065
-0.055335596 -0.09189205 -0.12409745 -0.21977013 -0.25058544 -0.23652789 -0.06680723 0.04727187
0.04587104 0.08206305 0.0527496 0.023502052 -0.0015531806 -0.056231488 -0.08832436 -0.0539817
-0.016510013 0.03202684 0.020365085 -0.00029850713 0.005045549 -0.09282039 -0.23607826 -0.2698765
-0.17911854 -0.4704449 -0.04852894 0.04141335 0.044870105 0.04982048 0.0014550305 0.05493252
0.06640659 0.03377605 0.13526192 0.17860691 0.2613934 0.12325111 0.08460491 0.051082734
0.0011313076 -0.043664835 0.12828436 0.12141316 0.104927756 0.11542803 0.08605439 0.09830894
0.07164495 0.07235976 0.015690112 0.035609 0.043664526 0.038990535 0.050653376 0.04325614

ds.proj_conv.bias f4 [16]
00000000: 29cb 453e ce22 bfbc 04b0 cbbd 2af1 d03d
00000010: 1a60 72be c4c7 703e 3460 643e 0feb 9dbd
00000020: a61b 83be f140 453e 3225 17be a102 aebd
00000030: a340 3a3e e55d d1bd 891f 22be c99a 933c
0.1931578 -0.023332026 -0.09945682 0.102022484 -0.23669472 0.23513705 0.22302324 -0.077108495
-0.25607032 0.19263054 -0.14760283 -0.08496595 0.1818872 -0.10222987 -0.15832342 0.018018143

ds.proj_bn.weight f4 [16]
00000000: 1046 853f 825e 903f d9d6 913f 92fd c13f
00000010: 4490 a03f e4e1 ba3f e5fb 873f 3c32 b63f
00000020: cd7d bd3f a530 bc3f 1a65 b83f 50ef bc3f
00000030: 6423 ba3f 04c3 b93f c852 953f 8b4c 843f
1.0412006 1.1278841 1.1393691 1.5155509 1.2544026 1.4600186 1.0623747 1.423408
1.4804016 1.4702345 1.4405854 1.4760532 1.454205 1.4512639 1.1665888 1.0335859

ds.proj_bn.bias f4 [16]
00000000: 9218 35be 9f1c 8dbe da4c 7dbe d75e b6bd
00000010: fb06 2dbe 1dd2 123d 23c0 92be 0323 04be
00000020: f38b 2cbe e615 f5bd 7eb2 e03d 7a05 8cbd
00000030: 06e3 20be db68 b93d b703 85be 66d4 88be
-0.17685154 -0.275609 -0.24736348 -0.08904808 -0.16897194 0.03584491 -0.28662214 -0.12903981
-0.16850261 -0.119670674 0.10971545 -0.06836982 -0.15711603 0.09053203 -0.25979397 -0.26724547

ds.proj_bn.running_mean f4 [16]
00000000: 4c38 043f ed79 8e3e e967 973e 8983 303e
00000010: c742 60bd fe33 03bd aa92 0a3f 5e5d aabc
00000020: a91b 45bf b310 cdbc 3982 e9be ed4b 66bd
00000030: a73c bcbd 537d 00bf cdd5 1e3e 14f4 aa3e
0.516484 0.27827397 0.29571465 0.17237677 -0.054751184 -0.032032005 0.5413004 -0.020796474
-0.7699533 -0.025032377 -0.45607165 -0.056224752 -0.09191256 -0.5019123 0.15511246 0.33389342

ds.proj_bn.running_var f4 [16]
00000000: eee1 363d 4f41 503d 6d90 6c3d d3d6 0e3e
00000010: a4cc 7c3d 9e11 143e 9d7c 643d e05d c03d
00000020: 7e01 b43e 952e 1e3e ce19 163e b90f fe3d
00000030: bb0f 503e e789 6a3e 9350 413d a638 4a3d
0.044649057 0.050843533 0.057754923 0.13949136 0.061718598 0.14459845 0.055782903 0.09392905
0.35157388 0.15447457 0.14658281 0.124053426 0.203185 0.22904168 0.047195982 0.04937043

ds.proj_conv1.weight f4 [8, 16, 5]
00000000: fd90 523c 3f2a c43d 414a a43d 0198 1c3e
00000010: f26a 59bd b3da 9abd 0710 6dbe 4e39 a4bd
00000020: 8286 a23b b3b6 30bc 58a1 82bd 384a 9cbe
00000030: b319 7dbe 414e 3cbc c065 3a3b 8d5a 83bd
00000040: 89a9 2ebe a607 adbd c33f cfbd 7a54 4dbd
00000050: 307a c1bc b06f a3bd 6e94 403d 6217 52bc
00000060: 4289 a3bd a80e 2a3d 9b99 62bc 3a06 67bd
00000070: 750b 41bc 16aa 83bc bfb3 3cbb ff5c 863d
00000080: 3c4f dc3d 039d ee3d bb40 c4bd ddf9 22bd
00000090: b0eb 71bd e535 11be fe3f 99bc 7aeb 0dbd
000000a0: 45e7 503d 9cb4 e33d 2b39 2f3e 3de4 433d
000000b0: be0a 043c 343a 453d d03d 883d 25e1 583d
000000c0: 65d1 d63c 0f80 283c d1d6 e63c 8e61 563c
000000d0: 5786 c6bd a719 8abd fa26 e4bc f0f8 70bd
000000e0: 33c1 5ebe 092a 86bd 3565 bdbd 5020 d8bd
000000f0: 0f20 393d 3c73 113d eda7 653d 944f 0e3d
00000100: dffc 443c 9e58 1a3c 4417 67b9 16cb 79bd
00000110: 7185 3ebd e91a a2bc 846e 753d 621c dfbd
00000120: 7aa3 93be fbda b1bd e674 883c 1aa6 a5bd
00000130: a9dd d53d 0ca9 b03d f606 423e f552 433c
00000140: 2496 e0bc 591a febb 610d 0a3e a9f1 4abc
00000150: c1d6 3a3d 7bb1 ea3c d3cf 31bd 6e62 243c
00000160: e00e 8c3c f7df e1bb 3d8d c13d 2b8d e2bc
00000170: 967f 6a3c 4e95 213d c124 513d dd83 95bd
00000180: c4ab cfbd 7406 833c b1bc b03e 7d9a 713d
00000190: c9f1 c7bd a82c 4fbd 6ee9 703d 442b a13e
000001a0: 6ba5 91bd 1816 443d 9748 153e 81b2 1b3e
000001b0: 4466 d53d 6a88 8ebd 6f07 04bd e5d8 9b3d
000001c0: 19b2 6f3e c764 023e 90b3 33bd d3d6 3ebd
000001d0: 8fca 96bd d45d 02bd efcb 023e 970d 603e
000001e0: d387 833d 6f9e 6dbc faa2 1bbe 87f7 19bd
000001f0: dd90 aa3c b460 c03d da05 a9bb 4071 82bd
00000200: 6a57 3e3d 3cdf fb3c b150 4abd e377 403d
00000210: dee2 ab3d 7af6 953d 6815 e03b fca1 9cbd
00000220: 28d0 91bd f27c d43d cacd c13e 165e 40bd
00000230: 6a55 ba3d e271 bcbc 2a35 89bd c520 0d3d
00000240: 2d60 2d3d cc14 09be 8fac 003b 2186 0c3e
00000250: f794 8a3d 694c c5bc 5f49 8b3d c661 ea3c
00000260: 4d21 e5bc c2f1 50bd 2949 24bc dea8 c1bc
00000270: 4adf 063d 144d ee3d 138e 633c 73dc 5c3d
00000280: 9612 07be 1dfd 973d e21f aa3d b206 59bd
00000290: 2205 6ebd fe81 8c3d 67ea 0e3e b1d7 0f3d
000002a0: 8d87 c93c fb3c c33c 338a 56bd cb34 3ebd
000002b0: 60aa c3bc 9ea2 8d3b a4ab 893c 1c50 a6bd
000002c0: 9d22 243e cf30 033d 89c9 d6bd 3724 53bd
000002d0: c89b cdbc d604 083e def1 903a 01a8 8ebd
000002e0: 8410 d83a 80da a0be 78d0 09be a27a 81bd
000002f0: 93c8 e13d 1d4b d33d f1dd 92bd f95a b23d
00000300: f291 abbd 10d8 823c 1171 9abc ab2e 8cbe
00000310: 8afc 8e3d cd4c 163e 8e7a d0bd 91be 39bd
00000320: 30a1 163e 9cec 053d f3eb c53d fac9 6b3d
00000330: 3c6c 87bd 2a60 693a fbbb d63d 657c 0e3e
00000340: 19fc 36bd 9857 2abd ad56 a4bd e293 8fbe
00000350: c02b 43be 51e3 d93d 8c0f 183e f1b7 74bc
00000360: a327 e83d 9fb3 a1bd 9df0 e0bd 6c2d b93c
00000370: 2172 53bc 0a38 f93d 85f8 4d3d d3bb c3bc
00000380: 484f 0ebd 4652 b73d 59db 22be 1180 67be
00000390: dcc7 713d 8cb1 303e e96e 1e3d 47da 05bc
000003a0: 1940 163e 5c72 2c3d 9cb1 153d b79a 34be
000003b0: 4ebd 57bc 08a0 8f3d 2c53 74bc 424b 76bd
000003c0: 156a a7bd ceee 8539 4f00 123e 1231 b23d
000003d0: 980d 90bd b386 1fbc 4d2d 38bb 4963 c63b
000003e0: f498 88bb c294 593c 9423 733c e339 fe3c
000003f0: 73af 4c3d 2d1f d13c ea8a 1d3d e3f8 88bd
0.012851951 0.0957837 0.08021975 0.1529236 -0.053080507 -0.07561245 -0.23150645 -0.080187425
0.0049598822 -0.010785746 -0.0637843 -0.30525374 -0.24716835 -0.011493267 0.0028441995 -0.064137556
-0.1705686 -0.084487244 -0.101195835 -0.05012939 -0.023617834 -0.07980287 0.047016554 -0.012822958
-0.07985164 0.041517884 -0.013830568 -0.056402422 -0.011782517 -0.016072314 -0.002879366 0.06560706
0.107573 0.11651041 -0.09582659 -0.03978907 -0.05906266 -0.14180715 -0.018707272 -0.034648396
0.051001806 0.11118433 0.17111652 0.047825087 0.008059202 0.04815121 0.06652415 0.05294909
0.026222894 0.010284438 0.028178604 0.013084782 -0.09693592 -0.06743174 -0.027850617 -0.058831155
-0.21753387 -0.06550986 -0.09247819 -0.10553038 0.04519659 0.035510287 0.05606835 0.03474386
0.01202318 0.009420542 -0.00022038544 -0.060984693 -0.04651398 -0.019788222 0.05991985 -0.108940855
-0.2883566 -0.08684345 0.016657304 -0.08088322 0.10442669 0.08625993 0.18947968 0.011921634
-0.027415343 -0.0077546057 0.13481666 -0.012386718 0.04561496 0.028649082 -0.043411087 0.010033233
0.017096937 -0.006893154 0.09450767 -0.027655205 0.014312645 0.03944903 0.051060442 -0.073005415
-0.101401836 0.015994288 0.3451896 0.058985222 -0.09762914 -0.050579697 0.058816366 0.31478322
-0.07111629 0.047872633 0.14578472 0.15204813 0.10419896 -0.06959613 -0.03223365 0.07609729
0.23407783 0.12733756 -0.043872416 -0.04659159 -0.07362854 -0.031827763 0.12773107 0.21880184
0.06422391 -0.014503106 -0.1519889 -0.037589576 0.02082103 0.09393445 -0.0051581683 -0.06369257
0.046470083 0.030746095 -0.04939336 0.046989333 0.08392881 0.07322402 0.0068384893 -0.076480836
-0.07119781 0.10375394 0.37852317 -0.046964727 0.09098323 -0.023003522 -0.06699593 0.03445508
0.04232805 -0.1338684 0.0019634103 0.13723041 0.06766694 -0.024084287 0.06801104 0.028611075
-0.02796998 -0.05101181 -0.010027208 -0.023640092 0.03292779 0.11635795 0.013888854 0.053921174
-0.13190684 0.074213244 0.083068624 -0.0529849 -0.058110364 0.068607315 0.13956605 0.03511781
0.024600768 0.023832789 -0.05237789 -0.046437066 -0.023884952 0.004322364 0.016805477 -0.081207484
0.16028829 0.03202897 -0.104876585 -0.05154821 -0.025098696 0.13283095 0.001105841 -0.06965638
0.0016484414 -0.31416702 -0.13458431 -0.063222185 0.110245846 0.10317061 -0.07171238 0.08708758
-0.08377446 0.015972167 -0.018852742 -0.27379355 0.06981762 0.14677735 -0.101796255 -0.045347754
0.14709926 0.03269635 0.09664144 0.057565667 -0.06612441 0.0008902574 0.10485073 0.1391464
-0.044674013 -0.041587442 -0.080243446 -0.28042513 -0.19059658 0.1063906 0.1484968 -0.014936433
0.11335685 -0.07895588 -0.10983393 0.022604667 -0.012905628 0.12168892 0.050285835 -0.023893273
-0.034743577 0.08951239 -0.15903987 -0.22607447 0.05902849 0.17255229 0.03867999 -0.008169717
0.14672889 0.04210125 0.036546335 -0.17637144 -0.013167692 0.070129454 -0.014912408 -0.060130365
-0.081745304 0.0002554566 0.1425793 0.08700766 -0.07033843 -0.009736705 -0.0028103173 0.006054316
-0.004168624 0.0132800955 0.014840025 0.031033462 0.04997201 0.025527561 0.038462557 -0.066880964

ds.proj_conv1.bias f4 [8]
00000000: d057 cb3c 3dff 97bd 0f0b e33c adf4 8d3d
00000010: 54bb 82bd af75 d6bd 0298 ac3d 6d3f 363c
0.024822146 -0.0742173 0.027715234 0.06931434 -0.06383386 -0.10471665 0.08427431 0.01112352

ds.proj_bn1.weight f4 [8]
00000000: 580b c63f 88b1 c33f a408 d03f 681f b93f
00000010: 457d cc3f bfa6 c33f c942 bb3f ab5a d83f
1.5472212 1.5288553 1.6252637 1.446271 1.5975729 1.5285262 1.4629756 1.690267

ds.proj_bn1.bias f4 [8]
00000000: 571d 333e ad52 e03d a77f 3e3e 58ff a73d
00000010: da72 843d 33db 213e 48f1 653e 3382 e23d
0.17491661 0.10953269 0.18603383 0.08203 0.06467219 0.15806274 0.22455323 0.1105999

ds.proj_bn1.running_mean f4 [8]
00000000: aa6b d3be 94e5 213f 6ea5 fbbd df4b 0e3f
00000010: c9bf 37bf 7365 2bbf edc3 42be b6d8 563f
-0.4129308 0.63240933 -0.122874126 0.5558452 -0.71777016 -0.66951674 -0.19020052 0.83924425

ds.proj_bn1.running_var f4 [8]
00000000: 8c4b 9f3e c6cd 2f3f 5634 1b3f 395f 3a3f
00000010: d9f0 413f c8c7 0b3f aca9 ee3e aa49 2b3f
0.31112325 0.6867336 0.60626733 0.7280155 0.7575813 0.54601717 0.46613824 0.6690928

ds.fc1_conv.weight f4 [128, 256]
00000000: e78b 0c3e 31e9 273e 1df2 a23e 834d 263f
00000010: 8768 a33e 8da5 053d 1615 efbd a567 073e
00000020: 609a 11be 7177 03be f8c5 2f3e c39d a93e
00000030: 4050 673e ec24 1c3d 4650 13be 2de9 2e3d
00000040: defa 093f 3e47 f53e 3145 583e 571f 81bd
00000050: 89cc a63d 469c 1b3e f303 aebd 9571 8dbd
00000060: 189c 823d 0dba b73d 1631 5ebd d135 933b
00000070: 66b7 fa3d 7408 803e 0480 a23e cdad 533c
00000080: e464 b1bc db86 85bd 8a89 13be d07a c7bd
00000090: 902a 113d 7900 b1bc bc0c a53c 58d7 9abc
000000a0: f8cd 503d befd a23d 080e 31bd 3c52 02be
000000b0: 1551 8cbe 0e12 cebd eb64 48be e1b3 c6be
000000c0: c863 c4be a0f7 49be 681a 343c 4a8c b5be
000000d0: d3a1 e33c a4e1 d93d 267e 903d 2a6d 2b3e
000000e0: 82a4 913e 4cca d43c 0721 0abd cd5b 433d
000000f0: feee 8abd 4898 20be a380 9bbd ea13 b4bd
00000100: 7e1c b439 bbeb f5bc 9c37 f03b b422 1dbd
00000110: a1be b5bd 944a a5bd 3cad 9ebd 5749 243e
00000120: 8bf4 6ebd e93e afbe 22ec 96be ad1f 90bd
00000130: dd09 73bc c103 b33c 525e 1f3e 6012 353d
00000140: b7dc 93bd e6d9 a4bd ae7f 013b 086b 0b3e
00000150: fa82 053e 1800 bbbd 8b32 a1be 064a f3be
00000160: d96e edbc e410 82bc bbfe 323e 88a6 a33c
00000170: e03b c8bd 3119 9abd 0131 e8bc 0812 9a3d
00000180: 095a 29be bf0e 5ebd f5ad c1bd 54c7 edbd
00000190: c313 11bd 7bc5 963d 7c69 163d 8afc a43d
000001a0: e396 003d 6b54 383c c58e b8bc f4b4 6fbd
000001b0: ac46 bebe 792f bfbe c515 18bc 919e 8dbe
000001c0: 10e8 d8be d00f 90be 2a8b 2f3c 54fc ccbe
000001d0: 7a18 2a3d cccc 5d3d e87e fe3d 21ca 2b3d
000001e0: e2bd 7a3e d196 253e 62f5 963d 1c9f 0abb
000001f0: 3e4c 8c3b 1db8 44be c918 f0bd ee76 aabd
00000200: 8ba1 69bd 9730 38bc 109e d1bc 9aa0 d6bd
00000210: 815f 50bd aa9a 13be c7d3 6f3d ebaf 85bd
00000220: b3b0 b2be a6a4 71bd 8f1d ed3c 4619 3d3d
00000230: 44ca 833c af7a cc3d c69c d73d 4334 2f3d
00000240: 6b56 1ebe 3443 83bd ec19 6d3d 9a1c 3d3e
00000250: 0180 033d e3c4 b9bd 8a2a 1bbf 8aed e0be
00000260: 300a e13b 5611 903c 01bf 873e 3943 6fbd
00000270: 08b8 e2bd 76f8 22bd 09f0 66bc 10b7 0b3d
00000280: c3aa 3bbd 5d3d 51bc d22b 0cbd 3889 3b3d
00000290: bdae 8a3d 6732 fe3d c06a e03c 5d64 0b3e
000002a0: 1fa4 8b3e e4a5 ae3d 0a00 01bd f649 afbd
000002b0: b667 44bf 99f6 833d 7087 99bd e79f 5bbe
000002c0: 044f 8dbd 947d 983c 623f 933d 696f d3be
000002d0: d9c7 4cbd dbd4 103e 7ba3 663e eabc fa3d
000002e0: 0ccc e6bb 81e9 e43d ee6e 01bd d5e3 473d
000002f0: 8937 20bc d443 96bc 83bb e9ba d353 173e
00000300: 810c 00bd 3813 933d 33ab 403e dcd3 213e
00000310: 6891 bb3d 17e2 ff3d 5d63 153b 5c41 923d
00000320: 1298 163e 9d5d 313e eaef 2b3e a8ca f5bb
00000330: 216a 9ebd 7b38 e83c 2f6d 1b3e 10ee f73e
00000340: f9c6 263f 2282 e83e 3b2d 3fbd 01ba 1bbd
00000350: 61b4 71be 2730 eebc f026 1c3e 801b dd3d
00000360: 84f9 62bc c4c5 c53d f835 313e d247 ce3d
00000370: ca05 3e3e be9f 083f b3d6 833e fe57 143e
00000380: 7266 1fbd 0c8d 17bd d873 23be 9929 35be
00000390: 5606 54be 0aa8 6b3c 8f06 bf3e 0139 903e
000003a0: d28e a33e ac55 5cbd 87ea 8abd 0845 cebd
000003b0: 92ce 1fbe e183 6b3e d2bd c73d a690 ffbd
000003c0: d2e6 a6be 8091 bebd 2694 c03c 5bd3 723e
000003d0: 2e53 19be 04d0 f7bd d962 5cbe 8a64 2cbe
000003e0: 111c 98bd 033c 993e 714b 3d3e 5070 66bd
000003f0: d53e 3abc 432e 2abd 6859 0a3d e151 2b3c
0.13725244 0.16397549 0.31825343 0.64962023 0.31915686 0.032628585 -0.11673944 0.13223131
-0.14219046 -0.12838532 0.17165363 0.33128175 0.22589207 0.03812115 -0.1438609 0.042702843
0.5389842 0.47905916 0.21120144 -0.06304806 0.08144481 0.15196332 -0.08496847 -0.0690643
0.06377429 0.08971033 -0.05424603 0.0044924994 0.12242012 0.2500645 0.31738293 0.012919855
-0.021654554 -0.06519862 -0.14407936 -0.097402215 0.03544098 -0.02160667 0.020147674 -0.018901512
0.050977677 0.07958554 -0.043226272 -0.12726682 -0.2740561 -0.100620374 -0.19569747 -0.38809112
-0.38357377 -0.19723368 0.010992624 -0.35458595 0.027787125 0.10638741 0.07055311 0.16740862
0.28445822 0.025975369 -0.033722904 0.04769497 -0.067838654 -0.1568309 -0.07592895 -0.08792861
0.00034353504 -0.030019632 0.007330848 -0.038363174 -0.0887425 -0.08070865 -0.077478856 0.16043602
-0.058338683 -0.34227684 -0.2947703 -0.07037292 -0.014833895 0.021852376 0.15563324 0.044206977
-0.072198324 -0.08049373 0.001975994 0.13615048 0.13038245 -0.09130877 -0.31483874 -0.47517413
-0.02898352 -0.015877195 0.17479984 0.01997687 -0.09777045 -0.07524336 -0.02834368 0.075229704
-0.16538252 -0.05421328 -0.09457008 -0.116102844 -0.035419237 0.07361885 0.03672169 0.080559805
0.031393897 0.011250596 -0.022529015 -0.05852218 -0.37163293 -0.37340906 -0.009282534 -0.2766004
-0.4236455 -0.28137064 0.010714332 -0.4003626 0.04152725 0.054150388 0.12426549 0.041940812
0.24486497 0.16170813 0.07371022 -0.0021151965 0.0042815497 -0.19210859 -0.117234774 -0.08323465
-0.057038825 -0.0112420535 -0.025588065 -0.10479851 -0.05087233 -0.14414468 0.058551576 -0.06527694
-0.34900436 -0.05899491 0.028944759 0.04616668 0.016087659 0.099843375 0.10527949 0.04277445
-0.15462653 -0.06409302 0.05788605 0.18467942 0.032104496 -0.09070756 -0.60611784 -0.43931228
0.0068676695 0.017586391 0.26512912 -0.058413718 -0.110702574 -0.039787732 -0.014095315 0.03411013
-0.045817148 -0.012770978 -0.034221478 0.04578516 0.0677161 0.12411957 0.027394652 0.13612504
0.27273652 0.08527735 -0.031494178 -0.08559029 -0.7672075 0.06443519 -0.07496536 -0.21447717
-0.06899837 0.018614568 0.07189824 -0.41295937 -0.049995277 0.14143698 0.225233 0.12243064
-0.0070433673 0.1117735 -0.03159993 0.048801262 -0.009778866 -0.01834289 -0.0017832372 0.1477807
-0.031261925 0.071814 0.18815307 0.15803474 0.091585934 0.12494295 0.002279482 0.071413726
0.14706448 0.17320867 0.16790739 -0.007500965 -0.07735086 0.028347244 0.15178369 0.48423815
0.6514736 0.45411783 -0.046673995 -0.038019184 -0.23603965 -0.029075695 0.15249228 0.10796261
-0.0138534345 0.096568614 0.17305744 0.100722924 0.18556896 0.5336875 0.2574974 0.14486691
-0.03891606 -0.036999747 -0.1596216 -0.1769165 -0.20705542 0.014383325 0.3730969 0.2816849
0.319449 -0.05379264 -0.06783014 -0.100717604 -0.15606144 0.22999527 0.09753002 -0.124787614
-0.32597977 -0.09305096 0.023508143 0.23713438 -0.14973137 -0.12100223 -0.21522082 -0.16835228
-0.07427228 0.29928598 0.1848581 -0.056259453 -0.011367519 -0.041548025 0.03377667 0.010456533

ds.fc1_conv.bias f4 [128]
00000000: 7222 d83d b5bd e4ba 07cc ce3c 087c f1bc
00000010: 2683 9b3d 9c90 283d 023b 913d e5e9 f23a
00000020: 1de8 343d 453a ebbc 5af4 1fbd a6f8 3a3d
00000030: f960 453c ca18 813d 8b6d d1bc aecd 4ebd
00000040: bffb 553d 5d4e 963d 4a20 40bd d116 fc3c
00000050: 9558 8f3c b4e2 b33d cd65 4dbc d0e3 00bd
00000060: ec3c 0b3c 7130 a03d c394 243d 0b2f f23c
00000070: ad99 a03b b47d b2bc 847f 83bb b0bc 623c
00000080: 8d47 c0b8 3b94 113d 0ec4 b83a 6dbd 72bd
00000090: 4d2f 1a3c 496a df3c 12b8 9c3d fbb1 993d
000000a0: aacf 73bd 6eee b6bd 76e8 103d bc19 413c
000000b0: e3dc 20bd 5e3d 8b3d bda1 c73b 239e ab3c
000000c0: 5b24 71bd cf21 9e3d 40f0 9f3c 36f5 13bd
000000d0: f07f 51bd 8ec8 5dbd 949d 9dbc 7c72 163d
000000e0: 8532 433d 2c27 37bd 5056 c33c ff51 8e3c
000000f0: 7d56 953d 8b62 113d 4f70 033d ceda 763d
00000100: 3bb2 d13c 4efd 093d d51c 8d3d ca75 8dbc
00000110: 7a24 f03c 46fe 923c d1af 74bd 88e7 043d
00000120: cc9e 943d 9dae 853b 8930 17bd dc92 ab3c
00000130: 861e 9c3d d034 abbc aeef 7abb 353d fc3c
00000140: 3de2 1dbd bda9 afbb b7b9 c13b 0eaf 063d
00000150: 3166 36bd 71b9 c23c ee3e f6bc 0bfc 99bc
00000160: ed92 1f3d 9fb5 0fbc 06be d53c 8050 123c
00000170: 9bc4 033d 6cfe 863d 99b3 63bd f5fa 6aba
00000180: 9cfd 6b3d fe3c 403c 1d5e 52bd bd0e 103c
00000190: 86fe 453d 960f 553d 2b2e c6bb fc6e 6f3c
000001a0: bc34 2a3d 9495 263b eef6 22bb 9df6 133d
000001b0: c181 673d 8f03 bb3d 26d0 87bc cdda be3c
000001c0: 4bea 053c 8988 43bd 35e0 353d 6210 af3c
000001d0: 3d52 023d c4ab 5dbd abfc e63b 7f91 f1bc
000001e0: dcea 39bd 04f4 323b c376 733d a771 d4bc
000001f0: c81f b03d 0753 5f3d 28e1 dc3c f408 2ebc
0.10553445 -0.0017451557 0.025243772 -0.029478088 0.07593374 0.041153535 0.07091333 0.0018532841
0.044166673 -0.028714309 -0.03905139 0.045647286 0.012047046 0.06303556 -0.02556493 -0.05048912
0.052242037 0.07339165 -0.046905793 0.030772598 0.017498294 0.087834746 -0.012536478 -0.03146726
0.008498412 0.078217395 0.040180933 0.029563447 0.004901132 -0.021788456 -0.004013004 0.013838932
-9.168601e-05 0.035541754 0.0014096515 -0.05926268 0.009410691 0.02727236 0.07652296 0.0750465
-0.059524216 -0.089321956 0.035377942 0.011785921 -0.039273154 0.06798814 0.0060922788 0.020949429
-0.058872562 0.07721292 0.01952374 -0.036122523 -0.0511474 -0.054146342 -0.019240178 0.036730275
0.0476556 -0.04471509 0.023844868 0.017373083 0.07291887 0.03549437 0.032089528 0.060267262
0.025597682 0.033688836 0.06890265 -0.01726808 0.029314268 0.017943513 -0.059737984 0.032447368
0.072568506 0.0040796534 -0.03691152 0.020944051 0.076230094 -0.020899206 -0.0038289833 0.030790905
-0.038545836 -0.0053608106 0.0059120315 0.03288179 -0.04453105 0.023770066 -0.030059304 -0.018796941
0.03895848 -0.008771329 0.026091587 0.0089303255 0.03216992 0.06591496 -0.0555912 -0.0008963787
0.057614908 0.011733292 -0.051359285 0.008792576 0.048338436 0.052016817 -0.006047984 0.014613863
0.041554198 0.0025418745 -0.002486642 0.03612386 0.056520227 0.09131538 -0.016578745 0.023297692
0.008173536 -0.047737632 0.044403274 0.021370117 0.03181671 -0.054118887 0.0070491633 -0.029488323
-0.045389995 0.002730609 0.059439432 -0.0259331 0.08599812 0.05452254 0.026962832 -0.010622252

ds.fc2_conv.weight f4 [64, 128]
00000000: 0d46 ab3d 0b41 fb3e 3a12 773d 433c 2fbe
00000010: ba08 bb3d f718 913c 176a 3dbc bab3 7a3e
00000020: a9fd db3d 37fd 97be 22a9 16be f9f1 a0be
00000030: 89bc 123d 7eea 2b3e e910 00bf 8625 153e
00000040: 4c70 1c3e 1823 febb 565b 8cbe 4f12 57be
00000050: e977 e3be bbce 03bd 1cae 5cbd e014 4bbf
00000060: 06e1 84be 8367 36bc f617 4a3d 9dfc 833e
00000070: ba94 943e cb12 76be 3e16 5bbe f96b 56be
00000080: e614 d5bd c54a b8bd afd2 fc3b c7ff f4be
00000090: 7cb5 ab3e d416 b13e 9605 923b 033d 8abd
000000a0: bdde 84be 40e8 83be bb50 453c 231d 983e
000000b0: a5a0 60be e515 c5bc 6ac7 4fbe 5cbb 6fb7
000000c0: 5b2d dfbe 988b 813c c1ee 01bf 2a7d 4ebe
000000d0: d8f0 cabd 2aa2 b6be f7c2 26bf c2e0 7c3d
000000e0: 8c71 1e3d 1b48 2f3e bba4 933e 79d9 05bd
000000f0: 997e e63e ca20 8a3d 7e5d c63e 9e83 343e
00000100: ade9 e0bb 83e2 29be 2282 6a3d dea6 713e
00000110: 1321 22bc 96d5 a33d f54f 85be bd7a b1be
00000120: fb6d 343d 2bc1 813e ba8f 803d cc01 78be
00000130: 27d4 0e3d c9f3 c63d 5e8b 18bf 903d 903d
00000140: a61b 933c ff53 db3c 0092 b9be 6a86 32be
00000150: d776 0dbf 6ddc 28be ce76 49bf dab3 213c
00000160: 467e df3d 135c c4be 8953 173c a739 2239
00000170: 5f99 223f d7a3 003f bf8f 1a3e 0e87 2abe
00000180: 129b fa3d 09e5 ce3e 8855 f4be e653 2d3d
00000190: 6fda 2dbe 2571 00be 2aff 823d ce62 88be
000001a0: cfb0 ccbd 7ddd 00bf 04c0 e63e 0339 013f
000001b0: 2d08 abba 5964 273d 098c 1ebf b23b 73bd
000001c0: 574f c03b 924c aabd 49ae 2ebc 9e21 3bbc
000001d0: b220 a23e c312 6abe f091 e4be b2ce 1fbe
000001e0: cea9 b2be 304e 66be f2ef d63d a402 ebbe
000001f0: 2a06 bd3c d1ea 07be ffb0 21be 660b ad3e
00000200: d5d0 59bb d5fd d83d 4d13 84bd 9a66 ccbc
00000210: 2090 24bd d2fe 4abd 9dc1 99be ddc4 20bd
00000220: d0dd 77be 7fd7 bd3b 3f81 4fbb 0fb5 7fbc
00000230: 6a76 0cbe d905 4abe bc71 b03d 1b55 153e
00000240: dc56 3cbe c9ec 873d 1e37 953e 37bc dfbc
00000250: 36c5 c43d 1894 adbc 0fa2 5cbd 1665 3bbd
00000260: 15e9 00bc d05d 5ebe f14e fdbc 1a2f 38be
00000270: ef3e 41be c8f6 69bd 2333 cebc 29fa a4bc
00000280: f3fb 06be 770c 08be 31ab 1c3e 8806 b53e
00000290: 79d4 0c3c 9db4 00bd df61 7abd 025b 4cbe
000002a0: e371 493e 1e4d 683e 71c5 a1bc df9e 823e
000002b0: c8df 283e 1dd6 95be 9ed7 21bd 20e7 1b3d
000002c0: 3d95 ac3e bd07 913c 4bdd 7e3b ff74 bfbd
000002d0: d4e9 b4bc 79eb 513e 5d7e eabd a5d8 53be
000002e0: e626 3ebe 38ad 8cbc da54 b9bd dc91 45bd
000002f0: 0a74 34ba f3d4 82bd 512e 02be 5cdf 6c3d
00000300: e349 70bd 707b b1bd 289e 57bd b0e9 4dbe
00000310: d3a0 3a3c aec8 d6ba 6040 a43e 90be 973d
00000320: 673e 9abd f72a 53be 6984 1d3e 547c f9bc
00000330: 3615 a33d ab2b 6c3e f9e8 b1bc cfdf 62bd
00000340: e197 083e 1c26 9a3d 7b58 bd3c 13e6 5e3d
00000350: 172e 6cbc 4309 5dbd 5851 e43c 4eda edbc
00000360: 1eb3 6cbd 0263 2bbd 1eee 33bd de57 40be
00000370: 4bad 60be b5c4 b0bc 84d2 8dbd f8ee 0a3e
00000380: a5d1 2ebe 7343 8abd efcf c1bd c961 703d
00000390: 4a1a 263b efd1 84be fc23 183e 4dc1 99be
000003a0: 5c13 4abd 5477 9e3d 30aa 05be 572f 55be
000003b0: 537d 40be 7f5b 8dbe 546e 77bd ef59 5dbe
000003c0: 3abd 833d e15d 4ebc 7224 41be 11af 43be
000003d0: 5750 31be c2f8 a23e 9907 273e b6b1 1b3e
000003e0: 9fe9 a53e 3bca efba 44d2 53be 6e53 0c3e
000003f0: c6de bcbb f058 3bbe df14 a63c a63c 3ebe
0.083629705 0.4907306 0.060320117 -0.17112832 0.09132524 0.0177121 -0.011560938 0.24482623
0.10741741 -0.29685375 -0.14712957 -0.3143461 0.035824332 0.1678867 -0.500258 0.14565095
0.15277213 -0.0077556483 -0.27413434 -0.21003078 -0.44427422 -0.032179575 -0.05387698 -0.7932873
-0.2595293 -0.011133078 0.049339257 0.25778666 0.2901972 -0.24030606 -0.21395203 -0.20939626
-0.10404377 -0.08998636 0.007715545 -0.47851393 0.335369 0.3458773 0.0044562323 -0.06749918
-0.25951186 -0.2576313 0.012043173 0.2970973 -0.21936281 -0.024058292 -0.20290914 -1.4289133e-05
-0.4358929 0.015813634 -0.50754935 -0.20164934 -0.099092185 -0.35670596 -0.6514124 0.061737783
0.038682505 0.1711735 0.28836617 -0.0326781 0.4501846 0.06744535 0.38743204 0.17628333
-0.006863794 -0.16590314 0.05725301 0.23598811 -0.009895581 0.07999723 -0.26037565 -0.34663954
0.044050198 0.25342688 0.06277414 -0.24219435 0.034870293 0.09714467 -0.5958766 0.07042992
0.01795752 0.02677345 -0.36244202 -0.17434087 -0.5525946 -0.16490336 -0.78696907 0.00986954
0.109127566 -0.38351497 0.009236225 0.00015471001 0.63515276 0.5025 0.15093897 -0.16653082
0.122366086 0.40409115 -0.47721505 0.04231634 -0.16977857 -0.12543161 0.06396325 -0.26637882
-0.09994661 -0.50337964 0.4506837 0.5047762 -0.0013048701 0.040867183 -0.61932427 -0.0593831
0.005868833 -0.08315386 -0.01066167 -0.011421589 0.3166557 -0.2285872 -0.4464259 -0.15606192
-0.34895176 -0.22490764 0.10494985 -0.45900452 0.023074228 -0.13273169 -0.15790175 0.3379776
-0.0033236046 0.105952896 -0.06448994 -0.024951268 -0.04017651 -0.04955942 -0.30030528 -0.039250243
-0.24205709 0.0057935114 -0.003166273 -0.015607133 -0.13717046 -0.19728793 0.08615443 0.14583246
-0.18392509 0.0663696 0.29143614 -0.027311428 0.096079275 -0.02118878 -0.05386549 -0.0457507
-0.007868071 -0.21715474 -0.030921431 -0.17986718 -0.18871664 -0.057120115 -0.025170868 -0.020138817
-0.13182048 -0.13286005 0.1529968 0.35356545 0.008595579 -0.031422246 -0.061128493 -0.19956592
0.1967235 0.22685668 -0.019747468 0.25511834 0.16491616 -0.29264918 -0.03951227 0.038062215
0.3370761 0.017703885 0.0038889225 -0.09348487 -0.022084154 0.20499982 -0.11449883 -0.20688112
-0.18569526 -0.01717244 -0.09049387 -0.048234805 -0.0006883746 -0.06388273 -0.12712981 0.0578302
-0.058664214 -0.08666122 -0.052641064 -0.20108676 0.011390883 -0.0016386712 0.32080364 0.07409394
-0.075314336 -0.20621859 0.15382542 -0.030454792 0.0796303 0.23063533 -0.021717535 -0.05538922
0.13339187 0.075268 0.02311348 0.054418635 -0.014415286 -0.05396391 0.027870819 -0.02903476
-0.057788007 -0.041842468 -0.043928258 -0.18783519 -0.21941106 -0.021578172 -0.06924918 0.13567722
-0.1707216 -0.06751146 -0.09463488 0.058687005 0.002534526 -0.25941417 0.14857477 -0.3003029
-0.04933487 0.07737604 -0.13053203 -0.2081884 -0.18797807 -0.27608868 -0.06040795 -0.21616338
0.064325765 -0.012595625 -0.18861559 -0.19109751 -0.17315803 0.31830412 0.16311492 0.1520451
0.324048 -0.0018294522 -0.20685679 0.13703701 -0.0057638614 -0.18295646 0.020273624 -0.18577823

ds.fc2_conv.bias f4 [64]
00000000: 1f77 a83d 177b b3bd e58a 183d 0adb c23c
00000010: e975 133c 39e6 453d 9a5e df3c 8816 453d
00000020: c1ab 993c 129a 823d c5bc b73c 2c1f 9b3c
00000030: 5953 523d 2940 7e3c 4f9b 4bbc 7177 873d
00000040: 6165 773d 3279 263d c9fa 08bd a780 623d
00000050: 4812 8cbb b7f8 ac3d 07dd 143d 4ea8 2b3d
00000060: d817 283d 2544 593d cba9 673c b45e 573d
00000070: 868a 7b3d 92ca 253d 3775 933d f5be de3c
00000080: f280 543d bacf 243d 94ab 3d3d cece 123d
00000090: 75ae 443d 982c 943d 1f7e b63d 2000 8a3d
000000a0: b463 7c3d 44d2 533c e589 2b3d cb2e 293d
000000b0: d217 c73d 1582 c13d 135a ac3d efc7 873d
000000c0: 31c5 363d fd91 8f3d 563b 2b3c 520e fc3c
000000d0: 96b2 bd3d 2dbe 353c d52c ff3d 46ff 013d
000000e0: 70af 8f3d ca93 a13d 85d8 c63a 182b d53d
000000f0: e87a a43d 3aa0 cf3c 45e7 ba3d 14e1 843b
0.082258455 -0.08763712 0.037241835 0.023786087 0.00900028 0.04831526 0.02726679 0.04811719
0.018758656 0.06377043 0.02242888 0.018935762 0.051349018 0.015518227 -0.012427165 0.066145785
0.060399417 0.040642925 -0.033442292 0.055298474 -0.00427464 0.08445876 0.0363436 0.041908555
0.041038364 0.053043503 0.014139603 0.05258055 0.061411403 0.04047639 0.07200091 0.027190665
0.051880784 0.040237166 0.046306208 0.035841756 0.048017938 0.07235068 0.089107744 0.06738305
0.06161852 0.012928549 0.041879553 0.04130439 0.0972134 0.09448639 0.08415618 0.06629931
0.04462165 0.07010267 0.0104511585 0.030768547 0.09262578 0.011092705 0.12459723 0.03173759
0.07015884 0.07889517 0.0015170729 0.1040861 0.08031255 0.025344957 0.091261424 0.0040551517

head.weight f4 [15, 64]
00000000: 3940 adbf f8f5 a4bd 1c0f 983d bf7f 943d
00000010: 5ebb a9bd c27f c2bd fb67 49bf 4300 8dbf
00000020: b44e a4bd 1395 b4bd 6914 a6bd 8fde d2be
00000030: 3df1 ba3e c164 c2bd b819 63bf 989f fa3d
00000040: b56f a1bd 1e91 d4bd 484e cabd 6aa3 40bf
00000050: da34 813e cf73 79bf 1597 a7bc 4a28 94bd
00000060: feb4 16bf 758f 9b3e 9b0a a73e d487 cd3d
00000070: ccec c3bd a796 1d3e ba38 85bf 61f1 5cbf
00000080: 0bde 903e 1ad3 bcbe f150 1d3e c4d6 a33d
00000090: a6bf 28be d2df 993e a1c4 a83d e14e d13e
000000a0: 2161 3a3e 582b 51bf 62b9 3fbf a465 f53d
000000b0: b788 d23d 8eb8 a73d c114 713d 770c 993e
000000c0: 7996 183e dca8 28bf cda5 c53c a911 4eba
000000d0: 5ac7 b63d 2134 90be 1bc3 e9bf f5de 533e
000000e0: c653 c43d 4c51 fc3d caa6 37be a508 5b3e
000000f0: 264b 4dbf 4801 ebbd c9dd a33d 36b0 2a3e
00000100: 6c5d 023e 99cf 32be d0da 62be f735 2dbf
00000110: 6595 793e 1f2b fdbe 4c8f 573e b0b2 e4bd
00000120: 9962 22bf 4437 14bf 91ac 0fbf 29d1 16bf
00000130: 7c8d b53d a55e 47bf 28e2 06be 33b2 1d3e
00000140: 2dc5 3f3e afa7 873e 5fc8 20bf 3c69 e8bd
00000150: 195d 553e b954 1b3e dbdd c33d 1589 41bf
00000160: 80d2 3a3e 4119 3cbf eb9d 343e 6160 4cbf
00000170: 678d 5abf 1dd7 1bbf 2ad2 6f3e 1919 f93d
00000180: a2ad 5e3d 59b6 353e 2d44 85bd bb24 403d
00000190: 8676 803e 0b9d b8be aa51 543e d547 883e
000001a0: e269 40bf beca 8c3e a225 4a3e a6a4 ab3d
000001b0: 9318 3dbf 54b6 213e 9560 0cbe 5abd 3abf
000001c0: 83de 993d e544 d73d 619e e9be 4399 ab3d
000001d0: 91e2 79bd 8fe9 cebd 07e3 703e 5e6b 20bf
000001e0: 42a4 d3be e2c6 343e 228c d53d 03bf 0a3e
000001f0: 09ab 943d effc 07be c95a 073e 22b4 aebe
00000200: 41ec 233e cacc 30be ee04 0bbe 2ffe 88be
00000210: 0b1e 273e 7e13 99be c818 4c3e 685f aebd
00000220: 9f7b eabe 35a2 e5be c979 d6be 1244 e5be
00000230: e1c1 ec3d 89f7 cbbe bd97 2fbe f5ba 4c3e
00000240: a978 613e e0e7 3d3e 5b41 fdbe 6787 f4bd
00000250: fab2 6d3e 6a78 053e c572 d23d 2264 0dbf
00000260: 8362 733e a939 b0be c717 6a3e 070f 79be
00000270: 33bc 0ebf f7c9 7dbe 43d0 233e bcd1 003e
00000280: 5318 c9bf f500 353e 1448 c8bd df74 94bf
00000290: 81f2 273e 122e 12be 4b1d 5c3e 1513 b4bf
000002a0: 4d90 27be daa2 313e 1fef 403e b1b0 013e
000002b0: 553e 98be 8982 d33d 49c4 69bd 9c43 9dbe
000002c0: d78d 97bf 3aee 0b3e 8231 a9be 0b94 083e
000002d0: 41f9 7fbf ad25 27be a4dc 1f3e ed87 2cbe
000002e0: 5b9c a4be c791 643e 6317 c93d 25b9 0d3e
000002f0: c8ae 003e 5d66 17be 425c 603e 2709 37be
00000300: acf5 d9be 8dc2 863e 48af 01bf 761e 76bd
00000310: 9ae2 3a3e b8af 513e 579f 723e 63c7 8fbf
00000320: 696b 683e 0961 703e 39e1 433e 0040 3e3e
00000330: 28cf a7be 14be 9dbe e2ba 823e 8bdb b2bd
00000340: 4b5d 9abf 1d3c 74bf 81c3 5e3e 7718 86bf
00000350: 6d4a 98bd 944c aabe a0c5 93be 5780 463e
00000360: 36df 493e 6eb7 bcbd 06b8 cbbd a5d5 f6bd
00000370: fb55 5f3e 19c2 72be be7c 373e d211 6d3e
00000380: 95e6 a9bd d03c 7d3e 1be3 a3be a4ac a0bd
00000390: 3653 713e 11c6 9dbe ee82 a1bd e2dd 62bd
000003a0: 65b8 01bf 42ef 2cbe 3001 24bf e533 8ebe
000003b0: 807c 96be 1136 c0bd 401a 80bf 30da 98bd
000003c0: 0c16 88bd d03d b3be eee4 b5bf b593 9dbe
000003d0: f0f0 85be 1ba5 753e 0805 463e 0948 56bd
000003e0: 8089 85bd 877c 03be 1256 a2be 63ac 643e
000003f0: 8fe8 8d3e ba5f aa3e 844d 24be b73a bebe
-1.3535224 -0.08054727 0.07424757 0.07250928 -0.082876906 -0.09497024 -0.78674287 -1.1015705
-0.08022824 -0.08817496 -0.08109362 -0.41185424 0.36512175 -0.094918735 -0.8871112 0.12237471
-0.078826346 -0.103792414 -0.09878212 -0.7524935 0.25235635 -0.97442335 -0.020457784 -0.07234247
-0.5886992 0.30382887 0.3262528 0.10035673 -0.0956665 0.153895 -1.0407937 -0.86305815
0.28294405 -0.36879808 0.15362908 0.07999948 -0.16479358 0.30053574 0.08240629 0.40880492
0.18201114 -0.8170676 -0.74892247 0.11982277 0.102799825 0.08189498 0.058857683 0.29892322
0.14901151 -0.6588266 0.024126912 -0.0007860908 0.08924742 -0.2816477 -1.8262666 0.2069052
0.09586291 0.12320194 -0.17934719 0.21390016 -0.8019279 -0.11474854 0.080012865 0.16668782
0.1273095 -0.17462005 -0.22153783 -0.6766047 0.24373396 -0.4944696 0.21050757 -0.111668944
-0.634317 -0.5789683 -0.5612269 -0.58912903 0.08864877 -0.7787879 -0.1317221 0.15400009
0.1872756 0.2649512 -0.6280574 -0.11348197 0.20836295 0.15169038 0.095638 -0.75599796
0.18244362 -0.73476034 0.17638366 -0.7983456 -0.8537201 -0.6087511 0.23420015 0.1216299
0.054364808 0.17745341 -0.06507144 0.04691003 0.25090426 -0.36057314 0.20734277 0.26617303
-0.75161564 0.2749843 0.19740918 0.083810136 -0.7386562 0.15792209 -0.13708718 -0.7294518
0.07513144 0.105111875 -0.45628646 0.08378842 -0.061007086 -0.101031415 0.23524104 -0.6266383
-0.41336256 0.17653993 0.10427119 0.13549428 0.07259185 -0.1328008 0.13218226 -0.34121805
0.16008092 -0.17265621 -0.135761 -0.26756427 0.16320054 -0.29897684 0.19931328 -0.08514291
-0.4579744 -0.44850317 -0.4188979 -0.44778496 0.11560417 -0.39837292 -0.17147727 0.19993193
0.22018684 0.18545485 -0.49463925 -0.119398884 0.23212805 0.13034216 0.10275797 -0.55230916
0.23768048 -0.3441899 0.22860633 -0.24322139 -0.5575592 -0.24784075 0.15997414 0.12580007
-1.5710548 0.17676146 -0.09779373 -1.1598166 0.16401102 -0.14275387 0.2149555 -1.4068323
-0.1636364 0.17347279 0.18841217 0.12665059 -0.29735056 0.10327632 -0.057071958 -0.30715644
-1.1840161 0.13665095 -0.33045584 0.13337724 -0.99989706 -0.16322966 0.15611511 -0.16848727
-0.3215054 0.22321235 0.09818914 0.13840158 0.12566674 -0.14785142 0.21910194 -0.17874585
-0.42570245 0.26320305 -0.5065808 -0.060087644 0.18250504 0.20477188 0.23693596 -1.1232723
0.22697224 0.23474516 0.19128884 0.18579102 -0.32775235 -0.3080908 0.25533205 -0.08733281
-1.2059721 -0.95404226 0.21754266 -1.0476216 -0.074360706 -0.3326155 -0.28861713 0.19384895
0.19714054 -0.09214674 -0.09947209 -0.12052468 0.21810143 -0.23706855 0.17918679 0.23151329
-0.08295933 0.2473023 -0.32009205 -0.078454286 0.23566899 -0.30815175 -0.07886301 -0.055387385
-0.5067199 -0.16888145 -0.6406431 -0.27773967 -0.2939186 -0.09385312 -1.0008011 -0.07463491
-0.0664483 -0.35008097 -1.4210489 -0.30776754 -0.26160383 0.23988764 0.19337857 -0.05231479
-0.06520367 -0.12840472 -0.3170629 0.22331385 0.2771649 0.3327616 -0.16045195 -0.3715417

head.bias f4 [15]
00000000: 32f1 653d a6ae 443d c25b cb3d 4019 263e
00000010: e4a6 b6bc 69e5 223d 2775 bf3d 9258 bd3d
00000020: e9ff 933d f98e 1dbd 103e 8a3d f50c d43c
00000030: c509 183e 8d65 c7bb 7156 933d
0.056138225 0.04801812 0.09929611 0.1622057 -0.022296377 0.039769564 0.09348517 0.09245409
0.07226545 -0.038466427 0.06750119 0.025885085 0.14847477 -0.006085104 0.07194222
