surrogate/trained_model/BCRNet/model_rate100_fold3.pth (torch, 179121 bytes, 18 tensors)

ds.proj_conv.weight f4 [16, 2, 7]
000000 c9 0e 5a bd 37 80 27 3d 72 02 bb 3d 75 ca 06 3e
       -0.053236756 0.04089376 0.09131326 0.13163169
000010 eb 55 12 3e fc 00 1b 3e 78 51 16 3e 9b af 25 3e
       0.14290588 0.15137094 0.14679515 0.1618027
000020 0e 69 01 3e 0f 61 25 3e 63 be ab 3d d2 72 68 3c
       0.12637731 0.16150306 0.08385923 0.014187532
000030 b7 cb 96 3c 73 60 8f bd de f6 69 bd e0 43 3f bc
       0.018407686 -0.07000818 -0.057120197 -0.0116738975
000040 c5 f1 52 3c 54 02 f3 3c ca ea 72 3d 1b 75 90 3c
       0.012875025 0.029664196 0.059305944 0.017633965
000050 fd 25 b8 3d b1 b7 cd 3d 9c 6d 36 3e 79 21 8e 3e
       0.08991621 0.10044802 0.1781525 0.27759913
000060 ae 11 d4 3d 0a 12 43 3d 7f 8e 73 bc fe 64 a6 bd
       0.10354935 0.047624625 -0.014865517 -0.081247315
000070 2f ba 39 3c f0 c7 03 bc 4f 83 53 3c f4 cc 8f bc
       0.0113358935 -0.008043274 0.012909724 -0.017553784
000080 c7 cc 87 bd 82 64 76 bd 2b 88 8f bd 7e bc 4e bd
       -0.06630855 -0.060154445 -0.07008394 -0.05047273
000090 a1 27 9f be 75 d0 69 be 70 c2 bf be 4e 49 81 be
       -0.31084922 -0.22833426 -0.37453032 -0.2525124
0000a0 8c 47 30 bd dc 08 13 3c 1f 6c ca bd 52 8a 11 be
       -0.043036982 0.00897428 -0.09883904 -0.14212921
0000b0 ed 8e 75 be a2 57 1f be 89 23 09 be 34 9e 1c be
       -0.23980303 -0.15560773 -0.13392462 -0.15294725
0000c0 c5 4d bd bd b5 82 09 be 31 17 ca bd b9 f8 16 bd
       -0.09243349 -0.13428767 -0.09867705 -0.036858294
0000d0 40 56 18 3d 04 ad bf 3d 41 67 a6 3d ed 8c 7c 3d
       0.03719163 0.09359172 0.08125163 0.061657835
0000e0 0c a6 d8 bd d5 9f 8a bd 8f 5b 40 bd b0 ba 26 bc
       -0.10578546 -0.06768767 -0.046962317 -0.010176346
0000f0 17 e9 05 3d 0e cb 5a bd ca ae b6 bb 2b c1 80 bd
       0.032692995 -0.053416304 -0.0055750357 -0.06286844
000100 30 8f ab 3c cf c2 9a 3d 12 6b 05 3e 75 c4 75 3e
       0.0209423 0.07556688 0.13029125 0.24000724
000110 fb 98 fe 3d 9a ec 89 3d 3a 8b d5 bd 15 51 91 be
       0.124315225 0.06734581 -0.10426946 -0.28382173
000120 37 2e be be 93 ba 93 be 41 13 50 be 80 8e 04 be
       -0.37144634 -0.28853282 -0.20319845 -0.12944984
000130 4b d9 b3 3b c7 b4 2c bd e9 5b 1b bd 86 9a 8c 3d
       0.00548855 -0.04216459 -0.03792945 0.068654105
000140 74 85 58 3d e4 57 b4 bb 2a 28 12 bc cb 3e 3a bc
       0.052861646 -0.0055036414 -0.008920709 -0.01136751
000150 56 f2 c5 bb 8f d2 40 bd b0 60 3d bd 83 ac 0f bd
       -0.0060408516 -0.047075804 -0.046234787 -0.03507663
000160 56 c6 2c bd 92 c0 b7 bd 3c 12 95 bd 92 70 b1 bd
       -0.042181335 -0.08972277 -0.072788686 -0.08664049
000170 93 76 71 be bc 7e 38 be 5c 44 ad be c1 e7 58 be
       -0.23580389 -0.18017095 -0.33841217 -0.21182157
000180 70 6c be 3c 5a 66 b2 3d cd cc 24 3e 12 dc b6 3d
       0.023245066 0.08710928 0.1609375 0.08928694
000190 5b f8 05 3e 39 4a 3c 3d 0e a1 34 bd 32 fc e9 bc
       0.13083021 0.04596922 -0.044098906 -0.028562639
0001a0 7a 80 31 bd 3e cc 8f 3c ff 91 c6 3c 9c 17 9b bd
       -0.043335415 0.017553445 0.024239538 -0.075728625
0001b0 b0 43 8b bd cb e0 d8 bd ec 0c 23 be 65 61 01 be
       -0.0680002 -0.10589751 -0.15922898 -0.1263481
0001c0 f3 b7 e1 bc a5 ab aa 3d 20 31 1f 3e 07 61 1d 3e
       -0.027553534 0.0833352 0.15546083 0.15369044
0001d0 6e 37 87 3c 7c 02 b0 bc 94 fc bd bc fd 8e ca 3d
       0.016505923 -0.02148556 -0.023191728 0.09890554
0001e0 44 2c 02 3e fb cc 43 bd d4 e3 50 bd 29 f5 b0 bd
       0.12712198 -0.047802906 -0.050998524 -0.086405106
0001f0 59 ce 46 be d5 4b 17 be 91 d9 cd 3d e6 45 d2 3c
       -0.19414653 -0.14775021 0.10051263 0.025668096
000200 ef ae e0 3d 42 0d 72 3e a1 a4 c7 3d 89 0c 6a 3e
       0.10970866 0.2363787 0.09748197 0.22856344
000210 39 03 d6 3d 42 6a ba 3b 14 fe ff bb 32 58 fe bb
       0.104498334 0.0056889364 -0.007812271 -0.0077619785
000220 e2 63 d2 bc 42 23 5f bb f6 12 de bd ea 72 d7 bd
       -0.025682393 -0.0034048115 -0.1084346 -0.10519965
000230 55 dd 7a bc 95 36 81 3c 65 45 60 3d d7 7b e0 3d
       -0.015311559 0.015773097 0.05475368 0.109611206
000240 d6 f5 ee 3d 0c 5c 0b 3e 5e 64 ca 3d f8 52 f0 3d
       0.11667983 0.13609332 0.09882425 0.11734575
000250 68 61 da 3d 4d 4d 15 3e 45 28 03 3e 72 bd 7a 3d
       0.1066311 0.14580269 0.1280833 0.061215825
000260 94 d1 b7 3d 67 c4 fe 3c 12 c9 8b be 90 6f ee be
       0.08975521 0.031099511 -0.27301842 -0.4656949
000270 da e1 d4 be d7 39 91 be b7 d3 a9 bd 4f 46 d6 bc
       -0.4157856 -0.2836444 -0.082923345 -0.026156573
000280 15 fd ae 3d d3 4e 94 bd 79 2a d0 bc c1 11 a9 bb
       0.08544365 -0.07241597 -0.025410878 -0.005159587
000290 02 1b 98 bb b1 68 0f bd 92 ef a1 3c 5f 26 7d 3b
       -0.0046418915 -0.03501195 0.019767556 0.0038627607
0002a0 3a dc 1b be 1b 1b 11 be 89 8b d9 bd 29 76 09 3c
       -0.15220729 -0.14170496 -0.10622317 0.008389988
0002b0 83 21 e7 3c 00 32 d2 3d 4e ec e2 3d 86 97 50 3d
       0.028214222 0.10263443 0.11080228 0.050925754
0002c0 3e 21 36 bd b2 ad 41 bd c7 d8 e6 bd b6 4c 4a be
       -0.044465296 -0.04728479 -0.11271816 -0.19755825
0002d0 b6 7f 4b be 53 ab 86 be 76 8c d7 bb 29 cc 1d bc
       -0.19872937 -0.26302585 -0.0065780235 -0.009631195
0002e0 65 68 49 bc 33 c9 2f bc 4e 8d 37 3d a6 02 52 3c
       -0.012292956 -0.010729122 0.044812493 0.012818014
0002f0 84 3e aa 3d 2a 86 ee 3d a2 e4 88 3e 17 25 51 3e
       0.08312705 0.116466835 0.26736933 0.20424305
000300 16 10 d8 3d 8e 20 40 3d 1c c2 f1 3c 9d 17 33 bd
       0.10549943 0.046906047 0.029511504 -0.04372369
000310 01 09 c3 3d 20 51 71 3e d9 cf 38 3e 22 f6 01 bc
       0.09523202 0.23566103 0.18048038 -0.007932218
000320 5c 49 f4 bd 12 68 f6 bd d6 a8 a6 bd ba f7 72 bc
       -0.11928055 -0.120315686 -0.08137672 -0.01482957
000330 9a 17 e7 bb 96 02 59 bd 20 8c 93 b9 56 d9 b4 bc
       -0.007052374 -0.05298098 -0.00028142426 -0.02207629
000340 0f fc 36 bd 22 f5 47 3c 14 ec c5 bc 08 53 6c bd
       -0.044673976 0.01220444 -0.024160422 -0.057696372
000350 1f 41 4f be d1 7a 69 be d7 ac 0d be 81 75 93 bd
       -0.20239685 -0.22800757 -0.13835464 -0.072001465
000360 5e 24 f9 bb 0b 9c 14 3e 66 41 a7 3d 12 4c 86 3b
       -0.0076032123 0.1451265 0.08166771 0.0040984238
000370 cc d6 0e bd 0c b1 93 bd bb 50 13 be 0d eb 06 be
       -0.034872815 -0.072115034 -0.14386265 -0.13175602

ds.proj_conv.bias f4 [16]
000000 28 9b 68 3e b8 55 3c 3d 10 9a ff bd 0c 5b 20 3e
       0.22715437 0.045980185 -0.12480557 0.15659732
000010 47 e1 0a be 5d 97 b2 3d 4a b6 da 3e fe 7d 8a 3e
       -0.13562499 0.087202765 0.427172 0.2704925
000020 7a 4f cc 3d e5 91 26 3e 89 41 00 3e 35 8c c5 be
       0.099760965 0.16266592 0.12525 -0.38583532
000030 4b 1e 7a 3e ac b0 2d 3e 4d d7 3b 3e 30 f4 32 bd
       0.24425618 0.16961926 0.1834385 -0.043689907

ds.proj_bn.weight f4 [16]
000000 80 38 82 3f c8 8c 78 3f 24 d8 97 3f 70 fc 8c 3f
       1.0173492 0.97089815 1.1862836 1.1014538
000010 50 a4 8b 3f 7e 2d 9e 3f 46 b8 93 3f 31 61 99 3f
       1.0909519 1.2357633 1.1540611 1.1982785
000020 c3 f4 a3 3f 16 74 87 3f 90 43 82 3f 5f d9 91 3f
       1.280907 1.0582302 1.0176868 1.1394461
000030 11 04 99 3f 3d 09 78 3f 2f b6 9b 3f dd f4 99 3f
       1.1954366 0.96889096 1.2164973 1.2027851

ds.proj_bn.bias f4 [16]
000000 41 4e 58 be 0e 6e 56 be 78 be b9 bd ed 68 50 be
       -0.21123601 -0.2094042 -0.09069532 -0.20352526
000010 9c 99 65 be 9d e9 cf bd ba 69 5d be db 61 c7 bd
       -0.22421879 -0.1015198 -0.21622363 -0.09735461
000020 34 90 5b bd f7 df 25 be 04 58 88 be cd 70 42 be
       -0.05360432 -0.16198717 -0.2662965 -0.18988343
000030 6f fb a5 be 1f 5b 5e be 3c e2 93 bd 30 ab 47 be
       -0.3241839 -0.21714447 -0.07220885 -0.19498897

ds.proj_bn.running_mean f4 [16]
000000 35 67 13 3f 51 7b 88 3e e0 70 0c bf 37 cf 23 be
       0.57579356 0.26656583 -0.54859734 -0.15997015
000010 ef 6e 37 bd 8d 85 ad be c3 47 42 3d 7f 87 65 3e
       -0.04478353 -0.33890954 0.04743172 0.22414969
000020 c5 83 f5 3d ea 2d bf 3e 9e 3b f7 3e e4 cb 60 bf
       0.11988024 0.37339717 0.48287672 -0.8781111
000030 88 b1 18 bd f8 10 d2 3e 1b 68 50 3e dc 3c a2 be
       -0.037278682 0.4102857 0.20352213 -0.31687057

ds.proj_bn.running_var f4 [16]
000000 2b ce 59 3d 44 4e 62 3d 59 6a 50 3e 4d d3 21 3e
       0.053175133 0.05525042 0.20353068 0.15803261
000010 c0 0d c0 3d f9 eb 96 3e 23 dd d7 3d a8 05 aa 3d
       0.093776226 0.29476908 0.10540225 0.0830186
000020 52 c4 7c 3d 49 79 2f 3e 4e 5d 4a 3d 78 7b a2 3e
       0.061710663 0.1713611 0.04940539 0.31734824
000030 80 33 c9 3d fa 18 9a 3d 25 69 e0 3c 37 de 99 3d
       0.09824276 0.07524295 0.027393887 0.07513087

ds.proj_conv1.weight f4 [8, 16, 5]
000000 4a 19 c5 bc 7c 9a fb bc 4c 5f e1 bc 55 09 3d bd
       -0.02405991 -0.030713312 -0.027511261 -0.046151478
000010 fa ad 8e bd f7 a3 40 bd fc fd 1b bc 6e 2d 5d 3c
       -0.06966777 -0.04703137 -0.009521004 0.013499601
000020 16 7f dd 3c 90 22 b8 bc 69 1e a4 3d 38 f1 cd 3d
       0.027038138 -0.022477418 0.08013613 0.100557745
000030 a8 69 1d be c9 58 c8 be 84 e4 40 be 23 f5 77 3d
       -0.15372336 -0.39130238 -0.18837172 0.060536515
000040 2f 88 24 3d 72 90 b4 3d 99 fa a3 3d 9f 3c 0f bb
       0.040168937 0.08816613 0.08006782 -0.0021856201
000050 cb 4e 22 bc 86 32 2f bd 83 f9 c0 3d a5 e0 3c 3e
       -0.009906481 -0.042772792 0.094225906 0.1844507
000060 1b a3 2b bd af a5 52 3c eb 42 81 3c 06 bc 96 3c
       -0.041903596 0.012856885 0.01577898 0.018400203
000070 f0 d2 65 3d 31 12 8f bc 46 e7 01 3e 35 28 ba 3d
       0.05610937 -0.017464729 0.1268588 0.090897
000080 6c 8d 0b be 89 10 f9 be 11 4c 62 be 7e 41 9a bc
       -0.13628167 -0.48645428 -0.2209933 -0.018830057
000090 d2 12 95 bd a3 86 87 be af f5 33 3d a8 bf 49 3c
       -0.0727898 -0.26469907 0.043935474 0.012313761
0000a0 38 f6 4e bc 9a 10 36 be d3 cc 97 bd 87 00 0d 3d
       -0.012631945 -0.1777977 -0.07412114 0.03442433
0000b0 02 73 20 3c f3 39 8b bd 0d 2a 55 be c8 8f f8 3d
       0.009793045 -0.06798162 -0.20816822 0.12136799
0000c0 bf 56 08 3e 55 3d c1 bc e9 41 60 bc df 49 9f bd
       0.13314341 -0.023588816 -0.013687589 -0.07777762
0000d0 52 a1 7b bc f4 d0 d4 bd e4 12 cb bd 81 ca 75 3d
       -0.015358286 -0.10391417 -0.099157125 0.060007576
0000e0 f9 ba 00 3d 76 39 92 3d 75 ab 76 3d f3 a3 89 3d
       0.03142831 0.07139866 0.060222108 0.06720724
0000f0 58 ff 66 bd f6 86 a1 bc 26 1a c8 bd fe 13 cf be
       -0.05639586 -0.019717675 -0.097706124 -0.4044494
000100 81 87 36 be ec 18 03 bc ea b4 41 bd 69 a6 a9 bc
       -0.17825128 -0.008001547 -0.047291674 -0.020709233
000110 e9 2d 9b 3b 8e 1b 4f 3c 4e b0 88 3b ce b1 bb 3c
       0.0047356975 0.012640847 0.004171408 0.022911932
000120 1c 0d b9 be a0 b5 87 3d 78 fc 9e 3d 35 ad b9 3b
       -0.36142814 0.06626439 0.07762998 0.0056664
000130 8e 41 67 3d cf 16 48 bd 98 c0 ed 3a a7 e3 d3 3d
       0.056459002 -0.048849877 0.0018139062 0.103461556
000140 cc 0f c7 ba 46 af 84 bb dd 62 fb bd a2 31 91 be
       -0.0015187203 -0.0040492145 -0.12274716 -0.2835818
000150 61 5d 20 be db 2e a0 3d 05 f7 28 3d ae bc d1 bc
       -0.15660621 0.07821437 0.0412512 -0.025602665
000160 60 53 31 be cc 89 eb bd 69 b3 52 bd b6 ac c0 bc
       -0.17316961 -0.11500892 -0.05144063 -0.023519855
000170 b7 16 5c 3d 6e d8 2b 3d aa 4c 1d 3d e1 7c 30 3d
       0.0537326 0.04195445 0.03840319 0.043087844
000180 94 08 b4 bc 7a 3b 61 bd 67 f6 cd bc f8 9c a3 3d
       -0.021976747 -0.054988362 -0.025141908 0.07988924
000190 6c 66 4a 3d de bb 0d bd c9 17 b8 bd 5b 98 0d be
       0.049414083 -0.034602992 -0.08988912 -0.1382765
0001a0 03 17 4d 3d e6 17 92 3d 0d e7 19 3d 48 08 1a 3d
       0.050070774 0.071334645 0.037573863 0.037605554
0001b0 cb 6c 76 3b 5a 83 4b 3d a4 c3 e2 bd 41 e7 39 bc
       0.0037601467 0.049685813 -0.11072472 -0.011346639
0001c0 c6 d8 90 3c 84 55 06 3e 22 76 fa 3c a5 12 af bd
       0.01768149 0.13118559 0.030573908 -0.08548478
0001d0 93 f8 9e bd 1a 31 9a bc 93 10 23 be df 58 18 be
       -0.077622555 -0.018822242 -0.15924291 -0.14877652
0001e0 94 e5 e5 bd 72 bd 15 be 45 43 aa 3c 79 36 80 be
       -0.11225429 -0.14623049 0.02078403 -0.2504156
0001f0 36 f7 d7 bc 1b 28 8a bd cb 8a 1b bd 96 b3 d5 bd
       -0.026362997 -0.06745931 -0.03797416 -0.10434644
000200 56 7a 29 be 75 ad 3a bd c3 ed d9 bd df 64 3c bd
       -0.16550574 -0.045575578 -0.106410526 -0.045994636
000210 c7 e0 e8 bd ad fe 28 be fb 49 05 be 88 31 90 3d
       -0.11370998 -0.16503401 -0.13016503 0.07040697
000220 75 48 4b 3d bb 19 3b 3d cd 3f 30 3d 52 46 39 3d
       0.049629647 0.045678835 0.043029595 0.04523308
000230 cf 18 5f bd 8a e2 23 bd 17 6c 33 be 61 b2 4e bb
       -0.05446702 -0.040010966 -0.17521702 -0.0031539428
000240 d8 f3 6a bc d0 bc 1e 3d 7e a5 0d 3d 61 29 54 bd
       -0.014340363 0.038754284 0.034581654 -0.051797275
000250 cd 78 51 be 2d 18 df bd d4 fb c4 bd b1 8f 3d bb
       -0.20456238 -0.10893283 -0.09618345 -0.0028924758
000260 03 a9 08 3e e1 09 0d bb e4 5d b1 bd 42 15 24 3e
       0.13345723 -0.002152078 -0.08660486 0.16023734
000270 a9 f6 4c 3e 7b c0 5f 3e 81 f4 7c 3e 65 2f 52 bd
       0.20015968 0.21850769 0.24702646 -0.05131473
000280 93 ad df bb 48 85 9c 3d 63 d0 0b 3e 9d 90 e2 3c
       -0.0068261116 0.07642609 0.13653712 0.027656848
000290 94 9a 98 bd 1e 41 e5 3d ba 70 38 3e ec 2a f3 3d
       -0.074513584 0.11194061 0.18011752 0.11873421
0002a0 31 e7 25 bb c8 24 7c bd 81 75 ab bd 70 06 d3 bd
       -0.0025314803 -0.061558515 -0.083720215 -0.10303962
0002b0 6d 2c 28 3c 7a d7 f4 3c 27 35 88 3d dd 59 23 3e
       0.010264498 0.029887903 0.06650763 0.15952249
0002c0 a4 7c 48 bb c2 46 74 3d 3a 53 02 3d 24 cb c2 bd
       -0.003059187 0.059637792 0.031817652 -0.09511402
0002d0 0a 11 ee 3e 43 62 5a 3e c7 61 1a 3b a3 28 8a 3c
       0.46497375 0.21326546 0.0023556815 0.01686508
0002e0 09 7b 2f bd c8 6d 1f 3d 22 a8 bf 3d bc a1 12 3e
       -0.042841945 0.038923055 0.09358241 0.1431951
0002f0 9a c0 12 3e 74 b7 b4 bd 5d ba 26 be e2 0e ce bd
       0.14331284 -0.088240534 -0.1628203 -0.100614324
000300 7d ea ca 3d 3f b0 81 3d 4e 7d 6d 3d b8 96 94 3c
       0.09908006 0.063324444 0.057980828 0.018138275
000310 6c 13 94 3d 7b b5 9e bd 34 53 aa bc 61 1c fb 3c
       0.07230267 -0.077494584 -0.020791627 0.03065318
000320 8a fb 90 3d 6f 8f d9 bc b6 8d 33 bd 5c ce c0 bc
       0.07079227 -0.026557652 -0.043836318 -0.0235359
000330 0f db 29 3c 0f 82 55 3d 0a a4 9a bc 59 0a b0 3c
       0.010367169 0.052125987 -0.018877048 0.02148931
000340 3d a5 d3 3d 76 4c a1 bd 19 e1 a9 bd c7 06 1e bd
       0.10334251 -0.07875912 -0.08294887 -0.038580682
000350 0f f6 e8 3d 6d 72 3d bb 20 77 4b be 5e 02 9a 3c
       0.11375057 -0.0028907314 -0.19869661 0.018799957
000360 ea 8c bd 3c 20 14 00 3e 77 79 ec 3d ce 2b 84 bc
       0.023138482 0.12507677 0.11546605 -0.016134169
000370 ae be c3 bd 4f ae 74 bd 77 47 1f 3e e1 92 22 3e
       -0.09557854 -0.059736546 0.15554605 0.15876342
000380 d3 c6 42 3e a7 24 3e 3e cc 5c 55 3e 0f 0f ed 3d
       0.19021158 0.1856867 0.2083618 0.11575138
000390 54 36 98 bc 96 6d df bc d3 e0 eb bd 09 fa 07 3d
       -0.018580593 -0.027273934 -0.11517491 0.033197436
0003a0 de 7f 31 bd 5b 20 3f bd bf 3e a3 3d ea 8c d0 bd
       -0.043334834 -0.046661716 0.07970952 -0.10183127
0003b0 62 12 10 3e 07 1b ef 3d c6 c4 0b 3e 84 be 1b bd
       0.14069512 0.11675077 0.13649282 -0.038023487
0003c0 f8 c2 d0 3c 25 f7 81 bd 6b 08 e1 bd 51 c8 5f bd
       0.025483593 -0.06345967 -0.10987934 -0.054634396
0003d0 0c 27 85 3b 06 ec 8e bc 25 3e 08 bd 86 8b a3 bd
       0.0040634926 -0.01744653 -0.03326239 -0.07985596
0003e0 c5 24 62 3c 9d ec a3 3d 8a 07 c8 3d bd a6 0e 3e
       0.013802712 0.08004115 0.09767063 0.13930793
0003f0 6a 26 f4 bd 07 7a c1 be 25 7c 0b be af 01 28 bc
       -0.119213894 -0.37788412 -0.13621576 -0.010254308

ds.proj_conv1.bias f4 [8]
000000 51 df a4 bd 4d 04 ca be 09 0f 2a 3c bc 16 44 be
       -0.08050407 -0.39456406 0.010379561 -0.19149297
000010 00 c1 97 3d ad c5 5c bd a0 41 b2 3d b4 cf 87 bd
       0.07409859 -0.053899456 0.08703923 -0.06631413

ds.proj_bn1.weight f4 [8]
000000 f9 29 ce 3f af e3 b8 3f 1a 90 c0 3f 25 01 c7 3f
       1.6106559 1.4444484 1.5043976 1.5547224
000010 95 da c3 3f 5c 8e bf 3f 2b 11 bc 3f 30 1b b8 3f
       1.5301081 1.496532 1.4692739 1.4383297

ds.proj_bn1.bias f4 [8]
000000 63 b5 24 3e e5 34 6f 3e 8e 54 d7 3d 0e fd fb 3c
       0.16084819 0.23360021 0.105141744 0.030760314
000010 59 3b 77 3d a4 fa b8 bd 08 47 c3 3d ba e7 95 bd
       0.060359333 -0.09032181 0.095350325 -0.07319589

ds.proj_bn1.running_mean f4 [8]
000000 44 c4 0f bf 43 ed 66 bf 16 13 0f 3f 7f ed 2b bf
       -0.5615885 -0.9020578 0.558885 -0.67159265
000010 88 3d 40 3d c3 67 42 3f a9 0e cb bc 7c 27 87 3e
       0.04693368 0.7593958 -0.024787264 0.26397312

ds.proj_bn1.running_var f4 [8]
000000 42 18 0e 3f 46 05 43 3f 9b 07 08 3f b7 e7 e3 3e
       0.55505764 0.7617992 0.53136605 0.44512722
000010 06 95 f9 3e fd 2d eb 3e 52 a9 07 3f cc df b4 3e
       0.48746508 0.45933524 0.5299274 0.35326993

ds.fc1_conv.weight f4 [128, 256]
000000 3c e6 0f 3e 06 d9 8c bd e5 82 68 3d 2a 0f 97 bc
       0.14052671 -0.068773314 0.056765456 -0.018439848
000010 30 10 d0 3d 8c 01 12 3e e4 43 b5 3d dc 6a 67 bc
       0.101593375 0.14258403 0.0885084 -0.014124598
000020 a9 c6 00 3d b2 d2 9d 3d 90 d7 3b 3e fc 44 73 3e
       0.031439457 0.077062026 0.1834395 0.23756784
000030 38 da 0d be cb d2 d3 bd 94 eb a6 3d a7 6e df ba
       -0.13852775 -0.1034294 0.08150402 -0.0017046527
000040 57 60 c1 bd 0c ae 37 3c f0 06 7d bd 4c ab b3 bd
       -0.094422035 0.01121093 -0.061774194 -0.08772907
000050 a5 ce c2 3c 53 4b d2 3e 79 7d 4b bd 13 7c a3 3d
       0.023780176 0.41073093 -0.049680207 0.0798265
000060 a2 83 3b 3c de fc 04 be 59 cc 8e 3e 96 c3 53 3e
       0.011444958 -0.12987086 0.2789028 0.20680079
000070 99 ba d4 3d be a4 26 3e 80 fd a8 3d c4 bd 01 3c
       0.10387153 0.16273782 0.08251476 0.007918779
000080 79 13 1a bd b6 ac 3d ba 86 9e ac 3d f3 99 a7 3d
       -0.037616227 -0.0007235514 0.084286734 0.0818366
000090 16 18 18 3e fa b7 8f 3d 08 f0 86 bd 0c 20 ac 3d
       0.14852938 0.070175126 -0.06588751 0.0840455
0000a0 a9 2a 1f 3e 53 5c 08 3e 69 ed 8a 3e e4 c7 96 3e
       0.15543617 0.13316469 0.27134255 0.2944938
0000b0 38 91 e1 3e f1 13 c7 3e a9 be aa bc 4d e4 11 3d
       0.44056106 0.38882402 -0.020842867 0.035618115
0000c0 87 d7 da 3d 65 c3 84 3d 47 1c 74 3e b1 b1 a4 3e
       0.1068564 0.06482581 0.23838912 0.32166818
0000d0 16 8e 86 3e e6 68 b6 3e b3 0d 8c 3e 10 5e 14 3e
       0.26280278 0.35626906 0.27354202 0.14489007
0000e0 a6 47 0b 3e ef 13 01 3e 3f 89 9c 3d ff c1 41 3e
       0.1360155 0.1260526 0.07643365 0.1892166
0000f0 6b 99 24 3e 63 ae 2a bd a6 d8 95 bd 8a e7 17 3d
       0.1607415 -0.041670214 -0.07316713 0.037086047
000100 38 97 c8 be 61 20 a7 3d 15 cc b4 3d c3 45 47 3d
       -0.3917787 0.08160473 0.08827988 0.048650514
000110 88 fe 4a bc 88 a1 0b 3e 71 de d9 3d 2f 83 1b 3e
       -0.012389787 0.13635838 0.106381305 0.15186761
000120 97 93 72 3b c9 b7 1f bd dd 89 64 bd c7 76 51 bb
       0.003701424 -0.03899363 -0.05579554 -0.0031961666
000130 98 0a 4a 3d 21 c2 c2 be 98 27 a1 be 1d 93 8f 3d
       0.04932651 -0.38038734 -0.3147552 0.070104815
000140 96 b5 88 3c e4 db 78 3d 60 1a cf 3b b7 8a c5 bb
       0.01668815 0.06075658 0.006320283 -0.006028499
000150 65 76 67 be 8b 7b 47 be 31 f2 97 3e 6e b1 30 be
       -0.22603758 -0.19480722 0.29676965 -0.17255184
000160 6e fb 8d bd 32 93 74 bb 9b 51 8d 3c 24 7e f5 3d
       -0.06932722 -0.003731918 0.017250827 0.1198695
000170 90 0d 48 3e 22 88 89 3d 68 f7 7b 3e a1 f7 e9 3d
       0.19536424 0.067154184 0.24606097 0.114241846
000180 d2 53 a6 3d d9 15 64 bd 37 62 a0 37 38 d3 c3 bc
       0.08121456 -0.055684898 1.9119221e-05 -0.023904428
000190 7a 97 42 3c 30 fe 20 3e 10 8c 75 3d ee 27 f9 bc
       0.011876935 0.15721965 0.059948027 -0.030414548
0001a0 ea 54 27 3c ce 55 45 3c 3f 64 bd 3e 6e 46 ab 3d
       0.010213116 0.012044383 0.36990544 0.08363043
0001b0 7f 8d 42 be d1 74 89 3c f6 8b 1f 3e 5d ae ed 3c
       -0.18999289 0.016779335 0.15580735 0.029013807
0001c0 dc fe 94 bd 26 54 05 3c d4 17 47 be ef c8 a3 bd
       -0.07275173 0.008137738 -0.19442683 -0.079973094
0001d0 75 db af 3d 20 90 74 bd 2c 38 cb bc 24 7e 5d 3d
       0.0858678 -0.05970776 -0.024807058 0.054075375
0001e0 07 a6 82 3d 7d 56 23 bc df bb bc 3e c1 cb b3 3d
       0.063793235 -0.009969351 0.36862084 0.08779097
0001f0 08 78 4c 3d 9c bb 15 3e 82 70 94 bb f6 f7 1c be
       0.04991916 0.14622349 -0.0045300135 -0.15328965
000200 0e cf 9d 3c 64 17 32 3e c3 e6 4b 3d a3 05 cb bd
       0.01926377 0.17391735 0.04978062 -0.099131845
000210 11 f9 66 bd 43 3c 2c bd b9 80 47 3d 3f 19 90 bc
       -0.056389872 -0.042049658 0.048706744 -0.017590163
000220 71 79 ae 3d db ed cc bd 9e 23 12 be fb b8 ce bc
       0.08519257 -0.10006305 -0.142714 -0.02523469
000230 ca 80 49 bd 17 c5 49 3d cf ec cf 3d bb 2e b9 3e
       -0.04919509 0.049260225 0.101525895 0.36168465
000240 9f 13 ac 3d c0 30 94 be d3 75 43 bd df bd 03 3f
       0.0840218 -0.28943443 -0.047719788 0.51461595
000250 a4 30 61 3d 43 97 43 bb 2d a7 1d 3c 35 4c 21 be
       0.054978028 -0.0029844798 0.009622377 -0.15751727
000260 0d a3 48 3b ca f8 dc bb cb 6e b3 3c 0f f7 a6 bd
       0.0030614764 -0.006743525 0.021903416 -0.081525914
000270 45 60 56 bd 2f 53 e7 bc 4e 02 b4 bd 23 71 f2 bc
       -0.052337904 -0.028237907 -0.08789502 -0.029594963
000280 fc a3 9f 3d cb b8 6e bd f9 93 d9 bd e2 72 04 bd
       0.077949494 -0.0582817 -0.10623927 -0.032336123
000290 b1 9d 82 3e 85 be c5 3d 2a 4b 00 bd 0b 9e 17 be
       0.25510934 0.09655479 -0.031321682 -0.14806382
0002a0 4d b1 1b be b4 00 2c be b7 90 77 bd 8e cc 15 be
       -0.15204354 -0.16797143 -0.060440745 -0.14628813
0002b0 8f e8 2f be 5f 8f e7 bd fe de a2 3d 3e 30 e7 bb
       -0.17178558 -0.11306643 0.07952689 -0.0070553115
0002c0 4f 00 3c be 61 ca 34 bd 39 48 21 be 88 4e 01 be
       -0.18359493 -0.044138316 -0.15750207 -0.12627614
0002d0 05 2f fa bd fc 9c 82 be 0f c2 de bd a6 64 2b bd
       -0.122159995 -0.25510395 -0.108768575 -0.041844033
0002e0 34 cb 12 bd 57 72 ca be 2f 48 56 be 97 23 93 bd
       -0.03583832 -0.3954036 -0.20925973 -0.071845226
0002f0 19 cd c4 bd 00 4a d3 bd 8c db 04 be 2a 8d 97 bd
       -0.09609432 -0.10316849 -0.12974375 -0.07399972
000300 cc ff 3a 3e 7f c9 27 3e 3c 80 84 bd 32 06 f8 bd
       0.18261641 0.16385458 -0.06469771 -0.12110557
000310 92 ec 92 bd 3c 47 22 bd 01 8d 22 3c 95 75 cb 3c
       -0.071740285 -0.039618716 0.009921313 0.02483634
000320 c5 ca 52 3d 7c d9 d0 bd a0 8b 05 be 0f 2d 64 bd
       0.051462907 -0.10197732 -0.13041544 -0.055707034
000330 6d c5 b5 bc 9a d4 bc bc 82 1f 03 3e a7 84 bf 3e
       -0.022188867 -0.023050595 0.12804988 0.37405893
000340 9f d3 67 3a 5b 1b 8d be 69 46 11 bc 2a 71 b6 3e
       0.00088434847 -0.27559933 -0.008866885 0.35633212
000350 24 55 2c 3d cf 7a 10 3c b9 ee 0b 3d 10 a0 e8 bd
       0.042073384 0.008818342 0.03416321 -0.113586545
000360 b4 5a 35 3d 98 1d ee 3c f6 5a 91 bc c1 8a a0 bd
       0.044275954 0.029066846 -0.017743569 -0.07838965
000370 50 45 33 bd b7 3d 8b bd 84 19 8b bd c4 7d 92 bc
       -0.043767273 -0.067988805 -0.06791976 -0.017882235
000380 ee f8 0a 3e 98 93 d8 3d fe 6b 08 3c 7f aa ca 3d
       0.13571522 0.10575026 0.008326529 0.09895801
000390 8c 3e ae 3d dd 93 a0 3e 82 9e ea 3d c3 7e ac 3c
       0.085080236 0.3136281 0.11456014 0.021056538
0003a0 f7 ae 8f bd 5b 92 25 be 30 5a 67 be a5 82 09 3e
       -0.07015794 -0.16169111 -0.22592998 0.13428743
0003b0 a3 c3 db be 47 93 bd be dc c4 51 bd a4 eb a9 3c
       -0.42922696 -0.37026426 -0.05121313 0.020742245
0003c0 df 2c 82 3a 2d d6 f2 3c 52 37 9a bd cf 35 b0 be
       0.0009931586 0.029643143 -0.07530083 -0.34416053
0003d0 40 1b b0 be b9 72 7d 3d 1a cd 8c be 12 6d 3e be
       -0.3439579 0.061876986 -0.2750023 -0.18596295
0003e0 b5 e1 ad bd 9a 45 b7 bc 10 dd 81 bd 87 b0 83 3e
       -0.08490316 -0.022372056 -0.063409925 0.25720617
0003f0 4e a6 45 bd 16 14 cf 3d 09 fe bf 3d d6 a7 49 3e
       -0.048254304 0.10111253 0.09374625 0.1969293

ds.fc1_conv.bias f4 [128]
000000 78 ac a7 3d d2 9d 01 bd ba e7 c9 3c f7 c7 cf 3b
       0.08187193 -0.03164465 0.024646629 0.0063409763
000010 fc 90 31 3d 63 e6 88 3d 7b d1 77 3c f4 9b c7 3c
       0.04335116 0.06684568 0.015125628 0.024366356
000020 59 c4 e0 3c 9c 4d c4 3d 29 35 90 bd 37 92 88 bd
       0.027437376 0.09585115 -0.070413895 -0.06668513
000030 fa e3 36 bd fa 72 c8 bd 9f a2 94 bb 5f 70 82 bb
       -0.04465101 -0.09787555 -0.0045359875 -0.003980681
000040 00 00 66 bd 8c 7a b4 3d 13 52 23 bc 64 a6 db 3c
       -0.056152344 0.088124365 -0.0099682985 0.02681274
000050 f2 f1 f5 3c 15 cf d4 bc 24 12 2d bd 2a 3c 5c 3d
       0.030022595 -0.02597765 -0.04225363 0.053768314
000060 1b 6d 19 bd 84 70 47 3c 2e 8a 7d bc 80 c7 c9 bc
       -0.037457567 0.012172822 -0.015474839 -0.024631262
000070 78 f8 a8 bd 51 f9 e5 3c 1b ef 28 bd ed f3 6b bd
       -0.08250517 0.028072985 -0.041243654 -0.057605673
000080 1b b0 6b 3d 9e 74 4a 3d 44 40 7a bd c9 75 ed 3d
       0.057540994 0.04942762 -0.061096445 0.11594731
000090 5c 44 2a bd ac db 90 3d d4 1b a2 bd 2b 09 83 3b
       -0.0415691 0.07073149 -0.07915464 0.0039988956
0000a0 04 e6 67 3d 0d 5e 58 bd 4c 09 57 3d 47 8e 5b 3c
       0.056615844 -0.05282407 0.0524991 0.013400621
0000b0 c3 d5 77 bd 35 71 c5 3c 16 3e af 3c 2b 50 c7 bc
       -0.060506593 0.024101833 0.02139191 -0.02433022
0000c0 94 00 00 bd c9 5f 65 bd 10 8b b7 3b 73 b0 39 bd
       -0.03125055 -0.05599955 0.0056012943 -0.04533429
0000d0 63 86 28 3e a7 02 e0 3c cd a5 d5 3d 16 4c 37 bd
       0.16457514 0.027345015 0.104320146 -0.044750296
0000e0 1e c5 4e 3d ba 5d dc 3d 1e ef 6a 3d 12 93 44 bd
       0.050480954 0.107600644 0.057356946 -0.04799182
0000f0 40 3b 30 3e f4 9e b6 bc 5d fd c3 3d f6 35 79 bd
       0.17210102 -0.022292592 0.095698096 -0.060842477
000100 6a f4 dc 3c df 67 1c bd 13 ab 04 bc c2 b5 b2 3c
       0.026972014 -0.038184997 -0.008097428 0.021815185
000110 8b d5 84 3c 38 8e b2 3d 79 42 14 3e 02 14 83 3d
       0.016215106 0.08718532 0.14478482 0.064003006
000120 b2 75 85 bd 9c ab a9 bc b1 16 7d bd 1a c4 9e 3c
       -0.06516589 -0.020711713 -0.06178922 0.019380618
000130 f1 0e 00 ba 52 f8 37 3d 7d 7a 43 bd 64 e5 1e 3d
       -0.0004885039 0.04491455 -0.047724236 0.038792983
000140 8d d3 27 3d 0c 5a 2a 3d ff 4f 59 3b 61 ea 58 bd
       0.040973235 0.04158978 0.0033159254 -0.052957896
000150 87 cf 85 bd 06 6e 05 3e 01 7b d1 3c 3f f1 bb 3d
       -0.06533723 0.13030252 0.025571348 0.091768734
000160 2b fe 9f 3d 92 23 cc 3c 07 c9 47 3c 71 5a be 3c
       0.078121506 0.024919305 0.012193925 0.023236485
000170 2f 3c 72 3b dc d1 8c 3c 11 fc e4 3c ee f7 e6 bc
       0.0036962142 0.017189912 0.027952226 -0.028194394
000180 48 4d ca bb 89 47 91 bd b9 81 87 bc ff e0 0d 3e
       -0.0061737634 -0.070937224 -0.016541349 0.1385536
000190 1e 8d da 3c b8 67 25 3e d2 eb f5 3c bc fa 02 3e
       0.026678618 0.16152847 0.030019674 0.1279096
0001a0 12 7d cd 3d 9f af 5f bd 32 36 82 3d ad f5 98 bb
       0.10033621 -0.054610845 0.06357993 -0.0046679587
0001b0 f5 45 0f 3e 0f 4a 29 3d ce f6 07 3d f7 c6 33 3d
       0.1399153 0.041330393 0.033194356 0.04389092
0001c0 7e 8a b1 bc f9 8b 37 bd e9 81 89 bc 85 b0 41 bd
       -0.021672484 -0.044811223 -0.016785579 -0.047287483
0001d0 10 92 50 bd ae fb f6 3a 6f 70 d1 3a cc f8 a1 3d
       -0.050920546 0.0018843317 0.0015978942 0.07908782
0001e0 0c 92 2b 3d de 19 05 bc e3 25 ac 3c a5 d6 36 3d
       0.041887328 -0.008123843 0.02101416 0.044638295
0001f0 d8 7d bf bc ec 7d 7e bd 6d a2 4f 3d fc 4c 1a bd
       -0.023375437 -0.062131807 0.05069201 -0.037671074

ds.fc2_conv.weight f4 [64, 128]
000000 c3 80 6a 3b 3d 60 20 be 9f 89 84 bc b9 e0 28 be
       0.0035782314 -0.15661712 -0.016178904 -0.16491975
000010 02 20 cb 3e 95 27 c8 3e 91 fe 17 3e c3 48 2f 3e
       0.39672858 0.390927 0.14843203 0.171176
000020 6c c0 09 be 04 bd 18 3d ce 3c 22 3d a3 cc 43 3e
       -0.1345231 0.037289634 0.03960877 0.19121031
000030 6d aa 19 3e ad ff e2 be 8f be 33 be b5 b3 fc bd
       0.15006419 -0.4433569 -0.17553161 -0.12338964
000040 52 85 dc 3d 56 c8 cc 3d 10 6e c0 3e 2e 08 5e bd
       0.10767616 0.099991485 0.3758397 -0.05420702
000050 bf 43 ef bd 6b ab f6 3d c9 fd 0d 3e 26 e3 ee bd
       -0.116828434 0.12044414 0.13866343 -0.11664419
000060 ba 08 67 3d ba 57 4a bf 52 94 03 3d 6d 77 83 bd
       0.056404807 -0.7904011 0.03212387 -0.06419263
000070 12 30 22 3e f9 5b ef bd e0 09 2d be b1 06 f9 3d
       0.1583865 -0.11687464 -0.16898298 0.121594794
000080 2d a9 0d 3e f7 1a 82 3e 1d a5 ee bc ee dc 3b 3d
       0.13834067 0.25411198 -0.029131467 0.04586499
000090 ec 27 d8 be 9d 08 9f 3d 05 93 0c 3e 44 2c 95 3e
       -0.42217958 0.07765315 0.13727959 0.29135334
0000a0 06 14 fd 3c 4c 2b 09 bf 24 53 79 3e c0 a9 84 3d
       0.030893337 -0.5358169 0.24348122 0.0647769
0000b0 4d 7c 04 3d 76 d5 8f be a5 40 63 3e c3 28 aa 3e
       0.032345105 -0.28092545 0.22192629 0.33234224
0000c0 b9 38 88 3e 4a f8 78 3d c9 a2 c6 be 41 67 65 3e
       0.26605776 0.060783662 -0.3879607 0.2240267
0000d0 ae 9e 1a be 60 0c 9f 3d 44 c1 b9 bc bc 71 3e bf
       -0.15099594 0.07766032 -0.022675164 -0.74392295
0000e0 c5 d5 a4 3d 51 26 04 3d c1 dd ec 3d 76 09 43 3e
       0.08048586 0.032263104 0.11565734 0.19046578
0000f0 9c b0 d0 bd 25 5e a7 3e f8 0d db 3c 7d 2a 98 3e
       -0.101899356 0.32689014 0.02674006 0.29719916
000100 64 55 15 bd 0d 6e 8a 3e 95 bd 3f be 4f 11 9b bd
       -0.036458388 0.27037087 -0.18724664 -0.07571661
000110 fb d0 a6 3a 87 ea bb 3c 7a 3c f5 bd 1d 81 1f 3e
       0.0012727076 0.02293898 -0.119744256 0.15576597
000120 ad c5 ed bd dc bc 2a 3e c6 bc f0 3e 7b a6 2a bf
       -0.11609969 0.16673607 0.47019023 -0.6666028
000130 11 10 4d 3e ba 5a 18 3e cf 9d aa 3d 06 e9 0c be
       0.2002566 0.1487836 0.08330881 -0.13760766
000140 0d 39 6d 3e d2 43 44 bd a6 5d 35 3e fa 06 90 3e
       0.23166294 -0.04791624 0.17711505 0.28130323
000150 f6 6e e5 3c 16 73 1b 3c 6c 9d 30 3e 40 74 0a 3e
       0.028007012 0.009487888 0.17247552 0.13520908
000160 e7 c6 25 bd fe c4 b0 be d6 0b 2b 3e ed da 45 3d
       -0.04047289 -0.34525293 0.16703734 0.048304487
000170 4a 48 e2 3e 69 4e 34 3e 37 bc ae 3c 28 a3 18 bf
       0.44195777 0.17608036 0.021329982 -0.59623957
000180 2d b8 d9 3d d4 15 98 bc 44 d8 86 be b1 ae 72 bd
       0.10630832 -0.018565096 -0.26336873 -0.05924863
000190 1e c0 d8 bd 29 31 4f bb f5 6b 53 3e 41 92 98 3c
       -0.105835184 -0.0031614995 0.20646651 0.018624427
0001a0 50 dc 07 3d 7a b2 5a 3e 2e 51 26 bd f1 b4 27 3e
       0.03316909 0.21357146 -0.040604763 0.16377617
0001b0 64 ef d8 3c 54 23 c8 be 15 73 6b 3e d2 6a 16 3e
       0.026481338 -0.39089453 0.22993119 0.14689186
0001c0 c6 f3 38 bf 89 d4 e7 be 3d 27 03 3f ac df 1b 3e
       -0.7224697 -0.4527934 0.5123175 0.15222043
0001d0 a1 c1 7a 3e 5d 75 5e be 43 00 d8 3d a3 f5 09 3c
       0.24487926 -0.21724458 0.10546925 0.008420381
0001e0 31 67 12 3e 38 9d 21 3d ee dd bc 3e 98 76 e7 be
       0.14297177 0.039456576 0.3688807 -0.45207667
0001f0 df 99 6f be 0d bf ed be f7 78 97 3d f3 cf 9f bd
       -0.23398541 -0.46434823 0.07396119 -0.07803335
000200 c1 82 83 bd bf f5 b3 be 0f 07 6f 3d 93 7f 94 bd
       -0.06421424 -0.35148427 0.05835634 -0.07250895
000210 b1 08 93 3e 78 16 55 3e 10 74 2c 3c f5 59 9b 3a
       0.2871757 0.20809352 0.010525718 0.0011852371
000220 a5 60 2d be ff a9 58 3a 4e b1 98 3e 0f 8c a0 bd
       -0.16931398 0.00082650775 0.29822773 -0.07839214
000230 a3 a3 ec bd d8 dd 8a 3e df 23 bb be a0 b3 e6 be
       -0.11554649 0.27122378 -0.36550805 -0.45058918
000240 80 f1 84 3d 0f 2b 0e 3d 86 b4 d5 3e 69 f5 fb bd
       0.06491375 0.034709033 0.4173929 -0.12302668
000250 3c 4b e0 bd 29 ec a1 bd 03 ca 5a 3f 5f 10 f1 bd
       -0.1095185 -0.07906372 0.85464495 -0.11770701
000260 ef df 1e 3d b2 d6 23 bf ef 7a 7b 3d 41 74 f4 3e
       0.03878778 -0.63999474 0.061396535 0.47744945
000270 d9 f0 e4 3d 48 1a df be 09 e9 7a be c7 35 40 3d
       0.111787505 -0.43574739 -0.24502958 0.046926286
000280 27 0f ed 3c af b2 83 3e 52 a6 0f 3d 20 5b 1a 3c
       0.02893789 0.25722262 0.035070725 0.00942114
000290 9e 1f c7 3e a2 4b 1e 3e d7 04 8c 3d 1a 61 f8 3e
       0.3889131 0.15458539 0.068368606 0.48511583
0002a0 ba ec fe 3d 9d f4 8e 3e 12 42 a8 3e 79 a9 82 3e
       0.12447496 0.27921 0.32862908 0.25519922
0002b0 d9 5f db 3e ba aa f9 bd e9 3d 6a 3e fc 60 02 3e
       0.42846563 -0.12190767 0.2287518 0.12732309
0002c0 44 83 e3 3e 33 30 44 3f 35 d0 55 be 30 30 40 3c
       0.44436085 0.76636046 -0.20880206 0.011730239
0002d0 b5 ee f7 bd b3 73 57 3e ff fa c9 bd 7f 5e 80 3e
       -0.12106077 0.2104023 -0.09862327 0.25072095
0002e0 3c 6d 57 be 24 a4 d5 bc ca f8 1f 3e 14 f3 c7 3c
       -0.21037763 -0.026079245 0.15622249 0.0244079
0002f0 e4 18 9f bd 3f a0 ca 3e 4b a2 0e 3c 2c 83 6d 3d
       -0.077684194 0.39575383 0.008705686 0.057986423
000300 1c 96 2d bd a6 21 d0 3c 33 e7 ea bd aa 75 ce bd
       -0.042379484 0.02540667 -0.11469879 -0.100810364
000310 c2 5a 94 bb 58 0b 72 3d 78 cd 8a bc 03 75 f8 bc
       -0.0045274207 0.05909285 -0.016943678 -0.030329233
000320 d4 0d 97 3e d4 73 31 3e 95 fb f4 3e fe 68 c3 be
       0.29502738 0.17329341 0.47848192 -0.3816604
000330 32 c3 7b 3e b7 77 60 bc 7d be c7 3d 5f c6 19 be
       0.2458618 -0.013700417 0.0975313 -0.15017079
000340 1c c5 7e 3e 86 d0 03 bf 4d 83 9a 3e a5 4d b7 3e
       0.24879879 -0.51490057 0.301783 0.35801426
000350 08 ab e5 3d 8e b6 9a be 9d 79 83 3e 59 06 86 be
       0.11214262 -0.30217403 0.2567872 -0.26176718
000360 b4 77 85 bd 16 ee b1 be 4e d2 ad 3e c5 2d a0 be
       -0.06516972 -0.34751958 0.33949512 -0.3128492
000370 72 10 10 3f f6 99 8e 3e fb 6e e6 be c6 83 a7 bd
       0.56275094 0.27851838 -0.45006546 -0.08179431
000380 2e 14 82 3d 84 5d 6f be 26 8c a4 be 64 1c 95 bd
       0.06351505 -0.23375517 -0.32138175 -0.07280806
000390 f4 78 ff be a5 3c 21 be e4 0a bb 3e 3f 48 05 be
       -0.49896967 -0.1574579 0.36531746 -0.13015841
0003a0 14 59 79 be 54 04 ca 3c 5c 74 cc bd 34 1e 9e 3c
       -0.24350387 0.024660267 -0.09983131 0.019301511
0003b0 2a e0 65 be b9 3e 8c be 29 0b 5d 3e 84 86 22 3d
       -0.22448793 -0.27391604 0.21586289 0.039679065
0003c0 89 ee 8f be 1b 47 b5 3e 4f cd d8 3e e3 40 da 3e
       -0.28111675 0.35405812 0.42344138 0.4262763
0003d0 ec aa e6 3c 7c 86 cd be d3 d8 42 3d c1 e5 36 bc
       0.028157674 -0.40141666 0.04757006 -0.011163176
0003e0 28 49 1f be 45 b8 79 3d ea 5b aa 3e 7c 78 2c bf
       -0.1555525 0.06096675 0.3327325 -0.67371345
0003f0 f9 1d c9 be 00 ed 1d be 39 3f 82 3d d4 2e 35 3e
       -0.3928068 -0.1542244 0.06359715 0.17693645

ds.fc2_conv.bias f4 [64]
000000 00 23 fa 3c 88 a4 36 bc 75 b1 03 3e 35 f6 5f bc
       0.030534267 -0.011147626 0.12860663 -0.01366954
000010 a0 fe 28 bd 6c 1d 50 bc 01 3b 0e bc 9b f9 78 3d
       -0.041258454 -0.012702327 -0.00868106 0.060784917
000020 a2 ee 6c bd d4 2e 53 3d 3b 76 c6 3c a0 03 57 3d
       -0.057844765 0.05155833 0.024226299 0.05249369
000030 80 16 70 3d 1e fc 01 3e 43 d6 da 3d d1 92 72 3d
       0.058615208 0.12693831 0.106853984 0.059222046
000040 13 7b b3 3d cd 67 a8 3d 55 b8 e1 3a 78 40 84 3d
       0.08763709 0.082229234 0.0017221073 0.06457609
000050 d8 f0 13 3d 1d 2b f2 3c bd ac 38 3d 1f d1 86 3d
       0.03611836 0.029561574 0.04508661 0.065828554
000060 09 24 fc 3d 9b f6 4c bd 97 d9 f8 3c 9d e6 34 3d
       0.12311561 -0.05003987 0.030377192 0.044165242
000070 11 6f 92 3d bb 46 0f 3e 89 95 17 3d 7f 6e 9c 3d
       0.071500905 0.13991825 0.037007842 0.07638263
000080 f1 6d ec 3c 51 04 ea 3c 48 2a 0f 3d e4 4b eb 3c
       0.028861018 0.028566511 0.034952432 0.02872271
000090 d2 1a 22 3d 5d 4b 2e 3d cd c9 23 bd 80 fc 9f 3d
       0.03957636 0.04255234 -0.039987374 0.078118324
0000a0 f3 f4 e2 ba cd e0 75 bc 20 31 f8 3d c5 8c f7 3c
       -0.0017315432 -0.01500721 0.12118745 0.030218491
0000b0 ee 11 1f bc 91 78 1c 3b cf 3d 7f 3d 98 3d 15 3d
       -0.009708865 0.0023875574 0.062314805 0.036435694
0000c0 b7 73 e4 3b da 30 f7 bb cc 14 8d 3d 3a 89 9f 3b
       0.006971802 -0.0075436654 0.06888732 0.0048686536
0000d0 16 9b 38 3d 60 59 b5 3c aa 5f 16 bd ae 46 c9 3d
       0.045069776 0.022137344 -0.036712326 0.09827934
0000e0 ef b8 5f bd 39 69 7a 3d 89 53 36 3d c3 17 bb 3d
       -0.054619726 0.061135504 0.04451326 0.091353916
0000f0 eb e5 7c 3d f8 b6 30 bd 5d f4 a9 bc 6a dc 59 3c
       0.061742704 -0.043143243 -0.020746404 0.01329718

head.weight f4 [15, 64]
000000 ee 25 16 3f 97 91 c9 3e 7a a2 17 3d 4c 7b 6d bc
       0.58651626 0.3936889 0.037020184 -0.014494728
000010 dc d9 44 3e 4e e3 3e 3f 14 ac 4b bf 34 7a 8e bd
       0.19223732 0.7456559 -0.79559445 -0.06956902
000020 30 88 35 be 8b 90 a1 be aa 3b 9a bd ec 18 f4 3e
       -0.17727733 -0.3155559 -0.07530911 0.47675264
000030 3a 5d e8 be 9d 96 4b 3d 8e fc bf bf e3 89 b7 bd
       -0.45383626 0.049704183 -1.4998949 -0.08961847
000040 a4 88 4b 3a f8 f0 d7 3d ce 56 18 bf 20 7b 03 3e
       0.00077641965 0.10544008 -0.59507453 0.12839937
000050 c3 b1 82 bf 99 27 e4 3e 19 98 5b 3e d1 f9 80 be
       -1.0210499 0.4456146 0.2144474 -0.25190595
000060 dd 21 14 3d a5 fb 16 be 6a d9 5a be 68 7a 51 be
       0.036165107 -0.14744432 -0.21372 -0.2045685
000070 a0 46 46 bf 20 a6 e2 3c 47 40 31 3e c8 67 f5 3b
       -0.77451515 0.027667105 0.17309676 0.0074891783
000080 73 99 2f 3e 2e 6b 48 be 37 c2 8e be fc 3d 78 be
       0.1714838 -0.19572136 -0.2788255 -0.24242395
000090 89 de b2 be 3d 1c 8b be a8 4d 3e bf 71 86 83 bd
       -0.34935406 -0.27169982 -0.74337244 -0.06422127
0000a0 45 c8 44 bf 69 e8 16 bf 10 cd 14 3e ef f1 a5 be
       -0.7686809 -0.5894838 0.1453135 -0.32411143
0000b0 3a 44 67 be d3 f1 39 bf 53 b9 20 bf e5 b0 65 3e
       -0.2258462 -0.7263462 -0.6278278 0.22430761
0000c0 64 1f 99 3e 6e a1 3a bf 91 1d 25 bf 31 00 0f bf
       0.29906762 -0.7290257 -0.6449824 -0.5585967
0000d0 ef df 74 3e 20 2a 76 3e 31 3e 29 bf ed af 83 bf
       0.23913549 0.24039507 -0.6611052 -1.0288063
0000e0 7d 1a 0d bf f9 b3 4c be 28 db d7 be 54 10 4d bc
       -0.5511854 -0.19990529 -0.4215939 -0.0125161
0000f0 39 50 9e 3e c5 b4 8d 3e 87 82 cf 3e e0 83 4d bf
       0.3092058 0.2767698 0.40529272 -0.8027935
000100 d3 02 40 3d 10 88 1e 3e 46 07 b3 3d ce 08 9a be
       0.046877693 0.15481591 0.08741622 -0.30084842
000110 be c5 c6 be 46 60 4b bf f8 bf 04 3e 5a ec 12 3f
       -0.3882274 -0.79443777 0.12963855 0.57391894
000120 33 e5 4d be 3a 50 a9 3e 77 5a 82 bf e3 64 bc 3c
       -0.20106964 0.3306902 -1.0183858 0.022997325
000130 b6 88 1b bf c5 d5 62 bf 46 b7 08 3e 7d 1f ef bc
       -0.6075548 -0.88607436 0.13351163 -0.02918982
000140 b5 a2 5e bf 37 10 32 3e 4e a0 1d be 7a 47 10 3f
       -0.8696702 0.17388998 -0.15393183 0.56359065
000150 1a d4 a1 3d 35 9f 6d bf 4b 62 b5 be ff 24 a1 bf
       0.07901783 -0.92821056 -0.35426554 -1.2589415
000160 ef 8b 99 bf 33 c8 42 be 40 94 55 be c2 c8 17 bf
       -1.1995829 -0.19021682 -0.20857334 -0.5929071
000170 de 61 a1 be cc 2e 2c 3e aa 2a d7 be 06 0a fe 3e
       -0.3151998 0.16814727 -0.42024738 0.49617022
000180 33 18 c4 be 07 d5 07 bf 75 ba 92 3e 1b 3b 15 bf
       -0.38299713 -0.5305943 0.2865788 -0.5829331
000190 c7 d3 90 3e 63 54 ab 3e ce 4c d7 be 4b b1 7e 3d
       0.28286573 0.3346282 -0.42050785 0.0621808
0001a0 62 da 36 3e d3 d3 5c 3e 63 5c 19 3e 59 1a a1 3e
       0.17856744 0.2156518 0.14976649 0.31465414
0001b0 7c 2e 26 be 5d 9f 19 be 9d 08 b7 be 4f cd d4 be
       -0.1622867 -0.15002199 -0.3574876 -0.41562888
0001c0 c0 df 18 3e 28 03 3d 3e 6f 23 67 3e 0e a5 5d 3e
       0.14929104 0.18458235 0.2257211 0.21644995
0001d0 ad d4 0d 3e 09 f0 d2 be 53 7a 40 be fe 7d 10 3f
       0.1385066 -0.41198757 -0.18796663 0.5644225
0001e0 4e a1 2e bf 84 e6 0c bf f1 87 29 bf e6 fb 72 bf
       -0.6821488 -0.5503924 -0.66223055 -0.94915617
0001f0 8c 01 2e 3d 44 fb 1c bf 52 23 3b bf 9d 11 b6 be
       0.042481944 -0.613209 -0.7310077 -0.35560313
000200 5d 84 2b 3e a0 38 b0 3e b7 bb f9 3d 44 a9 bb be
       0.16749711 0.344182 0.12194007 -0.36652577
000210 4a ce 8d be 7f 7a 31 bf 4e d2 2d 3e 08 3c 78 bf
       -0.2769645 -0.6932754 0.16974756 -0.969666
000220 d7 e6 c3 be 71 0a 90 3e b8 9e 23 bf 01 53 08 3e
       -0.38262054 0.28132966 -0.6391406 0.13312913
000230 92 b2 12 bf 3f 39 99 be c2 00 55 3e 8c 88 0d 3e
       -0.57303727 -0.29926488 0.2080107 0.1382162
000240 a9 a9 f2 be 5f 2b c4 bf ea 20 23 be 8d 78 85 bf
       -0.47395065 -1.5325736 -0.15930524 -1.0427414
000250 0f 8a 9c bf b1 f6 23 bf 6b a2 61 be b3 f1 3d 3f
       -1.2229632 -0.64048296 -0.22034614 0.7419693
000260 e0 19 c3 be 90 cf b3 be 2f ea d6 be 2d 64 21 bf
       -0.3810568 -0.35119295 -0.41975543 -0.6304348
000270 74 9c 9a be 8f 7d 90 3e 4e ac 73 be 9d f3 79 bf
       -0.3019749 0.28220794 -0.23796198 -0.9763735
000280 7b 07 90 be 47 ed 1b bf 47 3c 97 3e 0a 86 31 bf
       -0.28130707 -0.6090893 0.29538175 -0.6934515
000290 0c 47 9a 3e dc 9e 95 3e 81 3d 0a 3f 18 cf 6b 3e
       0.3013233 0.29222763 0.540001 0.23028219
0002a0 e6 98 28 3e db 8d 2a 3e 58 03 83 3e ce 81 88 3e
       0.16464576 0.16655676 0.2558849 0.26661533
0002b0 84 ee d9 be 0c 97 57 be dc da ba be b7 c1 63 be
       -0.42564785 -0.21053714 -0.364951 -0.22241865
0002c0 79 2a 2b 3e cf 4d 2a 3e c4 8e a7 3e 21 0b 33 3e
       0.16715421 0.16631244 0.3272611 0.17484714
0002d0 bb 15 89 3e b3 d3 73 be a7 08 67 be 01 b1 92 bf
       0.26774392 -0.23811226 -0.22561894 -1.1460267
0002e0 0a 1a 3a 3f 36 d3 19 bf 0f 36 35 3f 75 b5 0f bf
       0.7269598 -0.6008791 0.7078561 -0.56136256
0002f0 f3 b2 10 3e ef 92 d6 be ae ab 10 bf 66 52 d7 be
       0.14130764 -0.41908976 -0.5651196 -0.42055053
000300 6c d7 02 bf 86 16 cb be 38 92 db be aa d9 6d 3e
       -0.5110996 -0.39665622 -0.42884994 0.23227564
000310 2d 1a 80 be 17 7b 6b 3e be bf 29 3e 05 12 96 be
       -0.2501997 0.22996174 0.1657705 -0.29310623
000320 95 b6 73 3e 25 de d4 3e d2 2c 74 3e a6 09 16 bf
       0.23800118 0.41575733 0.23845223 -0.5860847
000330 75 db 0b 3e 8f 1b 9e be 4a 04 07 bf 88 75 ee be
       0.13657935 -0.308804 -0.5274092 -0.46574044
000340 4e af 87 be ac cb 91 bf 53 63 d4 be c7 d8 b6 be
       -0.26500934 -1.1390281 -0.41482028 -0.35712263
000350 3e 92 8a bf 31 82 91 bf e4 33 ab be 98 0c 2e 3e
       -1.082588 -1.1367856 -0.33438027 0.16996992
000360 06 7c c5 be d2 58 83 3e 1f 6a 4b 3e 4e 3f 33 3e
       -0.38571185 0.25653702 0.198647 0.17504618
000370 2a c9 5c 3e 73 e0 c3 be 06 06 9e be 74 e2 a5 be
       0.21561113 -0.3825718 -0.3086397 -0.32399333
000380 ed 9d 77 bf 1f d8 31 3e 51 fc c9 3d a5 f5 32 3e
       -0.9672535 0.173676 0.09862579 0.17476518
000390 8a 3e 30 3e c2 28 f1 3e 4e b0 1a 3e 39 fa 9f be
       0.17211357 0.47101408 0.15106317 -0.31245592
0003a0 b0 b6 06 3f e6 68 db 3d 4b 1d f1 be cb 70 1b 3e
       0.5262251 0.10713367 -0.4709266 0.15179746
0003b0 1a a1 6c 3e 08 3a d4 be 64 85 3e 3e 3d 76 9f be
       0.2310833 -0.41450524 0.18605572 -0.31144896
0003c0 ef f6 7a 3e 97 d7 ee 3e b0 28 d5 be 7d 3d 3f 3e
       0.2450826 0.46648857 -0.41632605 0.186758
0003d0 33 ca bb be db aa a3 be b2 74 86 bf ac b0 1d bf
       -0.36677703 -0.3196629 -1.0504363 -0.61597705
0003e0 ee ba 5e 3e d4 7d 20 3e 68 d2 0a 3e 74 f1 82 be
       0.21750996 0.15673 0.13556826 -0.2557484
0003f0 6d 4e 12 bf 3d 78 77 be 5c 4a 5f be d9 2c 76 3e
       -0.5715092 -0.24166961 -0.2180571 0.24040546

head.bias f4 [15]
000000 68 54 d5 bd 32 d9 87 bd 78 f9 11 3d 03 5c f5 3b
       -0.1041649 -0.066332236 0.035638303 0.0074877753
000010 69 40 f5 bd 98 94 db 3d 5e c3 97 3c 38 09 d4 3d
       -0.11975176 0.107217014 0.018525776 0.10353321
000020 f7 ca e5 bd 12 95 60 3d b1 dd 85 3d 2e 04 0a 3c
       -0.11220353 0.054829665 0.06536425 0.008423848
000030 a6 4f 83 bd f3 00 d5 3d 5f ec 8b bd
       -0.06411676 0.10400572 -0.068321936
