surrogate/trained_model/BCRNet/model_rate_ll4_fold3.pth (torch, 179207 bytes, 18 tensors)

ds.proj_conv.weight f4 [16, 2, 7]
00000000: 871a a43c 1282 2bbd 3592 373e f192 8c3e
00000010: 6ded 353d 7d80 113d 43d9 e9bc bb63 dfbc
00000020: 6c3a 6a3c a169 993c f5e4 46bc 0cf1 fdbc
00000030: 7755 7cbd e20a bdbd e0a6 ee3d a05c 163e
00000040: 9653 063e 7cae 8c3d f29e b2bc 4c53 a6bd
00000050: b99e e5bc 2d34 80bd 5de3 77bc 0475 7fbd
00000060: 8f4c 8dbd 3f75 8bbd 7fdc 83bd 49b0 3ebd
00000070: 0ad6 4b3d e998 d43d 9a43 a73d 3e92 8e3d
00000080: f866 833d 5859 983d c286 db3d 478a e33a
00000090: 5fb1 8c3d 572b 5c3e 3672 163e 095c 183e
000000a0: 730a ff3d 00d7 043d 1ed2 f13b aa7f ca3b
000000b0: dd4d 2a3c 438f ec3d 5a07 ad3d 0e62 8b3e
000000c0: aa31 9e3c 3ec7 febc 5020 91bb 9de6 00bd
000000d0: cdad debc 6e06 0d3d 6872 3a3c 59f5 48bd
000000e0: d217 d4bd f821 dbbd 2645 e9bd 2e32 aabd
000000f0: 7ed1 e0bd 73fb 27be ee12 aebd 1fff 9e3d
00000100: 4de2 c63d f12a 113e c88b 183d c007 0f3d
00000110: 1d3e 2c3d 395c 623d e011 0abc 1674 bbbd
00000120: 68c8 1bbe 2f75 65be 95ec 88be 3515 36be
00000130: d0df d0bd edd1 93bd 06b5 82bd 4a82 a3bd
00000140: 9e94 e4bc 7ea7 0abd dac9 14bc c3b3 323d
00000150: 9fad 9fbc 49aa f3bc e553 50bc a145 56bd
00000160: dc11 79bd 4d02 b2bd 258f a6bd 7267 1ebe
00000170: 06c9 4cbe b626 91be 0b03 3abe d24c 83be
00000180: f12d 3ebe f659 0bbe 663c 143c 7849 533d
00000190: f376 0f3c 3bc4 533d ca13 563d 50a6 01bc
000001a0: 761e 123c 3406 b83c f782 8a3d ee9b 513e
000001b0: 7050 c93d b459 083e bd97 113e b2bc a93d
000001c0: 081a 3c3d 58df 663e 2678 e73d 507f bf3d
000001d0: de8a 023e a6e1 a93c 7715 713c 31bd 33bd
000001e0: 9717 f53b f151 693c 406f a8bc bd77 d0bc
000001f0: 3290 67bd 5d56 dabd fd62 d1bd 967b e8bd
00000200: 89fc 1cbe a0fb d8bd 0721 f5bd 98bb 0ebe
00000210: 776e 373c ce99 143e 9703 fe3d 5869 4e3d
00000220: d98e cd3c 830f 9f3c 565f 91bb 9d63 f2bc
00000230: 4af1 e93c 1f67 783d 0c35 123e 8ceb fa3d
00000240: f0c6 1d3e 8442 9c3d d5dd 8a3d 71a9 8dbd
00000250: 199d 17bd d1a4 c03d d2ec bb3c 3a93 19bc
00000260: dcb9 b5bd 577c 29be 47d3 ecbc 6842 0dbd
00000270: c5a7 313d f6d7 4d3d ea6a f03d 0ce7 d13d
00000280: ace1 503d d69e 87bd 0987 dfbd 25d0 39be
00000290: 4d38 26be 0af2 16be 8ea9 23be 47de 1bbe
000002a0: 1759 183e 32e0 143e 5e66 f93d 9734 a7bc
000002b0: 8fa2 16bd 2eb5 79bd 192b 9dbd 1d41 79bd
000002c0: a8f4 40bd 2982 e8bc 2d17 49bd 7c3b 02be
000002d0: 8f85 f5bd d0ea b1bd 7733 13be 13d9 32be
000002e0: 84ba 8abe 8852 98be 6536 b1be 7536 36be
000002f0: 9c45 093d eace af3c 74bc cf39 2f31 ccbc
00000300: a860 b2bc 8d51 19bd d8ed e63b 524f 0b3c
00000310: 1c75 ae3c 87c5 b43c f496 b6bc 2fa5 6f3d
00000320: 189a 213d 93b4 5f3d 369a fd3d fd30 503e
00000330: 84d7 243e e42f 053e 07c2 e33c e173 ff3c
00000340: 3a5a 33bd 01dc b2bd dc98 a13d 9784 dd3d
00000350: e837 b73d 16fd ea3d f6ab bc3d d3e8 873d
00000360: a4bd bb3d 3b04 ba3d 045a d23d cdc6 243e
00000370: 0cf1 c73d 687f 153e 97a1 ee3d d96f 273d
0.02003218 -0.04187209 0.17926867 0.27455857 0.04441588 0.035522927 -0.028545981 -0.027269235
0.014296155 0.018727126 -0.012139549 -0.03099873 -0.061604943 -0.09230591 0.11652923 0.14683771
0.13117823 0.06869218 -0.021804307 -0.08121356 -0.028029786 -0.06259952 -0.015129891 -0.062367454
-0.06899368 -0.06809472 -0.06438541 -0.046554837 0.04976467 0.10380728 0.08167191 0.06961487
0.06416124 0.07438916 0.107190624 0.0017359935 0.06869768 0.21500908 0.14692006 0.14878859
0.12453165 0.032431602 0.0073797842 0.0061797695 0.010394541 0.115507625 0.08448668 0.27223247
0.019310791 -0.031100865 -0.004428901 -0.03146993 -0.027182484 0.03442996 0.011379816 -0.049062107
-0.10356106 -0.106998384 -0.11390142 -0.08310352 -0.109774575 -0.16404514 -0.08499704 0.07763504
0.09711132 0.14176537 0.03724268 0.0349195 0.042051423 0.05526373 -0.008427113 -0.09153001
-0.15213168 -0.22407983 -0.26742998 -0.17781527 -0.10198939 -0.072177745 -0.06382184 -0.07983835
-0.027902897 -0.03385114 -0.009081328 0.043628465 -0.019491969 -0.029744284 -0.0127153145 -0.052312497
-0.060808048 -0.08691845 -0.081327714 -0.15469149 -0.1999856 -0.28349847 -0.18165223 -0.25644547
-0.18572213 -0.13608536 0.009047603 0.051583737 0.008756387 0.05170081 0.052264966 -0.007913187
0.008918395 0.022463895 0.06763261 0.20469639 0.09829795 0.13315469 0.1421804 0.08287944
0.045923263 0.22546136 0.11302213 0.09350455 0.12748286 0.02073748 0.01471459 -0.0438816
0.007479619 0.014240728 -0.02056086 -0.02544772 -0.056534 -0.10661004 -0.10223959 -0.11351697
-0.1533071 -0.10594869 -0.1196919 -0.13938749 0.01119577 0.14511797 0.124030285 0.050393432
0.02509253 0.019416576 -0.0044364138 -0.029588515 0.028557438 0.06064522 0.14278048 0.12251958
0.1540792 0.07629874 0.06780592 -0.06917084 -0.037015054 0.09406436 0.022940073 -0.00937348
-0.088733405 -0.16551338 -0.028909339 -0.034487158 0.043372888 0.050254785 0.11739142 0.10249147
0.050996467 -0.066220924 -0.10914428 -0.18145807 -0.16232415 -0.14740768 -0.15982649 -0.15221511
0.14877735 0.14538649 0.12177728 -0.020410819 -0.03677612 -0.060963802 -0.07674236 -0.060853112
-0.047108322 -0.028382378 -0.049094368 -0.12718004 -0.11988365 -0.08687365 -0.14375101 -0.1746562
-0.27095425 -0.29750466 -0.34611812 -0.17794211 0.03351365 0.021460969 0.00039622525 -0.024925796
-0.021774605 -0.03743129 0.007047396 0.008502798 0.021296076 0.022066845 -0.022288777 0.05850714
0.039453596 0.05461557 0.12382929 0.20331188 0.16097838 0.1300655 0.02780248 0.031183185
-0.04378722 -0.08733369 0.07890484 0.10816305 0.0894621 0.114740536 0.092124864 0.066362046
0.091670305 0.09082838 0.10271075 0.16091461 0.09762773 0.14599383 0.116519146 0.04087815

ds.proj_conv.bias f4 [16]
00000000: 392e 20be ca7e 303e a7d3 e0bd fcc8 68be
00000010: 1ce1 6fbe 0d43 4f3e 8646 47be 69a1 0c3d
00000020: c90d fe3c 783b 14be d5a5 72be e2ae 663e
00000030: 813a 33be 8812 833e 4b00 4ebe 0cf9 b03d
-0.15642633 0.17235866 -0.109778695 -0.2273292 -0.23425716 0.20240422 -0.19460496 0.03433362
0.031012433 -0.1447581 -0.23696072 0.2252765 -0.17502786 0.25600076 -0.201173 0.08641252

ds.proj_bn.weight f4 [16]
00000000: 0cfe 9a3f e2e7 a33f d2dc 883f 7017 903f
00000010: 0bd1 ba3f 6ebc a73f aa0f b93f 617a 923f
00000020: 90c7 8d3f 9d29 be3f 45c5 923f 96a8 d23f
00000030: f552 ad3f 6994 ad3f 8ad0 8d3f 7436 8b3f
1.2108779 1.280514 1.0692389 1.1257153 1.4595045 1.3104379 1.4457905 1.1443597
1.1076527 1.4856449 1.1466452 1.6457698 1.3540941 1.3560916 1.1079266 1.0875993

ds.proj_bn.bias f4 [16]
00000000: 099b 72be f010 5dbe a5ff 5dbe 01ed 8bbe
00000010: 16cf 153d 1b64 80bd 1940 773d 1cda d8bd
00000020: 4fb7 97be 1db4 4a3c 19c6 4ebe ca3f 57bd
00000030: 91eb 5ebe 37ab 8abd fd6b 3cbe c2d9 b0be
-0.23691954 -0.21588492 -0.21679552 -0.27329257 0.036574446 -0.062690936 0.060363863 -0.10588476
-0.2963204 0.012372044 -0.20192756 -0.05255107 -0.21769549 -0.06770938 -0.1840057 -0.34541136

ds.proj_bn.running_mean f4 [16]
00000000: 93f6 83bd b32d 233e f5b2 8c3e b159 cbbd
00000010: f769 a5be 2219 39be 66ae 35bf 13b1 9d3e
00000020: 313c 223e 1b35 88be eead e6bd 27ce d83c
00000030: ccf5 85be 7e8d 35be abd2 683c b0f9 003f
-0.06443515 0.15935402 0.27480283 -0.09929217 -0.32307407 -0.18075994 -0.70969236 0.3079916
0.15843274 -0.26603016 -0.11263643 0.026465489 -0.2616409 -0.17729756 0.014210383 0.5038099

ds.proj_bn.running_var f4 [16]
00000000: 6d2f 813d 8553 863d b60b 603d 7710 5b3d
00000010: 7063 373e 73a9 f63d 7b53 5d3e 54c5 853d
00000020: e2eb be3d 38bd 093e 9626 cf3d 33ee 513e
00000030: 0828 953d 20cd 883e 2754 e13c 3aad 6c3d
0.06307874 0.06558899 0.05469867 0.0534825 0.17909026 0.120440386 0.21613877 0.06531778
0.09322335 0.13451087 0.101147816 0.20501022 0.07283026 0.26718998 0.027505947 0.05778239

ds.proj_conv1.weight f4 [8, 16, 5]
00000000: 2938 96bc 59bf 6f3d e46c 5fbd 8922 dc3c
00000010: 11f3 1c3d 76f7 f8bd 2d4b 033d 88bc f03c
00000020: a4cf b2bd 31c4 d33d 340c 7e3d a9ed a13d
00000030: 37c7 bdbd 2df0 b5bd f1db a7bd 4ec2 733d
00000040: 089e af3d 0287 a2bc 0d2a 3a3c b998 96bd
00000050: 7922 df3d e5d8 973e 46b9 4f3e 3a9e 28bd
00000060: 647a cfbd 7d71 d73d 14dc db3b 0c6f 5c3d
00000070: e101 023e 548b cd3c 9e98 acbe a2f9 9dbe
00000080: 0fe7 80be 6a49 07be 48e0 5c3e bebc c83d
00000090: febe 123e fb08 16bb 7880 3ebd 1d8f 83bd
000000a0: 9993 a8bc e9ce 203d 0bb7 823d 11fd 32bd
000000b0: 415a 3e3d 400d a43d 8872 4d3e 0754 443e
000000c0: 992d b73d 98dc 87bd fdb1 ac3c 5e8d 913d
000000d0: 9c6a 87bb 1911 073d 9b9c a4bd e300 08bd
000000e0: e2f4 22bc faa0 1ebe 626d 91bd 731f 033d
000000f0: d3e7 08be 1235 763c 028a 543c 6ae7 06be
00000100: 3715 2a3d fa31 c73d 1f92 9c3c 87f5 863d
00000110: 3377 ad3d 6fba f43c 81ef a9bd 1bb0 e63d
00000120: c769 293e aa1d 043e 4163 2dbd c373 873d
00000130: 5391 533d f670 253d 9ad5 c5bd f98b c6bd
00000140: 175d 2abe 644a 8cbd e3ae 57bd a3ea 42bd
00000150: 60f2 7bbd 57ad a0bd 8bf8 cfbb cc37 16bc
00000160: ff8b 04be 45fc e7bd 6aad 67be 63fc 5dbe
00000170: 79ef b9bc e7bd 8e3c 0d07 1c3d 278c f2bd
00000180: 66f9 04bd 66bd cbbd 73a0 ae3b d028 d2bd
00000190: 8f9e a7bc fffb 123d d819 24bc 3679 3b3d
000001a0: 9862 533d c889 d53d d202 113e 9de1 153e
000001b0: 63f6 243e 002d fd3d a491 4cb9 6f51 bebc
000001c0: 6f11 8abd 7925 95bd 3c31 e2bd f9d0 5bbd
000001d0: 69a2 85bd e6ad 673c 605f f43c a9bf 5f3b
000001e0: 05be f0bd 6d85 c8bd 0023 c13a c34d e3bd
000001f0: 933e 6dbd 4db8 f33c 2b9f 1b3b 5ae8 a2bc
00000200: 0bf8 273d 2f5b 073d 36c5 00bc 0afd c4bc
00000210: c2b5 1abd 7d9c 77bd 8ab5 4bbd efaf 45bd
00000220: fbe2 b5bd d57d efbd 65bd 80bd 085c 70be
00000230: f648 0fbc 1615 88bc fefa 633d ad7a 65bd
00000240: cc9d 43bd 6304 a23d 7ac3 b23d cc0f 5f3d
00000250: 027b 983d fbd6 ec3d 139b bebd 38d5 74be
00000260: e1fe 0dbe 9145 8cbc e7f9 0f3d 4cba c7be
00000270: e3d3 babe 84e2 1fbe ec88 b53c 201c 543d
00000280: 1785 e3bd 79a8 7abd 01e3 5d3d 189d 00bc
00000290: 2ed4 6abd a979 b5bd 6aa3 67bd 09a5 9dbc
000002a0: 5500 ec3d f5bc f73b ca14 9abd 872a d13c
000002b0: 6014 dfba 2053 a93c 5261 7fbb ce35 f6bc
000002c0: 4f75 65bd b197 953d ebaf b03c b754 51bd
000002d0: 5f51 4a3d 7225 21be f193 64bd ac14 91bc
000002e0: c668 a5bd b9fb 593d 43d9 d0bd 85a8 86be
000002f0: 1cbf 26be 6242 83bc b85d b13d ee1c 073e
00000300: 5658 fa3d 5509 ec3d 3c7f cebc e0d4 44bd
00000310: 7647 6fbd 3b9a cf3b 6150 04bc 760c 5dbd
00000320: 1049 b9bd 7d46 cebd c5c8 033d cf42 fe3b
00000330: 368b f8ba de84 a73d f9d1 b2bd 004f 2abe
00000340: 4073 08be 9711 65bd 9801 0abd 56b4 09bd
00000350: 3bf5 a53c e6fb 383b 71a2 5abd 22bd 2b3d
00000360: db10 063e a5c7 da3d 44e2 263d a6c8 2dbd
00000370: 7b57 bdbd 99b9 7fbd 405e d1bc 2932 333e
00000380: d8fe ad3c 73ea 093e f0aa d5bd 8e0f 8ebe
00000390: 7fed 94be cd44 6abd 74ea 8bbb 0e9f 84bd
000003a0: 9b2b 2fbd 6493 38be 053f b3bd ce5e b3bd
000003b0: 80e1 673d 5e3e f83c 040f 9c3c 9658 2b3d
000003c0: 1dc3 2abd 813a 12bc a9f7 a5bd 1f26 8abd
000003d0: da4b 89bd 862b f03c fb01 303d 19b3 19bd
000003e0: c5ba 06bc 8fd0 9dbd d4ba 923d 49a6 d83d
000003f0: 5870 9b3d ea49 11bd 8b2a 253d e02b babc
-0.018337326 0.058532093 -0.054547206 0.026871936 0.038317744 -0.121565744 0.032054115 0.029386774
-0.087310106 0.10340155 0.062023357 0.07906658 -0.09266513 -0.088837005 -0.08196247 0.059511475
0.08575064 -0.019839767 0.011362565 -0.07353348 0.10895247 0.29657665 0.2028552 -0.04116652
-0.10130766 0.10519693 0.006709585 0.05381684 0.12696029 0.02509085 -0.33710188 -0.30854517
-0.25176284 -0.13211599 0.21569932 0.09801625 0.1433067 -0.0022893536 -0.046509236 -0.06423781
-0.020578193 0.039259825 0.06382569 -0.043698374 0.04647279 0.0801034 0.20063221 0.19172679
0.08944244 -0.06633872 0.021080965 0.07107042 -0.004132582 0.03297529 -0.080376826 -0.03320397
-0.00994608 -0.15491095 -0.07100941 0.032012414 -0.13369684 0.015027301 0.012972357 -0.13174215
0.04152414 0.09726329 0.019112645 0.065897994 0.08470001 0.029874055 -0.08297635 0.11264058
0.16544257 0.12901941 -0.042330984 0.06613877 0.051652264 0.04039093 -0.09659882 -0.096946664
-0.16637073 -0.068501264 -0.05265702 -0.04758705 -0.061510444 -0.07845562 -0.0063467673 -0.009168576
-0.1294403 -0.113274135 -0.22624746 -0.21678309 -0.022697197 0.017424537 0.03809266 -0.11843138
-0.032464407 -0.09948234 0.0053291856 -0.102616906 -0.020461349 0.035884853 -0.010015927 0.045769893
0.0516077 0.1042667 0.14161232 0.14636846 0.16109614 0.12362099 -0.00019509211 -0.02323219
-0.067416064 -0.07282538 -0.11044547 -0.05366609 -0.06525118 0.014140582 0.029830635 0.0034141338
-0.11754993 -0.09791074 0.0014735162 -0.11098816 -0.057921004 0.029750967 0.0023745995 -0.019886184
0.041008037 0.033045944 -0.007859519 -0.02404644 -0.037770994 -0.060451973 -0.049733676 -0.048263486
-0.08881184 -0.116939224 -0.06286124 -0.23472607 -0.008745423 -0.016611617 0.055659287 -0.056025196
-0.04775791 0.07910993 0.087286904 0.054458424 0.07445337 0.11564442 -0.09306922 -0.23909461
-0.1386676 -0.017123016 0.035150435 -0.3900932 -0.36489782 -0.15613753 0.022160016 0.051784635
-0.11109369 -0.061195824 0.054171566 -0.007849954 -0.057331257 -0.088610955 -0.05655233 -0.019243734
0.11523501 0.007560367 -0.075234964 0.025532974 -0.0017019622 0.02066952 -0.003896792 -0.030054953
-0.056020077 0.073043235 0.02156826 -0.05110618 0.049394008 -0.1573694 -0.05580515 -0.017710052
-0.080766246 0.053218577 -0.101976894 -0.26300445 -0.1628384 -0.016022865 0.086604536 0.1319463
0.1222388 0.115252174 -0.025207154 -0.048054576 -0.05841776 0.0063355244 -0.008075804 -0.05396696
-0.09047139 -0.10072038 0.03217389 0.007759429 -0.0018962387 0.08179639 -0.08731455 -0.16631699
-0.13325214 -0.055924978 -0.033692926 -0.033619247 0.020258537 0.0028226315 -0.053377572 0.041928418
0.13092367 0.106826104 0.040743127 -0.04242768 -0.09245201 -0.06243286 -0.025557637 0.17499603
0.021239683 0.13468342 -0.10432994 -0.27746242 -0.29087445 -0.05719452 -0.0042698923 -0.0647565
-0.042766195 -0.18024975 -0.087522544 -0.08758317 0.056611538 0.030303176 0.019050129 0.04183253
-0.04168998 -0.008925081 -0.08103878 -0.06745552 -0.06703921 0.029317629 0.04297064 -0.037524316
-0.00822324 -0.07705795 0.07164541 0.105785914 0.07589787 -0.03547088 0.040323775 -0.022726

ds.proj_conv1.bias f4 [8]
00000000: 0fe5 983d 7ef2 bf3d 3ed8 9f3d 7020 7d3d
00000010: 7a8d 76bc b370 06bd 6c13 77bd 91d3 ef3b
0.074655645 0.093724236 0.07804917 0.061798513 -0.015048379 -0.032822322 -0.060321257 0.007318922

ds.proj_bn1.weight f4 [8]
00000000: f803 d43f 7a78 c93f 1721 ca3f 23c2 d63f
00000010: cfc4 c93f 0d6e b23f 4def c33f 9663 b63f
1.6563711 1.5739892 1.5791348 1.6777996 1.5763186 1.3939835 1.5307404 1.4249141

ds.proj_bn1.bias f4 [8]
00000000: 5f27 213e a76a a93e b9a1 d23d 84b5 7f3c
00000010: 154d 823d 09ba d9bd f82c 333d 4fa2 1bbd
0.15737675 0.33089182 0.102847524 0.015607242 0.063623585 -0.106311865 0.043744057 -0.037996586

ds.proj_bn1.running_mean f4 [8]
00000000: fbe5 6a3e 11e3 0ebf 0cb4 debe e22c 6dbe
00000010: b810 933e e2fc 8b3f 3fc4 303f a0ac 373f
0.22939293 -0.55815226 -0.4349674 -0.23161653 0.28723693 1.0936549 0.6904945 0.7174778

ds.proj_bn1.running_var f4 [8]
00000000: e531 803f a02c 8e3f 926f 273f 938c 003f
00000010: 8f50 473f 20f9 353f bcb0 9c3f 2c8c 063f
1.0015227 1.1107368 0.6540462 0.502145 0.778573 0.7108326 1.2241435 0.52557635

ds.fc1_conv.weight f4 [128, 256]
00000000: 9a28 38be 3c55 6d3e 38ad 713e ae2d 68be
00000010: 9309 80be eeeb 89be 6652 5fbe 8ea1 b1bd
00000020: dad3 28bd 5025 fb3c 48b5 57bd f295 4d3d
00000030: b799 f03d fa39 fc3d 2243 033e f808 2f3e
00000040: 06da 4ebc aa55 0ebe 6be8 66bd 0df2 923d
00000050: 5520 5a3e 30bb 033e 0794 183e ec5a 3ebd
00000060: 1cdf aabd e09b f2bd de47 04be c6ba 42be
00000070: 9efa 35be 1eaf 99be 325a 4fbf a821 c4be
00000080: 0fbb 19bd ba92 23be 682c 6bbe ed15 29be
00000090: 338a 00bd fa7d 143d 52d0 e53d 1048 203e
000000a0: fbf5 6f3e f498 ad3e 2de5 493e 278c 973e
000000b0: d1be 8a3d bdb6 ffbc e0b4 a1bd be84 ecbd
000000c0: 829b 033d 8f54 dc3d d623 6a3b 7a91 5bbd
000000d0: ec94 053e a023 8d3e 4a2c ec3d a588 0bbd
000000e0: a745 693d e4b4 313e 1dbc b6bc f6c5 16bd
000000f0: 669e e9bd 8c6c a2bd 1f0f d53d 1eca a43d
00000100: 28ef 183e 4793 7f3d be8e 273e 3bd9 8d3d
00000110: 6ea3 0b3d b4a2 833d 72f1 c5bc d24b 1fbc
00000120: 874f 30be c04f 0abe 542b 27bd 6d34 14be
00000130: bb45 7a3a 1062 94bd e27c 2a3c dc46 653e
00000140: e962 0d3e 1e62 07be 4665 7cbe efac fabd
00000150: c091 e1bd 4957 37be 738e 82bb 42c1 a13d
00000160: 2fde a63c 3d39 83bd 0864 de3d 2ede a63d
00000170: 888d c63d c647 ca3c 9823 efbd e6bd 8dbd
00000180: 4010 58bc f271 a7ba 246b f53c b378 193e
00000190: 8c8d 1a3e ad91 1e3e 59b0 ff3d e8f1 3e3d
000001a0: d20f c43b 5af9 b5bd 2b7a 7b3d db15 5bbd
000001b0: 4432 d8bd 3924 a9bd 3887 ea3b aab4 753d
000001c0: 6680 803d 7f1a da3d 6d5a 0dbe 6556 81bd
000001d0: d415 6f3c 74c2 98bb 3ca3 9abd 5274 eabd
000001e0: 0980 d33c a72b 7a3d c61d b1bd 06bf 12bd
000001f0: 2c90 13bd 57db cb3d adef 3d3e 6d1b b33d
00000200: c07d 963d c807 083e cf9f 943e d82a 0c3e
00000210: a092 8fbb e53f 0cbd 70d4 65bd bcee 77bd
00000220: cdca 11be 8bcf 11be b920 263b 693e a0be
00000230: 8104 98bc 4c5d 4bbe 9da1 f23d 2986 583e
00000240: 813b cbbd 7110 e03c 8010 07be fd98 b83c
00000250: b867 9ebe 57f5 f4bd 75b2 ac3d 0f8e 253d
00000260: a581 d4bd d414 8939 e9b1 113e a650 403e
00000270: 4305 3f3e 3ce4 a03d 8660 13be 47ac 563d
00000280: da7a 233e 01e5 173e 38bf 813e 51c1 5a3e
00000290: 1dbb d03d a954 a0bd e159 fbbd 4756 a9bc
000002a0: b538 abbd f833 cabd 5cf9 40be 4108 203c
000002b0: f11f 90bd c188 c0bd 4a52 86be a8df 39bd
000002c0: 5c3d 113d b98d 23ba 3e67 f5bc f56e b63c
000002d0: a688 a5bc 4dff 09be e5ae 2fbe 832b c6bd
000002e0: fd38 27bb 1f2d 68b9 12f5 d63d 6836 573e
000002f0: 0a25 ab3e 6051 123e b277 13bc 1064 2dbd
00000300: f20f 2fbc 712d 603e 253d 2d3e ad88 16be
00000310: bc5d 9dbe 87e5 5dbe 64d9 26be 3326 0fbd
00000320: 1a72 94bd 2c60 41bd 57a3 69bd 25ed 103d
00000330: 0a52 0d3e 4246 b53d 735a 673e 2304 073e
00000340: 314c 80bd 0547 4fbe 1e1f 0d3d 462a c43d
00000350: 33e6 393e 41ea a43d da90 f83c cc53 8ebd
00000360: bd8f 05be 7662 b2bd 9169 60be 4270 a7bd
00000370: 6470 b0be 37e2 a6be ee21 e6bd 5c5e 73be
00000380: c15a 8d3e 81c8 1d3e 4b84 843e 0a21 2c3e
00000390: 3c88 113e a5b8 fdbd 6acc c0bd faa5 a2bc
000003a0: fc76 32be 5640 72be 65e5 afbd d645 333d
000003b0: dfba 5bbd 4cd7 28be 84e8 4ebe 1cb7 43bb
000003c0: 97ef bcbc a5a5 9cbd b098 a5bd 10ec 6fba
000003d0: b4ec 91be 2edd f0bd 8e05 8bbd ae59 c7bd
000003e0: d878 ad3b 9a10 5e3d e086 89bc 0063 293e
000003f0: 0f35 863e 9936 ab3d 48a2 f53b 6ea1 e2bd
-0.17984238 0.23177046 0.23601234 -0.22673675 -0.25007305 -0.26937813 -0.21808776 -0.08673392
-0.041217662 0.03065744 -0.052663118 0.050191827 0.11748069 0.12315746 0.12818578 0.17093265
-0.012625223 -0.13899866 -0.056373995 0.07175074 0.21301396 0.12864375 0.14900218 -0.04647343
-0.08343336 -0.11846137 -0.1291804 -0.19016561 -0.17771384 -0.30016416 -0.80997 -0.38306928
-0.03753191 -0.1597394 -0.22966158 -0.1651227 -0.031381797 0.036252953 0.112213746 0.1565249
0.23433678 0.33905756 0.1971633 0.29599115 0.067746766 -0.031215066 -0.07895827 -0.11548756
0.032130726 0.10758316 0.0035726926 -0.053605534 0.1304509 0.27566242 0.11531885 -0.03406586
0.05695119 0.1735416 -0.022306496 -0.036809884 -0.11407165 -0.0793086 0.10403275 0.08046363
0.14934981 0.062396314 0.16363046 0.06926199 0.034091406 0.064275175 -0.024162982 -0.009722667
-0.17217837 -0.13506985 -0.040812805 -0.14473124 0.0009547134 -0.072452664 0.010405751 0.22390312
0.13807262 -0.13221022 -0.24648008 -0.12240016 -0.11014128 -0.1790439 -0.0039842664 0.07898189
0.020369617 -0.06407402 0.10858923 0.08147846 0.09694964 0.024692427 -0.11676711 -0.06920986
-0.013187468 -0.0012775047 0.029958315 0.1498745 0.15093058 0.15485258 0.124848075 0.04661742
0.0059833312 -0.08885451 0.061395805 -0.05348764 -0.105564624 -0.08258862 0.0071572326 0.059986748
0.0627449 0.10649585 -0.13804026 -0.063153066 0.014592607 -0.0046618525 -0.07550666 -0.114479676
0.025817888 0.061076786 -0.08648257 -0.035826705 -0.036026165 0.09953945 0.1854846 0.087454654
0.07348204 0.13284218 0.29028174 0.13688219 -0.0043814927 -0.034240622 -0.0561108 -0.06053041
-0.14237519 -0.14239328 0.0025349094 -0.31297615 -0.018556835 -0.19859809 0.118472315 0.21144928
-0.09923459 0.02735159 -0.13189888 0.022533888 -0.30938506 -0.11960857 0.084324755 0.04041868
-0.1037629 0.00026146194 0.14228024 0.18780765 0.18654351 0.07856032 -0.1439229 0.05241039
0.15964833 0.14833452 0.253412 0.21362807 0.10191939 -0.07828648 -0.122730024 -0.020671023
-0.083604254 -0.098731935 -0.18845123 0.009767593 -0.07037342 -0.09401084 -0.26234657 -0.04537931
0.035458907 -0.0006239075 -0.029956456 0.022269705 -0.02020676 -0.13476296 -0.1715656 -0.09676268
-0.0025516145 -0.00022142053 0.10495962 0.21016848 0.33426696 0.14288855 -0.009000706 -0.042331755
-0.010684954 0.21892335 0.16917856 -0.14700575 -0.30735576 -0.21669589 -0.16293865 -0.03494854
-0.07248326 -0.047210857 -0.05704054 0.03538241 0.13800827 0.08851291 0.22593097 0.13185172
-0.06264532 -0.20241936 0.034453504 0.095783755 0.1815422 0.08052493 0.030342508 -0.06949577
-0.13043113 -0.08710186 -0.2191527 -0.08175708 -0.34460747 -0.32594463 -0.1123694 -0.23766464
0.27608302 0.15408517 0.25882182 0.16809478 0.14212126 -0.12388734 -0.09413989 -0.019854534
-0.17428201 -0.23657355 -0.085886754 0.043767773 -0.05364501 -0.16488379 -0.20205885 -0.002986378
-0.023063464 -0.07648782 -0.080857635 -0.00091523025 -0.28500903 -0.11760937 -0.06788169 -0.09733902
0.0052939467 0.05421505 -0.016787946 0.16541672 0.26212355 0.08360023 0.007496152 -0.110659465

ds.fc1_conv.bias f4 [128]
00000000: 7ccd 173d 3793 083c 769f 5a3d db4d 6f3d
00000010: e010 b73c b050 403d 1907 d5bc 9487 62bd
00000020: 9142 40bd ba0a fd3c 648b 6a3d 2667 59bd
00000030: da3a 153d 674c 0d3e 1c1f 2e3d 678b e83b
00000040: 0ab2 a83c 1527 67bd d653 133d 948f 87bc
00000050: a1bc 3cbc 6a46 8b3c 6e38 94bd 6064 ca3c
00000060: 92ed 183c f1a4 82bc 1a4d 65bd 5131 9cbd
00000070: 52f1 ee3d 6325 043e ee23 a3bd e881 a8bd
00000080: 086a 263c 1ac1 dcbc 5f57 16bc 2281 81bc
00000090: 3ae3 abbd 0cd8 2dbd e692 edba 0c3e 423d
000000a0: 2b57 39ba f90e 2a3d f81b 10bd 4509 723c
000000b0: 25ed 8f3c a8f8 343d 2cc6 16bc 925e 93bc
000000c0: 38ab 49bd 1319 5abd 8cac 453d b504 a6bc
000000d0: 71dd 313d 759a 053e 9712 563d f2e7 da3d
000000e0: d034 75bd 5df9 4a3c 7d3f 323d 5de3 aa3d
000000f0: ed5b 75bc be07 adbc 6168 2f3e a812 32bd
00000100: f40e 84bc 529a b0bd fc39 92bc a54b 863d
00000110: 8d17 6fbc 8a9c b33d 3407 1f3c 3e64 bd3d
00000120: f869 9d3c d782 203d 3397 5cbc b72c cbbc
00000130: 88ed 46bd 0b8c 9ebd 3f93 343d bb9a 3ebb
00000140: cc0b 2f3c 8ad0 213c ccf1 b4bc 6dc4 e0bc
00000150: 74a8 de3b 399c 333d fc81 27bd 7c83 193e
00000160: 8090 343c aa1c e3ba a1d1 7fbc 3399 35bc
00000170: c369 4b3d c597 babd 5cdc 003d a92d 813c
00000180: 5562 9ebd 7ecb 92bd 3c9d 29bd cb3c c5bd
00000190: c6dd 733c f0ab bfbd 1eaa b53a ffdd e33d
000001a0: 001a 4cbd 65f8 953d 6586 013d 8af1 483d
000001b0: 59f4 443d 7c46 3abb ddb9 adbd ad0f 4f3d
000001c0: 57c6 5ebd ae87 e73c f70a 8d3c f2b2 edbd
000001d0: 1fa7 f7ba 8e46 523d 93e5 fe3c 3dbb 99bd
000001e0: 1c6e 463d 7ae8 473e 1e62 9f3c 9417 e53d
000001f0: f32f a83c aca4 aebd 93b5 33bd d988 babd
0.0370612 0.00833588 0.05337473 0.058423858 0.022346914 0.04695195 -0.026004361 -0.05530508
-0.046938483 0.030888904 0.05726184 -0.053076886 0.03643308 0.13798676 0.042510137 0.007096696
0.020592708 -0.056433756 0.035968624 -0.016547956 -0.011519582 0.01700135 -0.072373256 0.024706066
0.009333985 -0.01594779 -0.055981733 -0.07626594 0.11667122 0.12904887 -0.079658374 -0.08227903
0.010157116 -0.026947547 -0.009176104 -0.015808646 -0.083929494 -0.042442366 -0.0018125444 0.047422454
-0.0007070179 0.041518185 -0.035182923 0.014772718 0.017569134 0.04418245 -0.009202521 -0.01798943
-0.049235553 -0.05324657 0.048260257 -0.020265916 0.043424074 0.13047202 0.052263822 0.10688771
-0.05986482 0.012388554 0.04351758 0.08344147 -0.01497553 -0.021121856 0.17129661 -0.043474823
-0.016120411 -0.08623184 -0.017849915 0.06557397 -0.014593017 0.08770092 0.009706307 0.09247635
0.019215569 0.03918728 -0.013463783 -0.024801595 -0.04856637 -0.07741555 0.044085737 -0.0029083926
0.010683965 0.00987638 -0.022087954 -0.027437413 0.0067949835 0.043850157 -0.040895447 0.14991564
0.01102078 -0.0017327268 -0.015613944 -0.011083889 0.04966141 -0.09110979 0.03146015 0.015768843
-0.07733599 -0.07167719 -0.041409716 -0.09630736 0.014884418 -0.09358966 0.0013859903 0.11126327
-0.049829483 0.07322768 0.03162231 0.049058475 0.04808459 -0.002842336 -0.08482716 0.05055206
-0.05438837 0.02826294 0.017217143 -0.11606397 -0.001889441 0.051336817 0.031115329 -0.07506416
0.048444852 0.19522277 0.019455966 0.11186138 0.020530676 -0.085275024 -0.043874335 -0.09108133

ds.fc2_conv.weight f4 [64, 128]
00000000: a907 8d3e 30c8 b33d 3f4a 1e3e 99c1 633c
00000010: fb5b 863d 3bb1 a23c d1f7 7f3d feb4 ebbd
00000020: 438f 88be 9146 083e e0dc 4cbe fc42 613d
00000030: 6bc6 6fbd 3417 683e d103 833d 5d75 183e
00000040: f4cf 413d 4552 f1bd 2442 32bd 42b4 68be
00000050: cbba 913c d2e8 12bd d69c eebe d755 983d
00000060: 976d 1b3e bfa0 7cbe 82ce 10be b782 71be
00000070: 0504 403e 33c9 013f c6a5 e7be 99f5 70bd
00000080: 47c3 683d a2c9 2d3d 46de 56bc 150b 903c
00000090: dc63 5b3e c066 30be 51e5 81bd 28bd e8bd
000000a0: 0a08 87be 7346 27bc 6339 4dbb 4bc5 1a3e
000000b0: f0fa 5b3e fad4 48be b0e5 38be 0b1c 47be
000000c0: 26b1 113e 3b30 8dbe bad5 a2bc 0b27 3a3d
000000d0: 7ead 093e 4e8a 0c3f 2e7e 9c3c ffb4 14bd
000000e0: f112 babe 9f32 12be c689 453c b1b8 2fbd
000000f0: fe69 3cbe 6b8d 663d 7fe5 8a3e 29eb b3bc
00000100: d3b8 313d 2c98 a4bd e4bf cdba b56f c43d
00000110: f57a dd3c c8bd 4d3e e765 c6be ec97 aebd
00000120: 5822 7f3e 2418 18bd 3f06 3e3d a94f 7ebe
00000130: e967 433d 051b f2bd 329d 993c a801 21be
00000140: 3870 603e ddeb 603d 760f 60be 6401 573d
00000150: d91c 8a3b 271a 38be 8f90 413d 5c21 683e
00000160: 6d89 113e c08e 40be 96c6 b8be fc0b 8dbe
00000170: 3a74 153e e0e8 ddbd 8783 7c3e 2464 c1bc
00000180: 4e8d d1bd c399 babe eb50 46be 863d 77be
00000190: 2a17 33be bbc1 42bc f5a6 0c3e 4bf9 f03c
000001a0: 529b 23bd 009c b53d 5360 483e 744f 79be
000001b0: 5098 c8bd 4b8b 5d3d db1c 7abe 2aec de3d
000001c0: 2fe3 733d 1ae8 1bbd f311 e93d 3eba b4be
000001d0: 17fe 9fbe 9fec 553e 02c3 e8bd b447 94be
000001e0: 8a91 9f3c 0c77 883e e7bf 2c3d 2d76 d23d
000001f0: 8547 793d 7dff a7bd 8ad0 02be 4aad f0bd
00000200: 8b5d 213e 2c4e 8e3d 1189 a4be aba5 003e
00000210: e2b5 cc3d bbf1 fe3d a21f 433e 4b1c b7bc
00000220: a9fd da3d 0e53 b13c 92ae bc3e 437a 523e
00000230: 6abc e9bd ece4 a2bd 93a8 06be 5993 22be
00000240: abd5 023e e93a a13d 4528 cb3d cc8c a93d
00000250: 149d 8a3e b580 3bbe db7f e83d 2e37 253e
00000260: d440 90bd cc53 eb3d 6e76 503e 6216 8c3e
00000270: 30ad 5bbd b4a1 a039 a7f5 123d 21d4 b53e
00000280: 31b7 1e3e e373 953e f651 08be a950 883e
00000290: c8fd ea3c f291 123e 56a3 c53b 80d8 fcbd
000002a0: 6312 413d 7787 e5bd b6ab 963e 9660 40be
000002b0: 78e0 073e bf3f d63e 8b8b fb3d b75d ac3d
000002c0: 560e 1dbd 374d 593e 05c9 0dbe 91bd 473e
000002d0: 727f f73c bcee 21bc 1c8e e03d 4781 963e
000002e0: 91db 7e3d 58f5 163e 398c f83d f123 383e
000002f0: 88fa 77bd 0315 893e 03f5 a1be 19c1 a3bd
00000300: 65bb 913e 5d27 6c3e de06 033e 4363 3bbd
00000310: 1017 5b3e dad7 94be c648 413d b526 b23e
00000320: 6c8c fc3d e93b dc3d 9837 a03e ed25 d53d
00000330: 1e75 b63e 47e2 703d 0463 de3d 197f 89bd
00000340: 34c6 50be 077a 1f3e d9c7 8e3d 7ef7 b03d
00000350: a896 b03e dd2b c03e 2c73 6f3e b726 9ebe
00000360: f822 c8bd 253d dc3d 6e36 e63e 7ff5 fe3e
00000370: 73f1 06be 2202 383e 5d67 c2bd b4a9 23be
00000380: 42eb d73e dbc8 4b3c 108d ad3d bf62 923e
00000390: 8799 913d 4b4c 773d 8770 a33d 01cc 973b
000003a0: 49c4 d23e 8eb6 dcbd 9600 7bbe 39cc ba3d
000003b0: c748 29be a62d 113e 622f 2c3e a2cc 753d
000003c0: 6028 ebbd 4771 6b3e c77d 1f3e 7d28 49bd
000003d0: 305b 133f ecc5 dabc 467b ba3e efaa 803e
000003e0: b00d 2bbe db2b 40be b382 0a3e 6f2e d1be
000003f0: a88c 05bc f309 0d3e 1b0f 0ebe 6228 a93d
0.27544907 0.08778417 0.1545801 0.013901138 0.06560513 0.0198599 0.062492196 -0.11509131
-0.266718 0.13308169 -0.20006132 0.054995522 -0.058538835 0.22665101 0.06397212 0.1488852
0.04731746 -0.1178327 -0.043520108 -0.22725013 0.017789265 -0.035866566 -0.4660403 0.07438248
0.15178524 -0.24670695 -0.14141276 -0.2358502 0.18751533 0.5069763 -0.45243663 -0.05882797
0.056826856 0.04242862 -0.013114518 0.01758341 0.21424812 -0.17226696 -0.06342567 -0.11364204
-0.2637332 -0.0102096675 -0.0031314723 0.15114324 0.21482444 -0.19612494 -0.18056369 -0.19444291
0.14227733 -0.2757586 -0.019877303 0.04544739 0.13445088 0.54898536 0.019103136 -0.036305424
-0.36342576 -0.14277123 0.0120567735 -0.042900745 -0.18399808 0.05628721 0.27128217 -0.021962719
0.043389153 -0.08036837 -0.0015697447 0.09591619 0.02703617 0.20091927 -0.3874962 -0.085250705
0.24915445 -0.037132397 0.046392675 -0.24835075 0.04770652 -0.1182156 0.018751714 -0.15723288
0.21917808 0.054912437 -0.21880898 0.05249156 0.0042148647 -0.17978726 0.047257002 0.22668976
0.1421258 -0.18804455 -0.3608901 -0.27548206 0.14595118 -0.10835433 0.24659549 -0.023607321
-0.1023203 -0.36445436 -0.19366805 -0.24144563 -0.17489305 -0.011887009 0.13735564 0.029415747
-0.039943047 0.08867645 0.19567995 -0.24346715 -0.09794676 0.05408792 -0.2442507 0.108848885
0.05954283 -0.038063146 0.11380377 -0.35298342 -0.31248543 0.20891045 -0.1136532 -0.28960955
0.019478578 0.26653326 0.0421752 0.102764465 0.060859222 -0.082030274 -0.12774864 -0.11751802
0.1575834 0.06948504 -0.32135823 0.12563197 0.09995629 0.1244845 0.19055036 -0.022352358
0.10692913 0.021646049 0.36851937 0.20554452 -0.1141289 -0.0795382 -0.13150243 -0.15876521
0.1277682 0.07872564 0.0991979 0.08278808 0.27072966 -0.18310817 0.113525115 0.1613433
-0.07043615 0.11490592 0.20357677 0.27360827 -0.05363196 0.00030638056 0.035878804 0.35513404
0.1549957 0.29189977 -0.13312516 0.2662404 0.028685465 0.14313486 0.006031434 -0.123459816
0.047136676 -0.112074785 0.2942788 -0.18786845 0.13269222 0.4184551 0.12282475 0.08416312
-0.03834375 0.21220861 -0.13846214 0.19505908 0.030212138 -0.009883579 0.10964605 0.29395506
0.062221114 0.14742029 0.1213612 0.1798246 -0.06054166 0.26773843 -0.31632242 -0.07995815
0.28463283 0.23061891 0.12795588 -0.04574896 0.21395516 -0.29070932 0.047188543 0.34795156
0.12331471 0.107536145 0.31292415 0.104076244 0.35636228 0.058809545 0.108587295 -0.06713695
-0.20388108 0.15573893 0.06971712 0.086409554 0.34489942 0.37533465 0.23383778 -0.30888912
-0.09772295 0.1075385 0.44963402 0.49796674 -0.13178043 0.17969564 -0.09492371 -0.15982705
0.42171675 0.012438024 0.08474171 0.28590962 0.07109361 0.060375493 0.07980447 0.0046324735
0.4116538 -0.10777007 -0.24511942 0.09120984 -0.16531669 0.1417757 0.1681495 0.060009606
-0.1148231 0.2299243 0.15575324 -0.04911088 0.57561016 -0.026705705 0.36422175 0.25130412
-0.1670444 -0.1876673 0.1352642 -0.4085574 -0.008151211 0.13773327 -0.1387295 0.082596555

ds.fc2_conv.bias f4 [64]
00000000: 7e18 013e 2314 06bd 32ce 88bb d2e6 cbbc
00000010: 89c4 1bbc 6ca3 a03d 9ddb 143c 001e b73d
00000020: d0e2 78bd 136e 103e c806 093c eb9f 473e
00000030: ffe7 6e3c 6517 b63c 6879 123e eec2 133e
00000040: bad3 ac3d ff95 4a3d 3ce2 ec3d b4fa ca3c
00000050: 7d9d 1dbc da10 403d 5e5f 8c3d 9042 973d
00000060: 227b 0ab8 08a3 e03d 6713 1d3e f368 823d
00000070: e1b7 48bd c15a 35bb 24d3 53bd f9a3 023d
00000080: 7263 723c 67f4 8dbc 52b1 af3c 2bf2 583d
00000090: c9a7 843d f389 983d 8221 373d a162 6e3d
000000a0: dfb6 54bc 29c6 5c3d 56fa b6bb 1c57 3c3d
000000b0: 6e3e a8bd b979 303e b000 8dbd b18d ff3d
000000c0: d398 f33c d198 403e fd4c f43c 7a19 dcbc
000000d0: 59ef 3d3d 822d 9f3d 6feb d03d add9 1f3e
000000e0: b253 f0bc c4f9 833d 2e87 633d 21fb ac3b
000000f0: 82e6 753c 1412 0d3d 3af6 03bd 7c2e d33d
0.12607 -0.032734048 -0.004174971 -0.024890337 -0.009507307 0.0784367 0.009085563 0.08941269
-0.06076318 0.1410449 0.008363433 0.19494598 0.014581679 0.022227952 0.14304125 0.14429829
0.08438821 0.049459454 0.11566588 0.024777748 -0.009620068 0.04689107 0.06854127 0.07385743
-3.301644e-05 0.10968596 0.15339433 0.06367674 -0.049003486 -0.0027672502 -0.05171503 0.031894658
0.014794217 -0.017328454 0.021446858 0.052965324 0.06477315 0.07448187 0.04470969 0.05819953
-0.012983053 0.053899918 -0.0055840416 0.04598151 -0.082150325 0.17233934 -0.06884897 0.12478197
0.029735958 0.18808295 0.029821867 -0.026867617 0.046370838 0.07772352 0.102011554 0.1561038
-0.029336784 0.064441234 0.05554884 0.0052789603 0.015008571 0.03444107 -0.03221724 0.103116006

head.weight f4 [15, 64]
00000000: 72e9 813e a718 0cbf 76e0 edbe 0341 97be
00000010: 3418 7bbe ddce 90be e191 37bd db35 d13d
00000020: d4b0 ea3d fbc4 3c3e e9d8 e5bd 2437 4a3e
00000030: a138 b8bf 0deb 08be fff0 153e 07fc ab3d
00000040: 4c13 ae3d c96d 0d3e 2f01 8b3e 0c5f 093e
00000050: 171b 02be a1e7 d63d eb66 d93d 3734 863e
00000060: ce30 63be 5528 263e e61f 873e a4f9 d93e
00000070: eec2 083e 111e a7be ade7 09bf c5bb 50bd
00000080: 1a49 6fbf 6cbd 6abe b874 56bf 31e1 7fbc
00000090: 341d 0bbe efea 1dbe 4e37 a23e 3038 69bf
000000a0: d194 ddbd 0547 633e 9cb2 d1be f4a3 0fbe
000000b0: cf28 65bf 6f8e 783e b1e3 25bf a5b2 843e
000000c0: 3bab 59be 7f5e 823e bb46 c5bf 1056 6e3e
000000d0: 3c38 a9bd 3d86 153e b26d 3ebf fa94 5b3e
000000e0: a435 52bd 2481 c6bf b8e1 8ebe a659 0bbe
000000f0: fd53 b3bf 34fd eb3b ee38 9abe 4d00 dc3e
00000100: fc45 11bf 450f 963e 77d9 b43d 84e8 7dbd
00000110: 1329 b73e c607 cb3d 1cc8 2bbf 0dcc 2dbf
00000120: 4675 0e3e f64d 8dbf b046 bfbd 4f9f 613d
00000130: b3a0 1a3e fc39 903e 95ff 953d 2f4d a13d
00000140: 741f cbbd 9400 6f3d 3ff0 733d 195d 57bd
00000150: a472 db3d 072d 33bf af77 f63d d162 51bf
00000160: 33c2 a53e d6ca a83d 3bd9 06bf fe1d 8e3d
00000170: 6d55 00bf bdb0 1cbf 840f 48be cb2d 29bf
00000180: 4ece ba3d 8bf5 22be 3eaa 483e c7ef 9ebf
00000190: 71bb 16bf 87f1 e7be 839c c33d 2125 6b3e
000001a0: 9c53 adbd 2ab8 503e 69ea 843e e4a7 9d3e
000001b0: 5d88 933d a71e 2dbf fca2 e2be 9fe7 60bf
000001c0: 62e4 43be 9ecc b0bd 1d44 44be ed37 2f3d
000001d0: c95b 903e 1d74 233e c4c7 563e 4c5a 05be
000001e0: e85e 2cbf 92df 2d3d 856c a73e e93e 233e
000001f0: 6cb3 873e 19b1 21bf 5940 82bf 2c52 d13d
00000200: 955c 83be 395d 263e 3733 7d3d f1b2 19be
00000210: 9284 3b3e 7c60 483d 065a eebe cd7a e5be
00000220: 23ea e53d 9bf6 cfbe c042 6cbe 6dbb e2bf
00000230: 41ba d53d 991a 523e a493 8d3d 4dde 563d
00000240: 6723 1fbe d138 803d c9ce 703d a95f 38bf
00000250: 46a8 48bd 26b1 d2be a4cc 9c3d 3350 c7be
00000260: 948b 2b3e 6f30 893d 6724 3dbe 262d aa3d
00000270: f619 c4be 7de6 d5be 48b9 533f e6fd ecbe
00000280: 2a8f de3d f595 93be e7ce 083e 853e f7be
00000290: 1603 e8be 6c1c b4be 8365 213d 94f2 1d3e
000002a0: 8b37 56be bdf4 1d3e 617b 843e 75c8 6a3e
000002b0: 8896 0e3e a4cc 86be 2188 a3bd 9081 dbbe
000002c0: 780f f9bd 1339 02c0 e7aa 49be e3dc 6f3e
000002d0: bcc4 863e 4eef 163e f25c 043e 9d88 62bf
000002e0: 9c52 d3be faaf 47bf 0836 903e b954 403e
000002f0: a9dc cc3e f51c 95be d8de 35bf 9179 493c
00000300: 0801 96be dc16 af3d a9a7 b2be dafc 2e3e
00000310: 3a4b ae3e 0f51 ed3d e984 203e e564 c13d
00000320: 0bf3 19be 2b19 4bbf 52b6 193e bb2e b0be
00000330: a25e c3be 89ca 113e 707d 9ebe 4ca6 943d
00000340: f0b6 1e3e e2a7 3fbf 3bdd 98be 783a 94be
00000350: 5598 aa3d 39c4 c23d 3820 95be 2765 0f3e
00000360: 9fba 373e 10f1 97be ecbd 6bbf 2034 6dbe
00000370: 9a9e f0bd 1a22 d03d d42a bd3d cfaa 2f3e
00000380: fae2 d4be cf83 663e 97d5 b4be 260d df3d
00000390: db77 2d3e c02a 3c3e a160 4e3e f4d3 b4be
000003a0: d3b6 313e d0d6 24be e905 ce3d f42e 0c3e
000003b0: d166 94be db24 96be 2dd3 d63d d45f 93be
000003c0: 0b9c 86bf f492 9ebf d0fb 103e 5fb5 fc3e
000003d0: 5d21 d53d cad6 31be d56e 77bf 156a 3cbe
000003e0: aa05 353e c4de 6bbf cf31 883d 793b bfbe
000003f0: 1c5b ae3d 67bd 563e 18ea 14bf f17d ae3d
0.25373417 -0.54725116 -0.46460313 -0.29541788 -0.24520952 -0.28282824 -0.044816855 0.1021535
0.114595085 0.18434517 -0.11223013 0.19747597 -1.4392282 -0.13370915 0.14642714 0.0839768
0.08499774 0.13811411 0.2714934 0.13415164 -0.12705646 0.104933985 0.10615333 0.26211712
-0.22186586 0.16226323 0.26391524 0.42573273 0.1335561 -0.32640126 -0.53869134 -0.05096032
-0.9347092 -0.22923821 -0.8377185 -0.015617655 -0.13585359 -0.15421651 0.3168282 -0.9110136
-0.108194 0.2219506 -0.4095658 -0.14027387 -0.89515394 0.24273084 -0.64800555 0.25917545
-0.21256725 0.2546272 -1.541221 0.23275018 -0.08262679 0.14601989 -0.7438613 0.21443549
-0.051320687 -1.550816 -0.27906585 -0.13608417 -1.4010006 0.007201815 -0.3012156 0.4296898
-0.5674741 0.29308525 0.088305406 -0.061989322 0.35773525 0.09913592 -0.6710222 -0.6788948
0.13911924 -1.1039417 -0.093396544 0.05508357 0.15100364 0.2816924 0.07324139 0.0787605
-0.099181086 0.05835016 0.05955529 -0.05257902 0.10715225 -0.6999058 0.120345466 -0.81791407
0.32374725 0.08241813 -0.5267522 0.06939314 -0.5013035 -0.6120718 -0.19537169 -0.660855
0.09121381 -0.1591398 0.19596192 -1.2416924 -0.5887976 -0.45301458 0.095513366 0.22963382
-0.08463213 0.20382753 0.2596009 0.30792153 0.072037436 -0.67624897 -0.44264972 -0.87853426
-0.1913009 -0.08632778 -0.19166608 0.042777944 0.28195027 0.15962262 0.20974642 -0.13022727
-0.67332315 0.04244954 0.3269998 0.15941967 0.26504076 -0.63160855 -1.0175887 0.10220751
-0.25656572 0.16246499 0.06181642 -0.15009667 0.1831229 0.04892014 -0.46553057 -0.44820252
0.11226299 -0.40617833 -0.23072338 -1.7713448 0.10435916 0.20517959 0.06912926 0.052458096
-0.15540849 0.06260837 0.058790956 -0.72020966 -0.048988603 -0.4115078 0.076562196 -0.38928375
0.16752464 0.06698691 -0.18470918 0.08309393 -0.38301057 -0.4177741 0.8270459 -0.4628746
0.1086715 -0.28825346 0.13360177 -0.48289886 -0.45314854 -0.35177934 0.03940345 0.15424567
-0.20919625 0.15425391 0.2587538 0.22928031 0.1392461 -0.26328003 -0.07984949 -0.42872286
-0.121611536 -2.0347335 -0.196941 0.23424105 0.2632197 0.14739725 0.12926081 -0.88489705
-0.41273963 -0.78002894 0.28166223 0.18782319 0.400121 -0.29123655 -0.7104316 0.01229705
-0.29297662 0.08549282 -0.3489354 0.17088643 0.34041768 0.11587726 0.15675701 0.09443072
-0.1503412 -0.7933528 0.15010956 -0.34410653 -0.38158137 0.14237417 -0.30955076 0.07258281
0.15499473 -0.74865544 -0.29856285 -0.28950858 0.08329836 0.09510083 -0.29126143 0.1400343
0.17942284 -0.29676104 -0.9208667 -0.23164415 -0.11749001 0.10162754 0.092366844 0.17155002
-0.4157942 0.22511218 -0.35319206 0.1089118 0.16940252 0.18375683 0.20154049 -0.35317957
0.17354898 -0.1609757 0.10059721 0.13689786 -0.28984693 -0.29324993 0.10489497 -0.2878405
-1.051637 -1.2388597 0.14158559 0.49357125 0.10406754 -0.17367092 -0.9665349 -0.18399842
0.17677942 -0.9213679 0.06650125 -0.37350062 0.085134715 0.20970689 -0.581697 0.08520115

head.bias f4 [15]
00000000: 2fe5 113e 0fe2 313d cfcb c43c f930 293d
00000010: 06f9 20bd 07b3 563c d258 733d 6115 2f3e
00000020: 7b0a 89bd 0af8 5ebd 0104 133e d38f adbc
00000030: 52c9 6b3d 7c83 f63d 1e2b 123d
0.14247583 0.043428477 0.024022965 0.04130647 -0.039299987 0.013104207 0.059410878 0.17097999
-0.06691452 -0.054435767 0.14356996 -0.021186745 0.05756504 0.120367974 0.03568565
