surrogate/trained_model/BCRNet/model_direct4_fold4.pth (torch, 182576 bytes, 24 tensors)

encoding.conv2d.weight f4 [4, 2, 8]
0	0x3dfb1018	0.12258929
1	0x3d2defd7	0.042465057
2	0x3dfbe352	0.12299217
3	0x3c0f503a	0.008747155
4	0xbd2e61f6	-0.04257389
5	0xbd253f3b	-0.040343504
6	0xbdf5a58e	-0.11994468
7	0xbdce5c2f	-0.100761764
8	0xbe2451d1	-0.16046835
9	0xbdbf9fcd	-0.093566515
10	0xbdee1efd	-0.11627004
11	0x3c7e85fe	0.015534876
12	0x3d88f98d	0.06688223
13	0x3d918523	0.07105472
14	0x3e15d778	0.14632976
15	0x3d0739eb	0.03301422
16	0xbd4124aa	-0.047154106
17	0xbdc2faa9	-0.09520466
18	0xbd498622	-0.049200185
19	0xbe335c52	-0.17515686
20	0xbdb19260	-0.08670497
21	0xbd8ab3fe	-0.06772612
22	0xbce4f2aa	-0.027947742
23	0x3dc2c269	0.09509737
24	0x3ba65adb	0.005076749
25	0x3db17c9c	0.086663455
26	0x3dcc3689	0.09971339
27	0x3e1ffa01	0.15622713
28	0x3daf7270	0.08566749
29	0x3cd67968	0.026180938
30	0x3d80725a	0.06271811
31	0xbd8c1584	-0.06840041
32	0x3c897963	0.016781515
33	0x3ce0b7a3	0.027431315
34	0x3df39bc3	0.118949436
35	0x3e213486	0.15742692
36	0x3dd09c03	0.10186007
37	0x3dea285c	0.11433479
38	0x3dd77e9f	0.10522198
39	0x3d99ff16	0.07519357
40	0x3da2fa03	0.07957842
41	0x3d454dc6	0.048169874
42	0xbdaa1b90	-0.083060384
43	0xbe21eac7	-0.15812217
44	0xbe23a0bf	-0.15979289
45	0xbdfc7b14	-0.12328163
46	0xbdde44e1	-0.10852981
47	0xbde7f23d	-0.113255
48	0x3e2c3850	0.16818357
49	0x3e2863fc	0.16444391
50	0x3dc7974b	0.09745654
51	0x3d4b4b1a	0.04963217
52	0x3c10c60d	0.0088362815
53	0x3d045fc3	0.032317888
54	0x3ba4ce72	0.005029493
55	0xb93f0b01	-0.00018219279
56	0xbe052abe	-0.13004586
57	0xbe0acd79	-0.13554944
58	0xbe1932e3	-0.14960818
59	0xbdc704a4	-0.09717682
60	0xbc952f96	-0.018211167
61	0x3c40dfe2	0.011772128
62	0x3d0c33a7	0.034228947
63	0x3d8734f5	0.066018976

encoding.conv2d.bias f4 [4]
0	0x3eaa22e6	0.3322975
1	0xbdf6bdb2	-0.120479
2	0x3e584299	0.21119155
3	0xba754187	-0.00093557726

encoding.bnorm1.weight f4 [4]
0	0x3f9c8898	1.2229185
1	0x3fe7a0a2	1.8095896
2	0x3fef5678	1.8698263
3	0x3fc06b10	1.5032673

encoding.bnorm1.bias f4 [4]
0	0x3d1bed92	0.03806836
1	0x3f045877	0.51697487
2	0x3f09621f	0.53665346
3	0x3e2fa6d9	0.17153491

encoding.bnorm1.running_mean f4 [4]
0	0x3ea9d0fe	0.3316726
1	0xbdde5e69	-0.10857851
2	0x3e4684de	0.19386622
3	0xbc7fd9f9	-0.015615934

encoding.bnorm1.running_var f4 [4]
0	0x3dcd25b7	0.10016959
1	0x3f48d481	0.78449255
2	0x3fd629ff	1.6731566
3	0x3f58debf	0.84714884

ds.proj_conv.weight f4 [16, 4, 7]
0	0x3dc07b7b	0.09398552
1	0x3ded0f6d	0.11575208
2	0x3dd1a616	0.102367565
3	0xbd541aef	-0.0517835
4	0x3b869647	0.00410727
5	0xbced2a2e	-0.028950777
6	0xbd94015a	-0.0722682
7	0xbde90d8d	-0.11379538
8	0xbd55b419	-0.052173708
9	0x3c01c42f	0.007920309
10	0x3b7aaf8b	0.0038251604
11	0x3a63a215	0.0008683515
12	0x3ca2b4fa	0.019861687
13	0x3d951765	0.07279853
14	0x3e0f0d66	0.13969955
15	0x3e39d5cc	0.18147963
16	0x3d86c05b	0.06579658
17	0x3e4fe121	0.20300724
18	0x3ce399b2	0.027783249
19	0x3d0b166a	0.033956923
20	0xbc2c718c	-0.010525119
21	0xbde57600	-0.11204147
22	0xbd808aac	-0.062764496
23	0xbd92f918	-0.07176417
24	0xbd33baad	-0.0438792
25	0x3dd1c383	0.10242369
26	0x3e511c8d	0.20421048
27	0x3e09e12e	0.13464805
28	0x3d9ef123	0.07760837
29	0x3d98481f	0.07435631
30	0x3dd1e474	0.10248652
31	0xbbc77835	-0.006087328
32	0xbdb3914f	-0.0876795
33	0xbd26ec75	-0.040752847
34	0x3e431288	0.19050038
35	0xbd6902d9	-0.05688748
36	0xbe95f213	-0.2928625
37	0xbe7a3a1a	-0.24436226
38	0xbe2d76a6	-0.16939792
39	0xbd9e07f5	-0.077163614
40	0xbd46f432	-0.048572727
41	0xbd21e430	-0.039524257
42	0x3cbb8347	0.022889746
43	0xbdbb91dd	-0.091586806
44	0xbdd009ad	-0.101580955
45	0xbdbc2125	-0.09186009
46	0xbdc64529	-0.0968116
47	0xbd609252	-0.054827042
48	0xbbccde4b	-0.0062520853
49	0xbbed9190	-0.0072500184
50	0xbca6ae7e	-0.020346876
51	0xbd2fd65c	-0.04292904
52	0xbd959eb7	-0.07305663
53	0xbd995ead	-0.07488761
54	0xbcc1fe66	-0.023680877
55	0xbc49f7ad	-0.012327117
56	0xbd94c4c9	-0.07264096
57	0xbdb7ea6a	-0.08980258
58	0xbd0bf390	-0.034167826
59	0x3d8d2d58	0.06893414
60	0xbd2ab8bb	-0.04168008
61	0x3d636883	0.055519592
62	0x3cac7242	0.021050576
63	0x3d6292f6	0.055315934
64	0x3e43534b	0.19074742
65	0x3d935253	0.071934365
66	0x3e92e12a	0.28687412
67	0x3cf6bbfb	0.030118933
68	0x3d48d8d2	0.0490349
69	0xbd1a440b	-0.037662547
70	0xbc729376	-0.014805665
71	0x3b502d86	0.0031765415
72	0xbc79f7f8	-0.015256874
73	0x3c99e3ef	0.018785445
74	0xbd21e503	-0.039525043
75	0xbca7d115	-0.02048544
76	0x3d051788	0.032493144
77	0xbc2b1275	-0.010441412
78	0x3cc329fe	0.023823734
79	0xbc685c5a	-0.014182175
80	0x3ca972a2	0.020684544
81	0x3c14ca5b	0.009081448
82	0xbb7def7e	-0.0038747485
83	0xbd038170	-0.032105863
84	0xbcd39e4a	-0.025832314
85	0x3c6d1749	0.014470884
86	0x3daebc81	0.08532048
87	0x3e1a8db6	0.15093121
88	0x3dcbab81	0.09944821
89	0x3dde99fb	0.10869213
90	0x3e8e6546	0.2781164
91	0x3cccfd11	0.025023015
92	0xbc219d00	-0.009864092
93	0xbc8c66bc	-0.017138831
94	0xbd61ab06	-0.05509474
95	0xbdd017fc	-0.10160825
96	0xbe0edba6	-0.13950977
97	0xbe066874	-0.13125783
98	0x3dc34edd	0.09536526
99	0x3db4de96	0.088315174
100	0x3dfee6e2	0.12446381
101	0x3dcfaa31	0.10139883
102	0x3d614dd4	0.055005863
103	0x3b3b3099	0.0028562902
104	0xbd29d9c5	-0.041467447
105	0x3e340a7a	0.17582121
106	0x3d25ed41	0.040509466
107	0x3ca9285c	0.020649128
108	0xbdb0e1f9	-0.08636851
109	0xbe4dd61c	-0.20101207
110	0xbda46ee4	-0.08028963
111	0xbe0f5df2	-0.14000681
112	0x3e27d4ce	0.16389772
113	0x3d48ea7a	0.04905174
114	0xbda9825f	-0.082768194
115	0xbde77c42	-0.11302997
116	0xbdd51062	-0.104035154
117	0xbda42a73	-0.08015909
118	0xbd87956c	-0.06620297
119	0x3deaf13a	0.114717916
120	0x3d699e42	0.057035692
121	0x3d9c2cd6	0.07625739
122	0x3c3de364	0.011589859
123	0x3e03e073	0.1287859
124	0x3b68b646	0.0035509034
125	0xbda67cf6	-0.08129303
126	0x3ceeb70d	0.02914002
127	0x3d971b85	0.07378296
128	0x3d3d2803	0.046180736
129	0x3d4327de	0.047645442
130	0xbcc840d9	-0.024444984
131	0xbd49907c	-0.049210057
132	0xbe09f259	-0.13471355
133	0x3d9e89df	0.077411406
134	0x3df16285	0.11786369
135	0xbbeb43eb	-0.0071797273
136	0xbb183249	-0.0023223332
137	0x3c2c568f	0.010518684
138	0xbd1228cd	-0.035683442
139	0xbd967767	-0.07346993
140	0x3d32ef3f	0.043685194
141	0xbcade803	-0.021228796
142	0xbda20706	-0.07911496
143	0x3994f6fe	0.00028412783
144	0x3ca7d72e	0.020488348
145	0x3d09e7c6	0.033668302
146	0x3ce58746	0.028018605
147	0xbd8271cc	-0.06369361
148	0x3d049f42	0.032378443
149	0x3d472de9	0.048627768
150	0x3e56d4a6	0.20979556
151	0x3e50b647	0.20382033
152	0x3da40de6	0.080104634
153	0x3c6adf1d	0.014335421
154	0xbd54f400	-0.05199051
155	0x3c1de33d	0.009636697
156	0xbd136119	-0.03598127
157	0xbca59c4b	-0.020216128
158	0x3b0f1be4	0.0021836692
159	0xbc5602fe	-0.013062237
160	0x3be026d1	0.006840565
161	0xbd903909	-0.070421286
162	0xbd52aa9e	-0.051432244
163	0x3aefa0c8	0.001828217
164	0x3c2b9e33	0.010474729
165	0x3d42170e	0.047385268
166	0x3d306448	0.043064386
167	0x3bc5252f	0.0060163955
168	0xbde0183f	-0.109421246
169	0xbc8ef842	-0.017452363
170	0x3cbba4fd	0.022905821
171	0x3de9e0da	0.1141984
172	0x3cc4d62d	0.024027908
173	0xbd98cf99	-0.07461471
174	0xbe053aad	-0.13010664
175	0x3b074364	0.0020639533
176	0x3d3402ae	0.043947868
177	0x3dc240b7	0.094849996
178	0x3de7a8b9	0.11311478
179	0x3d90e3e2	0.07074715
180	0xbda00591	-0.07813562
181	0xbc676eec	-0.014125567
182	0x3e4ef914	0.20212203
183	0x3e037831	0.12838818
184	0x3d492386	0.049106143
185	0x3c05612f	0.008140846
186	0xbd839376	-0.0642461
187	0xbe11d8c2	-0.14242843
188	0xbe25c08f	-0.16186737
189	0x3cbd5571	0.02311203
190	0x3d0caa77	0.034342255
191	0xbd560b67	-0.052256968
192	0x3db7c36d	0.089728214
193	0x3d1d1dbf	0.038358446
194	0x3e044f92	0.12920979
195	0x3cc140d9	0.023590492
196	0x3d9a2af2	0.075277224
197	0x3d35c482	0.044376858
198	0x3c9a40bd	0.018829698
199	0xbc9ad7ef	-0.018901793
200	0xbb91c922	-0.0044490257
201	0x3d1fb9ad	0.038995434
202	0xbdaaa88a	-0.083329275
203	0x398248a8	0.00024849665
204	0xbcbd6917	-0.0231214
205	0x3b3ae47b	0.0028517533
206	0x3c3ba6d2	0.011453347
207	0x3d34d506	0.044148467
208	0x3d527e3d	0.05138992
209	0x3d8afcee	0.06786524
210	0x3dec7c5f	0.115471594
211	0x3dc3c9ec	0.09559998
212	0x3e39b252	0.1813443
213	0x3de1b5d1	0.11021007
214	0x3d6689ea	0.05628387
215	0x3d99f41b	0.075172625
216	0x3cf07865	0.029354284
217	0xba931c18	-0.0011223583
218	0x3d7e194d	0.062035847
219	0x3e360a94	0.17777473
220	0x3dccaba3	0.099936746
221	0x3d98155f	0.07425951
222	0xbc0085b7	-0.00784438
223	0x3d508d7d	0.050916184
224	0xbbb07b55	-0.005385796
225	0xbdf9c0a2	-0.12194945
226	0xbe96def4	-0.29466975
227	0x3aca2633	0.0015422761
228	0xbddeb866	-0.10875015
229	0x3d81ca50	0.06337416
230	0x3d51ea14	0.051248625
231	0xbda08981	-0.07838727
232	0xbd690d63	-0.056897532
233	0xbd9ababe	-0.075551495
234	0x3d4f8c10	0.050670683
235	0x3d5ccf55	0.053908665
236	0x3e08f184	0.13373381
237	0x3cb399b4	0.021923877
238	0x3cbb31b4	0.022850849
239	0x3d802132	0.062563315
240	0x3d916470	0.07099235
241	0x3c930a11	0.017949136
242	0xbdc41dd9	-0.095760055
243	0xbd76b210	-0.060228407
244	0xbdace17f	-0.084414475
245	0xbd941992	-0.0723144
246	0xbd3bd455	-0.045856792
247	0xbc26a6f1	-0.010171638
248	0x3db443d5	0.088020004
249	0x3dcec90b	0.1009694
250	0x3dc93b14	0.098257214
251	0x3d93ebcf	0.07222711
252	0x3c8ed9e1	0.017437877
253	0x3dbfd689	0.09367091
254	0x3dba643a	0.09101148
255	0x3ab0c390	0.0013486017

ds.proj_conv.bias f4 [16]
0	0x3e1649ca	0.14676586
1	0x3e345db5	0.17613871
2	0xbd34d40d	-0.04414754
3	0x3de479d9	0.11156053
4	0x3d602ac6	0.054728292
5	0x3da91dc6	0.08257632
6	0xbe07276d	-0.13198633
7	0xbb9e3d9a	-0.004829121
8	0x3d120c6d	0.03565638
9	0xbe051ab9	-0.12998475
10	0xbe06ba17	-0.13156925
11	0xbd0895d6	-0.03334602
12	0x3976bdae	0.0002353105
13	0xbdea0818	-0.11427325
14	0x3e73936d	0.23786707
15	0x3e1370d4	0.1439851

ds.proj_bn.weight f4 [16]
0	0x3fb0c3fd	1.3809811
1	0x3fbf0a0b	1.492494
2	0x3f9c853a	1.2228158
3	0x3fb016e5	1.3756987
4	0x3f95f727	1.171605
5	0x3f9fe114	1.2490563
6	0x3fab4592	1.3380606
7	0x3f9c97be	1.2233808
8	0x3fb5addb	1.4193681
9	0x3f9e1a05	1.235169
10	0x3fa718f5	1.3054491
11	0x3f923974	1.1423783
12	0x3fa9f455	1.3277689
13	0x3f9ac7e8	1.2092257
14	0x3fb47299	1.4097472
15	0x3f890080	1.0703278

ds.proj_bn.bias f4 [16]
0	0x3e192981	0.14957239
1	0xbe086bdb	-0.13322394
2	0x3d1c9a03	0.038232815
3	0x3dafe555	0.085886635
4	0xbe11ddf2	-0.14244822
5	0x3d9af690	0.07566559
6	0x3e774baf	0.24149965
7	0xbd93a772	-0.07209672
8	0x3edec138	0.4350679
9	0xbd50e7c1	-0.051002268
10	0x3e864288	0.26222634
11	0xbca38edf	-0.019965587
12	0x3dd15cf1	0.10222805
13	0x3ed90620	0.42387486
14	0x3e13143d	0.14363189
15	0xbe4f67b7	-0.20254408

ds.proj_bn.running_mean f4 [16]
0	0x3eb27125	0.34851947
1	0xbe4dac17	-0.20085178
2	0x3ddbe4d6	0.10737006
3	0x3e0a7237	0.13520132
4	0x3dffaa13	0.12483611
5	0x3e40a7f9	0.18814076
6	0xbd0a21ce	-0.033723645
7	0x3e97a80c	0.29620397
8	0x3d08b0f4	0.03337188
9	0x3e152b23	0.14567237
10	0xbf2b77dd	-0.6697977
11	0x3dbf20b3	0.09332409
12	0x3dc0a1fa	0.094058946
13	0xbda9eccb	-0.08297118
14	0x3eb75097	0.35803673
15	0x3e82315d	0.25428286

ds.proj_bn.running_var f4 [16]
0	0x3de3f0d5	0.111299194
1	0x3e054ada	0.13016835
2	0x3d9aee04	0.07564929
3	0x3ddd4b6e	0.10805403
4	0x3ce2053b	0.027590385
5	0x3d753040	0.059860468
6	0x3cf183fd	0.029481882
7	0x3e0c2123	0.13684516
8	0x3caff551	0.02147928
9	0x3dea6074	0.11444178
10	0x3ee691d6	0.4503314
11	0x3d27420c	0.04083447
12	0x3d93da86	0.072194144
13	0x3d239907	0.03994086
14	0x3dacce1a	0.08437748
15	0x3da8a703	0.0823498

ds.proj_conv1.weight f4 [8, 16, 5]
0	0x3cd54580	0.026034117
1	0x3e477e6b	0.19481818
2	0xbd83c7e9	-0.06434614
3	0xbd9d68c1	-0.07685996
4	0xbdfba6d7	-0.122876815
5	0xbe2ad38c	-0.16682261
6	0xbd4b4776	-0.049628697
7	0xbd333f30	-0.043761432
8	0x3e30936d	0.17243738
9	0x3db1069a	0.08643837
10	0xbcea2472	-0.028581832
11	0xbd946a13	-0.072467946
12	0xbd578fa3	-0.052627217
13	0xbd03150a	-0.032002486
14	0xbd861421	-0.06546808
15	0xbd552eab	-0.05204646
16	0x3cefb3b5	0.029260496
17	0x3df11d50	0.11773169
18	0x3dfe9e35	0.12432519
19	0x3ccbbc9d	0.024870211
20	0xbd0f5fe6	-0.035003565
21	0xbc8663dc	-0.016405039
22	0x3d2db1fe	0.042406075
23	0x3a4b8670	0.0007763868
24	0xbd1ad56a	-0.037801184
25	0xbd6a92ac	-0.057268783
26	0xbd3400bb	-0.04394601
27	0xbe0d8dc4	-0.1382361
28	0xbdff552c	-0.12467417
29	0xbdf8b538	-0.1214394
30	0xbdaacde2	-0.0834005
31	0x3db90f01	0.09036065
32	0x3daebde1	0.0853231
33	0xbd16c94c	-0.036813065
34	0xbdbb9500	-0.09159279
35	0x3d9de41a	0.077095225
36	0xbcbd1975	-0.023083428
37	0xbd12b898	-0.035820574
38	0xbdcccdaf	-0.100001685
39	0xbe22e56c	-0.1590783
40	0xbe01a990	-0.12662339
41	0xb9198082	-0.0001463909
42	0x3e4369d5	0.1908334
43	0x3cd0cb80	0.025487661
44	0xbe084c48	-0.13310349
45	0x3dceda31	0.101002105
46	0x3e06d25e	0.13166186
47	0xbdcd151b	-0.10013791
48	0xbe30bf38	-0.17260444
49	0xbe1dc2f7	-0.15406404
50	0xbe954360	-0.29152966
51	0xbe885e8c	-0.26634634
52	0xbe7811d6	-0.24225554
53	0xbd416ecb	-0.0472248
54	0xbc43dc65	-0.011954402
55	0x3deb84c0	0.114999294
56	0x3d1f16a1	0.03883994
57	0xbda2d8b2	-0.079514876
58	0xbd063bde	-0.032771938
59	0x3e2a9e70	0.16662002
60	0xbdb99e1d	-0.09063361
61	0xbdbbf311	-0.091772206
62	0xbc95d7bc	-0.018291347
63	0x3dbc26d7	0.091870956
64	0x3ddd6043	0.10809376
65	0xbd23e9db	-0.040017944
66	0x3cd0737f	0.025445698
67	0x3dcc3225	0.09970502
68	0x3cbd55de	0.023112234
69	0xbdc2cd5d	-0.09511826
70	0x3d1a9ab4	0.037745193
71	0x3e7735c1	0.24141599
72	0x3e66bbd1	0.22532584
73	0xbbf6ec17	-0.0075354683
74	0xbe4bcaa6	-0.19901523
75	0xbdd4597f	-0.103686325
76	0x3db08cb8	0.0862059
77	0x3d77b535	0.060475547
78	0xbbdd49e2	-0.0067531923
79	0xbda8757d	-0.08225534
80	0x3d4c21ee	0.049837045
81	0x3d4cbf4d	0.049987126
82	0xbdb12a2f	-0.08650624
83	0xbe20c967	-0.15701829
84	0xbdf4155d	-0.11918137
85	0xbe849961	-0.2589827
86	0xbecc8df4	-0.39952052
87	0xbe8cf696	-0.2753188
88	0xbdb5943f	-0.08866166
89	0xbbb98e7a	-0.0056627365
90	0xbd77b405	-0.060474414
91	0x3ddb0cd8	0.10695809
92	0x3e01b2cf	0.12665866
93	0xbb948d20	-0.004533425
94	0x3cd6fc49	0.026243346
95	0xbdf5e436	-0.120064184
96	0xbd1ae1d7	-0.037813034
97	0x3d7056be	0.058676474
98	0xbde22b75	-0.11043445
99	0xbdea434f	-0.11438619
100	0xbd92ff35	-0.07177583
101	0x3ddf320d	0.10898218
102	0x3e081ff6	0.13293442
103	0xbcd606e4	-0.026126333
104	0x3ca31cec	0.019911252
105	0x3e1f980a	0.15585342
106	0x3e47af60	0.19500494
107	0x3d78027b	0.06054924
108	0x3d08a01b	0.033355813
109	0xbb99a29c	-0.004688574
110	0xbdfb26bb	-0.122632466
111	0x3d6bafbe	0.057540648
112	0x3d07b0b7	0.033127513
113	0xbd69a37f	-0.057040688
114	0xbb805bb4	-0.003917182
115	0x3cb2557b	0.021769276
116	0x3da8a645	0.082348384
117	0xbd85780e	-0.06517039
118	0xbe0f50a5	-0.13995607
119	0xbe14e81a	-0.14541665
120	0x3e13b7a8	0.14425528
121	0xbaebd441	-0.0017992334
122	0xbd6c9742	-0.05776144
123	0xbdad2815	-0.08454911
124	0x3d86614e	0.06561528
125	0x3e03bd99	0.12865295
126	0x3d6e1915	0.05812939
127	0xbdfc7051	-0.1232611
128	0xbe2ee772	-0.17080477
129	0xbdb065fc	-0.08613202
130	0x3b235850	0.0024924465
131	0x3da6dde6	0.081477925
132	0x3d835d8d	0.06414328
133	0x3d127ebd	0.0357654
134	0x3d4cbbd5	0.049983818
135	0x3d8ba5c7	0.06818729
136	0x3bf8688e	0.0075808233
137	0x3ae35cb9	0.0017346359
138	0x3d0a3142	0.033738382
139	0xbdae6cda	-0.085168555
140	0x3d430dfa	0.04762075
141	0x3db080f5	0.086183466
142	0xbcdd18cc	-0.026989363
143	0xbcd84846	-0.02640165
144	0xbdbe0f6d	-0.09280286
145	0x3d592e79	0.053022835
146	0x3de229ff	0.11043166
147	0xbd1057e9	-0.035240088
148	0xbde64570	-0.11243713
149	0xbb2fd376	-0.0026828921
150	0x3d6ef099	0.05833492
151	0x3dbb3169	0.091402836
152	0xbc9ec8ef	-0.019382922
153	0xbe41890f	-0.1889994
154	0xbd2dcca7	-0.0424315
155	0x3d8f427d	0.069951035
156	0x3d007003	0.031356823
157	0xbe389634	-0.18026048
158	0xbe21544c	-0.15754813
159	0xbd8db367	-0.06918984
160	0xbc8d50d8	-0.017250463
161	0xbd9c960e	-0.07645808
162	0xbdc4fba7	-0.096183114
163	0xbd40688c	-0.046974704
164	0xbd0e6554	-0.034764603
165	0xbd69cf18	-0.057082266
166	0xbe58ea25	-0.21183069
167	0xbeaafb1a	-0.333947
168	0xbec39ca0	-0.38205433
169	0xbd3780f8	-0.04480073
170	0xbdc900d3	-0.0981461
171	0xbc2a83ad	-0.0104073705
172	0x3e592c6c	0.21208352
173	0x3d2e2d27	0.04252353
174	0xbdb10439	-0.086433835
175	0xbdb64cb9	-0.089013524
176	0xbe844ecc	-0.25841367
177	0x3ca981ec	0.020691834
178	0xbd210911	-0.039315287
179	0xbd572de2	-0.05253399
180	0xbc4cefa1	-0.012508304
181	0xbdf5580e	-0.11979686
182	0x3defb1fe	0.11703871
183	0x3bc7677d	0.006085335
184	0xbcf9c1ac	-0.030487858
185	0xbd33f58a	-0.043935336
186	0x3e4c80f9	0.19971074
187	0x3e61a04e	0.22033808
188	0xbcfac9a5	-0.03061373
189	0x3d6cca3d	0.057810057
190	0xbd1893bd	-0.03725027
191	0x3b8bdf26	0.0042685447
192	0x3d781f24	0.060576573
193	0xbd37d84b	-0.044884007
194	0xbd18b007	-0.037277248
195	0xbbd2e1e8	-0.0064356215
196	0xbc588d21	-0.0132172415
197	0xbd03f1e0	-0.03221309
198	0xbdb3cc72	-0.08779229
199	0x3d42b64c	0.047537133
200	0xbdb5ed17	-0.08883112
201	0x3c783ac1	0.015150727
202	0x3dd24484	0.102669746
203	0xbd35beb2	-0.044371314
204	0x3c309854	0.010778505
205	0xbd4374d0	-0.047718823
206	0xbd3b9d22	-0.04580415
207	0xbd058bc3	-0.03260399
208	0x3cb28aeb	0.021794757
209	0x3c9bd3b7	0.019021852
210	0x3cf90183	0.030396229
211	0xba8826a1	-0.0010387489
212	0xbbd6a3a8	-0.006550271
213	0x3dc53c4b	0.096306406
214	0x3dee65ec	0.11640534
215	0xbd9e72cb	-0.07736739
216	0x3db06afc	0.08614156
217	0xbd13762a	-0.036001362
218	0xbd909314	-0.07059303
219	0x3d710b5d	0.058848727
220	0x3d3512da	0.04420743
221	0x3d43a112	0.04776103
222	0xbc3fe4d3	-0.011712271
223	0xbd82634e	-0.06366597
224	0x3da955b6	0.08268301
225	0xbd87e340	-0.066351414
226	0xbd463c30	-0.048397243
227	0x3e2061f0	0.1566236
228	0xbdea726f	-0.11447608
229	0x3da4e7eb	0.08052047
230	0xbd2c979c	-0.042136773
231	0xbbf11353	-0.00735704
232	0xbd87834f	-0.06616842
233	0xbe0f9571	-0.14021851
234	0x3d79540a	0.06087116
235	0x3cbb295c	0.02284687
236	0x3d225faa	0.039642014
237	0xbd99b585	-0.07505325
238	0xbdd5c25c	-0.10437462
239	0x3d9b20df	0.07574629
240	0x3dc75826	0.0973361
241	0x3d94203f	0.07232713
242	0x3c90bb42	0.017667416
243	0x3d0ba43b	0.03409217
244	0xbcfe4a88	-0.031041399
245	0xbd2c6cf7	-0.042096104
246	0xbd2d5de0	-0.042325854
247	0xbd2dcd62	-0.042432196
248	0xbc25ad9a	-0.010112191
249	0xbdf9a55d	-0.12189744
250	0xbd525f86	-0.05136063
251	0x3e2dea3a	0.16983882
252	0x3e2cb0f3	0.16864376
253	0x3dfcbacc	0.12340316
254	0x3dd544b7	0.10413497
255	0x3bff8ad4	0.007798532

ds.proj_conv1.bias f4 [8]
0	0x3c36ff0c	0.011169206
1	0xbaf3b126	-0.0018592223
2	0xbd95cb86	-0.0731421
3	0x3d82b60a	0.063823774
4	0xbc0c806e	-0.008575542
5	0x3b0fa069	0.002191568
6	0x3d56be9c	0.052427873
7	0x3c9ddb76	0.019269686

ds.proj_bn1.weight f4 [8]
0	0x3fe524ff	1.7901915
1	0x3ffbfd71	1.9686719
2	0x3fd16e4a	1.6361783
3	0x3fbf2e7b	1.493606
4	0x3fd1e6c7	1.6398553
5	0x3fb01c79	1.3758689
6	0x3fcb0c22	1.5863078
7	0x3fcbbaee	1.5916421

ds.proj_bn1.bias f4 [8]
0	0x3cb94e3d	0.022620315
1	0x3e63bb57	0.22239433
2	0x3d956ec0	0.072965145
3	0x3d16701d	0.036728013
4	0x3d40783a	0.046989657
5	0x3dc02081	0.093812
6	0x3e420a0e	0.18949148
7	0x3e122be1	0.14274551

ds.proj_bn1.running_mean f4 [8]
0	0xbf15c61a	-0.58505404
1	0xbeb601ce	-0.35548252
2	0xbeeb1f59	-0.45922354
3	0x3ec4ff97	0.3847625
4	0xbf2d3645	-0.67660934
5	0xbecd3a2e	-0.4008345
6	0x3ef706e0	0.48247433
7	0x3e56d387	0.20979129

ds.proj_bn1.running_var f4 [8]
0	0x3f2510b1	0.64478594
1	0x3f3b4693	0.7315456
2	0x3ed16f3b	0.40905175
3	0x3eddaef4	0.4329754
4	0x3f270016	0.65234506
5	0x3f10e36f	0.56597036
6	0x3ecda450	0.40164423
7	0x3ebd036b	0.3691667

ds.fc1_conv.weight f4 [128, 256]
0	0xbd84a359	-0.064764686
1	0x3eb1ed49	0.34751347
2	0x3eacc621	0.3374491
3	0x3e98c780	0.29839706
4	0x3e9e4e62	0.30919176
5	0x3e5ad7da	0.21371403
6	0xbd92ceb4	-0.07168332
7	0xbe54de3a	-0.20787898
8	0xbcd85e51	-0.026412161
9	0xbc574caf	-0.013140841
10	0xbd96e510	-0.07367909
11	0xbdf18846	-0.1179357
12	0x3dc6b936	0.09703295
13	0xbdc54ad9	-0.09633417
14	0xbdf16364	-0.117865354
15	0x3c16a6ae	0.009195013
16	0xbefb65b1	-0.49101022
17	0xbee96c95	-0.45590654
18	0xbd8cc3f6	-0.06873314
19	0x3cc23ff2	0.023712132
20	0xbe12da6b	-0.14341132
21	0xbdbdb837	-0.09263652
22	0xbdb147ca	-0.08656271
23	0xbd81ec77	-0.0634393
24	0x3d3d1c35	0.04616948
25	0x3d840a4a	0.06447275
26	0xbce060df	-0.027389942
27	0xbe033742	-0.12814048
28	0x3d88fc85	0.06688789
29	0x3f22b7f9	0.6356197
30	0x3ef92e90	0.48668337
31	0x3e52e365	0.20594557
32	0xbe824597	-0.25443718
33	0x3c6c3171	0.014416085
34	0xbcf75046	-0.030189645
35	0xbc7e3d28	-0.0155175105
36	0x3d85f3e4	0.06540659
37	0xbb3bef55	-0.0028676589
38	0x3d98b5a7	0.074565224
39	0xbb4c13d9	-0.003113976
40	0x3ddefa5a	0.108875945
41	0x3d6a435c	0.057193145
42	0x3d97b30d	0.07407198
43	0xbca222d5	-0.019792
44	0x3e5c6eec	0.21526688
45	0xbccb5bd1	-0.024824055
46	0x3d60c83f	0.05487847
47	0x3e7e547e	0.24836919
48	0x3d331e15	0.04372986
49	0x3e64252a	0.22279802
50	0x3ebc369d	0.36760417
51	0xbd96a874	-0.07356349
52	0xbb197ef7	-0.0023421624
53	0xbcb2232d	-0.021745289
54	0x3e13dc9c	0.14439625
55	0xbd7d177b	-0.06178997
56	0x3d0841d9	0.033265922
57	0x3e661762	0.22469857
58	0x3e42cf0b	0.19024293
59	0xbeb5aefd	-0.35485068
60	0xbe7765fe	-0.2416
61	0x3e3976ac	0.18111676
62	0x3db184c2	0.086679
63	0x3ccaccb5	0.024755815
64	0xbdb04c25	-0.086082734
65	0xbca7bce5	-0.020475814
66	0xbe13c188	-0.14429295
67	0xbd632fc7	-0.055465486
68	0x3db14502	0.0865574
69	0xbd46fd58	-0.04858145
70	0x3d61dd0b	0.055142444
71	0x3d1c9d9a	0.038236238
72	0x3dbc04d1	0.09180606
73	0x3c31a22e	0.010841889
74	0xbbe4f4de	-0.0069871983
75	0xbc92d8e3	-0.017925685
76	0x3da35bda	0.07976504
77	0xbd1362f1	-0.03598303
78	0x3ddb7cf0	0.10717189
79	0x3e4bdbab	0.19908015
80	0x3e54afc2	0.20770171
81	0x3e681125	0.2266279
82	0x3ea80a3e	0.32820314
83	0xbe1a0d28	-0.15044081
84	0xbd137726	-0.0360023
85	0x3d094209	0.03351024
86	0xbc5da46a	-0.013527969
87	0xbd13bac1	-0.036066774
88	0x3c912ae1	0.017720642
89	0x3d93bdfb	0.0721397
90	0xbdcedcb2	-0.10100688
91	0xbec3ae7d	-0.38219061
92	0xbe032a62	-0.12809137
93	0x3e629ff5	0.22131331
94	0x3dd66839	0.10469098
95	0x3d89cc5c	0.067284316
96	0xbdab92db	-0.0837762
97	0xbc4fbaff	-0.012678861
98	0xbe0e4969	-0.13895191
99	0x3bb4d625	0.005518692
100	0xbda96e6e	-0.08273016
101	0x3de0a7b9	0.109694906
102	0xbe2fd50c	-0.17171115
103	0xbdf73d36	-0.12072222
104	0x3ca4b7cc	0.020107172
105	0xbd2e2fa2	-0.042525895
106	0xbe17fb92	-0.1484206
107	0xbd9e844b	-0.07740077
108	0x3c98ac3a	0.018636812
109	0x3d022953	0.03177769
110	0xbe0cf4db	-0.1376528
111	0x3d8aec7f	0.06783389
112	0xbe9b4a76	-0.30330247
113	0xbe97f46e	-0.29678673
114	0x3d1a6a9c	0.037699327
115	0x3d341d91	0.04397351
116	0xbd94fac6	-0.07274394
117	0xbd8bd160	-0.068270445
118	0xbd61b851	-0.05510742
119	0x3c99ad85	0.018759498
120	0x3dcf04be	0.101083264
121	0x3d8c4efa	0.06851001
122	0xbeb53cf3	-0.35398063
123	0xbe28d0be	-0.16485879
124	0x3de51230	0.111851096
125	0x3e6116c5	0.21981342
126	0x3e16a65e	0.14711902
127	0x3e4b72a4	0.1986795
128	0x3e980b98	0.29696345
129	0x3ea2da91	0.31807378
130	0x3e946591	0.2898374
131	0x3ec80594	0.39066756
132	0x3e51892c	0.20462483
133	0xbe9b82c0	-0.30373192
134	0xbe6a76d7	-0.22896896
135	0x3d9d1a69	0.07671053
136	0xbd138cd0	-0.03602296
137	0xbe23f440	-0.16011143
138	0xbda37d0c	-0.07982835
139	0x3df4a11f	0.11944794
140	0xbdc5c58a	-0.09656818
141	0xbc8b9400	-0.017038345
142	0x3cbf832b	0.023377975
143	0xbe817fba	-0.2529276
144	0xbf083a3e	-0.5321387
145	0xbd8d1ca9	-0.06890232
146	0x3d26e3b5	0.040744502
147	0xbcfef1cc	-0.031121157
148	0xbd856156	-0.06512706
149	0xbcce9584	-0.025217779
150	0xbda4dc73	-0.0804986
151	0xbc32d59d	-0.010915187
152	0x3de09caa	0.10967381
153	0xbc77a5f4	-0.01511525
154	0xbde81a88	-0.113331854
155	0x3e6d52ca	0.23176113
156	0x3ed73b4f	0.42037436
157	0x3ee6a025	0.45044056
158	0x3e5ec331	0.21754147
159	0x3ebc0214	0.36720335
160	0x3d9a5463	0.07535627
161	0x3e600217	0.21875797
162	0x3d1537b8	0.03643009
163	0x3de6eb12	0.11275305
164	0x3eb8ddda	0.3610676
165	0x3e8b1f60	0.27172375
166	0xbbd471e8	-0.0064833052
167	0xbdfb2426	-0.12262754
168	0x3d20837a	0.039187886
169	0x3d497153	0.04918034
170	0x3cad6f71	0.021171303
171	0x3e0038b4	0.1252163
172	0x3e51ab52	0.2047551
173	0x3e3e1637	0.18563162
174	0x3e27b3f6	0.16377243
175	0x3e37288c	0.17886561
176	0x3c49a432	0.012307214
177	0x3e21f01d	0.15814252
178	0x3e1bf416	0.1522983
179	0x3d12dbdb	0.0358542
180	0x3dc71a9f	0.097218744
181	0x3e0abd47	0.13548766
182	0x3d94d368	0.07266885
183	0x3e299e7a	0.1656436
184	0x3dab700e	0.08370982
185	0xbc272690	-0.010202065
186	0xbda96e3f	-0.08272981
187	0x3deaf483	0.11472418
188	0x3df860bc	0.121278256
189	0x3d70fc87	0.05883458
190	0xbdfb84a3	-0.12281158
191	0x3db599a3	0.088671945
192	0x3d135596	0.035970293
193	0x3d9c3b49	0.07628495
194	0xbd9a71f6	-0.075412676
195	0x3d7390a9	0.05946413
196	0x3ce015ea	0.0273542
197	0x3c05c046	0.008163517
198	0xbe5ed709	-0.21761717
199	0x3d1be1f4	0.038057283
200	0xbbea174e	-0.0071438914
201	0xbd47d493	-0.04878671
202	0xbde85e73	-0.1134614
203	0x3dd981b7	0.10620444
204	0xbca9bef7	-0.020720942
205	0xbd273d90	-0.040830195
206	0x3d343b4b	0.04400186
207	0xbd85144d	-0.06498013
208	0xbe53274c	-0.2062046
209	0x3ca99c97	0.02070455
210	0x3e19c23c	0.15015501
211	0x3d8d1127	0.06888037
212	0xbd83c323	-0.06433704
213	0x3ca09cb7	0.019605977
214	0x3db10a13	0.086445
215	0x3d7aed8f	0.06126171
216	0x3d1028e4	0.035195246
217	0x3c88a308	0.016679302
218	0xbe28c250	-0.16480374
219	0xbd4ae92f	-0.049538787
220	0x3daf20d2	0.08551182
221	0x3eade39c	0.33962715
222	0x3e19c064	0.15014797
223	0x3e8080cc	0.25098264
224	0xbd6d1ac5	-0.057886858
225	0xbd314ef0	-0.04328817
226	0xbe1ff8fb	-0.15622322
227	0x3e0106f5	0.1260031
228	0xbe4e1222	-0.20124105
229	0x3e0f4f9d	0.13995214
230	0xbe410507	-0.18849574
231	0xbde95343	-0.11392834
232	0x3baffaa8	0.0053704567
233	0xbca6e173	-0.020371174
234	0xbe02deb4	-0.12780267
235	0xbd1ddd31	-0.038541023
236	0xbda43ef0	-0.08019817
237	0x3db3ff58	0.08788937
238	0x3e12d7c9	0.14340128
239	0xbc023dc7	-0.007949299
240	0xbdf9bb28	-0.121939
241	0xbd673ecd	-0.056456376
242	0xbce89189	-0.02838971
243	0xbde93bc9	-0.11388356
244	0xbd69fba0	-0.057124734
245	0x3e0c7830	0.13717723
246	0x3dd4cbe6	0.10390453
247	0x3d9a2e36	0.07528345
248	0x3d2ee1d6	0.042695843
249	0x3dbd3f57	0.09240597
250	0xbed1de91	-0.40990117
251	0xbe39c083	-0.18139844
252	0x3e064f9e	0.13116309
253	0x3e5723cc	0.21009749
254	0x3daa91fc	0.083286256
255	0x3e24b50a	0.16084686

ds.fc1_conv.bias f4 [128]
0	0x3e0ae982	0.13565639
1	0x3e7f3460	0.24922323
2	0xbcf4280e	-0.029804256
3	0x3c86a7af	0.01643738
4	0xbe6edc4d	-0.23326226
5	0xbc8b12d6	-0.016976755
6	0xbe4c5a7e	-0.19956395
7	0xbeb530d0	-0.35388803
8	0x3af99322	0.0019041041
9	0xbe65c950	-0.22440076
10	0x3cf19321	0.029489102
11	0x3d16de3b	0.03683303
12	0x3d8fd512	0.07023062
13	0x3e9c6c0f	0.30551192
14	0x3e816dc0	0.25279045
15	0xbea91d9a	-0.33030397
16	0xbc786187	-0.015159971
17	0xbe0aee4f	-0.1356747
18	0xbde44f50	-0.1114794
19	0x3e71f5c0	0.23628902
20	0x3d3b5e7d	0.045744408
21	0x3d8b365e	0.06797479
22	0xbe6b1760	-0.22958136
23	0xbe881e5c	-0.26585662
24	0x3e9c3a0f	0.30513045
25	0x3d1a8cda	0.037731983
26	0xbe45b222	-0.19306234
27	0xbe058cc7	-0.13041984
28	0x3e854c51	0.26034787
29	0x3c457742	0.012052359
30	0xbe462f4c	-0.1935398
31	0xbe4ed759	-0.20199336
32	0xbe9cccd3	-0.30625018
33	0xbe84474f	-0.25835654
34	0xbe316501	-0.17323686
35	0xbd784196	-0.060609423
36	0xbd9d7b08	-0.07689482
37	0xbd16e2ce	-0.03683739
38	0xbd24aeff	-0.04020595
39	0x3ea0dbb9	0.31417635
40	0xbdd325ed	-0.10309968
41	0x3df223a8	0.11823207
42	0x3e838efd	0.2569503
43	0x3c6f14b7	0.014592341
44	0xbbedb7aa	-0.0072545605
45	0x3e845f5c	0.25854003
46	0xbdb93bda	-0.09044619
47	0x3e438f36	0.190976
48	0xbe1f1d00	-0.15538406
49	0xbe5f9cd3	-0.21837167
50	0xbd4db2b7	-0.050219264
51	0xbe91fc1b	-0.28512654
52	0xbe9dd6ea	-0.3082803
53	0xbe0fcee3	-0.14043765
54	0xbe5748a8	-0.2102381
55	0xbdbdc340	-0.092657566
56	0xbdddebda	-0.10836001
57	0xbe819d30	-0.25315237
58	0xbe5920ed	-0.21203966
59	0xbe2a6a06	-0.16642007
60	0x3e39f240	0.18158817
61	0x3b6b9b98	0.0035950895
62	0xbe5be3db	-0.21473639
63	0x3e126b9b	0.1429886
64	0xbe568830	-0.20950389
65	0xbd94dea9	-0.072690316
66	0xbd621768	-0.055198103
67	0xbe11a9f6	-0.14224991
68	0xbe3cd0c7	-0.18439017
69	0xbe8c123a	-0.27357656
70	0xbddc8f2a	-0.10769494
71	0xbe03657a	-0.12831679
72	0xbeab8196	-0.33497304
73	0x3ea39a71	0.31953767
74	0xbdae0451	-0.08496917
75	0xbe68deec	-0.22741288
76	0xbe559cf8	-0.2086066
77	0xbe82cb62	-0.25545794
78	0x3e4e3cd2	0.20140389
79	0xbe08a1f9	-0.13343038
80	0xbe54b124	-0.20770699
81	0xbd96bb98	-0.073599994
82	0xbdeb1632	-0.11478843
83	0xbd3dc0fb	-0.04632662
84	0x3ea30827	0.31842157
85	0xbe01a039	-0.12658776
86	0xbe99b8ec	-0.30023897
87	0x3e125859	0.14291514
88	0xbceae35f	-0.028672872
89	0xbdfbf634	-0.12302819
90	0x3e6829dc	0.22672218
91	0xbd9b8064	-0.07592848
92	0x3c72078d	0.014772308
93	0x3e834a07	0.25642416
94	0x3dae865e	0.08521722
95	0xbd8d4aa1	-0.06899
96	0xbe02f575	-0.12788947
97	0xbe78be66	-0.24291381
98	0xbd507662	-0.05089415
99	0xbd158df2	-0.036512323
100	0x3e8ac4b3	0.27103195
101	0x3ea34d2b	0.31894812
102	0xbe64d3f4	-0.22346479
103	0xbe826fbe	-0.25475878
104	0xbde12543	-0.10993435
105	0xbdd2a7d5	-0.10285918
106	0xbe823902	-0.25434119
107	0xbd6f32ce	-0.05839806
108	0xbd68aa80	-0.056803226
109	0x3d4e3e4d	0.050352383
110	0x3ea974f0	0.3309703
111	0xbdf6481b	-0.12025472
112	0xbde9b9be	-0.11412381
113	0xbda66b3e	-0.081259236
114	0xbe08fcc0	-0.13377666
115	0xbc5b84b1	-0.013398335
116	0xbc1b21b4	-0.009468485
117	0xbea22008	-0.31665063
118	0xbe2ee9c3	-0.1708136
119	0x3ea85d49	0.3288367
120	0xbeb046ea	-0.34429103
121	0x3ae65da2	0.0017575512
122	0xbdcee50b	-0.1010228
123	0xbe1e9887	-0.15487872
124	0x3d0d56b0	0.0345065
125	0xbcc6c3fd	-0.024263376
126	0x3da35619	0.07975406
127	0xbdc51425	-0.09622983

ds.fc2_conv.weight f4 [64, 128]
0	0xbdfc7bf5	-0.123283304
1	0x3d9ae722	0.07563616
2	0x3e7e0c58	0.24809396
3	0x3defd294	0.117100865
4	0x3e40df7b	0.18835251
5	0xbea787ad	-0.327207
6	0x3e3037cf	0.1720879
7	0xbe831b6a	-0.25606853
8	0x3c6b966e	0.014379127
9	0x3e81e299	0.25368193
10	0xbe092760	-0.13393927
11	0xbe3f3fcf	-0.18676685
12	0xbd80731f	-0.062719576
13	0xbd27bb59	-0.040950153
14	0xbd8e92fa	-0.06961627
15	0xbdd982e7	-0.10620671
16	0xbe6b5618	-0.22982061
17	0x3d93f54b	0.0722452
18	0x3e742a9d	0.2384438
19	0xbd2fee0a	-0.04295162
20	0x3ceb4a01	0.028721811
21	0x3e1b23e5	0.15150411
22	0xbe1b794e	-0.15182993
23	0x3e565c72	0.20933703
24	0xbe858153	-0.2607523
25	0x3e02c034	0.12768632
26	0xbef76502	-0.4831925
27	0xbcc6d5f4	-0.024271943
28	0xbca16701	-0.019702436
29	0xbe94ec17	-0.29086372
30	0x3e6219e9	0.22080196
31	0xbccfe498	-0.025377557
32	0xbca1e421	-0.0197621
33	0xbd89a24c	-0.06720409
34	0x3e7e17fb	0.24813835
35	0xbec95bba	-0.39327794
36	0x3e21e568	0.15810168
37	0xbe40d1b4	-0.18829995
38	0x3d835185	0.06412033
39	0x3d6a9814	0.05727394
40	0x3e29bce1	0.16575958
41	0xbe6b1176	-0.2295588
42	0x3e0c5ab8	0.13706481
43	0x3e9848c5	0.2974302
44	0xbe9059c2	-0.2819348
45	0x3dc82dc1	0.09774352
46	0x3db65367	0.089026265
47	0x3e1620f8	0.14661014
48	0x3e306889	0.17227377
49	0xbca110c4	-0.019661315
50	0xbe16d1a7	-0.14728414
51	0xbd029fa6	-0.031890534
52	0xbe5963ad	-0.2122943
53	0x3e810b3c	0.25203884
54	0x3e33cdfd	0.17559047
55	0xbe87d40d	-0.2652897
56	0x3ce10dd2	0.02747241
57	0x3e52956a	0.2056481
58	0x3e849e85	0.2590219
59	0xbe91dec6	-0.28490275
60	0x3e522852	0.20523193
61	0xbe1be06f	-0.15222333
62	0xbcf2904b	-0.02960982
63	0x3dbba8e4	0.09163073
64	0x3dbecb75	0.0931615
65	0x3f143d00	0.5790558
66	0xbdbcdb5f	-0.09221529
67	0x3e6eb5e2	0.2331157
68	0x3ec9024f	0.39259574
69	0xbe1eda25	-0.15512903
70	0xbe97d308	-0.29653192
71	0xbd3972e7	-0.045275595
72	0x3dcd3ae9	0.10021002
73	0xbd89860f	-0.06715023
74	0x3d0687b0	0.032844245
75	0xbe6ce009	-0.23132338
76	0x3e0f9008	0.14019787
77	0x3e588de8	0.21147883
78	0x3e08f5fc	0.13375086
79	0x3e3b1fb6	0.18273816
80	0x3c5d8d63	0.013522479
81	0xbe280992	-0.16409901
82	0x3c6a8ef1	0.014316306
83	0xbeb37996	-0.350537
84	0x3c22aa84	0.009928349
85	0x3e1d6048	0.1536876
86	0xbec06aa9	-0.37581375
87	0x3e230a9e	0.15922019
88	0x3e1656b3	0.1468151
89	0xbbfb36b2	-0.0076664323
90	0x3dcf5c7c	0.10125062
91	0xbe30f5d4	-0.17281276
92	0xbe698624	-0.22805077
93	0xba89c2c1	-0.0010510312
94	0x3de5b471	0.11216057
95	0xbe08e800	-0.13369751
96	0x3dead041	0.114655025
97	0x3dcba11e	0.0994284
98	0x3e886775	0.2664143
99	0xbe8d2433	-0.2756668
100	0xbe1daeb2	-0.15398672
101	0xbea65091	-0.32483342
102	0xbdb4aef1	-0.0882243
103	0x3e6e87a4	0.2329393
104	0xbeb5a454	-0.35476935
105	0xbd3e4dca	-0.046460904
106	0x3e0d7309	0.13813414
107	0xbe842ab0	-0.25813818
108	0xbe024dc9	-0.12724985
109	0x3db30f90	0.08743203
110	0x3d08abcb	0.03336696
111	0x3ea5e66a	0.32402354
112	0x3ebac6d2	0.36479813
113	0xbe63b9d6	-0.2223886
114	0x3e51d14d	0.20489998
115	0x3e178ccc	0.14799803
116	0x3da6e1a3	0.081485055
117	0x3d551385	0.05202057
118	0x3db0490a	0.08607681
119	0xbe459216	-0.19294009
120	0xbe93d725	-0.2887508
121	0x3e9c0e5c	0.30479705
122	0x3e1dec37	0.1542214
123	0x3e007222	0.12543538
124	0xbcba6d0b	-0.022757074
125	0xbeaf7d5a	-0.34275323
126	0x3c154b6e	0.009112222
127	0x3c437476	0.011929622
128	0x3de65ee0	0.11248565
129	0xbe1d14c3	-0.15339951
130	0x3d61a991	0.05509335
131	0x3c52f17d	0.012874958
132	0x3dc4c441	0.09607745
133	0x3e120e79	0.14263333
134	0xbe55a6f4	-0.20864469
135	0xbeb267bf	-0.34844777
136	0x3d5bf88c	0.05370383
137	0x3ea27de9	0.31736687
138	0x3d4b741c	0.049671277
139	0x3d98f6ba	0.07468934
140	0x3dfe7963	0.124254964
141	0xbe1c1f15	-0.15246232
142	0xbe0577ed	-0.1303403
143	0xbe9b123f	-0.30287358
144	0x3e8bb368	0.27285314
145	0x3e4388b3	0.19095115
146	0x3e814d36	0.2525422
147	0xbd2d60a8	-0.042328507
148	0x3e0e9421	0.13923694
149	0xbea68826	-0.32525748
150	0xbe30db66	-0.17271194
151	0x3e1e82a6	0.15479526
152	0xbe92d7f8	-0.28680396
153	0xbdf8424b	-0.121220194
154	0x3e42bb88	0.1901685
155	0x3e9226e7	0.28545305
156	0x3d205994	0.03914793
157	0x3e1b4a4f	0.15165065
158	0xbd964edc	-0.0733926
159	0xbdd860ed	-0.10565362
160	0xbe8aa502	-0.27079016
161	0xbe2fe61c	-0.17177624
162	0x3dd1133f	0.10208749
163	0x3e3c7134	0.18402559
164	0x3e9b0a12	0.3028112
165	0x3eaa289b	0.33234105
166	0xbcff070d	-0.031131292
167	0xbe000f5d	-0.1250586
168	0x3dbe39db	0.09288379
169	0x3e45e7d4	0.19326717
170	0xbba120d1	-0.004917242
171	0x3c7049f8	0.014666073
172	0x3e36c282	0.17847636
173	0x3b54e5db	0.0032485637
174	0x3e08efbe	0.13372704
175	0xbe56901c	-0.20953411
176	0xbdbb27ef	-0.09138476
177	0xbdd13e9f	-0.10217022
178	0x3e4e7866	0.20163116
179	0xbee64434	-0.4497391
180	0xbec42009	-0.3830569
181	0xbe4b092b	-0.19827716
182	0x3ed9f653	0.42570743
183	0x3e151f88	0.1456281
184	0xbe8689d6	-0.26277035
185	0x3e95a0fc	0.29224384
186	0xbeaab5b1	-0.33341745
187	0x3e128e66	0.14312133
188	0xbe4fbb9a	-0.20286408
189	0x3db3a9f9	0.08772654
190	0x3e3bd746	0.18343839
191	0xbeec4622	-0.46147257
192	0x3e818662	0.25297838
193	0x3e3f2277	0.18665491
194	0x3e966262	0.29371935
195	0xbe43e3f4	-0.19129926
196	0x3ebf4230	0.37355185
197	0xbd2d3c04	-0.042293563
198	0x3e1ff15f	0.1561942
199	0x3e1a634d	0.15076943
200	0xbe598569	-0.21242298
201	0xbe6a1229	-0.2285849
202	0x3e893277	0.26796314
203	0xbee0372d	-0.43792096
204	0x3eb4dd85	0.35325256
205	0x3da34d04	0.07973674
206	0xbd6631db	-0.05619989
207	0x3ea6e92d	0.32599774
208	0xbde9b037	-0.114105634
209	0x3e5ce7cc	0.21572798
210	0x3e6d82d9	0.23194446
211	0x3e3f2db9	0.18669786
212	0xbdfa5ebd	-0.12225101
213	0xbebdbe70	-0.37059355
214	0xbeaf505a	-0.3424099
215	0xbe3f0ec7	-0.18657981
216	0x3cffd65c	0.031230144
217	0x3e7cdf37	0.24694525
218	0xbeb6c07b	-0.35693726
219	0x3eaadd2f	0.33371875
220	0x3eceec55	0.40414682
221	0xbddc341d	-0.10752127
222	0x3e07007e	0.13183782
223	0x3d3b5849	0.045738492
224	0xbec8e923	-0.3924037
225	0xbe328220	-0.17432451
226	0x3dbdfb04	0.09276393
227	0x3e2311a6	0.15924701
228	0x3d113bbd	0.03545736
229	0xbe480e8f	-0.19536804
230	0xbe93a2c7	-0.28835127
231	0x3e317bee	0.17332432
232	0x3e3ab152	0.18231705
233	0x3d8b3df0	0.06798923
234	0x3e5b4488	0.21412861
235	0x3e30e2d1	0.17274024
236	0x3e409a26	0.18808803
237	0xbe228f12	-0.1587489
238	0xbdca0ebc	-0.098660916
239	0xbe7280f1	-0.23682
240	0xbe50a94a	-0.20377079
241	0xbd648878	-0.05579421
242	0xbec03b10	-0.3754506
243	0xbe8a84f4	-0.2705456
244	0x3ec8689c	0.3914231
245	0xbecc8ecf	-0.39952704
246	0xbd56c445	-0.05243327
247	0xbe53abc1	-0.20670988
248	0xbe6802e3	-0.22657351
249	0x3e843204	0.2581941
250	0x3e4abdcc	0.19798964
251	0x3e76a947	0.24088012
252	0xbb8df7a9	-0.004332502
253	0x3e19e217	0.15027653
254	0x3e01093e	0.12601182
255	0x3e8632b3	0.26210555

ds.fc2_conv.bias f4 [64]
0	0xbd862130	-0.06549299
1	0xbd0fb796	-0.03508719
2	0xbd0c3762	-0.034232505
3	0xbdcf3fd6	-0.101195976
4	0x3e523ce6	0.20531043
5	0x3e67d61d	0.22640271
6	0xbe17ba09	-0.1481706
7	0xbe064610	-0.13112664
8	0x3ea12c0e	0.31478924
9	0xbe16e746	-0.14736661
10	0x3dc5b0cb	0.09652861
11	0xbe2ed67a	-0.17074004
12	0xbd979446	-0.07401328
13	0x3e7f7341	0.2494631
14	0x3e51914c	0.20465583
15	0x3e5dd148	0.21661866
16	0x3dad6e6d	0.08468328
17	0x3d9b1592	0.075724736
18	0xbe5761d4	-0.21033412
19	0x3e9148a2	0.28375727
20	0xbe3f6da0	-0.18694162
21	0xbe3320cb	-0.17492978
22	0xbe183aff	-0.14866255
23	0x3d87e2e6	0.06635074
24	0xbbc9f18e	-0.0061628288
25	0x3df77f7c	0.120848626
26	0xbcc26382	-0.02372909
27	0xbe314559	-0.1731161
28	0xbda36445	-0.07978109
29	0xbe148c84	-0.14506727
30	0xbe7208de	-0.23636195
31	0xbe43f078	-0.191347
32	0x3e8fdfd1	0.28100446
33	0xbe47bd65	-0.19505842
34	0x3ea4a3c0	0.3215618
35	0xbe314c0c	-0.17314166
36	0xbd470920	-0.048592687
37	0x3e3f30a4	0.18670899
38	0xbe218953	-0.15775041
39	0xbd8da56c	-0.06916317
40	0xbdf49f8a	-0.11944492
41	0x3e5cba3f	0.21555422
42	0xbdc80782	-0.09767057
43	0x3e440e7c	0.1914615
44	0xbdfb2fd0	-0.12264979
45	0xbc65bdf8	-0.014022343
46	0xbdcb39b7	-0.099231176
47	0xbe129abd	-0.1431684
48	0x3e27dca5	0.16392763
49	0x3d162183	0.036653053
50	0x3e37bfdc	0.17944282
51	0xbe2d1195	-0.16901238
52	0xbe54c4f3	-0.20778255
53	0xbb55f6b7	-0.0032648274
54	0xbe15f098	-0.1464256
55	0x3e89f6c4	0.2694608
56	0xbdb0b8e1	-0.08629013
57	0xbd9875d8	-0.07444352
58	0xbe3dc088	-0.18530476
59	0xbd206b2c	-0.039164707
60	0xbe138224	-0.14405113
61	0xbce77832	-0.028255556
62	0xbc64affc	-0.013957974
63	0xbe1dd90a	-0.15414825

head.weight f4 [15, 64]
0	0x3de56fdc	0.11202976
1	0xbf350811	-0.70715433
2	0x3e30d213	0.17267637
3	0xbf009ad2	-0.5023624
4	0x3e525cd1	0.20543219
5	0x3e660480	0.22462654
6	0xbedd729f	-0.4325151
7	0xbf29dfc5	-0.6635707
8	0x3e23c5cc	0.15993422
9	0xbeff7fe6	-0.49902266
10	0xbdafeb41	-0.08589793
11	0xbf307e75	-0.6894296
12	0xbea2fe5d	-0.3183469
13	0x3e8e5448	0.27798676
14	0x3db480cc	0.088136286
15	0x3e74a23a	0.2389001
16	0x3e1057bf	0.14095972
17	0x3e35be1a	0.17748299
18	0xbefe8723	-0.49712476
19	0x3e262299	0.16224135
20	0xbe95f878	-0.2929113
21	0xbe5c5e4c	-0.21520346
22	0xbf459aa9	-0.7718912
23	0x3e3ca928	0.18423903
24	0xbf336c57	-0.7008719
25	0x3df8ddce	0.12151681
26	0x3ceacd3f	0.028662322
27	0xbf06111a	-0.52369845
28	0x3ebf6257	0.37379715
29	0xbf216370	-0.63042355
30	0xbe74bf0d	-0.23901005
31	0xbf06b86f	-0.52625173
32	0x3e4f9ddf	0.20275067
33	0xbe9617d0	-0.29315042
34	0x3dcb6621	0.09931589
35	0x3e170b85	0.14750488
36	0x3d991bf2	0.07476033
37	0xbf8a305b	-1.0796007
38	0xbef1ed09	-0.47251156
39	0xbf36f17c	-0.71462226
40	0xbf2a639d	-0.6655825
41	0x3e4bcc34	0.19902116
42	0x3ee51d29	0.4474881
43	0x3de0d7e8	0.10978681
44	0xbf0461c2	-0.51711667
45	0xbf765017	-0.9621596
46	0xbf191dc3	-0.5981104
47	0xbeccb0fd	-0.3997878
48	0x3e34751c	0.17622799
49	0xbf73727c	-0.95096564
50	0x3e87d142	0.2652684
51	0xbf2b455b	-0.66902703
52	0xbe2ca885	-0.1686116
53	0x3e3f654d	0.18690987
54	0xbecc8018	-0.39941478
55	0x3e09f52f	0.13472436
56	0x3eabfeab	0.33592734
57	0x3e3e7c51	0.1860211
58	0xbeea7cb4	-0.45798266
59	0x3ea15318	0.31508708
60	0xbecdfaba	-0.40230352
61	0xbf4a0595	-0.7891477
62	0x3e99d20d	0.3004307
63	0x3e5c653b	0.21522991
64	0xbed5e89c	-0.4177903
65	0x3e69b42e	0.2282264
66	0xbf106acd	-0.56412965
67	0x3db9799e	0.090564
68	0x3ea2680e	0.31720012
69	0xbf0fdb54	-0.56194043
70	0xbf1dd5a5	-0.6165412
71	0x3e6280ab	0.22119395
72	0xbf670be0	-0.90252495
73	0xbef46fa4	-0.47741425
74	0x3e5e4ad2	0.21708229
75	0x3e351b37	0.17686163
76	0xbf18347e	-0.59455097
77	0x3e733077	0.23748957
78	0xbe4bc448	-0.19899094
79	0x3dc544dc	0.096322745
80	0x3dc9d13a	0.0985436
81	0x3dc7418a	0.097292975
82	0x3d8215b6	0.06351797
83	0x3d3d8510	0.046269476
84	0xbb9bfb94	-0.004760215
85	0xbe14bd03	-0.14525227
86	0xbf4a3650	-0.78989124
87	0x3e2ba7f7	0.16763292
88	0x3e17dd34	0.14830476
89	0x3e677256	0.2260221
90	0x3df316d0	0.118695855
91	0xbec267de	-0.3796987
92	0xbf5c5103	-0.86061114
93	0xbeebf8a5	-0.46088138
94	0xbe4beded	-0.1991498
95	0xbebf9d9a	-0.37424928
96	0xbf632bb8	-0.88738585
97	0x3e730d7e	0.23735616
98	0xbf520357	-0.82036346
99	0xbf34e957	-0.7066855
100	0x3cac81d3	0.021057999
101	0x3e689185	0.22711761
102	0x3e61fa84	0.2206822
103	0x3e14e562	0.14540628
104	0x3e63e4b3	0.2225521
105	0x3e8f56f6	0.27996033
106	0xbef2283b	-0.47296318
107	0xbcb0f97c	-0.021603338
108	0x3e11e9fb	0.14249413
109	0x3e5dc5c6	0.21657476
110	0x3e861c1c	0.2619332
111	0xbf23e203	-0.6401674
112	0x3e3e913a	0.18610087
113	0x3e3540d9	0.17700519
114	0x3eb0fa48	0.3456595
115	0xbf5bfcd8	-0.85932684
116	0xbf50212c	-0.81300616
117	0x3dae611a	0.085146144
118	0xbf0d252f	-0.5513486
119	0xbf274181	-0.65334326
120	0xbf0f82d1	-0.56058985
121	0xbec7801b	-0.38964924
122	0xbed30b97	-0.4121978
123	0xbf55dbe0	-0.8353863
124	0xbedbab1a	-0.42903978
125	0x3dc5847e	0.096444115
126	0xbf65e3c8	-0.8980069
127	0xbf535ac5	-0.8256038
128	0xbed1ca12	-0.4097448
129	0x3d3de234	0.046358302
130	0xbeb9e69d	-0.36308756
131	0x3dc9b4b6	0.09848921
132	0xbf17aaf3	-0.5924522
133	0xbf54ae27	-0.83078235
134	0xbefb0b5b	-0.490321
135	0x3e8c1b1d	0.27364436
136	0xbf6fe1bd	-0.93703824
137	0x3e73fb38	0.23826301
138	0x3e2bdf0e	0.16784307
139	0x3cef1ccd	0.029188538
140	0x3ec4c62e	0.3843245
141	0xbf494660	-0.7862301
142	0x3c73c469	0.014878371
143	0x3e19692c	0.14981526
144	0x3d8564b3	0.065133475
145	0x3dd28ecc	0.102811426
146	0x3e36c175	0.17847236
147	0xbf5b0740	-0.8555794
148	0x3ec42c8c	0.38315237
149	0x3eefb799	0.4681976
150	0x3e3b790d	0.18307896
151	0x3e430b82	0.19047359
152	0x3d0b6a93	0.034037184
153	0xbf7fd2d1	-0.99931055
154	0xbd0f6cbc	-0.035015807
155	0x3ee526a0	0.4475603
156	0xbecd6d8e	-0.40122646
157	0x3e3d8fe0	0.18511915
158	0x3e912c94	0.28354323
159	0x3e935fe3	0.28784093
160	0xbf356837	-0.70862144
161	0x3d58786d	0.052849222
162	0xbf77776c	-0.966666
163	0xbf3dc2e8	-0.7412553
164	0x3e81bc17	0.25338814
165	0x3e3b46dd	0.18288751
166	0x3ebd221e	0.36940092
167	0xba875e80	-0.0010327846
168	0x3cd9fc77	0.026609642
169	0xbf126a9f	-0.5719394
170	0xbeb97872	-0.36224705
171	0x3d47bd73	0.048764657
172	0x3d601dce	0.054715924
173	0xbce9d90f	-0.028545884
174	0x3da65bfe	0.08123015
175	0x3e154c04	0.14579779
176	0xbe84d696	-0.25944966
177	0xbc91fbc6	-0.01782025
178	0xbf033e72	-0.5126716
179	0x3e206d1d	0.15666623
180	0x3d810aa3	0.06300857
181	0xbf46ef6e	-0.7770909
182	0xbf136687	-0.5757832
183	0xbf11cb86	-0.5695118
184	0xbef50e9c	-0.4786271
185	0xbe7d0d39	-0.24712075
186	0x3e98f184	0.29871762
187	0xbf1edeb4	-0.6205857
188	0xbf0f6a90	-0.56021976
189	0x3d066add	0.032816757
190	0x3e1faffa	0.15594473
191	0xbf49421d	-0.78616506
192	0x3e721b8e	0.23643324
193	0xbf192548	-0.5982251
194	0x3e6e3378	0.23261821
195	0xbec9074b	-0.39263377
196	0xbf1227d1	-0.57092005
197	0xbf3158a7	-0.692759
198	0x3e288751	0.16457869
199	0x3e155c77	0.14586054
200	0x3e0b3abb	0.13596623
201	0x3eafe1b8	0.34351897
202	0xbe95aaf2	-0.29231983
203	0x3eddb583	0.43302545
204	0x3e69fe54	0.22850925
205	0xbf3bb085	-0.7331622
206	0xbf560a00	-0.8360901
207	0xbf0a1e9f	-0.53952974
208	0xbed1bc4d	-0.40963975
209	0xbee11adf	-0.43965814
210	0x3e884a30	0.266191
211	0xbf331211	-0.6994944
212	0x3ebb43ec	0.36575258
213	0x3ebdbb26	0.37056845
214	0x3e85308f	0.2601361
215	0xbf1fe51d	-0.62458974
216	0xbecd0e91	-0.40050176
217	0x3e09010b	0.13379304
218	0xbf2f3b39	-0.6844974
219	0x3e28d027	0.16485654
220	0x3e600dae	0.21880218
221	0x3ec58f92	0.38586098
222	0x3edb14f6	0.4278943
223	0x3e88a1b2	0.26685864
224	0xbf4db193	-0.8034908
225	0x3ef0f1e6	0.47059554
226	0xbf42a2d8	-0.7602973
227	0x3e1cf435	0.15327533
228	0x3e5523f0	0.2081449
229	0xbf58cedc	-0.8469064
230	0x3e2921da	0.1651682
231	0xbf15c512	-0.5850383
232	0xbee99de9	-0.45628288
233	0xbf0cca8f	-0.5499658
234	0x3e755ec7	0.23961936
235	0xbf0ff10c	-0.56227183
236	0xbeda8a87	-0.42683813
237	0xbf2731c1	-0.65310293
238	0xbe8903da	-0.2676075
239	0x3e88a390	0.26687288
240	0xbf33e0ce	-0.702649
241	0xbf12d731	-0.57359606
242	0xbf27af27	-0.65501636
243	0x3e8243dc	0.25442398
244	0x3e37af23	0.17937903
245	0x3e2e5a83	0.17026715
246	0x3e2f2575	0.17104132
247	0xbf527ca6	-0.8222145
248	0x3e70a59d	0.23500676
249	0xbf44cef8	-0.7687831
250	0x3e1db820	0.1540227
251	0x3e38614d	0.18005867
252	0x3e1a251e	0.15053222
253	0xbe3cfaf9	-0.18455113
254	0x3e53d78b	0.20687692
255	0x3e0dde54	0.13854343

head.bias f4 [15]
0	0x3dc79416	0.09745042
1	0xbc8949e9	-0.016758876
2	0xbe39f35f	-0.18159245
3	0xbe0db8c1	-0.1384001
4	0xbe0e8e9a	-0.13921586
5	0xbd37ac3f	-0.044842
6	0xbe04e6e8	-0.12978709
7	0x3ea99e40	0.33128548
8	0xbe27804a	-0.16357532
9	0xbc6ab7a8	-0.014326014
10	0x3e982660	0.29716778
11	0xbe1f3982	-0.15549281
12	0xbe1cb756	-0.15304312
13	0x3e9228b3	0.28546676
14	0xbdd61a42	-0.10454227
