surrogate/trained_model/BCRNet/model_rate8_fold4.pth (torch, 179077 bytes, 18 tensors)

ds.proj_conv.weight f4 [16, 2, 7]
0.069528505 -0.06842638 -0.23619823 -0.2818388 -0.27907738 -0.23334183 -0.11134748 -0.07925029
-0.05946464 -0.052057218 0.021715373 0.027073411 0.06801132 0.050601456 -0.06949442 -0.11876661
-0.19693404 -0.22338328 -0.2008275 -0.09881512 0.0076335184 0.09030143 0.06556024 0.03165678
-0.016986392 -0.05990535 -0.132158 -0.14250627 0.0991949 -0.06729584 -0.228534 -0.30988088
-0.2038861 -0.17359634 -0.048042566 -0.13649598 -0.04910077 -0.10621448 -0.008530064 0.026437443
0.100119635 0.06731288 -0.02641371 -0.043105647 -0.043097667 -0.047850415 -0.017380433 -0.038658198
-0.04912566 -0.04567593 -0.14167419 -0.15425418 -0.2477407 -0.29730767 -0.11591861 -0.084999636
0.084372684 0.09904474 0.10304736 0.108531825 0.08128079 0.07684832 0.039132006 0.09091344
0.12772585 0.10203337 0.10844001 0.11072363 0.08439397 0.12333818 -0.05175924 0.06294307
0.121850565 0.15412013 0.10977261 0.07675106 0.027605832 -0.10406556 -0.08481179 -0.07174798
-0.057080515 -0.10377044 -0.20518373 -0.14448495 -0.0013532208 0.01538107 0.071929865 0.11266964
0.06455115 0.065135606 -0.006765119 -0.1157422 -0.18782651 -0.20457868 -0.14824933 -0.21575092
-0.25193998 -0.1374293 0.000775719 0.009315516 0.18563537 0.23655118 0.11424801 0.16488735
0.05218767 -0.05515846 -0.034096878 0.006622383 -0.0034774353 -0.023912597 -0.092165254 -0.08523744
0.112700336 0.0820011 0.07799876 0.045082707 -0.015593349 -0.046001725 -0.04153818 0.02537954
0.08515457 0.14675495 0.09666206 0.20389417 0.12607309 0.013330753 0.008976163 0.14055774
0.12917317 0.1492369 0.13689095 0.119393416 -0.040499616 -0.019762024 0.0044008703 -0.004676689
0.019534422 -0.027019847 -0.14457208 -0.11174941 0.067262396 0.17106251 0.110344775 0.0561435
0.18747558 0.10481591 0.08989614 0.07478188 0.035905834 0.099140644 0.0641379 0.013957481
0.01836038 0.010411098 -0.12479856 -0.14068472 -0.09744773 -0.08561583 -0.14462057 -0.12713976
-0.047956884 0.0815782 0.15088446 0.14321618 0.049775843 0.074508555 -0.01579355 -0.03694461
0.12366748 0.13047679 0.105400205 0.081347525 0.04848524 0.014386176 0.0074954466 0.04188977
0.1339884 0.2001956 0.121884644 0.12427055 0.104486704 0.033090558 -0.043168906 -0.082843795
-0.09131277 -0.075054675 -0.11272992 -0.108288415 -0.07609291 -0.0058621624 0.08302934 0.063714795
0.11344885 0.15011461 0.042495117 0.06542169 -0.02541523 -0.169923 -0.20325553 -0.14544128
-0.24164829 -0.19958304 -0.10016837 -0.042182878 0.030217607 0.037771687 0.067962974 0.12533183
0.09572554 0.04413965 0.012611815 -0.017487325 0.057474818 0.10417859 0.21244217 0.20976968
0.15923502 -0.007984544 0.046088967 0.028641623 0.049481027 0.055265367 0.09433834 0.08723516
00000000: f664 8e3d 2123 8cbd f3dd 71be 2d4d 90be
00000010: 3be3 8ebe 29f1 6ebe 260a e4bd fa4d a2bd
00000020: 3291 73bd f339 55bd 70e4 b13c 0fc9 dd3c
00000030: 8549 8b3d 7943 4f3d 1753 8ebd e93b f3bd
00000040: 14a9 49be 96be 64be b9a5 4dbe 955f cabd
00000050: 9822 fa3b f5ef b83d 7244 863d 8aaa 013d
00000060: 0c27 8bbc 505f 75bd 6d54 07be 2aed 11be
00000070: b226 cb3d 67d2 89bd d104 6abe b5a8 9ebe
00000080: 85c7 50be 3dc3 31be 48c8 44bd 9ac5 0bbe
00000090: e41d 49bd fa86 d9bd aec1 0bbc 5693 d83c
000000a0: 860b cd3d 56db 893d 9161 d8bc 8c8f 30bd
000000b0: 2e87 30bd ccfe 43bd 6961 8ebc 0f58 1ebd
000000c0: fd37 49bd af16 3bbd 0a13 11be cff4 1dbe
000000d0: bdaf 7dbe b638 98be bc66 edbd 4a14 aebd
000000e0: 96cb ac3d f8d7 ca3d 7f0a d33d ef45 de3d
000000f0: 8b76 a63d a762 9d3d e248 203d d330 ba3d
00000100: 91ca 023e dff6 d03d cc15 de3d 12c3 e23d
00000110: bfd6 ac3d ba98 fc3d 7f01 54bd 4ce8 803d
00000120: ca8c f93d abd1 1d3e 76d0 e03d a92f 9d3d
00000130: a025 e23c 5320 d5bd ceb1 adbd 9bf0 92bd
00000140: 42cd 69bd 9985 d4bd af1b 52be ddf3 13be
00000150: 8e5e b1ba e200 7c3c f74f 933d 57bf e63d
00000160: 6533 843d d165 853d eead ddbb 3f0a edbd
00000170: 9855 40be 137d 51be acce 17be cfed 5cbe
00000180: 47fe 80be 44ba 0cbe 9f59 4b3a 1ba0 183c
00000190: 3317 3e3e 793a 723e dcfa e93d 3bd8 283e
000001a0: bdc2 553d d6ed 61bd 2ba9 0bbd 9300 d93b
000001b0: afe5 63bb 5ae4 c3bc 23c1 bcbd f890 aebd
000001c0: 6fcf e63d 31f0 a73d d0bd 9f3d a5a8 383d
000001d0: 3f7b 7fbc 4e6c 3cbd f023 2abd c1e8 cf3c
000001e0: 8565 ae3d ee46 163e c2f6 c53d a2c9 503e
000001f0: 4e19 013e 3b69 5a3c c210 133c 5eee 0f3e
00000200: f945 043e 8fd1 183e 242d 0c3e 8984 f43d
00000210: ede2 25bd f8e3 a1bc 2d35 903b e93e 99bb
00000220: a706 a03c ba58 ddbc b40a 14be e0dc e4bd
00000230: dec0 893d 032b 2f3e 71fc e13d baf6 653d
00000240: 99f9 3f3e b9a9 d63d 781b b83d 3e27 993d
00000250: ff11 133d 400a cb3d bb5a 833d ebad 643c
00000260: 8268 963c 4f93 2a3c 6396 ffbd a80f 10be
00000270: ad92 c7bd 5a57 afbd 6a17 14be ed30 02be
00000280: 706e 44bd 7912 a73d 7581 1a3e 43a7 123e
00000290: c1e1 4b3d f197 983d 7a61 81bc 3b53 17bd
000002a0: 6045 fd3d b59b 053e 10dc d73d 8899 a63d
000002b0: 7698 463d ffb3 6b3c 5d9c f53b 9c94 2b3d
000002c0: 4134 093e 1300 4d3e a89e f93d 8f81 fe3d
000002d0: 20fd d53d f789 073d e1d1 30bd 02aa a9bd
000002e0: 3102 bbbd 44b6 99bd f2de e6bd 51c6 ddbd
000002f0: 99d6 9bbd 6217 c0bb 490b aa3d e77c 823d
00000300: df57 e83d a5b7 193e 5c0f 2e3d cffb 853d
00000310: 9a33 d0bc 4b00 2ebe 3822 50be 8fee 14be
00000320: a672 77be 7f5f 4cbe 1325 cdbd f4c7 2cbd
00000330: ea8a f73c 7cb6 1a3d 2c30 8b3d fd56 003e
00000340: c00b c43d c7cb 343d c9a1 4e3c 9441 8fbc
00000350: b76a 6b3d 965b d53d 718a 593e ddcd 563e
00000360: 810e 233e 9bd1 02bc c9c7 3c3d d6a1 ea3c
00000370: 9eac 4a3d f05d 623d 7634 c13d 59a8 b23d

ds.proj_conv.bias f4 [16]
-0.19696005 -0.22985633 -0.14702187 0.14147796 -0.10834603 0.09388522 0.18115105 0.001167191
-0.26940945 0.0395857 -0.11780689 -0.14348213 -0.2312224 -0.17964478 -0.17982684 -0.11282516
00000000: e5af 49be 755f 6bbe e78c 16be 99df 103e
00000010: 86e4 ddbd e546 c03d a97f 393e 6efc 983a
00000020: 09f0 89be 9d24 223d bd44 f1bd fbec 12be
00000030: 91c5 6cbe cdf4 37be 8724 38be e110 e7bd

ds.proj_bn.weight f4 [16]
1.3246894 1.2642174 1.2434974 1.3172932 1.0915686 1.3793494 1.5234791 1.0902762
1.1183358 1.1059996 1.0578618 1.384945 1.1389766 1.1925268 1.4067655 0.98804504
00000000: 6c8f a93f e0d1 a13f ec2a 9f3f 109d a83f
00000010: 85b8 8b3f 858e b03f 5d01 c33f 2c8e 8b3f
00000020: a125 8f3f 6591 8d3f 0468 873f e145 b13f
00000030: fcc9 913f b8a4 983f e410 b43f 85f0 7c3f

ds.proj_bn.bias f4 [16]
-0.060640857 -0.115580834 -0.069824524 0.16557758 -0.21892712 -0.12989733 -0.06747773 -0.13822931
-0.07995927 -0.14305222 -0.11351526 -0.032345477 -0.13251445 -0.07911405 -0.07937728 -0.25576207
00000000: 8c62 78bd a5b5 ecbd 2900 8fbd 2b8d 293e
00000010: 6e2e 60be ce03 05be c431 8abd fc8b 0dbe
00000020: b0c1 a3bd 487c 12be b07a e8bd b17c 04bd
00000030: deb1 07be 8c06 a2bd 8e90 a2bd 3ff3 82be

ds.proj_bn.running_mean f4 [16]
-0.5528274 -0.5522352 -0.4664585 -0.25739685 0.28871366 0.018017385 -0.093643695 0.14770347
-0.0015397955 0.15071502 0.213515 -0.24235095 0.14663248 -0.20887132 -0.40502647 0.21319064
00000000: 1986 0dbf 495f 0dbf a6d3 eebe 85c9 83be
00000010: 47d2 933e 3299 933c 44c8 bfbd 943f 173e
00000020: f7d2 c9ba 0a55 1a3e ada3 5a3e d92a 78be
00000030: d326 163e 5de2 55be a15f cfbe a64e 5a3e

ds.proj_bn.running_var f4 [16]
0.19557253 0.10522085 0.12776464 0.13526602 0.055771522 0.19011116 0.31632322 0.13659465
0.058494627 0.106105916 0.06020044 0.17094032 0.059001375 0.13870603 0.2534426 0.055684727
00000000: 2a44 483e 077e d73d bcd4 023e 2d83 0a3e
00000010: ae70 643d 80ac 423e 1ef5 a13e 78df 0b3e
00000020: 1098 6f3d 0f4e d93d bd94 763d fb0a 2f3e
00000030: 6dab 713d f408 0e3e 3ac3 813e ab15 643d

ds.proj_conv1.weight f4 [8, 16, 5]
0.0697545 -0.06698701 0.016714014 0.03234789 -0.031669088 0.09678354 -0.053956434 0.030805832
-0.027934382 -0.027286902 0.025426589 -0.12061934 -0.004550198 0.010808042 -0.023115363 0.019966753
0.09764431 0.061095253 0.036273345 -0.060450163 0.057496674 0.07437093 0.06721887 0.10367669
0.14516509 -0.19597311 0.0070559327 0.07323638 0.34911227 0.057589594 -0.11168952 0.03180529
0.11716222 0.32621905 0.07864355 -0.13642688 0.005623632 0.067426085 0.29287532 0.11864441
0.004435097 -0.012356106 -0.014462672 -0.016105164 -0.064286135 -0.12987323 -0.103741534 0.030499158
0.24266487 0.26423407 -0.13087189 -0.12574022 0.050421465 0.043455865 0.1823817 0.004953343
-0.05123348 -0.026311181 0.016876986 -0.014806789 0.03978915 0.010456181 -0.014857394 -0.033564053
-0.034205437 -0.03351095 -0.03833199 -0.014632523 0.011273142 -0.02212255 0.00020062955 -0.04120499
-0.03636845 0.05311627 0.010854571 -0.14019112 0.016885513 0.15394485 0.16497083 0.14311913
0.0048861015 -0.040541347 0.08847307 0.11050862 0.15469685 0.20361075 0.10210546 -0.012227742
0.07944268 0.065007545 0.009093199 -0.02438307 0.08932562 0.10368251 0.13199103 0.093381755
0.16568263 0.07262204 -0.0049544065 -0.20073625 -0.08751421 -0.06858518 -0.105098575 -0.04570688
-0.055370457 0.016669963 -0.045696735 -0.038822822 -0.2705422 -0.16827346 -0.015374928 0.016407676
-0.018327812 -0.1943225 -0.26804417 -0.044052653 -0.08151816 -0.06311615 -0.16058928 -0.05404473
-0.042053655 -0.19714266 -0.11524733 -0.026174905 0.1046645 0.03544057 -0.029510804 0.045226686
-0.14659418 -0.08906278 -0.03373556 -0.03875883 0.0034113345 0.025150988 0.07212192 0.08306767
-0.13607185 -0.10991307 -0.025064593 0.086411305 0.052719753 -0.11750922 -0.19362271 -0.09621178
0.015703108 -0.0017527547 -0.14920482 -0.09482211 0.0005927105 0.10728731 0.0019274249 -0.14334764
-0.024613211 -0.0520838 0.08729337 -0.051812902 -0.0071768644 -0.03473125 0.12327819 0.033443574
0.12675066 0.013277975 -0.12293573 -0.27110997 -0.017166307 0.09728993 0.027392965 -0.16193464
-0.1674565 -0.080335476 0.08933281 0.034523893 -0.0468675 -0.2323005 0.008216882 0.063189216
0.0968407 0.08512877 0.030734485 0.073387146 0.023257857 0.06842791 0.0777897 0.07038946
0.05598361 -0.04394554 0.0055029555 0.2748817 0.21163648 -0.021396473 -0.04056771 0.13518552
0.5694614 0.3881975 0.072912246 -0.027280068 -0.022232722 0.14654279 0.040294413 -0.102624424
-0.027690014 -0.003240794 0.08772337 0.021613944 0.03315487 -0.06620176 -0.03442008 0.07037394
0.1346405 -0.05376424 -0.046259478 -0.01682798 0.023620214 -0.05000943 -0.17233826 -0.0028656612
-0.080093876 0.077861294 0.0662397 0.0015644033 0.022905976 0.0015375608 0.03945416 -0.003804729
0.023554333 -0.01477723 0.011223142 0.05399141 0.04321686 -0.03201603 -0.05618524 -0.07998995
-0.03200429 -0.018253306 -0.07437115 -0.0411732 -0.016398158 0.13335925 -0.042517573 -0.12927122
-0.041455735 -0.0067559825 0.027639782 0.0931973 -0.071231656 0.07145194 0.045703713 0.0884917
-0.05247356 -0.06417758 -0.06822342 -0.036702223 0.02442002 0.104914695 -0.05994159 -0.120181285
00000000: 73db 8e3d 7c30 89bd d4eb 883c 397f 043d
00000010: 72b7 01bd 7336 c63d 6c01 5dbd 835c fc3c
00000020: a5d6 e4bc c888 dfbc 6c4b d03c 4607 f7bd
00000030: d419 95bb 3714 313c 6e5c bdbc 5191 a33c
00000040: bdf9 c73d 043f 7a3d 5c93 143d 979a 77bd
00000050: a281 6b3d c94f 983d 0caa 893d 7254 d43d
00000060: 28a6 143e 2dad 48be 7435 e73b f5fc 953d
00000070: d8be b23e 11e3 6b3d 7abd e4bd 4446 023d
00000080: bff2 ef3d 2f06 a73e df0f a13d 7db3 0bbe
00000090: 7246 b83b b016 8a3d c1f3 953e d7fb f23d
000000a0: 4a54 913b 4471 4abc d8f4 6cbc faee 83bc
000000b0: 73a8 83bd 7dfd 04be 7176 d4bd 5fd9 f93c
000000c0: 247d 783e b049 873e 4803 06be 0bc2 00be
000000d0: bd86 4e3d c7fe 313d 45c2 3a3e a74f a23b
000000e0: 33da 51bd 8c8a d7bc 9b41 8a3c 2d98 72bc
000000f0: f3f9 223d 6750 2b3c 6d6c 73bc 767a 09bd
00000100: 001b 0cbd c742 09bd 0102 1dbd 40bd 6fbc
00000110: fcb2 383c 5a3a b5bc 1660 5239 90c6 28bd
00000120: 15f7 14bd 7290 593d 5fd7 313c 438e 0fbe
00000130: 7d53 8a3c b8a3 1d3e 1dee 283e d28d 123e
00000140: 971b a03b af0e 26bd 5e31 b53d 5852 e23d
00000150: da68 1e3e 567f 503e ab1c d13d de56 48bc
00000160: d8b2 a23d ad22 853d a4fb 143c 01bf c7bc
00000170: 5af0 b63d 7f57 d43d a828 073e ef3e bf3d
00000180: b5a8 293e ddba 943d 9358 a2bb ce8d 4dbe
00000190: a63a b3bd 6376 8cbd ec3d d7bd 2337 3bbd
000001a0: 22cc 62bd 728f 883c 802c 3bbd ae04 1fbd
000001b0: 8284 8abe e14f 2cbe 1fe7 7bbc 6469 863c
000001c0: 3524 96bc 7afc 46be 163d 89be 8e70 34bd
000001d0: fef2 a6bd 0a43 81bd 8471 24be 025e 5dbd
000001e0: 7440 2cbd c4df 49be cb06 ecbd c16c d6bc
000001f0: 575a d63d 222a 113d a4c0 f1bc 9e3f 393d
00000200: c91c 16be 8c66 b6bd 4c2e 0abd 94c1 1ebd
00000210: b290 5f3b 7209 ce3c a8b4 933d 621f aa3d
00000220: 6b56 0bbe 1b1a e1bd 4354 cdbc 69f8 b03d
00000230: abf0 573d ada8 f0bd 0845 46be af0a c5bd
00000240: cea3 803c b0bc e5ba 26c9 18be 1832 c2bd
00000250: 2160 1b3a 73b9 db3d a6a1 fc3a b9c9 12be
00000260: a5a1 c9bc d355 55bd dec6 b23d c439 54bd
00000270: e72b ebbb 5b42 0ebd 4779 fc3d 21fc 083d
00000280: edca 013e dd8b 593c bac5 fbbd edce 8abe
00000290: 5ba0 8cbc f13f c73d 3667 e03c 32d2 25be
000002a0: b779 2bbe ed86 a4bd 1ff4 b63d ed68 0d3d
000002b0: 23f8 3fbd 2fe0 6dbe 1aa0 063c 5969 813d
000002c0: 6b54 c63d fe57 ae3d e3c6 fb3c 004c 963d
000002d0: 4387 be3c ef23 8c3d 3550 9f3d 5928 903d
000002e0: 124f 653d 3d00 34bd 2352 b43b 4bbd 8c3e
000002f0: 3cb7 583e a847 afbc 542a 26bd 136e 0a3e
00000300: 39c8 113f d3c1 c63e 0453 953d 737a dfbc
00000310: 6621 b6bc 500f 163e c10b 253d c12c d2bd
00000320: 2bd6 e2bc 8063 54bb 4fa8 b33d ba0f b13c
00000330: 67cd 073d ca94 87bd 12fc 0cbd 3620 903d
00000340: 33df 093e e437 5cbd 947a 3dbd d5da 89bc
00000350: 2e7f c13c b0d6 4cbd 7179 30be d1cd 3bbb
00000360: 4208 a4bd be75 9f3d aea8 873d aa0c cd3a
00000370: 50a5 bb3c fb87 c93a af9a 213d c358 79bb
00000380: 04f5 c03c 321c 72bc 45e1 373c 1926 5d3d
00000390: 2a04 313d 3e23 03bd 7f22 66bd c5d1 a3bd
000003a0: ee16 03bd f587 95bc e74f 98bd 3ba5 28bd
000003b0: 6e55 86bc 548f 083e e826 2ebd ad5f 04be
000003c0: 7dcd 29bd 4a61 ddbb d36c e23c 3ade be3d
000003d0: e7e1 91bd 6555 923d d133 3b3d 233b b53d
000003e0: 84ee 56bd 896f 83bd b8b8 8bbd 1255 16bd
000003f0: 7e0c c83c 84dd d63d 5085 75bd 9b21 f6bd

ds.proj_conv1.bias f4 [8]
-0.044992216 -0.007828886 -0.11810786 0.069280915 -0.04462468 0.093572125 -0.07999812 -0.14921097
00000000: c249 38bd ba44 00bc 89e2 f1bd 27e3 8d3d
00000010: 5ec8 36bd bea2 bf3d 0ed6 a3bd c3ca 18be

ds.proj_bn1.weight f4 [8]
1.5210747 1.4149622 1.3387989 1.4465106 1.3623694 1.5145793 1.4875635 1.5055044
00000000: 93b2 c23f 7b1d b53f c35d ab3f 4227 b93f
00000010: 1f62 ae3f bcdd c13f 7b68 be3f 5eb4 c03f

ds.proj_bn1.bias f4 [8]
0.0035786103 0.216233 0.018404486 -0.041326027 -0.014493466 -0.005926252 0.0920875 0.04499589
00000000: 1e87 6a3b 2f6c 5d3e 01c5 963c 7b45 29bd
00000010: 0176 6dbc 0131 c2bb 5f98 bc3d 9c4d 383d

ds.proj_bn1.running_mean f4 [8]
0.47963697 -0.4335214 0.38278034 0.76158994 -0.21260482 0.55275935 -0.2042331 0.18995567
00000000: fa92 f53e 84f6 ddbe c9fb c33e 8ff7 423f
00000010: 14b5 59be a381 0d3f 7b22 51be bd83 423e

ds.proj_bn1.running_var f4 [8]
0.84919745 0.6713135 0.74490154 0.57646805 0.34958437 0.9103684 0.3840599 0.7416747
00000000: 0165 593f 34db 2b3f deb1 3e3f 6993 133f
00000010: b9fc b23e e70d 693f 80a3 c43e 65de 3d3f

ds.fc1_conv.weight f4 [128, 256]
0.032510612 0.25369793 0.13826884 0.059566274 -0.025948847 -0.13554326 -0.17554978 -0.20584637
0.052709714 0.16502568 0.20207755 0.21917409 0.19124548 0.091575615 -0.11301327 0.03514871
0.2949792 -0.010542958 0.17809041 0.30885363 0.035684805 -0.042576883 0.26772368 -0.09957094
0.08431833 0.06884029 -0.04590185 -0.0067400914 0.09520248 -0.074928164 0.31321132 0.29154348
-0.09980026 -0.024839763 -0.11827993 -0.017283024 0.09936875 0.022528838 0.016750949 0.07380923
0.02072241 -0.07605095 -0.31656134 -0.18560278 0.09405161 0.13552013 -0.056528546 -0.1507782
-0.090782 -0.11214742 -0.20506018 0.021315932 0.1135937 -0.065731645 -0.26013297 -0.15971965
-0.15665124 -0.025817525 0.020912966 0.027177783 -0.103255555 -0.11604162 -0.012916468 0.014655669
0.096164614 0.12903428 0.17788213 0.14634717 -0.005020595 -0.012268541 -0.034854233 -0.06625688
-0.066046804 0.010933759 0.21887602 0.14402205 0.24910374 0.1203312 -0.037405636 -0.07614204
0.19968176 -0.08378584 0.0309046 0.13560845 0.24310102 -0.06794321 0.14043298 0.09081624
-0.046528418 0.022649767 -0.081842534 -0.052729405 0.08346271 0.049230255 -0.0037017225 0.18539399
0.09259014 0.2536318 0.10910111 0.014430247 0.040333334 -0.070078395 -0.25059456 -0.14533149
-0.17425038 -0.08405902 0.37440303 0.2521044 0.11639876 0.27624476 -0.019210888 -0.18501927
0.23208037 -0.104261994 -0.070849255 -0.10542329 0.25920948 -0.109870434 0.07907589 -0.23976189
-0.28628856 0.20927136 0.02628281 -0.105221234 0.10377833 -0.03884231 0.22720951 0.27464697
0.16153091 0.124888584 0.18516473 0.17609943 -0.04225399 0.011612183 0.0622202 0.043109972
8.9090456e-05 -0.07392902 0.11983134 0.15472277 0.34220353 0.028115846 -0.0014499424 -0.26147148
0.093495175 -0.24125127 0.017023643 0.0948033 0.14734311 -0.1002183 -0.043411862 0.00520004
-0.013497818 -0.08569766 -0.123934105 -0.030039934 0.0077092154 0.15007746 0.05808975 0.04611942
-0.11092634 -0.13291043 -0.087778606 0.07992925 0.20410632 0.04159442 0.017527608 0.19090568
-0.008709103 0.17224574 0.101830326 0.034680974 -0.25401428 -0.04658393 0.11428084 0.22787155
0.120089434 0.11373352 0.111913614 -0.10441733 0.021967001 0.07526015 -0.076415464 0.14045002
0.120389745 0.16610341 0.05329191 0.004834621 -0.123696975 -0.12661117 0.09389958 -0.18127753
0.13132863 0.04515232 0.059398856 -0.023390869 -0.027321365 0.009786141 0.09714086 0.079406925
0.045183286 -0.039517473 -0.078680374 0.02763336 0.28843617 0.17292458 -0.15803817 -0.10274659
-0.01878026 -0.16585217 0.099364325 0.1999985 -0.017173478 0.10268054 -0.10670882 -0.14010909
-0.09365655 -0.10098358 0.011589019 0.16329125 0.09201636 0.0674947 0.014020043 -0.088317595
-0.07312237 -0.12624526 -0.04329626 0.09455455 0.13511673 0.096523404 0.26331207 0.28420672
0.24501002 0.23723593 -0.03777624 -0.08736647 -0.25451034 0.1846239 0.3239043 0.19761448
0.01972511 0.21575077 0.11651365 -0.083224185 -0.06646031 0.26113468 -0.13181819 0.10722758
0.09751535 0.1888707 0.012983144 -0.0652896 -0.10600986 -0.03322896 -0.056087863 -0.046523172
00000000: d929 053d b2e4 813e 5996 0d3e c4fb 733d
00000010: ad92 d4bc dacb 0abe 52c3 33be 64c9 52be
00000020: 24e6 573d 7efc 283e 6bed 4e3e 2c6f 603e
00000030: dbd5 433e ff8b bb3d 8073 e7bd 18f8 0f3d
00000040: 8407 973e 5fbc 2cbc 555d 363e 1022 9e3e
00000050: 3b2a 123d 1965 2ebd 1413 893e d9eb cbbd
00000060: 17af ac3d 23fc 8c3d 9403 3cbd fcdb dcbb
00000070: 85f9 c23d f073 99bd 3c5d a03e 3045 953e
00000080: 1464 ccbd c27c cbbc bf3c f2bd 2195 8dbc
00000090: d881 cb3d 668e b83c 4939 893c 4b29 973d
000000a0: 0bc2 a93c 9ac0 9bbd 5414 a2be a80e 3ebe
000000b0: 219e c03d cac5 0a3e 7a8a 67bd 9a65 1abe
000000c0: eaeb b9bd 8cad e5bd 4cfb 51be c09e ae3c
000000d0: d0a3 e83d 509e 86bd 2630 85be 8c8d 23be
000000e0: 2f69 20be 467f d3bc ab51 ab3c f1a3 de3c
000000f0: a677 d3bd 3ba7 edbd 989f 53bc 551e 703c
00000100: f4f1 c43d 9021 043e bc26 363e 08dc 153e
00000110: ce83 a4bb fe01 49bc 50c3 0ebd b0b1 87bd
00000120: 8c43 87bd 8223 333c 0921 603e 847a 133e
00000130: 0d15 7f3e 3470 f63d a736 19bd 5cf0 9bbd
00000140: 6079 4c3e e997 abbd a52b fd3c f1dc 0a3e
00000150: 79ef 783e cf25 8bbd aacd 0f3e ddfd b93d
00000160: 9594 3ebd 018c b93c 0f9d a7bd cafa 57bd
00000170: 7fee aa3d aaa5 493d 9998 72bb ecd7 3d3e
00000180: e69f bd3d 07dc 813e 6770 df3d d86c 6c3c
00000190: 9134 253d 4385 8fbd ee4d 80be c7d1 14be
000001a0: b16e 32be 2327 acbd c1b1 bf3e d413 813e
000001b0: 7962 ee3d f46f 8d3e 2760 9dbc b175 3dbe
000001c0: 7aa6 6d3e 5087 d5bd 6a19 91bd 2ae8 d7bd
000001d0: 1bb7 843e c003 e1bd 8af2 a13d 2484 75be
000001e0: 6a94 92be 3b4b 563e 0c4f d73c 3b7e d7bd
000001f0: bc89 d43d 1d19 1fbd 9ca9 683e 879e 8c3e
00000200: 5c68 253e 96c5 ff3d d39b 3d3e 6953 343e
00000210: 8512 2dbd 0741 3e3c 9cda 7e3d 1594 303d
00000220: 13d6 ba38 1968 97bd 226a f53d a56f 1e3e
00000230: 4d35 af3e 3453 e63c fe0b beba 97df 85be
00000240: 667a bf3d 930a 77be 2b75 8b3c 3c28 c23d
00000250: 1de1 163e 413f cdbd a3d0 31bd 1965 aa3b
00000260: f425 5dbc 4182 afbd 2ad1 fdbd 4f16 f6bc
00000270: 969d fc3b e8ad 193e 85ef 6d3d b8e7 3c3d
00000280: 592d e3bd ac19 08be 45c5 b3bd f2b1 a33d
00000290: 3f01 513e e95e 2a3d 0f96 8f3c c77c 433e
000002a0: a0b0 0ebc 3061 303e 6b8c d03d a30d 0e3d
000002b0: 290e 82be cace 3ebd 130c ea3d 2957 693e
000002c0: 73f1 f53d 1fed e83d f732 e53d c1d8 d5bd
000002d0: 24f4 b33c fe21 9a3d b67f 9cbd 21d2 0f3e
000002e0: e68e f63d 0317 2a3e 9e48 5a3d be6b 9e3b
000002f0: d754 fdbd 5ca6 01be 6c4e c03d d1a0 39be
00000300: 037b 063e a4f1 383d 374c 733d 359e bfbc
00000310: 0ed1 dfbc 0d56 203c caf1 c63d 19a0 a23d
00000320: 1c12 393d 13dd 21bd 2d23 a1bd 5b5f e23c
00000330: e8ad 933e 2413 313e c2d4 21be ce6c d2bd
00000340: 0fd9 99bc 27d5 29be 867f cb3d 68cc 4c3e
00000350: 65af 8cbc 2d4a d23d 278a dabd c278 0fbe
00000360: 01cf bfbd 7bd0 cebd dedf 3d3c d235 273e
00000370: 1373 bc3d a93a 8a3d 53b4 653c dbdf b4bd
00000380: 2ec1 95bd 7046 01be 6b57 31bd d1a5 c13d
00000390: 0a5c 0a3e 10ae c53d d7d0 863e 8b83 913e
000003a0: e8e3 7a3e faed 723e 42bb 1abd 31ed b2bd
000003b0: 2e4f 82be 0c0e 3d3e c9d6 a53e 735b 4a3e
000003c0: 8e96 a13c c5ed 5c3e b59e ee3d 7171 aabd
000003d0: 581c 88bd 72b3 853e 59fb 06be 229a db3d
000003e0: 21b6 c73d 5267 413e 41b7 543c 8eb6 85bd
000003f0: b31b d9bd 171b 08bd 63bc 65bd 158f 3ebd

ds.fc1_conv.bias f4 [128]
0.022347564 -0.058760032 -0.009877433 0.057429884 0.05631707 -0.04868821 0.028393693 -0.042722877
-0.05748114 0.04622883 0.047346942 -0.03614113 0.020258045 -0.061962545 -0.007689084 0.004658707
0.10702308 0.04936434 -0.0137881925 0.03975196 0.026595952 -0.009033594 0.1251949 -0.07408393
-0.050292578 0.01139874 0.041655537 -0.026207825 0.11002545 0.0057215914 0.16725907 -0.0030641765
0.031219495 0.050964355 0.0056018014 0.027472787 0.01749998 0.096375965 0.03897749 0.083503075
0.009263119 0.14646445 0.028887667 0.017208884 -0.030619537 0.08625345 0.02090168 -0.021732247
0.067504615 -0.06810614 0.1341921 0.086731285 -0.05781536 -0.023563588 0.008460758 0.03185362
0.004690165 0.0052053537 0.103246704 0.10656749 0.010473432 0.040959943 0.057015356 0.07752347
0.02425634 0.121868245 0.08928756 -0.016959284 0.055446308 -0.052204657 -0.039955378 -0.028817993
0.118007086 0.02786031 0.09479078 0.02220054 -0.0059211478 0.039173476 0.012896487 0.0472761
-0.0827942 0.046034135 0.010999234 0.04565855 0.03126604 -0.020994404 0.14639433 0.034518085
0.0528139 0.020372428 0.0063975793 0.10452475 0.0016998068 0.068041265 -0.01410841 -0.007199236
-0.017672174 0.098804995 0.10101121 0.0029930128 0.08861885 0.054735694 -0.052972604 0.08917102
0.039279208 0.0354478 -0.03007297 0.047362152 0.12321126 -0.0036188383 -0.0014074554 0.019191884
0.03418431 0.026384044 0.092809275 0.061773367 0.044821575 0.042305358 0.0076187085 0.0400092
-0.089751124 0.015537808 0.01897077 0.08599556 0.07986369 0.04566106 0.017514057 0.029250937
00000000: 3d12 b73c 5cae 70bd f5d4 21bc 993b 6b3d
00000010: baac 663d 4a6d 47bd e499 e83c 2ffe 2ebd
00000020: 5871 6bbd 715a 3d3d deee 413d b908 14bd
00000030: 33f4 a53c 70cc 7dbd b6f4 fbbb 11a8 983b
00000040: eb2e db3d 4332 4a3d dfe7 61bc f4d2 223d
00000050: c1df d93c a401 14bc 1833 003e 51b9 97bd
00000060: 97ff 4dbd c8c1 3a3c ff9e 2a3d cbb1 d6bc
00000070: 0655 e13d 307c bb3b f645 2b3e 5ad0 48bb
00000080: 07c0 ff3c 00c0 503d 518f b73b 9c0e e13c
00000090: 1e5c 8f3c c360 c53d dca6 1f3d a903 ab3d
000000a0: 56c4 173c c7fa 153e d4a5 ec3c a5f9 8c3c
000000b0: d3d5 fabc a6a5 b03d 003a ab3c d307 b2bc
000000c0: dc3f 8a3d 3b7b 8bbd a769 093e 2ca0 b13d
000000d0: cdcf 6cbd 6d08 c1bc fe9e 0a3c f178 023d
000000e0: f5af 993b ac91 aa3b 0273 d33d 0e40 da3d
000000f0: c298 2b3c 9dc5 273d ef88 693d a0c4 9e3d
00000100: 3bb5 c63c 0f96 f93d 65dc b63d 32ee 8abc
00000110: ab1b 633d 8dd4 55bd 40a8 23bd b613 ecbc
00000120: b3ad f13d 4e3b e43c ab21 c23d e8dd b53c
00000130: 3006 c2bb 5e74 203d c94b 533c 95a4 413d
00000140: 0190 a9bd 4a8e 3c3d 2236 343c 7604 3b3d
00000150: d210 003d 75fc abbc 65e8 153e d662 0d3d
00000160: 6353 583d 14e4 a63c c9a2 d13b 1211 d63d
00000170: 0dcc de3a 3859 8b3d f626 67bc 92e7 ebbb
00000180: 3cc5 90bc 465a ca3d f7de ce3d 6c26 443b
00000190: cd7d b53d 8932 603d cdf9 58bd 4c9f b63d
000001a0: 3ce3 203d b631 113d 975b f6bc d1fe 413d
000001b0: 2f56 fc3d 082a 6dbb 5e7a b8ba 4c38 9d3c
000001c0: d904 0c3d 5a23 d83c ca12 be3d 1206 7d3d
000001d0: d496 373d 6248 2d3d 5ca6 f93b b0e0 233d
000001e0: 70cf b7bd 4a92 7e3c 9768 9b3c 711e b03d
000001f0: 938f a33d 1707 3b3d a479 8f3c a99f ef3c

ds.fc2_conv.weight f4 [64, 128]
0.12298126 -0.07692671 -0.21398951 0.15317386 0.3100445 -0.05575139 0.30326343 -0.097821735
-0.14390878 0.17776348 0.023914272 -0.24225226 -0.14143987 -0.015007975 -0.3079136 0.017614778
0.12874298 -0.0032250057 -0.3918169 -0.13889223 0.13682789 -0.06747739 0.43755928 -0.25416628
-0.21970116 0.061639313 0.010814997 -0.30210692 0.09263412 0.14770041 0.3534269 0.0346045
0.034652144 0.16898736 0.15447822 0.05241339 0.13374631 0.07457327 0.051723238 0.050410975
-0.021376882 -0.1239402 0.14342631 0.007744357 -0.27584952 0.28990474 -0.14322326 -0.06931062
0.06580234 -0.18056498 0.54132956 0.14990942 -0.63777095 -0.070309855 0.12109732 0.04635346
0.15243831 -0.06977803 0.07685626 -0.016149381 -0.13450707 0.03631262 0.060736455 0.26656812
-0.10089275 0.31787688 0.2841566 -0.11328533 -0.023495216 -0.3100241 -0.22763993 0.020123735
0.39782616 0.12829797 0.13908969 -0.1639855 -0.036639646 0.09748184 -0.008609837 -0.13444234
-0.1179444 -0.085591055 -0.2230556 0.052049648 0.069898926 -0.037118893 0.33224794 -0.09771086
0.13023333 -0.0449529 0.018687606 0.17159514 -0.02628183 -0.040140416 -0.14649087 -0.12951471
-0.27722138 0.16544177 0.13276307 -0.25092784 0.27421838 -0.082062244 -0.17665634 0.2964669
0.092145264 -0.12288809 -0.28816926 -0.03592864 0.32181853 0.016566178 0.030975418 0.019228498
-0.20022117 -0.08414594 0.21562093 -0.039865304 0.097984605 -0.1605028 -0.1490283 0.15133546
-0.36853015 0.09652974 0.026115187 0.24050453 0.21221004 0.09932915 -0.046450417 0.055775434
-0.078948826 -0.10029692 0.10008993 0.21723199 0.10764022 0.12215043 0.0035426083 0.051815238
0.17047977 0.027750883 0.033519696 0.105745204 -0.013847069 -0.019354647 0.06190872 0.0030850328
0.09843372 0.09827032 0.17408611 0.007400991 -0.29823717 0.091568545 -0.015424303 -0.013716433
0.07010138 -0.012517401 0.108643554 0.09335844 -0.1474327 -0.25536397 0.11937194 0.018052068
0.25338152 -0.12255373 -0.37064406 -0.01746021 -0.36391708 -0.08551168 0.16897419 0.0013353034
0.27550036 -0.0906086 -0.37458974 0.0376496 0.099993646 0.039151095 -0.09389456 0.02012518
0.1392445 0.10610306 -0.09101717 -0.024849435 0.07187708 -0.23505579 -0.329962 0.43660167
-0.335489 0.09024244 0.15217732 -0.04326468 0.060232267 -0.034871727 0.40823016 0.047610126
0.00073424564 -0.039649695 -0.09256147 0.08438773 0.014827417 0.22486918 0.070331365 0.0063996655
0.16353801 -0.31997162 0.29452902 0.026353335 0.3015867 0.15668957 0.22714022 0.059477195
0.07448033 0.056621194 0.048398115 0.021754755 0.09570228 0.050910518 0.050616283 0.07765307
0.0031346944 0.20174079 -0.03595561 -0.056309354 -0.48267737 0.038977537 -0.0052145855 -0.11415525
-0.24906968 0.2887467 -0.08454277 0.081926405 0.01111642 0.019136192 0.19676965 0.0588573
-0.40138057 0.04335358 0.14432281 0.22776191 -0.08071354 0.038289517 0.07087477 0.00080532243
-0.007783824 0.24398053 0.046217788 -0.3467385 -0.024692008 0.38424608 0.13143846 0.034255885
0.15096593 -0.030949501 0.26985025 0.07109352 0.044627115 -0.04484631 0.1000786 -0.31912297
00000000: 99dd fb3d c08b 9dbd 1120 5bbe 9cd9 1c3e
00000010: 27be 9e3e 925b 64bd 5845 9b3e c356 c8bd
00000020: d35c 13be a107 363e dde7 c33c fa10 78be
00000030: 9dd5 10be 02e4 75bc daa6 9dbe de4c 903c
00000040: 33d5 033e 9e5a 53bb 3a9c c8be c439 0ebe
00000050: 9c1c 0c3e 9631 8abd c507 e03e 1522 82be
00000060: 57f9 60be 8179 7c3d 6331 313c c2ad 9abe
00000070: f5b6 bd3d c73e 173e 5ff4 b43e 73bd 0d3d
00000080: 68ef 0d3d 060b 2d3e 8a2f 1e3e 6caf 563d
00000090: cbf4 083e dfb9 983d bfdb 533d bd7b 4e3d
000000a0: 921e afbc 5cd4 fdbd 59de 123e 60c4 fd3b
000000b0: 263c 8dbe 656e 943e 1ea9 12be baf2 8dbd
000000c0: 61c3 863d 07e6 38be 9394 0a3f db81 193e
000000d0: f544 23bf 9dfe 8fbd df01 f83d 20dd 3d3d
000000e0: ca18 1c3e c9e7 8ebd d166 9d3d b54b 84bc
000000f0: 39bc 09be 8bbc 143d cac6 783d 9e7b 883e
00000100: dca0 cebd c2c0 a23e f97c 913e 2402 e8bd
00000110: 0a79 c0bc 7bbb 9ebe 711a 69be 88da a43c
00000120: dfaf cb3e 8b60 033e 876d 0e3e d1eb 27be
00000130: 7413 16bd 8fa4 c73d 4610 0dbc 41ab 09be
00000140: d58c f1bd 5d4a afbd b068 64be 0332 553d
00000150: 2b27 8f3d fb09 18bd 671c aa3e a21c c8bd
00000160: e35b 053e 8820 38bd c016 993c a3b6 2f3e
00000170: fe4c d7bc 476a 24bd b401 16be 819f 04be
00000180: f6ef 8dbe 9169 293e 0bf3 073e 9d79 80be
00000190: 5a66 8c3e 4010 a8bd 66e5 34be 82ca 973e
000001a0: a8b6 bc3d c0ac fbbd ec8a 93be e929 13bd
000001b0: 66c5 a43e cbb5 873c 29c0 fd3c 1585 9d3c
000001c0: c706 4dbe b554 acbd bccb 5c3e cd49 23bd
000001d0: 27ac c83d d95a 24be e09a 18be aff7 1a3e
000001e0: fcaf bcbe 62b1 c53d 84ef d53c d246 763e
000001f0: 974d 593e 156d cb3d cb42 3ebd c874 643d
00000200: ecaf a1bd 7968 cdbd f3fb cc3d 1072 5e3e
00000210: 7a72 dc3d 012a fa3d 1b2b 683b 373c 543d
00000220: 4092 2e3e d255 e33c f34b 093d f190 d83d
00000230: d1de 62bc a38d 9ebc ff93 7d3d 432e 4a3b
00000240: 9e97 c93d f341 c93d a143 323e 0384 f23b
00000250: 8bb2 98be 4a88 bb3d 37b6 7cbc e4ba 60bc
00000260: 5091 8f3d c915 4dbc 8380 de3d b632 bf3d
00000270: 99f8 16be 11bf 82be 4779 f43d eee1 933c
00000280: 39bb 813e 73fd fabd 0fc5 bdbe b708 8fbc
00000290: 5753 babe bf20 afbd 9207 2d3e 5905 af3a
000002a0: 620e 8d3e 0091 b9bd 3aca bfbe 7836 1a3d
000002b0: 78c9 cc3d e65c 203d cb4b c0bd 90dd a43c
000002c0: 1c96 0e3e 904c d93d 3667 babd 0b91 cbbc
000002d0: 4a34 933d 77b2 70be c7f0 a8be 418a df3e
000002e0: 37c5 abbe 07d1 b83d 5fd4 1b3e 4e36 31bd
000002f0: 1cb6 763d a8d5 0ebd 8b03 d13e d602 433d
00000300: 647a 403a b867 22bd de90 bdbd 79d3 ac3d
00000310: b2ee 723c 1b44 663e e409 903d 49b4 d13b
00000320: 8276 273e 52d3 a3be 82cc 963e f3e2 d73c
00000330: 9269 9a3e 3b73 203e 7297 683e 5c9e 733d
00000340: 2589 983d a0eb 673d 1a3d 463d 0737 b23c
00000350: 8fff c33d 8c87 503d 0553 4f3d 9308 9f3d
00000360: 726f 4d3b 2395 4e3e 3146 13bd a3a4 66bd
00000370: 7d21 f7be e9a6 1f3d 1ddf aabb 3aca e9bd
00000380: 1f0c 7fbe 9cd6 933e c324 adbd 08c9 a73d
00000390: a521 363c 81c3 9c3c fc7d 493e 5a14 713d
000003a0: c181 cdbe 8693 313d 5cc9 133e 6b3a 693e
000003b0: 244d a5bd 78d5 1c3d cb26 913d 461c 533a
000003c0: 730f ffbb 08d6 793e dd4e 3d3d b587 b1be
000003d0: e546 cabc e7bb c43e ce97 063e e64f 0c3d
000003e0: d096 1a3e cf89 fdbc d029 8a3e 7b99 913d
000003f0: ecca 363d c4b0 37bd 02f6 cc3d 1664 a3be

ds.fc2_conv.bias f4 [64]
0.09069373 0.006111146 0.015627138 0.09239721 0.03176766 -0.0062999367 0.068870515 0.018427677
0.0538785 -0.015806317 0.04291177 0.008961228 0.065157406 0.07323996 0.0783927 0.048255283
0.083896786 0.026841665 0.031796884 0.10985506 0.053449348 0.11720658 0.026424626 0.023189716
0.03362164 0.004198156 0.019040085 0.006047908 0.02628286 0.019090088 0.015630918 0.119594194
0.036928523 0.0924714 3.0746225e-05 0.05442065 -0.020893453 0.039853573 0.0062049134 0.0930233
0.046085563 0.075488485 -0.0041448018 0.008817333 0.07169627 -0.0051502404 0.011548528 0.0058183707
0.068739355 0.044030156 0.07572308 0.007985433 0.08045905 0.07759545 0.029387118 0.060409762
0.048135225 0.0613945 0.0039331107 0.07769277 0.040823072 -0.024347406 0.043223627 0.050193843
00000000: a2bd b93d 0240 c83b 7c04 803c c03a bd3d
00000010: ce1e 023d b36f cebb fc0b 8d3d a4f5 963c
00000020: b4af 5c3d 407c 81bc 41c4 2f3d 1dd2 123c
00000030: 3f71 853d d5fe 953d 5a8c a03d 55a7 453d
00000040: 14d2 ab3d 0de3 db3c 733d 023d b1fb e03d
00000050: b4ed 5a3d 010a f03d 7578 d83c 5cf8 bd3c
00000060: d8b6 093d af90 893b f4f9 9b3c 882d c63b
00000070: 274f d73c d162 9c3c 690c 803c cded f43d
00000080: 5d42 173d a561 bd3d 82f5 0038 30e8 5e3d
00000090: bf28 abbc 803d 233d 9652 cb3b 0083 be3d
000000a0: 37c4 3c3d b599 9a3d 1ed1 87bb 9376 103c
000000b0: 7ed5 923d 59c3 a8bb 0a36 3d3c 08a8 be3b
000000c0: 38c7 8c3d f758 343d b414 9b3d 55d5 023c
000000d0: b7c7 a43d 5dea 9e3d 41bd f03c 3a70 773d
000000e0: 7129 453d cd78 7b3d 53e1 803b 631d 9f3d
000000f0: 1836 273d 3674 c7bc 420b 313d 0f98 4d3d

head.weight f4 [15, 64]
0.09596654 0.07158809 0.10466345 0.07606244 0.50467706 -0.21143301 0.062441643 0.56406933
-0.36563137 -0.6927395 -0.16341554 -0.63808274 0.20211098 0.023088899 -0.38544044 0.035939254
0.07524455 0.12630485 -0.19071528 -0.8103186 0.13810332 -0.31212693 0.01834698 -0.42317298
0.23393051 -0.16790377 -0.60275346 0.54788214 0.012348981 0.05685166 -0.62592536 -0.39017355
0.19418435 0.021148399 0.5414016 0.25504288 0.2828532 0.04674446 -0.37256348 -0.6223582
-0.31069702 -0.36730698 0.024297414 -0.49168357 0.079278246 -0.5000349 0.34612587 0.11604293
-1.1412698 -0.3823562 0.15564169 0.29323047 -0.27773386 -0.6180279 -0.4105209 -0.459127
0.05548282 -0.24714239 0.2717909 -1.0705768 -0.8320792 -0.45627302 -0.6433296 0.18798174
0.18979724 0.03913392 -0.74176514 -0.5528043 0.13250066 0.34054273 0.12227955 0.096683554
-0.43987045 -0.09123948 -0.6854716 0.08634496 -0.344137 0.4787178 0.2515424 0.5380211
-0.44815034 0.50630474 -0.53703254 0.2548831 -0.33710986 0.3138751 0.08944417 -0.23299406
0.06922328 -0.5254439 -0.21391973 0.077858634 -0.714257 -0.7707391 0.079727605 -0.35365772
0.022574237 0.03554798 0.07266257 -0.93034494 -0.36269423 -0.8147194 -0.8030714 -0.5047619
-0.46206477 0.33326706 -0.7226834 0.20034602 0.36998352 0.07929305 -0.2876095 -0.69386077
0.20408303 -0.27889702 -0.41159445 -0.3040046 0.3027726 0.12450841 -0.36949936 0.19970365
0.077748895 0.31957787 0.112669125 -0.40887082 0.044420186 0.1537196 -0.9226527 -0.33240077
-0.868923 0.16032818 -0.56086415 -0.28137955 0.121815324 0.20258994 0.1269241 0.21993153
-0.544224 0.18254516 0.5709559 0.09761777 -0.376009 -0.63899654 0.18681332 -0.7878626
-0.6471611 -0.9222144 -0.6110421 0.16589563 -0.23532096 0.14763826 0.18335038 -0.4484977
0.08586793 -0.65650004 -0.4265596 0.15533236 -0.5443577 -0.50076336 0.016928876 -0.4684766
0.08596118 0.09853088 0.18968494 0.7619463 -0.45994 -0.6275522 0.570908 -0.54980916
-0.53657854 0.18732674 -0.4885803 0.07480168 -0.51102555 0.025565669 -0.226485 -0.35027283
0.1013028 -0.47065607 -0.47499558 -0.22337301 0.19287986 0.19138214 0.3125018 0.112381935
0.12885931 0.18939216 0.18852344 -0.6716569 0.018770503 0.071297154 0.5967641 -0.26470548
-0.79750276 -0.36600006 -0.22676122 -0.34134465 -0.37522092 0.2114726 -0.36061907 -0.3815845
0.18842034 0.23335955 0.15201038 0.5077203 -0.9670733 -0.22303645 0.16245382 -0.26136902
-1.110851 -0.30742663 0.23681349 0.15715098 -0.3346932 0.14653052 -0.33242732 -0.9832952
-0.6325294 0.21789363 -0.9771108 -0.30007425 -0.21828009 -0.18740574 0.15131602 0.38951614
-0.723024 -0.4770094 -0.3588913 -0.569118 -0.91187966 -0.9876523 0.38007233 0.2133163
0.19613579 0.14647701 -0.19284149 0.12873116 0.7423727 0.1778205 -0.3384376 -0.15652582
0.110495545 0.3704905 0.35569748 -0.33229923 0.15262738 -0.7216184 0.2517424 0.1638262
-0.34153923 0.13524964 -0.36582696 0.1555878 0.1528722 0.1931431 0.16922988 -0.37873358
00000000: 1b8a c43d c79c 923d ca59 d63d a0c6 9b3d
00000010: 8432 013f e581 58be cfc2 7f3d d966 103f
00000020: 0934 bbbe 6057 31bf 6756 27be 6459 23bf
00000030: 2ef6 4e3e ee24 bd3c 7358 c5be 0a35 133d
00000040: d119 9a3d 0f56 013e de4a 43be 0a71 4fbf
00000050: f56a 0d3e 1acf 9fbe 684c 963c 21aa d8be
00000060: 7b8b 6f3e f7ee 2bbe 0d4e 1abf 0142 0c3f
00000070: 6153 4a3c 49dd 683d a53c 20bf d4c4 c7be
00000080: 43d8 463e 683f ad3c 4c99 0a3f fb94 823e
00000090: 22d2 903e 1e77 3f3d a4c0 bebe de52 1fbf
000000a0: ae13 9fbe a90f bcbe 5f0b c73c f3bd fbbe
000000b0: a25c a23d 4a02 00bf 6937 b13e eaa7 ed3d
000000c0: 2115 92bf 31c4 c3be 8960 1f3e 4e22 963e
000000d0: 2233 8ebe 1437 1ebf cc2f d2be b212 ebbe
000000e0: f441 633d e512 7dbe 2d28 8b3e a908 89bf
000000f0: 2403 55bf 9e9c e9be 40b1 24bf 497e 403e
00000100: 355a 423e e44a 203d 52e4 3dbf 9584 0dbf
00000110: 41ae 073e 9e5b ae3e b36d fa3d 0702 c63d
00000120: b336 e1be c4db babd 117b 2fbf a0d5 b03d
00000130: ba32 b0be 801a f53e 2aca 803e c0bb 093f
00000140: f673 e5be 309d 013f f77a 09bf 0a80 823e
00000150: aa99 acbe 3db4 a03e 812e b73d ff95 6ebe
00000160: efc4 8d3d 7e83 06bf c60d 5bbe 5974 9f3d
00000170: 8cd9 36bf 284f 45bf 3a48 a33d a012 b5be
00000180: 9bed b83c c29a 113d 1dd0 943d 162b 6ebf
00000190: 0fb3 b9be 7391 50bf 1696 4dbf 1338 01bf
000001a0: c193 ecbe fba1 aa3e c801 39bf 8227 4d3e
000001b0: 7b6e bd3e 6564 a23d 8d41 93be dca0 31bf
000001c0: 24fb 503e 97cb 8ebe 82bc d2be 7ea6 9bbe
000001d0: 0305 9b3e 44fe fe3d 052f bdbe 1d7f 4c3e
000001e0: d03a 9f3d b69f a33e 12bf e63d 8457 d1be
000001f0: f1f1 353d ac68 1d3e f832 6cbf 6f30 aabe
00000200: bd71 5ebf 122d 243e cb94 0fbf fb10 90be
00000210: 507a f93d bd73 4f3e 64f8 013e bb35 613e
00000220: 4452 0bbf 1eed 3a3e 2a2a 123f d3eb c73d
00000230: 4084 c0be 4795 23bf fe4b 3f3e 5db1 49bf
00000240: 5aac 25bf 3e16 6cbf 416d 1cbf 8be0 293e
00000250: faf7 70be 7c2e 173e 34c0 3b3e 7ea1 e5be
00000260: 86db af3d 6310 28bf 0566 dabe 720f 1f3e
00000270: 075b 0bbf 0732 00bf 6dae 8a3c 2adc efbe
00000280: 6a0c b03d 8fca c93d c53c 423e ea0e 433f
00000290: 417d ebbe 43a7 20bf 0727 123f 4bc0 0cbf
000002a0: 365d 09bf 95d2 3f3e 3227 fabe a031 993d
000002b0: 92d2 02bf 186f d13c afeb 67be f656 b3be
000002c0: d877 cf3d d5f9 f0be 9f32 f3be e5bb 64be
000002d0: 4c82 453e aef9 433e 3c00 a03e 8028 e63d
000002e0: b2f3 033e 05f0 413e 4a0c 413e b5f1 2bbf
000002f0: 99c4 993c 3e04 923d 88c5 183f 7a87 87be
00000300: 2429 4cbf 5c64 bbbe 1834 68be bac4 aebe
00000310: f51c c0be 468c 583e 10a3 b8be 0b5f c3be
00000320: 43f1 403e cef5 6e3e 9ca8 1b3e f5f9 013f
00000330: 1e92 77bf ab63 64be 4b5a 263e 29d2 85be
00000340: 5e30 8ebf 0667 9dbe 3c7f 723e 30ec 203e
00000350: e85c abbe 190c 163e ea33 aabe 3cb9 7bbf
00000360: 72ed 21bf 821f 5f3e ef23 7abf 55a3 99be
00000370: d184 5fbe 4ae7 3fbe 96f2 1a3e a96e c73e
00000380: 1a18 39bf 933a f4be 9ac0 b7be b8b1 11bf
00000390: f270 69bf c8d6 7cbf d798 c23e 976f 5a3e
000003a0: d2d7 483e 12fe 153e 3d78 45be 1ad2 033e
000003b0: 230c 3e3f 9416 363e b147 adbe 4e48 20be
000003c0: 7d4b e23d eeb0 bd3e fb1d b63e 2023 aabe
000003d0: 5a4a 1c3e fcbb 38bf 61e4 803e 0ec2 273e
000003e0: 3bde aebe e27e 0a3e ac4d bbbe 6952 1f3e
000003f0: 888a 1c3e 4ec7 453e 994a 2d3e 5ee9 c1be

head.bias f4 [15]
-0.034913387 -0.070580326 -0.0650133 0.0409615 -0.072211064 -0.026405377 -0.046514362 0.15759878
0.02802185 0.016748488 0.07932326 0.053591587 -0.123917274 0.058012635 -0.08723645
00000000: 5701 0fbd 6b8c 90bd b125 85bd 3fc7 273d
00000010: 65e3 93bd 1750 d8bc d885 3ebd 9361 213e
00000020: 148e e53c 2034 893c 3c74 a23d da82 5b3d
00000030: 57c8 fdbd a89e 6d3d 06a9 b2bd
