surrogate/trained_model/BCRNet/model_direct_ll4_fold4.pth (torch, 182855 bytes, 24 tensors)

encoding.conv2d.weight f4 [4, 2, 8]
0	0xbe2b68a3	-0.16739134
1	0xbe008ee4	-0.12554508
2	0xbd4460d2	-0.047943898
3	0x3b32aa51	0.002726216
4	0xbc556501	-0.0130245695
5	0x3d59e1de	0.05319392
6	0x3dd48a94	0.10377994
7	0x3e28ac01	0.16471864
8	0x3e35b831	0.17746045
9	0x3da7fb65	0.082022466
10	0x3d6a8c59	0.057262752
11	0x3cbad062	0.022804443
12	0x3c43939d	0.011937049
13	0xbd7f38c1	-0.062309984
14	0xbdbaa85e	-0.09114145
15	0xbe533175	-0.20624335
16	0xbcafd9f7	-0.021466238
17	0xbd9665ae	-0.073436126
18	0xbd4b49e8	-0.04963103
19	0xbe2cd41b	-0.16877787
20	0xbe16e1a7	-0.14734517
21	0xbd9c4d50	-0.07631934
22	0xbd6855ee	-0.056722574
23	0x3d1131cb	0.035447877
24	0x3c35a760	0.011087269
25	0x3dd8b549	0.105814524
26	0x3e1517b9	0.1455983
27	0x3e26dc7d	0.16295047
28	0x3e096040	0.13415623
29	0x3d1598fd	0.036522854
30	0x3d503f44	0.050841585
31	0xbd3228fd	-0.04349612
32	0x3e0bb5b2	0.1364353
33	0x3e0865e0	0.13320112
34	0x3e094ae0	0.13407469
35	0x3dbb4bfa	0.09145351
36	0x3cc111c7	0.023568047
37	0x3cc7b5f7	0.02437876
38	0x3d6426dd	0.055701125
39	0x3c8a794b	0.01690354
40	0xbd536ff5	-0.051620442
41	0xbdcf81ec	-0.101322025
42	0xbe214d4a	-0.1575214
43	0xbe274877	-0.16336237
44	0xbe1250af	-0.14288591
45	0xbd7caccc	-0.06168823
46	0xbc3b3a8f	-0.011427536
47	0x3c8c6853	0.01713959
48	0xbd31955d	-0.043355335
49	0x3d06ae85	0.03288128
50	0x3d8acb20	0.06777024
51	0x3e07125f	0.13190602
52	0x3e117ed4	0.14208537
53	0x3dfc9e99	0.123349376
54	0x3c737988	0.014860518
55	0x3ce0817b	0.027405491
56	0x3cceef25	0.025260517
57	0x3bf13c15	0.0073618987
58	0xbd05d0ba	-0.03266976
59	0xbdbdfb99	-0.09276504
60	0xbdb80ca4	-0.08986786
61	0xbdad920d	-0.084751226
62	0xbd845858	-0.06462163
63	0xbd292216	-0.041292273

encoding.conv2d.bias f4 [4]
0	0x3e2b8d15	0.16753037
1	0xbd1ccd3d	-0.038281668
2	0x3e58efa4	0.21185166
3	0xbce58a19	-0.028019952

encoding.bnorm1.weight f4 [4]
0	0x3fd121f3	1.6338485
1	0x40026a86	2.0377517
2	0x4008e578	2.1390057
3	0x3fb54583	1.4161838

encoding.bnorm1.bias f4 [4]
0	0x3eb2e5ba	0.34940892
1	0x3f0fd725	0.5618766
2	0x3eee8fab	0.46593985
3	0xbdd8e093	-0.10589709

encoding.bnorm1.running_mean f4 [4]
0	0x3e2bc43f	0.1677408
1	0xbd242098	-0.040070146
2	0x3e5aecae	0.21379349
3	0xbcd9c1eb	-0.026581725

encoding.bnorm1.running_var f4 [4]
0	0x3e11e3cb	0.14247052
1	0x3fa687be	1.3010175
2	0x3fc9903e	1.5747144
3	0x3f3bfc7f	0.73432153

ds.proj_conv.weight f4 [16, 4, 7]
0	0xbcee05cd	-0.0290555
1	0xbd8ab025	-0.06771878
2	0xbd14d362	-0.036334403
3	0xbc8c437a	-0.01712202
4	0x3cc65654	0.024211086
5	0x3daab5cd	0.08335457
6	0x3d49f082	0.04930163
7	0x3d7b0640	0.061285257
8	0x3c9ea15c	0.019364052
9	0x3ce08904	0.027409084
10	0x3cd967a2	0.026538674
11	0x3ba5d934	0.005061293
12	0x3ccdaebd	0.025107736
13	0x3da70c6a	0.08156665
14	0xbd82a45d	-0.06379006
15	0x3c3629da	0.011118377
16	0x3d340638	0.043951243
17	0x3dedfe15	0.11620728
18	0x3e6184dc	0.22023338
19	0x3e4e93ea	0.20173612
20	0x3d8490b4	0.064729124
21	0x3da8d9e6	0.08244686
22	0x3e0938ca	0.1340057
23	0x3e024c62	0.1272445
24	0x3d609981	0.054833893
25	0x3dcfa9c6	0.101398036
26	0x3dd9f9b3	0.106433295
27	0x3cae010d	0.021240735
28	0xbd3d039f	-0.04614603
29	0xbce3305f	-0.027733026
30	0xbb0c8dfe	-0.0021446939
31	0x3d3c010e	0.045899443
32	0x3e1331aa	0.14374414
33	0x3e0f6d18	0.1400646
34	0x3e218f4d	0.15777321
35	0xbdb08b7d	-0.08620355
36	0x3c77f025	0.0151329385
37	0x3d5452c4	0.051836744
38	0x3da71dac	0.08159956
39	0x3d24c3c3	0.040225755
40	0xbd044392	-0.032291003
41	0x3c9b0c3a	0.018926729
42	0x3e46402c	0.19360417
43	0x3dda333a	0.10654302
44	0x3d7ce9a9	0.061746273
45	0xbc89ec7d	-0.0168364
46	0xba3f5d22	-0.00072999496
47	0xbda521c4	-0.08063081
48	0xbe1e4740	-0.15456867
49	0x3dbe6deb	0.09298309
50	0x3de9a4cb	0.11408385
51	0x3daf80c5	0.08569483
52	0x3ce97123	0.02849633
53	0xbd512193	-0.05105741
54	0xbdec19e7	-0.11528378
55	0xbe1b9e8e	-0.15197203
56	0xbd38ffb7	-0.045165744
57	0xbdd31bf4	-0.10308066
58	0xbd99755f	-0.0749309
59	0x3c32e660	0.0109191835
60	0xbd37f164	-0.044907942
61	0x3b9869da	0.0046512904
62	0x3d4822a8	0.048861176
63	0xbd0a95f7	-0.033834424
64	0x3daab570	0.08335388
65	0x3d86d913	0.06584372
66	0x3e052deb	0.13005798
67	0x3e9b0ecd	0.3028473
68	0x3e611b58	0.21983087
69	0x3c9d8a9b	0.019231131
70	0x3a1aff0c	0.0005912639
71	0x3ce6649f	0.028124152
72	0x3cafd0aa	0.021461803
73	0x3d5830b3	0.05278082
74	0xbc2671a2	-0.010158928
75	0xbc0f47db	-0.008745159
76	0x3d7052f5	0.058672864
77	0x3d301245	0.042986173
78	0x3d2a26aa	0.04154078
79	0x3bbdab95	0.0057882764
80	0x3d7de514	0.061986044
81	0x3be4b8e9	0.006980051
82	0xbcc482bf	-0.023988126
83	0xbd8552e8	-0.06509954
84	0xbb1815bf	-0.002320632
85	0xbd47e668	-0.048803717
86	0x3bcb66ea	0.0062073367
87	0xbdab42d6	-0.08362357
88	0x3c335fe5	0.010948156
89	0xbd5079df	-0.050897475
90	0x3cbebbba	0.023282874
91	0x3d959562	0.07303883
92	0x3cbe6361	0.023240747
93	0xbc909697	-0.017649932
94	0x3c24b8f8	0.010053866
95	0x3d183f1c	0.03716956
96	0x3d30d7f2	0.04317469
97	0x3d687f22	0.05676187
98	0x3d558cf5	0.05213638
99	0x3dd3be86	0.10339074
100	0x3dcf09a9	0.101092644
101	0x3dadc009	0.084838934
102	0x3de00377	0.10938161
103	0x3da9acea	0.08284934
104	0x3d2f5133	0.042802047
105	0x3e15ec6f	0.14640974
106	0x3dcf4972	0.101214305
107	0x3d4a2bfd	0.049358357
108	0xbc9f11fd	-0.019417757
109	0xbc8b8626	-0.01703174
110	0x3d52e8fb	0.05149172
111	0xbca6d806	-0.02036668
112	0x3c9cf603	0.019160276
113	0x3bfb3439	0.0076661375
114	0xbd061203	-0.03273202
115	0xb9ea653e	-0.0004470739
116	0x3d461452	0.048359223
117	0x3b060f8c	0.0020456044
118	0xbc1e6295	-0.0096670585
119	0x3e040d65	0.12895735
120	0x3e269e5a	0.16271344
121	0x3e31f15f	0.17377232
122	0x3e042195	0.12903436
123	0x3deb7bbe	0.11498211
124	0x3cc71f01	0.024306776
125	0xbd741119	-0.059586618
126	0x3cdf2d72	0.02724335
127	0x3da28db4	0.07937184
128	0x3d7a7c88	0.06115392
129	0x3cef59eb	0.02921768
130	0x3af14df0	0.0018410068
131	0x3cb8f354	0.022576965
132	0xb937f581	-0.00017543697
133	0x3e345ad0	0.17612767
134	0x3e27cafc	0.16386026
135	0x3dada3c6	0.08478503
136	0x3d8d3c23	0.06896236
137	0x3cfcac12	0.030843768
138	0xbc732b2f	-0.014841839
139	0xbcc308ab	-0.023807844
140	0x3e5930c2	0.21210006
141	0x3e2a8d03	0.16655354
142	0x3ccbb973	0.024868703
143	0xbb95437c	-0.004555164
144	0x3cd10f7f	0.025520084
145	0xbd4717c9	-0.048606668
146	0xbd01581c	-0.03157817
147	0xbdf79139	-0.12088246
148	0xbde74e04	-0.11294177
149	0xbdc5f830	-0.09666479
150	0xbd1ee6d1	-0.038794342
151	0xbcb3a522	-0.021929327
152	0xbc2261ad	-0.009910983
153	0xbb6e10f1	-0.0036326016
154	0xbe212f43	-0.15740685
155	0xbd5c49c1	-0.053781275
156	0xbd4fc39f	-0.05072367
157	0x3cfcc5e5	0.030856082
158	0x3dddd38c	0.10831365
159	0x3de62d35	0.11239091
160	0x3e225759	0.15853633
161	0xbdbe8b1f	-0.09303879
162	0xbdb4ceeb	-0.08828529
163	0xbcb029b6	-0.021504264
164	0x3c84bb02	0.016202454
165	0x3d7c9f99	0.06167564
166	0x3d9cd2a7	0.07657366
167	0x3cf72860	0.03017062
168	0xbe284003	-0.16430669
169	0xbc65d5f3	-0.01402806
170	0x3cd608be	0.026127215
171	0x3bf64176	0.007515128
172	0x3d2b05a3	0.041753422
173	0x3bf47759	0.0074605164
174	0x3d985b34	0.074392706
175	0x3c94a855	0.018146673
176	0x3d13e74d	0.036109257
177	0x3d7ca759	0.061683033
178	0x3d9cba10	0.07652676
179	0x3d148ffa	0.03627012
180	0xbc2ac087	-0.010421879
181	0x3d8375b0	0.064189315
182	0xbd88c4c9	-0.06678159
183	0x3da4f0cc	0.08053741
184	0x3e3e1098	0.18561018
185	0x3e29ee8c	0.16594905
186	0x3e333fc3	0.17504792
187	0x3d94c4bf	0.07264089
188	0xbc026679	-0.007959002
189	0x3ddf7ec2	0.10912849
190	0x3e05e0d6	0.1307405
191	0x3db68326	0.08911733
192	0x3dfab45a	0.122414306
193	0xbb3b2dd8	-0.002856126
194	0xbcdcbd19	-0.026945638
195	0xbccd0f71	-0.025031777
196	0xbbc893e8	-0.0061211474
197	0xbbf08342	-0.007339866
198	0xbda013ad	-0.07816253
199	0xbdae94fb	-0.085245095
200	0x3b7061c7	0.0036679374
201	0x3de0e495	0.109810986
202	0x3df35740	0.11881876
203	0x3d90ead5	0.07076041
204	0xbbd27094	-0.0064221118
205	0xbc04df36	-0.008109858
206	0xbcf2ffdc	-0.029663019
207	0x3d01e73f	0.031714674
208	0x3d890749	0.06690843
209	0x3dbadeab	0.09124502
210	0xbd25555f	-0.04036462
211	0xbc854e8c	-0.016272806
212	0x3e1ce444	0.15321451
213	0x3e009ce0	0.12559843
214	0x3e2eb6a5	0.17061861
215	0x3e05607e	0.1302509
216	0x3d4f9cd5	0.050686676
217	0x3d4511e9	0.048112784
218	0xbc9572f8	-0.018243298
219	0x3d053fbe	0.032531492
220	0xbd721513	-0.05910213
221	0xbdc5429f	-0.096318476
222	0xbe291f72	-0.16515902
223	0xbe099cce	-0.13438722
224	0xbd0802bb	-0.03320573
225	0xbd87740d	-0.06613932
226	0xbe019a4a	-0.12656513
227	0x3db4f8e7	0.08836537
228	0x3db03966	0.08604698
229	0x3dbd24c4	0.09235528
230	0x3e381d47	0.17979918
231	0x3db47ade	0.088124976
232	0x3d8f9502	0.07010843
233	0x3cdc7145	0.02690948
234	0x3d7e4c95	0.062084753
235	0x3db5c749	0.08875901
236	0x3d92e7cb	0.07173117
237	0x3d4c4200	0.04986763
238	0x3deb0f3f	0.11477517
239	0x3e07f69b	0.13277666
240	0x3df96a7b	0.12178513
241	0x3dd3edc9	0.10348088
242	0x3db8f557	0.0903117
243	0x3df73837	0.12071269
244	0x3db29c1e	0.08721183
245	0x3d4a59c9	0.049402032
246	0x39427003	0.0001854301
247	0xbccad51f	-0.024759827
248	0x3d5702aa	0.052492775
249	0xbd221844	-0.039573923
250	0xbcb475ac	-0.022028767
251	0xbd2c7f28	-0.042113453
252	0xbd20efa0	-0.039291024
253	0xbd2cab7e	-0.042155735
254	0xbb017624	-0.0019754255
255	0x3d2a5f6a	0.0415949

ds.proj_conv.bias f4 [16]
0	0x3e1ec777	0.15505777
1	0x3e3f122a	0.18659273
2	0xbd9b77a8	-0.07591182
3	0x3e156d85	0.1459256
4	0xbd45d0b8	-0.048294753
5	0x3ca9a003	0.020706182
6	0xbe2e3e39	-0.17015924
7	0x3dc0e72d	0.09419093
8	0xbda1a1a7	-0.07892161
9	0xbdae63f4	-0.08515158
10	0xbdbe1c55	-0.09282748
11	0x3cd1fdf6	0.025633793
12	0xbd0117b0	-0.03151673
13	0xbd588bf6	-0.052867852
14	0x3dd3fe62	0.10351254
15	0x3e38a662	0.1803222

ds.proj_bn.weight f4 [16]
0	0x3faabc7c	1.3338771
1	0x3fb2a5d7	1.395686
2	0x3f9e89f3	1.2385849
3	0x3faed692	1.3659232
4	0x3fbae568	1.4601259
5	0x3fcb373e	1.5876234
6	0x3fb5d80c	1.4206557
7	0x3f99cd49	1.2015773
8	0x3f9ecded	1.2406594
9	0x3fbee792	1.491442
10	0x3f904968	1.1272402
11	0x3fa0a0b2	1.254904
12	0x3fb65e3b	1.4247507
13	0x3fbf728e	1.4956834
14	0x3fd5b852	1.6696875
15	0x3fb410be	1.4067609

ds.proj_bn.bias f4 [16]
0	0xbdf88c63	-0.12136152
1	0xbe6e856a	-0.23293081
2	0xbe14ca8d	-0.14530392
3	0xbe08b65b	-0.13350813
4	0xbd953cc3	-0.0728698
5	0x3c856654	0.016284145
6	0xbe1e7bfe	-0.15476987
7	0xbeba43d9	-0.3637989
8	0xbec3aff8	-0.3822019
9	0xbe14b43b	-0.14521877
10	0xbe804e78	-0.25059867
11	0x3d5cb6e8	0.05388537
12	0xbea5d21b	-0.3238686
13	0xbe7b2135	-0.24524386
14	0x3e258cf7	0.16167055
15	0x3e4c377f	0.19943045

ds.proj_bn.running_mean f4 [16]
0	0x3eec871c	0.4619683
1	0x3e9c71c6	0.30555552
2	0x3e2d4f6b	0.16924827
3	0x3ec58094	0.3857466
4	0x3e8699e0	0.26289272
5	0xbb147280	-0.0022651255
6	0x3dfe6c58	0.12423009
7	0x3e960d6e	0.2930712
8	0x3e9d93f3	0.3077694
9	0x3e3e0f58	0.1856054
10	0x3d4375f1	0.0477199
11	0xbde30b96	-0.11086194
12	0x3d9dfbd5	0.07714049
13	0x3ea643a7	0.3247349
14	0xbe5377dc	-0.20651191
15	0xbe2292ba	-0.15876284

ds.proj_bn.running_var f4 [16]
0	0x3df778ef	0.12083613
1	0x3d04bada	0.032404758
2	0x3ddba9b3	0.10725727
3	0x3d98c034	0.07458535
4	0x3daa81c8	0.08325535
5	0x3da52a2e	0.08064686
6	0x3dbc7e45	0.092037715
7	0x3d2535cc	0.040334508
8	0x3db34508	0.08753401
9	0x3d647444	0.055774942
10	0x3d280128	0.041016728
11	0x3d94cc71	0.072655566
12	0x3d871d1a	0.065973476
13	0x3dbbcbfc	0.09169766
14	0x3e307a26	0.17234096
15	0x3e4962f5	0.19666655

ds.proj_conv1.weight f4 [8, 16, 5]
0	0x3d50e191	0.050996367
1	0x3d8965ce	0.06708871
2	0x3c8ff411	0.017572435
3	0x3c1ae5c0	0.009454191
4	0xbdb1f734	-0.086897284
5	0xbc8988fb	-0.01678895
6	0x3abae106	0.0014257736
7	0xbd65ab83	-0.05607177
8	0xbd09f63a	-0.033682086
9	0xbd5feb60	-0.05466783
10	0xbdea618d	-0.114443876
11	0xbdde5ce6	-0.10857563
12	0xbd565f44	-0.052336946
13	0xbe18f1d2	-0.14935997
14	0xbd2e6fb8	-0.042587012
15	0x3d10bec6	0.035338186
16	0x3dc52784	0.09626678
17	0x3e19a981	0.15006067
18	0x3c81bc89	0.01583697
19	0xbe330ec6	-0.17486104
20	0xbd7705b3	-0.06030817
21	0xbd469bfd	-0.048488606
22	0xbd4d5f60	-0.050139785
23	0x3d38842c	0.045047924
24	0xbc8d153a	-0.017222036
25	0x3e8d9c95	0.27658525
26	0x3dad05be	0.08448361
27	0x3d09b42e	0.0336191
28	0xbe5d255c	-0.21596283
29	0xbdb80350	-0.08985007
30	0x3ded55ec	0.11588654
31	0x3e09dbac	0.13462704
32	0x3ddf2e00	0.10897446
33	0x3ada437d	0.0016652193
34	0xbdc02b57	-0.093832664
35	0x3dba6612	0.091014996
36	0x3e809bd0	0.25118876
37	0x3e20ba6f	0.15696119
38	0x3d88fad3	0.06688466
39	0xbd7f9cb7	-0.062405314
40	0xbd052cc9	-0.032513414
41	0xbdb664a8	-0.089059174
42	0xbdb94eb1	-0.09048212
43	0xbca73aad	-0.020413721
44	0xbbf592ec	-0.007494321
45	0xb95d0568	-0.00021078216
46	0x3bc1dec3	0.005916448
47	0xbd37f998	-0.044915766
48	0x3d155636	0.03645917
49	0xbd198112	-0.037476607
50	0x3be3553e	0.006937652
51	0xbd27ef3a	-0.04099963
52	0xbc5f0d3f	-0.013613998
53	0x3d4443ae	0.047916107
54	0xbcab8101	-0.020935537
55	0x3c9fc7db	0.019504478
56	0xbd931643	-0.071819805
57	0xbdf3cc74	-0.11904231
58	0xbe6b3a2b	-0.22971408
59	0xbe43b969	-0.19113697
60	0xbd9d4b57	-0.076803856
61	0xbda27705	-0.079328574
62	0xbca0d307	-0.019631876
63	0xbd8ee368	-0.06976968
64	0xbe5823c3	-0.21107392
65	0xbcea124a	-0.028573174
66	0xbc1ac2c4	-0.00944585
67	0x3d770331	0.060305778
68	0xbb4c1be4	-0.0031144554
69	0xbd6840bf	-0.05670237
70	0x3ad716c1	0.001640998
71	0x3db1fb18	0.086904705
72	0x3dd6c014	0.10485855
73	0x3df15f0b	0.11785706
74	0x3e038055	0.12841924
75	0x3bb10bea	0.0054030316
76	0xbe9fafa8	-0.31188703
77	0xbeb7169a	-0.3575943
78	0xbe0877cb	-0.13326947
79	0xbd8cd2a9	-0.06876118
80	0xbcaaa250	-0.02082935
81	0x3c43b1c3	0.011944237
82	0xbd1d531c	-0.038409337
83	0xbdddfec0	-0.10839605
84	0xbe15fbe7	-0.14646874
85	0xbdee3182	-0.116305366
86	0xbda84f0b	-0.08218201
87	0x3d37ffa0	0.044921517
88	0xbd8def7b	-0.06930443
89	0xbe2676a7	-0.162562
90	0x3c4d7107	0.012539155
91	0x3e166624	0.14687401
92	0x3d956548	0.072947085
93	0xbd3ac92c	-0.04560201
94	0xbca4a7ba	-0.02009951
95	0xbdcdacb3	-0.100427054
96	0x3df9366b	0.121685825
97	0x3c898d94	0.016791143
98	0xbd73de25	-0.059538025
99	0xbe2e7037	-0.17034994
100	0xbd19760c	-0.037466094
101	0x3d8a4be5	0.06752757
102	0x3d8297bc	0.06376597
103	0x3d11009a	0.035400964
104	0xbd29828b	-0.04138426
105	0x3c97b586	0.018519174
106	0xbd9d5955	-0.07683054
107	0xbde9f646	-0.11423926
108	0xbd9e283d	-0.077225186
109	0xbaaced86	-0.0013193346
110	0xbd4a0ee5	-0.04933061
111	0x3d48c734	0.0490181
112	0xbd562bbd	-0.052287806
113	0xbdd16d21	-0.10225893
114	0xbe42c6dd	-0.19021173
115	0xbcd1bac7	-0.025601758
116	0x3d968197	0.07348936
117	0xbc93294b	-0.017964026
118	0xbd582e67	-0.052778628
119	0xbe478cea	-0.19487348
120	0xbda06950	-0.07832587
121	0x3d9ad0e0	0.07559371
122	0xbd3675a0	-0.04454577
123	0x3d38b962	0.04509867
124	0xbc5e48dd	-0.013567177
125	0xbc9579ee	-0.018246617
126	0x3c237e74	0.009978879
127	0x3d3b3a2d	0.045709778
128	0xbcc16ff2	-0.02361295
129	0xbd9daace	-0.07698594
130	0xbc480fbd	-0.012210784
131	0x3dfcc8e7	0.123430066
132	0x3d1146c5	0.03546788
133	0xbbdda823	-0.006764428
134	0xbd4b025e	-0.049562804
135	0xbd71ec15	-0.059063036
136	0xbd1e30d7	-0.038620796
137	0xbc7aea78	-0.015314691
138	0x3c3b6ddb	0.011439766
139	0x3df6fa15	0.12059418
140	0xbe1efd2a	-0.15526262
141	0xbd26fd09	-0.040768657
142	0xbd939d2e	-0.07207714
143	0x3d8457bb	0.06462046
144	0xbe50cf3c	-0.20391554
145	0xbd526ce9	-0.051373396
146	0x3cc44ea4	0.02396328
147	0x3c6e2051	0.014534072
148	0xbcadf7d1	-0.021236332
149	0xbdafeb13	-0.08589759
150	0xbedc30e5	-0.43006054
151	0xbebab826	-0.3646862
152	0xbd1a72d2	-0.037707157
153	0xbd2abec8	-0.04168585
154	0x3e095dc8	0.13414681
155	0xbdcecf93	-0.100981854
156	0xbe0d3cc5	-0.13792713
157	0xbe1bd660	-0.15218496
158	0x3cfc79d3	0.030819809
159	0xbd7aa66f	-0.06119388
160	0xbd7cce8e	-0.061720423
161	0xbd8c73f5	-0.068580545
162	0xbc346386	-0.011010056
163	0xbdbd0925	-0.0923026
164	0xbe2a0426	-0.16603145
165	0xbdd3eff2	-0.103485
166	0xbda2d3dd	-0.07950566
167	0x3d21702e	0.039413624
168	0x3d877e55	0.06615893
169	0xbbf75bea	-0.007548799
170	0xbd96a88f	-0.07356369
171	0x3d655b51	0.05599529
172	0x3e662190	0.2247374
173	0x3e588e8c	0.21148127
174	0xbd84fd70	-0.06493652
175	0xbc969d80	-0.018385649
176	0x3c92988f	0.017895011
177	0xbac5c47b	-0.0015088463
178	0xbdc3ceda	-0.09560938
179	0xbdbbc30a	-0.0916806
180	0xbe3d1892	-0.18466404
181	0xbdb83028	-0.0899356
182	0x3dfb72b2	0.12277736
183	0x3de88f63	0.11355474
184	0x3d574e70	0.05256504
185	0xbe0ec3fb	-0.13941948
186	0xbe085baf	-0.13316225
187	0xbc9c04b3	-0.01904521
188	0xbe1f2d85	-0.15544708
189	0xbe210dda	-0.1572794
190	0xbd3599b9	-0.044336054
191	0x3d2cffe6	0.04223623
192	0x3cf259d7	0.029583855
193	0xbd97bc3d	-0.074089505
194	0xbe08965d	-0.13338609
195	0x3d493c68	0.049129874
196	0xbcd9c0ad	-0.026581133
197	0x3cc0e0a2	0.023544613
198	0xbdd0eadc	-0.10201046
199	0xbda00d52	-0.07815041
200	0xbc67d572	-0.01415001
201	0x3d033b7f	0.03203916
202	0x3b31fd76	0.002715913
203	0x3b3904a3	0.0028231523
204	0xbc827607	-0.01592542
205	0xbdee2e7d	-0.11629961
206	0xbd5bf662	-0.053701766
207	0x3d0fe187	0.03512719
208	0x3d346e57	0.04405054
209	0xb95bfdaa	-0.00020979965
210	0x3bb42b94	0.005498359
211	0x3d1b81f3	0.037965726
212	0xbbdc6145	-0.0067254626
213	0xba804da9	-0.000978877
214	0x3ce3bc3e	0.027799722
215	0xbd8dbfeb	-0.06921371
216	0xbda83544	-0.082132846
217	0x3ab0b8a5	0.0013482763
218	0x3c1d91bc	0.009617265
219	0xbbec8122	-0.0072175423
220	0xbd4dec35	-0.050274093
221	0x3c585dc5	0.01320595
222	0x3daed818	0.0853731
223	0xbb8fd798	-0.0043897144
224	0xbde143d0	-0.10999262
225	0xbdde9db7	-0.108699255
226	0xbcc96ac2	-0.024587039
227	0x3da76cb6	0.08175032
228	0x3cde89cf	0.027165322
229	0xbb5f72d5	-0.0034095545
230	0xbdd8578a	-0.10563572
231	0xbea1d5b7	-0.31608364
232	0xbea87ec4	-0.32909214
233	0xbe8576e3	-0.26067266
234	0x3d867116	0.06564538
235	0x3d80aab1	0.06282557
236	0x3c7cee2b	0.015437643
237	0x3d3b32eb	0.045702856
238	0xba4b71de	-0.0007760803
239	0xbc87ab1b	-0.016561082
240	0x3d474ef2	0.048659272
241	0x3d59d1c8	0.05317858
242	0x3d03d29f	0.032183286
243	0x3cc8090c	0.024418376
244	0xbd18d766	-0.037314795
245	0xbe334b73	-0.1750925
246	0xbdb45cee	-0.088067874
247	0x3e01fbad	0.12693663
248	0x3e19faa6	0.15037021
249	0x3d78e995	0.060769636
250	0xbb8f1946	-0.0043670265
251	0x3df75aae	0.12077843
252	0x3e8e357a	0.27775174
253	0x3e4f2217	0.20227848
254	0x3dbfa60a	0.09357841
255	0xbd0a355a	-0.033742286

ds.proj_conv1.bias f4 [8]
0	0x3c4f466e	0.012651069
1	0xbc6810e5	-0.014164184
2	0xbdcaf04c	-0.09909114
3	0x3de52e6d	0.11190496
4	0xbcdc2f4f	-0.026878027
5	0x3dcac9ce	0.099017724
6	0x3d3756bf	0.044760462
7	0xbb0bc146	-0.0021324917

ds.proj_bn1.weight f4 [8]
0	0x40075ffc	2.1152334
1	0x3ffcd87f	1.9753569
2	0x3ff3ab32	1.903662
3	0x3fef660e	1.870302
4	0x3fe8e865	1.8195921
5	0x3fc37fab	1.5273336
6	0x3fe07a09	1.7537242
7	0x3fe47987	1.7849587

ds.proj_bn1.bias f4 [8]
0	0x3e09802e	0.13427803
1	0x3f05b941	0.522358
2	0x3e424bac	0.18974179
3	0x3cbde01e	0.023178156
4	0x3ddf845e	0.10913919
5	0x3e3a5abf	0.1819868
6	0x3dc80bd8	0.09767884
7	0x3cf7c5ff	0.03024578

ds.proj_bn1.running_mean f4 [8]
0	0xbefddfb5	-0.49584737
1	0xbf596a5e	-0.8492793
2	0xbf3ca009	-0.73681694
3	0x3e5e2fc1	0.21697904
4	0x3ec4ed82	0.38462454
5	0xbeb82a14	-0.35969603
6	0x3dd23c10	0.10265362
7	0x3e3a33b4	0.18183786

ds.proj_bn1.running_var f4 [8]
0	0x3f350d1f	0.70723146
1	0x3ee65ceb	0.44992766
2	0x3eea9e0b	0.45823702
3	0x3ed917a8	0.4240086
4	0x3e9f5201	0.31117252
5	0x3f10db4a	0.5658461
6	0x3f117f95	0.568353
7	0x3f25112a	0.64479315

ds.fc1_conv.weight f4 [128, 256]
0	0x3dbf3dd2	0.09337963
1	0x3eaf6ccf	0.34262702
2	0x3e9d4699	0.30717924
3	0x3e68ee44	0.22747141
4	0x3e54b941	0.20773794
5	0x3d9d350d	0.07676134
6	0xbd90843e	-0.07056473
7	0xbcd791fc	-0.026314728
8	0xba988717	-0.001163694
9	0xb8f5350c	-0.00011692391
10	0x3d05ea97	0.032694425
11	0x3d3871a4	0.04503025
12	0x3e82bd58	0.25535083
13	0xbda05393	-0.078284405
14	0xbe826af4	-0.25472224
15	0xbdafdda9	-0.085872
16	0xbec338dd	-0.3812932
17	0xbedd1d77	-0.43186542
18	0xbea158da	-0.315131
19	0xbdc2fe29	-0.095211335
20	0xbe6b8292	-0.22999027
21	0xbc029c4f	-0.007971837
22	0x3ea44dac	0.3209051
23	0x3d8d0843	0.068863414
24	0x3dde74c3	0.10862114
25	0x3cea1963	0.028576558
26	0x3d6c5a5a	0.057703353
27	0x3d809e78	0.062802255
28	0x3e56abff	0.20964049
29	0x3e9d5c49	0.3073447
30	0x3e8a6bd0	0.2703538
31	0x3ea8df48	0.3298285
32	0x3dfc5c02	0.123222366
33	0xbd89d3f9	-0.06729884
34	0x3d18ae98	0.03727588
35	0x3e07b60a	0.13253036
36	0x3ef4dde2	0.47825533
37	0x3d804555	0.06263224
38	0x3d008685	0.031378288
39	0x3de21047	0.11038261
40	0x3e045505	0.12923057
41	0x3e401b39	0.18760385
42	0x3d3075c8	0.043081075
43	0x3e7390d1	0.23785712
44	0x3e479dd8	0.19493806
45	0x3df4e562	0.11957814
46	0x3e95ba00	0.2924347
47	0x3e0fd562	0.14046243
48	0x3ba1cfc0	0.004938096
49	0x3ce08ff3	0.02741239
50	0x3e8e84dd	0.27835742
51	0x3ea7ce0a	0.32774383
52	0x3e0b1f4b	0.13586156
53	0x3d818353	0.06323876
54	0x3d405750	0.046958268
55	0x3bd5eec4	0.006528707
56	0x3d8e8abe	0.06960057
57	0x3e3442bb	0.1760358
58	0xbbad7ec4	-0.0052946527
59	0xbd978925	-0.07399205
60	0xbce33c05	-0.02773858
61	0x3ed392f8	0.41323066
62	0x3da64175	0.08117954
63	0x3dc38eb2	0.09548701
64	0xbd8cf8d4	-0.06883398
65	0xbddf889d	-0.10914729
66	0xbd4855df	-0.048910018
67	0x3eb00164	0.3437606
68	0x3c81bd2e	0.015837278
69	0x3daa037f	0.08301448
70	0x3dc0c8ed	0.094133236
71	0x3df612d6	0.120153114
72	0x3dfd3e2e	0.123653755
73	0x3d7140fe	0.058899872
74	0xbdba3b91	-0.09093393
75	0x3e5c4c60	0.2151351
76	0x3d4911a6	0.049089096
77	0x3e48c494	0.19606239
78	0x3ded4e21	0.115871675
79	0x3dc2c1b3	0.095096014
80	0x3dbc8f8e	0.092070684
81	0x3e0bef81	0.13665582
82	0x3e9c8f34	0.30578005
83	0x3e539dbd	0.20665641
84	0xbdd993d6	-0.106239006
85	0x3c447355	0.011990388
86	0xbe2e45dc	-0.17018837
87	0x3d8f66b9	0.07002015
88	0x3ddabb02	0.106802
89	0x3e16eaed	0.14738055
90	0xbe6ac424	-0.22926384
91	0xbe67e6ee	-0.22646686
92	0x3d84ea3e	0.06489991
93	0x3e3456aa	0.17611185
94	0x3c94241f	0.01808363
95	0xbb08c600	-0.002086997
96	0x3db694c8	0.089150965
97	0xbd868588	-0.06568438
98	0x3d7587b3	0.059943866
99	0x3ec4fec7	0.3847563
100	0xbd841686	-0.064496085
101	0xbbd50552	-0.0065008784
102	0x3dbae727	0.0912612
103	0x3df733e3	0.120704435
104	0x3d505d6d	0.050870348
105	0xbd6f50b1	-0.058426563
106	0xbdc84db9	-0.097804494
107	0xba27a770	-0.00063954946
108	0xbd9426fd	-0.07233999
109	0x3e4e5a53	0.20151643
110	0x3d64e14c	0.055878922
111	0x3e38af72	0.18035677
112	0xbda216f8	-0.07914537
113	0x3d11f752	0.035636254
114	0x3d739c4e	0.059475236
115	0x3e98f9cd	0.29878083
116	0xbd8d753a	-0.06907125
117	0xbbd36400	-0.00645113
118	0xbdda1826	-0.10649137
119	0xbe51cac7	-0.2048751
120	0xbcdaf2fc	-0.026727192
121	0xbcecd30c	-0.028909229
122	0xbe2a2283	-0.16614728
123	0xbe95d03f	-0.29260442
124	0xbd2ffc6e	-0.042965345
125	0x3e272d88	0.16325963
126	0xbd4cdfdd	-0.05001818
127	0x3e1d5945	0.15366085
128	0x3d2146d1	0.039374176
129	0x3ddb681a	0.10713215
130	0x3c091415	0.008366604
131	0x3eb1547b	0.34634766
132	0x3e43f40f	0.1913607
133	0xbe8c9271	-0.27455476
134	0xbe5fab56	-0.21842703
135	0xbe051b40	-0.12998676
136	0xbe060296	-0.13086924
137	0xbdcda8f8	-0.10041994
138	0x3d8e6e02	0.06954576
139	0x3e2d10ce	0.16900942
140	0xbe159b45	-0.14610012
141	0x3d1c2ab2	0.038126655
142	0xbe40a12b	-0.1881148
143	0xbd5870f1	-0.052842084
144	0xbe6ca97b	-0.23111527
145	0xbe655079	-0.22393979
146	0xbc8c5f19	-0.01713519
147	0x3a8b28f3	0.0010617062
148	0xbe21c1c5	-0.15796573
149	0x3e63d0aa	0.22247568
150	0xbd9bf254	-0.0761458
151	0xbdfce345	-0.12348036
152	0xbd2e1f65	-0.04251041
153	0xbe034011	-0.12817408
154	0x3cd73689	0.026271122
155	0xbca72d0e	-0.020407226
156	0x3ea4bd79	0.32175806
157	0x3edee0c4	0.43530858
158	0x3da546a2	0.08070113
159	0x3de393ea	0.11112197
160	0x3e1c632c	0.15272206
161	0x3dce6203	0.10077288
162	0xbbea55e8	-0.007151354
163	0x3e371376	0.17878518
164	0x3ddffc7f	0.10936832
165	0xbceefb6e	-0.029172625
166	0x3d967d5b	0.073481284
167	0x3d8788ab	0.06617864
168	0xbd4c4dae	-0.04987877
169	0xbd29ecfc	-0.04148577
170	0xbd517b3d	-0.05114292
171	0x3db7658b	0.08954915
172	0xbdfbf8f3	-0.12303343
173	0x3d949f98	0.072570026
174	0x3d82cc78	0.063866556
175	0x3dc36a07	0.095417075
176	0xbc0ed6d5	-0.008718212
177	0x3d96e78e	0.07368384
178	0xbdafe3a8	-0.08588344
179	0xbac7b6b3	-0.0015236944
180	0xbd3de8b5	-0.046364505
181	0x3dd38470	0.10327995
182	0x3ce68b18	0.028142497
183	0x3db4d2f0	0.08829296
184	0x3d564993	0.05231626
185	0x3d40a29c	0.047030076
186	0x3d268133	0.040650558
187	0x3e0643a2	0.13111737
188	0x3e094799	0.13406219
189	0x3da4e69b	0.08051797
190	0xbc48a9e0	-0.012247533
191	0x3e1b34a2	0.15156797
192	0x3d56779d	0.052360166
193	0x3c4effa5	0.012634193
194	0xbdf0d707	-0.11759763
195	0x3e875263	0.26430044
196	0x3e7c2b3a	0.24625865
197	0xbe7aee56	-0.2450498
198	0xbe614535	-0.21999057
199	0xbd25a4c2	-0.04044033
200	0xbcdff2fc	-0.027337544
201	0xbd807daa	-0.062739685
202	0xbd659d54	-0.056058243
203	0x3d8ea994	0.06965938
204	0xbe4fbb67	-0.20286332
205	0xbe130df6	-0.14360794
206	0xbd688827	-0.05677047
207	0x3ceacc2c	0.02866181
208	0xbe65044b	-0.22364919
209	0xbd35a8ee	-0.044350557
210	0xbd5f9aab	-0.054590862
211	0xbc521488	-0.012822278
212	0x3e2fbd4e	0.17162058
213	0x3dfd5b16	0.12370889
214	0xbc2523d8	-0.010079347
215	0xbe39f188	-0.18158543
216	0xbdf9b950	-0.12193549
217	0xbda38620	-0.07984567
218	0x3dab58cb	0.08366545
219	0xbe5e0089	-0.21679892
220	0xbcf9a335	-0.030473331
221	0x3e0a1356	0.13483939
222	0xbd625b63	-0.055262934
223	0xbc3b1d06	-0.011420494
224	0x3d8a9abc	0.067677945
225	0xbb920517	-0.004456173
226	0x3d3a978e	0.04555469
227	0x3e137101	0.14398576
228	0xbb83e4f6	-0.004025097
229	0x3ddf4006	0.109008834
230	0xbe016a4c	-0.12638205
231	0xbe786cb5	-0.24260218
232	0xbe713932	-0.23556975
233	0xbe228fa2	-0.15875104
234	0xbe601ffa	-0.21887198
235	0x3df125b5	0.1177477
236	0xbcba4e94	-0.022742547
237	0x3d99ccff	0.07509803
238	0xbd3835ee	-0.044973306
239	0xbd9d3fe5	-0.076782025
240	0xbe4e00a2	-0.20117429
241	0xbe405611	-0.18782832
242	0xbe124500	-0.14284134
243	0xbdfd366d	-0.123638965
244	0xbe3da037	-0.18518148
245	0x3d36f6e2	0.04466904
246	0x3de159e4	0.110034734
247	0xbe4f3022	-0.20233205
248	0xbddb828f	-0.107182615
249	0xbe1fb3ac	-0.15595883
250	0xbe80b7e9	-0.25140312
251	0xbe62c593	-0.22145681
252	0xbcb3486e	-0.021885123
253	0x3de3103c	0.11087081
254	0xbdace1ae	-0.084414825
255	0x3e843136	0.25818795

ds.fc1_conv.bias f4 [128]
0	0x3db729a1	0.08943487
1	0x3e4cdaa7	0.20005284
2	0xbd8aadd1	-0.06771434
3	0x3d8404db	0.064462386
4	0xbe89d14a	-0.26917487
5	0xbe0dea3b	-0.13858883
6	0xbe757057	-0.23968635
7	0xbed2526b	-0.41078505
8	0xbd43f6dd	-0.04784285
9	0xbe862212	-0.2619787
10	0xbd7dadbb	-0.06193326
11	0xbc01902f	-0.007907911
12	0xbd744a29	-0.059641037
13	0x3f065631	0.5247527
14	0x3f03f5bd	0.5154684
15	0xbeca0b6e	-0.39461845
16	0xbe217c4d	-0.15770073
17	0xbe20ebca	-0.15714946
18	0xbe4c7dad	-0.19969817
19	0x3eac4524	0.336465
20	0x3d287b38	0.041133136
21	0x3e71aae8	0.23600352
22	0xbea28bb5	-0.31747213
23	0xbeb43545	-0.3519689
24	0x3e76b034	0.24090654
25	0x3df63cbb	0.12023302
26	0xbe656714	-0.22402602
27	0xbe766161	-0.24060585
28	0x3ebdb18a	0.37049514
29	0xbe033a8d	-0.12815304
30	0xbe152415	-0.14564545
31	0xbe469276	-0.19391808
32	0xbeb00a0a	-0.3438266
33	0xbea03912	-0.3129354
34	0xbec44580	-0.38334274
35	0xbe493b6d	-0.19651575
36	0xbdf2a00f	-0.11846935
37	0xbdd71bfa	-0.10503383
38	0xbd74af7a	-0.05973766
39	0x3ee8fea9	0.4550679
40	0xbe1d540d	-0.15364094
41	0x3e07f967	0.13278733
42	0x3eac44eb	0.3364633
43	0xbca4653a	-0.0200678
44	0xbcdd5842	-0.027019624
45	0x3e96f18b	0.29481158
46	0xbe1e2942	-0.15445426
47	0x3ec9266f	0.39287135
48	0xbe5e957a	-0.21736708
49	0xbe984ed4	-0.2974764
50	0xbe2ef9d8	-0.17087495
51	0xbe563ea5	-0.20922334
52	0xbec1c513	-0.37845668
53	0xbe26780f	-0.16256736
54	0xbe8011f9	-0.25013712
55	0xbe48c276	-0.19605431
56	0xbdddc3c4	-0.10828355
57	0xbe9887eb	-0.29791197
58	0xbe848701	-0.2588425
59	0xbe53b0e8	-0.20672953
60	0x3e71299c	0.23551029
61	0x3b885be3	0.0041613444
62	0xbe98a34e	-0.29812092
63	0x3edc211e	0.42994016
64	0xbe90fd6e	-0.28318352
65	0xbde1ac5d	-0.11019204
66	0xbe172664	-0.14760739
67	0xbe23be64	-0.15990597
68	0xbe369d05	-0.17833336
69	0xbed24712	-0.41069847
70	0xbe089588	-0.13338292
71	0xbe2e3358	-0.17011774
72	0xbec1d977	-0.37861225
73	0x3f145d34	0.57954717
74	0xbe4f8340	-0.20264912
75	0xbeb51219	-0.3536537
76	0xbe8124e3	-0.25223455
77	0xbead6493	-0.33865795
78	0xbc9f9cfe	-0.01948404
79	0xbe748d0e	-0.23881933
80	0xbe7576f2	-0.23971155
81	0xbe2cac50	-0.16862607
82	0xbe6774b6	-0.22603115
83	0xbe2c7402	-0.16841128
84	0x3eed914f	0.46399924
85	0xbe21411e	-0.15747496
86	0xbecc7c7d	-0.39938727
87	0x3e7f9a1d	0.24961133
88	0xbd8da1f6	-0.06915657
89	0xbe3e7ea6	-0.18603
90	0x3ee427ce	0.4456162
91	0xbe2031af	-0.15643953
92	0xbdffaea4	-0.12484482
93	0x3eddc0a2	0.4331103
94	0xbd7ad946	-0.061242364
95	0xbe4f09ac	-0.20218533
96	0xbe2dc811	-0.1697085
97	0xbe6500cf	-0.2236359
98	0xbdc476ef	-0.09592997
99	0xbdf5ed7b	-0.120081864
100	0x3e60dd4a	0.21959415
101	0x3f00928e	0.50223625
102	0xbe9ac093	-0.30225047
103	0xbebc100e	-0.36731
104	0xbe247b4d	-0.1606266
105	0xbe3efc1b	-0.18650858
106	0xbe9a8d05	-0.30185714
107	0xbe17f349	-0.148389
108	0xbde952ee	-0.11392771
109	0x3d762ee1	0.0601033
110	0x3ef69d3f	0.48166844
111	0xbdb40fd5	-0.08792082
112	0xbd9bb140	-0.07602167
113	0xbde53bf7	-0.11193078
114	0x3ca79c4a	0.020460267
115	0xbd83ffc1	-0.064452656
116	0xbd2c5b76	-0.04207941
117	0xbe80c407	-0.25149557
118	0xbe9ee421	-0.31033424
119	0x3f09d7a7	0.53844684
120	0xbec3fbd2	-0.3827806
121	0xbd8b938f	-0.06815254
122	0xbe033319	-0.12812461
123	0xbe67f06b	-0.22650306
124	0xbd0382a9	-0.03210703
125	0xbe72040f	-0.2363436
126	0xbdd281f1	-0.102786906
127	0xbe1e8d23	-0.15483527

ds.fc2_conv.weight f4 [64, 128]
0	0xbd553693	-0.052054
1	0x3d911ea3	0.070859216
2	0x3d748201	0.059694294
3	0x3cbb6bb4	0.022878505
4	0x3de25233	0.110508345
5	0xbd9d8c4a	-0.07692774
6	0x3e911f6f	0.28344294
7	0x3ebe2f5c	0.37145507
8	0x3da5d09e	0.08096431
9	0x3df7ef95	0.121062435
10	0xbc8ed218	-0.017434165
11	0x3df5c2d8	0.12000054
12	0x3df2fd23	0.11864688
13	0xbed739fd	-0.4203643
14	0xbd3e0773	-0.046393823
15	0x3ea97ea2	0.33104426
16	0x3d99a610	0.07502377
17	0x3e81b019	0.25329664
18	0x3d8e4209	0.06946189
19	0xbc769ce2	-0.015052052
20	0x3c393274	0.011303533
21	0xbe3614f9	-0.17781438
22	0xbeb26955	-0.34845987
23	0xbc827c16	-0.01592831
24	0xbe821a32	-0.2541061
25	0x3db422c5	0.08795694
26	0xbe111f9a	-0.14172211
27	0x3d5f31d0	0.054490864
28	0x3e139146	0.14410886
29	0xbbe6612c	-0.0070306268
30	0x3df991d1	0.121860154
31	0xbe1c4142	-0.15259269
32	0xbe2bb284	-0.16767317
33	0x3e4b3aa3	0.19846587
34	0x3ee75d8c	0.45188558
35	0xbe56f4da	-0.20991841
36	0x3db05bd5	0.086112656
37	0x3cd535c5	0.026026616
38	0xbde08aff	-0.109640114
39	0xbe8a0f09	-0.26964596
40	0x3e9cd6c8	0.30632615
41	0xbe9afd81	-0.30271533
42	0x3db0bbff	0.086296074
43	0x3d90e0a5	0.070740975
44	0xbe3f57f1	-0.1868589
45	0x3c85448c	0.016268037
46	0x3e8b7f48	0.27245545
47	0x39872696	0.00025777955
48	0x3f01ff38	0.5078006
49	0xbe706cc3	-0.2347899
50	0x3e4b740a	0.19868484
51	0xbe888b4d	-0.26668778
52	0x3ead9788	0.33904672
53	0x3e82ffca	0.25585777
54	0x3cde437f	0.027131794
55	0xbdf41e87	-0.11919885
56	0x3e7bc3ba	0.24586383
57	0x3df54c19	0.11977405
58	0x3ea830b1	0.3284965
59	0xbeb4b7f8	-0.35296607
60	0xbda6098c	-0.0810729
61	0xbdbb1269	-0.09134371
62	0xbe944868	-0.28961492
63	0xbd703534	-0.05864449
64	0x3e02e092	0.1278098
65	0x3eb585b0	0.35453558
66	0x3ccf0ee8	0.025275663
67	0x3f0f013c	0.5586126
68	0x3e75ac93	0.23991613
69	0x3ea11ea6	0.31468695
70	0x3d84beff	0.06481742
71	0x3f02df7e	0.5112227
72	0xbe575fe8	-0.21032679
73	0xbe997fac	-0.29980218
74	0x3eb92f85	0.36169067
75	0xbe313eab	-0.17309062
76	0x3e1db4a1	0.15400936
77	0x3ed57e97	0.41698143
78	0x3e6449fb	0.22293846
79	0x3ed5f8d2	0.41791397
80	0xbe584d04	-0.21123129
81	0xbc5e806c	-0.013580423
82	0x3e94fede	0.29100698
83	0xbd4d4e9a	-0.05012379
84	0xbe98668e	-0.29765743
85	0x3eee56a6	0.46550483
86	0xbeabd3f0	-0.33560133
87	0xbde216e5	-0.11039523
88	0x3d238a28	0.039926678
89	0x3f0cf6a5	0.5506385
90	0xbec2d63d	-0.38054076
91	0xbd07e182	-0.033174045
92	0x3dbf89a8	0.09352428
93	0x3e13a280	0.14417458
94	0x3dc7e988	0.097613394
95	0xbe200614	-0.15627319
96	0x3db37b00	0.08763695
97	0x3e7e2f59	0.24822749
98	0x3dcb171d	0.09916518
99	0x3d0b8093	0.034058165
100	0x3d8d2200	0.068912506
101	0xbedc18a9	-0.42987564
102	0xbe1ca6f7	-0.15298067
103	0xbd5c80e3	-0.053833853
104	0xbe97c0bd	-0.29639235
105	0xbe404b48	-0.18778718
106	0xbc8edc2b	-0.017438969
107	0xbd579bfb	-0.05263899
108	0x3debacda	0.11507578
109	0x3df02c9a	0.11727257
110	0xbe4ade43	-0.19811349
111	0x3e39f8f2	0.18161371
112	0x3e1f63b1	0.15565373
113	0xbcbea922	-0.023274008
114	0xbd9e718b	-0.077365
115	0xbcd34197	-0.025788112
116	0x3d405687	0.04695752
117	0x3e0e59a9	0.1390139
118	0x3dda334d	0.10654316
119	0x3e8ad63a	0.27116567
120	0x3c5d305d	0.0135003
121	0x3e64308d	0.22284146
122	0x3df6d454	0.12052217
123	0x3e2d322d	0.16913672
124	0x3cb614cc	0.022226714
125	0xbebc70f3	-0.36804923
126	0x3dfbf0f0	0.123018146
127	0x3eb88e8f	0.36046264
128	0x3e3db9a8	0.18527853
129	0xbc62a1dc	-0.013832536
130	0xbdccb537	-0.099955015
131	0xbce2428f	-0.027619628
132	0x3e674160	0.22583532
133	0xbddb51af	-0.10708939
134	0xbee6148f	-0.4493756
135	0xbc94aadf	-0.018147884
136	0x3eec5209	0.46156338
137	0x3ed92086	0.42407626
138	0x3dadc85a	0.0848548
139	0x3e9b82b5	0.3037316
140	0x3e882617	0.2659156
141	0xbe11cdec	-0.14238709
142	0xbd0993bc	-0.033588156
143	0x3e6b1326	0.22956523
144	0x3d82a535	0.06379167
145	0x3dccc27b	0.09998032
146	0x3e67c232	0.22632673
147	0x3e34255d	0.17592378
148	0x3df6966e	0.12040411
149	0xbf0212d2	-0.5080997
150	0xbdcc3dd6	-0.09972732
151	0x3e37fcd3	0.17967539
152	0x3e97b45c	0.2962979
153	0xbd93f029	-0.07223541
154	0x3e82e91e	0.2556848
155	0xbf127a21	-0.57217604
156	0x3e19d4e3	0.15022616
157	0xbc1962bb	-0.009361918
158	0xbeec5a0e	-0.46162456
159	0xbce37b28	-0.027768686
160	0x3dc64229	0.09680588
161	0xbd2516f2	-0.040305085
162	0x3e297b70	0.16550994
163	0x3ddec8f1	0.1087817
164	0x3d3071e6	0.043077372
165	0x3c8955b3	0.016764497
166	0xbe838811	-0.25689748
167	0xbdd5658a	-0.10419758
168	0x3e9c1fcc	0.3049301
169	0x3ee35e9d	0.44408122
170	0xbc273a2a	-0.0102067385
171	0xbe53c1a8	-0.20679343
172	0x3dc2519f	0.09488224
173	0x3d851eda	0.06500025
174	0x3c7d53b3	0.01546185
175	0xbe3b2104	-0.18274313
176	0x3e52b08b	0.20575158
177	0xbba4f5d1	-0.0050341864
178	0xbd216574	-0.039403394
179	0xbe6ead6d	-0.23308344
180	0x3d159345	0.0365174
181	0xbedbadbb	-0.42905983
182	0x3e2bd417	0.16780125
183	0x3d1ede19	0.038786028
184	0xbea09106	-0.31360644
185	0x3eb563ce	0.35427707
186	0xbf3bd340	-0.73369217
187	0xbd8035b7	-0.06260245
188	0xbeff21aa	-0.4983037
189	0x3e162cd8	0.14665544
190	0x3cedab4b	0.029012343
191	0xbe043276	-0.12909874
192	0x3e4899f5	0.1958998
193	0xbde6ef21	-0.11276079
194	0xbd609af3	-0.05483527
195	0x3da3f9d4	0.08006635
196	0x3daceeb8	0.084439695
197	0x3cdc5b1f	0.026898919
198	0x3dba016b	0.09082302
199	0x3e76077b	0.24026291
200	0xbd8704c5	-0.065927066
201	0xbd9dfd2a	-0.07714303
202	0x3ee25594	0.44205916
203	0x3d2c74ed	0.042103697
204	0x3e2a60dd	0.16638513
205	0x3e8b0175	0.2714955
206	0x3e05eef2	0.13079432
207	0x3d9e9d06	0.077447936
208	0xbd9ea3aa	-0.0774606
209	0x3b43cdb5	0.002987725
210	0xbf168107	-0.5879063
211	0x3e075d37	0.13219152
212	0xbda47580	-0.08030224
213	0x3deebd0d	0.11657152
214	0x3e0f3f93	0.13989095
215	0x3d366a1a	0.04453478
216	0xbe180dc4	-0.14849001
217	0xbda96c3c	-0.08272597
218	0xbeb72dde	-0.3577718
219	0xbe733894	-0.23752052
220	0x3e1a9ddb	0.1509928
221	0x3e3356f4	0.17513639
222	0xbbe733f9	-0.007055756
223	0xbde3b29f	-0.11118054
224	0x3cacb769	0.02108355
225	0xbf42e7b1	-0.76134783
226	0xbd81b081	-0.063324936
227	0x3dcccfb5	0.100005545
228	0x3dfaefae	0.122527465
229	0xbdb0a1ad	-0.08624587
230	0x3de5ae17	0.11214846
231	0x3ddd568c	0.10807523
232	0x3cd5f1ee	0.026116338
233	0xbe51923a	-0.20465937
234	0x3ec17c06	0.37789935
235	0xbd7b46d6	-0.06134685
236	0x3ddeb9f9	0.10875315
237	0xbe1664bf	-0.14686869
238	0xbd67ece1	-0.05662239
239	0xbdaac821	-0.08338953
240	0xbec59e5a	-0.38597375
241	0xbb273c98	-0.0025518294
242	0xbe55dd9d	-0.2088532
243	0xbef45e09	-0.47727993
244	0x3de49707	0.11161619
245	0x3ec398da	0.38202554
246	0x3e45b706	0.19308099
247	0x3c20ab1b	0.00980642
248	0x3e216e4c	0.15764731
249	0x3d9f49ba	0.07777734
250	0x3ca9499f	0.020664988
251	0x3e2bede9	0.16789974
252	0x3e3acba7	0.1824175
253	0x3e396f14	0.18108779
254	0x3ea28261	0.31740096
255	0x3ea9b5ee	0.33146614

ds.fc2_conv.bias f4 [64]
0	0xbe1e6e6d	-0.15471812
1	0xbd99b794	-0.07505718
2	0xbd5e9f47	-0.054351117
3	0xbda5bfe1	-0.080932386
4	0x3e8bfb59	0.273402
5	0xbdb5c5ae	-0.08875595
6	0xbe636566	-0.22206649
7	0xbe70efe1	-0.23529007
8	0x3eda3e2d	0.4262556
9	0xbe5b00c3	-0.2138701
10	0x3d49f62b	0.04930703
11	0xbe347c8c	-0.17625636
12	0xbe2f412c	-0.17114705
13	0x3f012034	0.50439763
14	0x3e9b6495	0.30350175
15	0x3eb66200	0.35621643
16	0x3ce2cf14	0.027686633
17	0x3e072fb4	0.13201791
18	0xbe912a03	-0.28352365
19	0xbe0ba315	-0.1363643
20	0xbe8a3347	-0.26992247
21	0xbe5d2da4	-0.21599442
22	0xbe51b71a	-0.20480004
23	0x3ca5af4c	0.02022519
24	0xbdbc1463	-0.09183576
25	0x3e69b7cb	0.22824018
26	0xbe1d5988	-0.15366185
27	0xbe7f8713	-0.2495387
28	0xbde5c96c	-0.11220059
29	0xbe831839	-0.25604418
30	0xbe8a8318	-0.27053142
31	0xbe60db2e	-0.2195861
32	0x3eb51867	0.3537018
33	0xbe4e8d62	-0.20171121
34	0x3ee6246c	0.44949663
35	0xbe29745a	-0.16548291
36	0xbd209ce9	-0.03921214
37	0x3e14990e	0.1451151
38	0xbe6b8f17	-0.23003803
39	0x3b226ccf	0.0024784093
40	0xbdeedb2b	-0.11662897
41	0x3e940445	0.28909507
42	0x3cae6654	0.021289028
43	0x3db9fea1	0.0908177
44	0xbe395083	-0.18097119
45	0xbdcc2a03	-0.099689506
46	0xbe70f711	-0.23531748
47	0xbe6491e9	-0.22321285
48	0x3de19cc9	0.110162325
49	0xbd7d450c	-0.061833426
50	0x3e123b29	0.1428038
51	0xbe6f06d4	-0.23342448
52	0xbe7aebf9	-0.24504079
53	0xbd01bd6f	-0.0316748
54	0xbe45e102	-0.19324115
55	0x3ecc79dd	0.39936724
56	0xbe42c3db	-0.19020025
57	0xbe037871	-0.12838914
58	0xbe1e3b7b	-0.15452377
59	0xbd85142f	-0.0649799
60	0xbe53e376	-0.20692238
61	0xbdea6b7a	-0.11446281
62	0xbd46272e	-0.04837721
63	0xbe5f5ebe	-0.21813485

head.weight f4 [15, 64]
0	0xbe49c9c9	-0.19705881
1	0xbf37d7ce	-0.71813667
2	0x3e1f8844	0.15579325
3	0xbf7c313d	-0.9851263
4	0x3e7fa470	0.24965072
5	0xbf8f6757	-1.1203412
6	0xbf3e915a	-0.7444054
7	0xbf2a2fdb	-0.6647927
8	0x3eb52470	0.35379362
9	0xbdb5cce4	-0.088769704
10	0x3e854046	0.260256
11	0xbe2c9eb5	-0.16857417
12	0x3ea5515c	0.32288635
13	0x3e9fa497	0.3118026
14	0x3e8ec974	0.27888072
15	0x3ea0e531	0.3142486
16	0x3e604784	0.21902281
17	0x3ea57bce	0.32321018
18	0xbf6886f9	-0.9083095
19	0xbec1d045	-0.3785421
20	0xbdf17875	-0.117905535
21	0xbd2f89ce	-0.04285603
22	0xbe336842	-0.1752024
23	0x3e48c822	0.19607595
24	0xbf060f45	-0.5236705
25	0x3e9404cb	0.28909907
26	0xbede94fa	-0.43473035
27	0xbf9bd83e	-1.2175367
28	0x3eb165be	0.34647936
29	0xbe2f033c	-0.17091078
30	0xbdeee980	-0.1166563
31	0xbe163dd5	-0.14672025
32	0x3eb948bf	0.36188313
33	0x3d74122a	0.059587635
34	0x3e9564ec	0.2917856
35	0x3dfb5d11	0.122736104
36	0x3b97cbc0	0.004632443
37	0xbf20d631	-0.6282683
38	0xbfabeb24	-1.3431134
39	0xbecad240	-0.39613533
40	0xbfc7ad21	-1.559971
41	0x3e61bc57	0.22044502
42	0x3e4d31ac	0.2003848
43	0x3e4e8f3c	0.20171827
44	0x3d8b54aa	0.06803258
45	0xbec4ffed	-0.38476506
46	0xbf21d512	-0.63215744
47	0xbf50ede0	-0.8161297
48	0x3e06ffb4	0.1318348
49	0xbf8f6cb2	-1.1205046
50	0x3e92c040	0.286623
51	0xbe6da59b	-0.23207705
52	0xbeaf784d	-0.3427147
53	0xbe2291eb	-0.15875976
54	0xbf1b64f9	-0.6070095
55	0x3e9384e2	0.2881232
56	0xbe3b02d6	-0.182628
57	0xbfb502b0	-1.4141445
58	0xbe016f92	-0.12640217
59	0x3e64c590	0.22340989
60	0xbdd31c99	-0.10308189
61	0xbf0cc325	-0.54985267
62	0x3e2b7460	0.16743612
63	0x3e5692fe	0.2095451
64	0xbfa805d1	-1.3126775
65	0xbd5b8ac8	-0.05359915
66	0xbed1025f	-0.40822122
67	0xbe5e1aba	-0.21689883
68	0x3f1560c3	0.5835077
69	0x3e3a5df1	0.18199898
70	0xbf12ef36	-0.57396257
71	0x3e0cd2f3	0.13752346
72	0xbf3ded9d	-0.74190694
73	0xbe810380	-0.25197983
74	0x3e2e0530	0.16994166
75	0x3e8046ac	0.25053918
76	0xbe5f994a	-0.21835819
77	0xbede7044	-0.43445027
78	0xbdc5143d	-0.09623001
79	0x3e9b1bc4	0.3029462
80	0x3d67b042	0.056564577
81	0x3d07d4c6	0.0331619
82	0x3c6edcd7	0.0145790195
83	0xbf4729f0	-0.77798367
84	0xbf269447	-0.65070003
85	0x3e076833	0.13223343
86	0xbf36329f	-0.7117099
87	0xbeda293e	-0.4260959
88	0x3e275e23	0.16344504
89	0x3ef0bf72	0.4702106
90	0x3cbd940d	0.023141885
91	0xbf292cdf	-0.6608409
92	0xbf6d439b	-0.9268128
93	0xbeaf8d30	-0.34287405
94	0xbe81e935	-0.25373235
95	0x3df198ff	0.1179676
96	0xbf2b84af	-0.66999334
97	0x3da4a73d	0.08039711
98	0x3cca83f8	0.02472113
99	0xbf025878	-0.5091624
100	0x3e1b23c4	0.15150362
101	0x3e887c21	0.26657203
102	0xbcc097fa	-0.023509968
103	0xbe3a5729	-0.18197311
104	0x3e0beb84	0.13664061
105	0x3ea1fd79	0.31638697
106	0xbfce48b2	-1.6115935
107	0x3ddfb2dd	0.10922787
108	0x3e59cc0d	0.21269245
109	0x3e810dc1	0.25205806
110	0x3ded5656	0.11588733
111	0xbf1eec9b	-0.6207978
112	0x3ea57a6e	0.3231997
113	0x3e58f7fb	0.21188347
114	0x3eb45ac2	0.35225493
115	0xbfdd87b2	-1.7307036
116	0xbecf2e3f	-0.4046497
117	0x3f3cb9d5	0.7372106
118	0x3e216be8	0.15763819
119	0xbec607d3	-0.38677844
120	0xbf4fe677	-0.81211036
121	0x3e2906bf	0.1650648
122	0x3c36b898	0.011152409
123	0xbf675ce7	-0.9037613
124	0xbe2815f7	-0.16414629
125	0x3db6660b	0.08906182
126	0xbe9d8786	-0.3076746
127	0xbf4f0638	-0.80868864
128	0xbf82429e	-1.017658
129	0x3e422328	0.18958724
130	0xbe498256	-0.19678625
131	0x3e9a4c61	0.30136397
132	0xbeba37a2	-0.3637057
133	0xbb23f860	-0.002501987
134	0x3e477bd5	0.19480832
135	0x3e0d2ac1	0.1378584
136	0xbf600c39	-0.8751865
137	0x3eb614a5	0.35562626
138	0x3e586c2c	0.21135014
139	0x3cc4b0e4	0.02401013
140	0xbe687550	-0.22701001
141	0xbf071f3d	-0.5278204
142	0xbdadafe9	-0.08480818
143	0x3dc7160b	0.09721001
144	0xbb82117d	-0.00396937
145	0x3d486057	0.04892
146	0x3e8a6e28	0.27037168
147	0xbe77a7c5	-0.24185093
148	0x3e9a89c6	0.30183238
149	0x3e713445	0.23555095
150	0x3e810257	0.25197098
151	0x3ec4cfd7	0.3843982
152	0x3cea3fa6	0.028594803
153	0xbf811757	-1.0085248
154	0x3d5bfc3d	0.05370735
155	0x3e8150eb	0.25257048
156	0xbfa65116	-1.2993495
157	0x3e9a3c81	0.30124286
158	0x3ed6e194	0.41968977
159	0x3d9c1fa7	0.07623225
160	0xbf25338f	-0.645318
161	0x3db7fe0c	0.089840025
162	0xbfc621a9	-1.5479022
163	0xbf2cc52d	-0.67488366
164	0xbdcfa9f7	-0.1013984
165	0x3e2b1640	0.16707706
166	0x3e7725ec	0.2413556
167	0x3f2cdc65	0.67523795
168	0x3c92ae54	0.017905392
169	0x3d0c8722	0.03430856
170	0xbe9363a7	-0.28786966
171	0x3e42563d	0.1897821
172	0x3d6e05e1	0.058111075
173	0xbc7395a5	-0.014867221
174	0x3d50b202	0.05095101
175	0xbdd7b5a9	-0.10532696
176	0xbd11cff5	-0.035598714
177	0x39a61172	0.00031674985
178	0x3d80b025	0.06283597
179	0xbd1d5664	-0.038412467
180	0x3e8259dc	0.25459182
181	0xbf0af2fc	-0.54277015
182	0xbd8147db	-0.063125335
183	0xbf405b30	-0.7513914
184	0xbfaedc99	-1.3661071
185	0xbc2890e7	-0.010288454
186	0x3d9efb3a	0.077627614
187	0xbe8d46ae	-0.27592987
188	0x3e26227c	0.16224092
189	0x3d3102c1	0.043215517
190	0xbe9ee7db	-0.31036267
191	0xbf84267c	-1.0324244
192	0x3deeb710	0.1165601
193	0xbf059f5d	-0.52196294
194	0x3e36f355	0.17866261
195	0xbe519621	-0.20467426
196	0xbebe3bce	-0.37155002
197	0xbf48def0	-0.78465176
198	0x3dd3f177	0.1034879
199	0x3db4d234	0.088291556
200	0x3e908f4c	0.28234327
201	0x3e693a78	0.2277621
202	0xbe9cf8b8	-0.30658507
203	0x3ea57503	0.32315835
204	0x3e318c3b	0.1733865
205	0xbf28ee29	-0.65988404
206	0xbf777f62	-0.96678746
207	0xbecb0538	-0.3965242
208	0xbf4da140	-0.8032417
209	0xbf0d9ec4	-0.5532038
210	0x3db72821	0.08943201
211	0x3e6ee976	0.23331246
212	0x3e0ce39d	0.13758703
213	0x3e2bd932	0.16782072
214	0x3e096612	0.13417843
215	0x3e846235	0.25856176
216	0xbd534556	-0.051579796
217	0xbf4a66da	-0.7906319
218	0x3d08e477	0.033421006
219	0x3d9973c0	0.07492781
220	0x3ded1270	0.11575782
221	0x3e8268b7	0.25470516
222	0x3ecb30c7	0.39685652
223	0x3dd499e2	0.10380913
224	0xbf568030	-0.8378935
225	0x3e943c05	0.2895204
226	0xbf42b879	-0.7606273
227	0x3dd1b2a5	0.10239152
228	0x3e2447d2	0.16043022
229	0xbfceb2aa	-1.6148274
230	0x3d9cb360	0.076514006
231	0xbf88d624	-1.069035
232	0x3c9388d9	0.01800959
233	0xbedeeaec	-0.43538606
234	0x3e3bcdad	0.18340178
235	0xbc6f28cd	-0.01459713
236	0xbeed58c6	-0.4635679
237	0x3dfbefd3	0.12301602
238	0x3d892fd0	0.06698573
239	0x3e4a7fb4	0.19775277
240	0xbf4924ee	-0.78571975
241	0x3df68eb5	0.12038938
242	0xbf100e32	-0.5627166
243	0x3df7d362	0.12100865
244	0x3db78c60	0.08962321
245	0xbef1c435	-0.47220007
246	0x3e13eae7	0.14445077
247	0xbf4a8f39	-0.7912479
248	0x3ddab7d3	0.10679593
249	0x3e18903b	0.1489877
250	0x3d8d20ea	0.068910435
251	0x3e25afa1	0.16180278
252	0x3d9494fa	0.072549775
253	0xbed7825e	-0.4209165
254	0x3e2cd164	0.16876751
255	0x3db3f6fa	0.087873414

head.bias f4 [15]
0	0x3e9f3c5f	0.31100747
1	0x3e0c41bb	0.13696949
2	0xbdb4828d	-0.08813963
3	0xbdee1a8e	-0.11626159
4	0x3d2d90b8	0.042374343
5	0xbcb67a6d	-0.022275174
6	0xbe0a732e	-0.135205
7	0x3ebab2f3	0.36464652
8	0xbdb0b7cb	-0.08628806
9	0x3c752f27	0.014964855
10	0x3ea08018	0.31347728
11	0xbdb16959	-0.086626716
12	0xbddc4560	-0.1075542
13	0x3eb2ce43	0.3492299
14	0xbd10e88a	-0.035378017
