surrogate/trained_model/BCRNet/model_rate_ll16_fold2.pth (torch, 179229 bytes, 18 tensors)

ds.proj_conv.weight f4 [16, 2, 7]
-0.0370518 -0.105306216 -0.2434573 -0.16222163 -0.13281487 -0.13883507 -0.07804842 -0.079304256
-0.05670527 -0.020104244 -0.0066713695 0.031736396 0.08208932 0.078891635 0.032308895 0.090312734
0.108383186 0.1268772 0.16636208 0.1529587 0.121610664 0.02597496 0.029902749 0.067694664
0.079279244 0.066779554 0.11761519 0.076742075 0.121021084 0.131885 0.13928567 0.15399511
0.081616774 0.04551166 0.009076167 -0.031931434 0.014348573 -0.0037890754 -0.011004342 -0.004873275
-0.04570893 -0.02729709 0.056865174 0.071218416 0.06751516 0.097866856 0.124986075 0.064049244
0.067365 0.07361572 0.16887252 0.14403895 0.11076815 0.0557084 0.07781826 0.052261185
-0.045716956 -0.056770377 -0.030079354 -0.0673155 -0.1023653 -0.089822866 -0.067458786 -0.0011910255
-0.060449738 -0.14257349 -0.15931761 -0.2021924 -0.14239737 -0.09526121 -0.015696058 0.05182844
0.063795164 0.10363414 0.15896836 0.19181444 0.11422636 0.009072593 -0.0027334439 0.05315452
0.078878105 0.096865356 0.10751232 0.08405006 0.008001317 -0.06620084 -0.2872759 -0.17167547
-0.12809318 -0.1459787 -0.124092005 -0.13895841 -0.12736945 -0.079125814 -0.011711538 0.021078497
0.075609125 0.08121564 -0.05932804 0.015724696 0.1321088 0.09286872 0.08047326 0.025295988
-0.04484993 -0.053127382 -0.074135385 -0.2373564 -0.16193748 -0.16804285 -0.110074975 -0.033955418
-0.15201394 -0.20488726 -0.22470158 -0.1595617 -0.06685306 0.058987796 0.09869979 0.05536014
0.024446638 0.0381266 -0.0059644394 -0.05137208 -0.08681807 -0.11542017 0.06959163 0.08081655
0.062424034 0.0827207 0.10934359 0.057934128 0.09730878 0.07409506 0.21401998 0.15815823
0.14909144 0.09572687 0.06511017 0.019101 -0.1606087 -0.14194313 -0.2039244 -0.08042631
-0.10125363 -0.20405726 -0.11542495 0.048865683 0.05008384 0.050946392 0.044037193 0.083322
0.06224623 0.04114417 -0.02290318 0.023722632 -0.04647253 0.0032568085 -0.02437243 -0.1056556
-0.04588425 0.05867812 0.15070003 0.1782802 0.09324745 0.11062941 0.09353072 0.04367993
0.02767829 0.026753645 -0.022538936 0.026261566 0.07342526 0.05103493 0.115915254 0.104881994
0.16794115 0.19223496 0.10190775 0.07665357 -0.013504048 -0.04305676 0.08387486 0.12866981
0.122155495 0.089636646 0.07540186 0.009781356 0.022070587 0.05580314 0.073479496 0.13115662
0.08507702 0.12454984 0.08230453 0.026875906 -0.2066005 -0.25174358 -0.3383465 -0.168651
-0.12853235 -0.053302575 0.04848396 0.06522276 0.0023436602 -0.028112862 -0.024460612 -0.061595578
-0.08374897 -0.08062111 0.065607965 0.09416373 0.06668158 0.0434236 -0.009353184 -0.0066648177
-0.041416813 -0.033528432 -0.12309187 -0.28185374 -0.25800315 -0.21287519 -0.038923334 0.024484525
00000000: a1c3 17bd c9aa d7bd df4c 79be 6d1d 26be
00000010: 9f00 08be c82a 0ebe dad7 9fbd 456a a2bd
00000020: c943 68bd a8b1 a4bc 819b dabb 06fe 013d
00000030: 721e a83d f091 a13d 5556 043d e2f5 b83d
00000040: 01f8 dd3d 19ec 013e d25a 2a3e 35a1 1c3e
00000050: 030f f93d 70c9 d43c 9cf6 f43c 80a3 8a3d
00000060: 285d a23d b8c3 883d 3ce0 f03d f32a 9d3d
00000070: e7d9 f73d dd0c 073e e7a0 0e3e e5b0 1d3e
00000080: b226 a73d 6f6a 3a3d 34b4 143c 89ca 02bd
00000090: 4716 6b3c 2352 78bb 8e4b 34bc feaf 9fbb
000000a0: 4939 3bbd 269e dfbc 75eb 683d f6da 913d
000000b0: 6345 8a3d 6b6e c83d b3f8 ff3d 402c 833d
000000c0: a9f6 893d d7c3 963d ebec 2c3e f27e 133e
000000d0: 69da e23d 7e2e 643d 2e5f 9f3d d30f 563d
000000e0: b441 3bbd 0e88 68bd fa68 f6bc b5dc 89bd
000000f0: e6a4 d1bd 0df5 b7bd d527 8abd 2f1c 9cba
00000100: 259a 77bd c9fe 11be 2824 23be 860b 4fbe
00000110: 9ed0 11be 4f18 c3bd 0595 80bc 0f4a 543d
00000120: 0aa7 823d 233e d43d 9ac8 223e 016b 443e
00000130: 83ef e93d 37a5 143c 9423 33bb 8eb8 593d
00000140: d88a a13d 5861 c63d 6b2f dc3d 7022 ac3d
00000150: f517 033c 4e94 87bd d415 93be b2cb 2fbe
00000160: dc2a 03be 717b 15be f323 febd 1d4b 0ebe
00000170: 236d 02be b70c a2bd c0e1 3fbc d0ac ac3c
00000180: f5d8 9a3d 6354 a63d f501 73bd 14d1 803c
00000190: 8747 073e f531 be3d 2acf a43d 8839 cf3c
000001a0: 8fb4 37bd 199c 59bd 4bd4 97bd 8e0d 73be
000001b0: f0d2 25be 6d13 2cbe fd6e e1bd d614 0bbd
000001c0: 8ba9 1bbe f7cd 51be 2c18 66be 2464 23be
000001d0: 42ea 88bd 309d 713d 1e23 ca3d 50c1 623d
000001e0: 5144 c83c a32a 1c3d 5871 c3bb 886b 52bd
000001f0: accd b1bd 6961 ecbd 0e86 8e3d 2683 a53d
00000200: 58b0 7f3d 7869 a93d 88ef df3d 564c 6d3d
00000210: d349 c73d 27bf 973d 0e28 5b3e 3bf4 213e
00000220: 6dab 183e 730c c43d 7b58 853d b379 9c3c
00000230: 9b76 24be 8a59 11be 8fd1 50be 8db6 a4bd
00000240: 105e cfbd 63f4 50be eb63 ecbd 6227 483d
00000250: b624 4d3d 2aad 503d 5860 343d baa4 aa3d
00000260: e7f5 7e3d ca86 283d 739f bbbc f755 c23c
00000270: fb59 3ebd 2e70 553b b1a8 c7bc f761 d8bd
00000280: 20f1 3bbd 7858 703d 1c51 1a3e 168f 363e
00000290: 85f8 be3d ac91 e23d 098d bf3d bae9 323d
000002a0: 95bd e23c 762a db3c 93a3 b8bc 7f22 d73c
000002b0: fc5f 963d 010a 513d fa64 ed3d 5fcc d63d
000002c0: c4f8 2b3e 3ed9 443e 03b5 d03d 8cfc 9c3d
000002d0: 1540 5dbc 495c 30bd 95c6 ab3d 05c2 033e
000002e0: a92c fa3d 6b93 b73d 4a6c 9a3d fb41 203c
000002f0: 60cd b43c d591 643d 6b7c 963d ec4d 063e
00000300: dc3c ae3d fd13 ff3d 478f a83d dc2a dc3c
00000310: 158f 53be 89e4 80be c13b adbe d9b2 2cbe
00000320: fc9d 03be cd53 5abd 1e97 463d 8393 853d
00000330: 1898 193b f24c e6bc 9f61 c8bc a54b 7cbd
00000340: 9484 abbd ae1c a5bd 785d 863d ead8 c03d
00000350: 5a90 883d f2dc 313d 193e 19bc 8b64 dabb
00000360: ada4 29bd 1c55 09bd 9717 fcbd 224f 90be
00000370: fd18 84be f4fb 59be 136e 1fbd c593 c83c

ds.proj_conv.bias f4 [16]
-0.13972637 0.019754445 0.076744474 -0.18337569 -0.16219838 0.1003135 0.093805805 0.12291595
-0.25113878 -0.2652615 0.055592995 0.20874056 -0.25587243 -0.15109076 0.2202076 0.24493574
00000000: 6e14 0fbe 13d4 a13c 352c 9d3d d6c6 3bbe
00000010: 5517 26be 2a71 cd3d 421d c03d 5cbb fb3d
00000020: 4395 80be 5bd0 87be 7bb5 633d 16c0 553e
00000030: b601 83be 89b7 1abe 1a7e 613e 6fd0 7a3e

ds.proj_bn.weight f4 [16]
1.2727817 1.1277269 1.4378397 1.0171117 1.3503995 1.1120733 1.248443 1.6322949
1.316184 1.0872139 1.3998263 1.2796469 1.0850198 1.1508875 1.2575908 1.7465054
00000000: 83ea a23f 5b59 903f 220b b83f b730 823f
00000010: e4d9 ac3f 6b58 8e3f fbcc 9f3f 0aef d03f
00000020: b878 a83f d329 8b3f 822d b33f 78cb a33f
00000030: eee1 8a3f 4850 933f bcf8 a03f 7d8d df3f

ds.proj_bn.bias f4 [16]
-0.05717473 -0.17119847 -0.15839204 -0.35575825 -0.1785797 -0.2533392 -0.058922682 -0.060458984
-0.1317549 -0.173214 -0.15335931 -0.10239786 -0.15517218 -0.1685054 -0.10126962 0.022462418
00000000: 0d30 6abd a74e 2fbe 8631 22be f225 b6be
00000010: 99dd 36be adb5 81be e958 71bd d7a3 77bd
00000020: c2ea 06be 035f 31be 390a 1dbe f8b5 d1bd
00000030: 75e5 1ebe ae8c 2cbe 7266 cfbd 1b03 b83c

ds.proj_bn.running_mean f4 [16]
-0.41465548 0.4072694 0.2591224 0.19078706 -0.5434117 0.4363401 -0.24691097 -0.04472803
-0.49890482 0.13914521 -0.1523405 0.35613498 0.010935904 0.18661322 -0.18764256 0.041908007
00000000: b94d d4be 9d85 d03e b1ab 843e af5d 433e
00000010: 071d 0bbf f867 df3e 3bd6 7cbe bd34 37bd
00000020: 7470 ffbe 157c 0e3e 26ff 1bbe 5357 b63e
00000030: 822c 333c 8917 3f3e 5f25 40be bba7 2b3d

ds.proj_bn.running_var f4 [16]
0.12552355 0.05888488 0.08408839 0.046446517 0.062749006 0.044734333 0.10735973 0.15496506
0.06523709 0.058690906 0.23246816 0.11409627 0.03918255 0.037132822 0.15204453 0.17900997
00000000: 3f89 003e 4631 713d 8936 ac3d b43e 3e3d
00000010: 8d82 803d 593b 373d 6bdf db3d 29af 1e3e
00000020: 069b 853d e065 703d 220c 6e3e 4eab e93d
00000030: e27d 203d 9618 183d 90b1 1b3e 644e 373e

ds.proj_conv1.weight f4 [8, 16, 5]
0.0031810997 -0.0111677535 -0.051354 -0.22062324 0.0142792305 -0.05351928 0.0096665835 0.11847646
-0.06792345 -0.11140716 -0.12525813 -0.07142593 0.022828478 0.15311432 -0.027371768 -0.01445186
0.012294241 0.028469793 0.014446625 0.006777861 0.12874344 0.21680477 0.08402827 0.02581042
0.06594928 0.02941997 0.07694461 0.19437376 -0.026608635 -0.08550722 -0.02794292 -0.010792885
-0.092470214 -0.35553804 0.026885731 -0.093658425 0.04945077 0.18040255 0.16226383 -0.09352902
0.10465288 0.18034962 -0.08588856 -0.19998297 -0.12974514 -0.037697606 -0.020905083 0.04054933
0.019985382 0.033040646 0.018280804 -0.124426395 0.026827024 0.06479913 -0.06716124 -0.024160067
-0.096050635 0.06775489 0.055887688 -0.027288545 -0.005201726 -0.05508552 -0.08756297 -0.0055776145
0.0071296236 -0.0028677753 0.060425248 0.13837816 0.08669898 0.03865015 0.0934782 0.11537867
-0.08941949 -0.16536786 -0.09907647 -0.049332146 0.06254169 0.0926313 0.18314289 0.07191088
-0.0556916 -0.09271463 -0.08513344 -0.04715141 0.061048623 -0.09381636 -0.21774322 -0.2754468
-0.028426956 0.054885764 0.07264111 -0.00230414 -0.025202611 -0.0042678174 0.029668083 0.09290021
0.15933694 0.05712328 -0.024097601 -0.074566305 0.14382552 0.19760537 0.052873634 -0.10181813
-0.1896095 -0.17143814 -0.27782932 -0.22550829 -0.035377275 0.06607376 -0.04020842 -0.025839213
-0.066345565 -0.0021438368 0.067615755 0.086413346 0.0639818 0.046565857 -0.01783206 -0.024705306
0.025552372 -0.04566531 -0.06465756 -0.064752474 -0.006173575 0.055216823 0.095658354 0.034971334
-0.0683893 -0.07020951 -0.115490295 -0.19131005 -0.11304141 -0.017317306 0.032795258 -0.1087336
-0.050174527 -0.086037084 -0.004052099 0.002881662 -0.016864937 0.01957065 -0.030648613 -0.009965438
-0.04201003 -0.07889096 -0.022885524 -0.09273986 -0.025892438 -0.030304292 0.0438878 -0.063367285
-0.057011407 -0.028465157 0.066590704 0.022265462 0.21110512 0.023973558 0.011575976 -0.10979262
0.034694724 0.012858157 0.051346008 0.045670044 0.0023153136 0.042991403 0.16495556 0.14748405
0.044373114 -0.06589479 -0.11490002 0.13929491 0.11257423 0.029895544 -0.047724947 -0.059549626
-0.045659106 -0.065733455 -0.08537534 -0.07194167 -0.20114712 -0.19663072 -0.12375167 -0.047622256
0.059407663 0.10585437 0.19004446 0.16127604 -0.0053833383 -0.06636452 0.06678974 0.015965035
0.03907133 0.07200786 -0.021712787 -0.15258712 -0.11560007 -0.0026335227 -0.13401401 0.0061965636
-0.080339015 -0.095733374 -0.039570976 0.12036333 0.041913413 -0.0463457 -0.015362083 -0.013956823
-0.07933282 -0.045066986 0.01995781 0.111274675 0.16999394 0.06696438 0.020975862 0.00075277564
0.03979605 0.11002558 -0.026799329 -0.03850655 -0.02634912 0.015486421 0.0020465727 -0.0035353769
-0.009693223 -0.17228343 -0.038500223 0.016165445 -0.022845885 -0.10300375 -0.011292859 0.0041324534
0.036702298 0.11969657 0.04974519 -0.2082264 -0.38198486 -0.16097397 -0.15495099 0.00876019
0.15445039 0.07119291 0.0058328253 -0.04727534 0.05271816 0.15462893 0.15820934 -0.038506422
-0.0009564785 -0.009018904 -0.09254812 -0.063375436 -0.07926196 -0.09621687 -0.001280658 -0.0005623293
00000000: ff79 503b f4f8 36bc 9258 52bd 0feb 61be
00000010: 6ff3 693c 0837 5bbd 9760 1e3c c9a3 f23d
00000020: 731b 8bbd 7029 e4bd ab43 00be c247 92bd
00000030: ca02 bb3c 00ca 1c3e c23a e0bc 7fc7 6cbc
00000040: c96d 493c 7c39 e93c 89b1 6c3c d218 de3b
00000050: 52d5 033e 1202 5e3e 0317 ac3d 6070 d33c
00000060: 6b10 873d 2602 f13c 2395 9d3d ea09 473e
00000070: 5afa d9bc 691e afbd 8de8 e4bc a4d4 30bc
00000080: 0661 bdbd 1509 b6be 773f dc3c fdcf bfbd
00000090: e48c 4a3d 72bb 383e 7d28 263e 258c bfbd
000000a0: 4054 d63d 92ad 383e 57e6 afbd 56c8 4cbe
000000b0: e9db 04be ce68 1abd 2341 abbc 0e17 263d
000000c0: 62b8 a33c a155 073d a0c1 953c 44d3 febd
000000d0: 59c4 db3c 68b5 843d d58b 89bd 55eb c5bc
000000e0: 32b6 c4bd 13c3 8a3d 7dea 643d 3a8c dfbc
000000f0: 3e73 aabb 5ba1 61bd 3754 b3bd 6cc4 b6bb
00000100: 9e9f e93b 49f1 3bbb 7780 773d 01b3 0d3e
00000110: 3c8f b13d 9f4f 1e3d 8071 bf3d a74b ec3d
00000120: 9121 b7bd 3156 29be 9be8 cabd 8110 4abd
00000130: dc15 803d 7bb5 bd3d cf89 3b3e 0346 933d
00000140: e01c 64bd 2be1 bdbd 715a aebd d621 41bd
00000150: 1f0e 7a3d cb22 c0bd 14f8 5ebe 5d07 8dbe
00000160: a6df e8bc e5cf 603d ddc4 943d 0e01 17bb
00000170: b575 cebc 0cd9 8bbb 7b0a f33c 7742 be3d
00000180: 3929 233e 1afa 693d 5568 c5bc 38b6 98bd
00000190: ff46 133e 1059 4a3e 0692 583d 0686 d0bd
000001a0: fe28 42be 7b8d 2fbe a53f 8ebe a5eb 66be
000001b0: c3e7 10bd ae51 873d 96b1 24bd c2ac d3bc
000001c0: 2fe0 87bd 9d7f 0cbb 217a 8a3d 7bf9 b03d
000001d0: e408 833d d7bb 3e3d 8a14 92bc c862 cabc
000001e0: 3553 d13c 8c0b 3bbd 2f6b 84bd f29c 84bd
000001f0: b34b cabb 092b 623d 87e8 c33d 1a3e 0f3d
00000200: b00f 8cbd 01ca 8fbd 2d86 ecbd c8e6 43be
00000210: 4182 e7bd 06dd 8dbc 5254 063d b9af debd
00000220: ce83 4dbd 3634 b0bd 78c7 84bb 44da 3c3b
00000230: 5628 8abc a152 a03c cd12 fbbc 1446 23bc
00000240: b612 2cbd 9591 a1bd 6c7a bbbc 65ee bdbd
00000250: 611c d4bc b540 f8bc b2c3 333d b5c6 81bd
00000260: cb84 69bd c32f e9bc b560 883d 0f66 b63c
00000270: f12b 583e 3264 c43c 2aa9 3d3c f4da e0bd
00000280: 0e1c 0e3d 05ab 523c 3150 523d 8310 3b3d
00000290: 84bc 173b c117 303d 1cea 283e 0f06 173e
000002a0: 95c0 353d d9f3 86bd b450 ebbd 53a3 0e3e
000002b0: 518d e63d 80e7 f43c 3c7b 43bd 4fea 73bd
000002c0: 0b05 3bbd 439f 86bd 44d9 aebd 2756 93bd
000002d0: 83f9 4dbe 9059 49be 8471 fdbd 8e0f 43bd
000002e0: 7355 733d 2dca d83d 049b 423e 8c25 253e
000002f0: b766 b0bb 1fea 87bd 0fc9 883d 1bc9 823c
00000300: 4209 203d db78 933d 04df b1bc cc3f 1cbe
00000310: bbbf ecbd 2e97 2cbb f83a 09be 8b0c cb3b
00000320: c888 a4bd dc0f c4bd 2d15 22bd 0d81 f63d
00000330: 66ad 2b3d fdd4 3dbd 3fb1 7bbc 29ab 64bc
00000340: 3f79 a2bd 2998 38bd 907e a33c fae3 e33d
00000350: e412 2e3e 9f24 893d 92d5 ab3c eb55 453a
00000360: 2f01 233d 1755 e13d 448a dbbc 0bb9 1dbd
00000370: 1cda d7bc c2ba 7d3c cb1f 063b c8b1 67bb
00000380: 53d0 1ebc 116b 30be 69b2 1dbd 656d 843c
00000390: 4b27 bbbc a1f3 d2bd af05 39bc 8869 873b
000003a0: 2655 163d 7a23 f53d 9dc1 4b3d 4d39 55be
000003b0: 8593 c3be 5cd6 24be 79ab 1ebe e686 0f3c
000003c0: 3e28 1e3e 97cd 913d 4921 bf3b c9a3 41bd
000003d0: ffee 573d 0c57 1e3e a101 223e e9b8 1dbd
000003e0: 30bc 7aba 06c4 13bc de89 bdbd fbca 81bd
000003f0: 1854 a2bd 5a0d c5bd c0db a7ba 4869 13ba

ds.proj_conv1.bias f4 [8]
0.004224789 -0.015136948 -0.12543145 0.040328473 -0.012543514 -0.07944783 0.11708566 0.020434123
00000000: 1970 8a3b f600 78bc 1a71 00be 782f 253d
00000010: 5083 4dbc 8bb5 a2bd 9bca ef3d 7665 a73c

ds.proj_bn1.weight f4 [8]
1.4164568 1.5542263 1.7843376 1.6968398 1.6651514 1.4612168 1.4298656 1.5022064
00000000: 754e b53f e3f0 c63f 2d65 e43f 0c32 d93f
00000010: ae23 d53f 2709 bb3f d605 b73f 4d48 c03f

ds.proj_bn1.bias f4 [8]
0.061268363 0.17982745 0.05772944 0.18746963 0.14803423 0.059453946 0.0902505 -0.012558853
00000000: 89f4 7a3d b024 383e b575 6c3d 0af8 3f3e
00000010: 4996 173e fb85 733d 41d5 b83d a6c3 4dbc

ds.proj_bn1.running_mean f4 [8]
0.13204685 -0.4505623 -0.5255951 -0.31229 0.5334661 -0.080741875 0.056822855 0.37261665
00000000: 4a37 073e 1ab0 e6be 678d 06bf 7ae4 9fbe
00000010: 3c91 083f ff5b a5bd 15bf 683d 9cc7 be3e

ds.proj_bn1.running_var f4 [8]
0.48862615 0.26961535 0.38464487 0.44519144 0.7729939 0.34832916 0.57522166 0.5644185
00000000: 352d fa3e 060b 8a3e 2cf0 c43e 22f0 e33e
00000010: eee2 453f 3358 b23e ba41 133f bb7d 103f

ds.fc1_conv.weight f4 [128, 256]
-0.2050592 -0.15871283 -0.12266089 -0.28114438 0.057832338 -0.08816387 -0.06866631 0.05566238
0.07739498 0.05011616 0.00090274564 0.15494655 -0.20818534 -0.19196479 0.06707626 0.13288273
0.02917248 0.32804835 -0.14279617 -0.2604207 -0.17250228 0.11638898 -0.014598746 0.04674637
-0.012661314 0.05685482 -0.07279169 0.00879265 -0.25126168 -0.24543026 -0.15918392 -0.19840011
-0.12923889 -0.15612884 0.018573057 -0.21495116 -0.12055026 0.0042898557 -0.00873705 0.035222806
-0.020039367 0.0127197895 0.04274763 0.13674466 0.059559047 0.15317665 0.15207626 0.18072885
0.19268894 0.38356447 0.07180032 -0.016768772 0.28824648 0.053556833 0.02097673 0.16634238
0.03856412 0.05586801 0.103999205 0.058459505 -0.07968009 -0.22925682 -0.37213162 -0.22504078
0.013877334 0.12046925 0.010071243 0.1140421 0.013016339 -0.10627236 0.09402344 -0.09746814
-0.16441633 -0.19434187 -0.29017672 -0.047134712 0.27662078 0.033527814 -0.08049753 -0.05489932
-0.33291084 -0.37648237 -0.03588343 0.023353815 -0.15593919 0.17148736 -0.023416769 -0.11981882
-0.1039365 -0.004027378 -0.050158 -0.002149095 0.31372315 0.30535436 0.24123101 0.047647916
-0.15625106 0.0524442 -0.15008505 -0.08247666 0.039586253 0.23775902 0.16902883 0.30416703
0.055498403 0.047543906 0.16070916 -0.18104374 0.20997192 0.15267874 0.09334155 0.021570168
0.045187365 -0.06063437 -0.29390562 0.0098714065 -0.14956085 -0.0025203696 0.053516418 0.047664035
0.11903056 0.26651073 0.24435331 0.0115983775 0.17313084 -0.081649594 -0.06852153 -0.028733874
0.43380502 -0.0031600415 0.10463747 0.1875433 0.04846115 -0.04986843 -0.18159619 -0.024261588
0.062147472 -0.084016666 -0.340254 0.011514932 -0.13785069 -0.14679636 -0.27533358 -0.3855153
-0.5541548 -0.28517842 0.058154672 0.060637176 0.066732496 0.046754964 -0.22114053 0.030373082
-0.015614092 0.06343201 0.010054365 -0.1192209 0.19067891 0.33414185 0.12220026 0.24269679
0.02405034 -0.15973707 0.004342537 -0.23645459 -0.18559626 -0.09539015 -0.022131389 -0.012183606
0.0041623875 0.009460151 -0.02230084 0.18100156 0.04969992 0.2390459 0.17481992 0.14206
0.09055392 0.20439672 0.015906816 -0.12137613 0.23488191 0.0035935764 -0.026092803 0.15785396
0.06974798 -0.027021606 0.09766677 0.041491315 0.019750353 -0.14531086 -0.20737141 -0.069861285
-0.0036178143 -0.34634528 0.013262238 -0.35511777 -0.17601864 0.0028907224 -0.1220902 -0.019611211
0.02910462 0.09263706 0.071541965 0.19449815 -0.1193646 -0.16395521 -0.1863551 -0.0044624372
0.13362266 -0.026408544 0.2541775 0.053456064 -0.13674808 -0.2591062 0.231132 0.030506877
0.020340681 -0.021499444 0.044364426 0.05110481 -0.11522964 -0.18213485 -0.36772615 -0.088902466
-0.004227728 -0.13542166 -0.31802154 -0.4581204 -0.39800316 -0.17503206 -0.10534145 -0.07366015
0.09948881 0.09485115 0.13102463 -0.07050919 -0.11556185 -0.31619644 -0.21213625 0.08299712
0.10179522 0.07216268 0.06754965 -0.22333778 -0.2547636 0.112090945 -0.27014676 -0.061685834
0.02562735 0.045715682 0.018896025 -0.049145635 -0.17932262 -0.26938772 -0.25915518 -0.21975887
00000000: 0afb 51be 9e85 22be a235 fbbd 28f2 8fbe
00000010: 9ae1 6c3d 428f b4bd eca0 8cbd 3cfe 633d
00000020: 4281 9e3d 9a46 4d3d 3ca6 6c3a 4faa 1e3e
00000030: 8a2e 55be 6b92 44be 475f 893d 6912 083e
00000040: 20fb ee3c f4f5 a73e 2939 12be dd55 85be
00000050: 70a4 30be 585d ee3d 942f 6fbc 1f79 3f3d
00000060: 6671 4fbc 9ae0 683d cf13 95bd 0c0f 103c
00000070: 5fa5 80be 1252 7bbe 1c01 23be 6629 4bbe
00000080: 3357 04be 3de0 1fbe 8626 983c 281c 5cbe
00000090: 0ee3 f6bd eb91 8c3b d825 0fbc ca45 103d
000000a0: 9929 a4bc aa66 503c 2418 2f3d cb06 0c3e
000000b0: 30f4 733d 57da 1c3e e1b9 1b3e fc10 393e
000000c0: 4050 453e 9062 c43e 0c0c 933d aa5e 89bc
000000d0: 0b95 933e 695e 5b3d 64d7 ab3c a855 2a3e
000000e0: 69f5 1d3d dbd5 643d 89fd d43d 3c73 6f3d
000000f0: 512f a3bd 4dc2 6abe 0988 bebe 1771 66be
00000100: c25d 633c 95b8 f63d db01 253c e88e e93d
00000110: 7c42 553c 53a5 d9bd 5c8f c03d 609d c7bd
00000120: c15c 28be 8e01 47be 0b92 94be 5410 41bd
00000130: 3da1 8d3e 7654 093d e4db a4bd 1cde 60bd
00000140: 4a73 aabe 4cc2 c0be 81fa 12bd 8050 bf3c
00000150: 86ae 1fbe 629a 2f3e 86d4 bfbc 9263 f5bd
00000160: a9dc d4bd 18f8 83bb 7a72 4dbd d5d7 0cbb
00000170: 52a0 a03e 6857 9c3e 4305 773e 762a 433d
00000180: 4700 20be bbcf 563d e5af 19be 86e9 a8bd
00000190: 3225 223d 1a77 733e e515 2d3e c8bb 9b3e
000001a0: 4b52 633d 66bd 423d f190 243e 8863 39be
000001b0: e102 573e d157 1c3e db29 bf3d ecb3 b03c
000001c0: 6316 393d bf5b 78bd cc7a 96be aebb 213c
000001d0: 7b26 19be c92c 25bb 0834 5b3d 5d3b 433d
000001e0: 4bc6 f33d 1874 883e c137 7a3e 1f07 3e3c
000001f0: 3649 313e e737 a7bd 0455 8cbd 4d63 ebbc
00000200: b11b de3e b318 4fbb 2b4c d63d 5a0b 403e
00000210: 337f 463d d742 4cbd 5af4 39be 3dc0 c6bc
00000220: 598e 7e3d ee10 acbd c635 aebe 20a9 3c3c
00000230: bb28 0dbe c951 16be 86f8 8cbe 4362 c5be
00000240: 17dd 0dbf e802 92be 9833 6e3d b05e 783d
00000250: 0cab 883d 2282 3f3d aa72 62be f8d0 f83c
00000260: 40d2 7fbc a4e8 813d 10bb 243c 162a f4bd
00000270: 5541 433e a414 ab3e 2144 fa3d 8285 783e
00000280: 3805 c53c 1d92 23be d74b 8e3b 2721 72be
00000290: f20c 3ebe e95b c3bd e34c b5bc bf9d 47bc
000002a0: a364 883b c0fe 1a3c 40b0 b6bc 7958 393e
000002b0: 2592 4b3d 73c8 743e fe03 333e 2d78 113e
000002c0: 5574 b93d 604d 513e 034f 823c 0c94 f8bd
000002d0: e284 703e 3582 6b3b 93c0 d5bc 78a4 213e
000002e0: 07d8 8e3d 6a5c ddbc 8405 c83d ccf2 293d
000002f0: 7ecb a13c 5fcc 14be 2c59 54be 6f13 8fbd
00000300: da18 6dbb 2b54 b1be dc49 593c ffd1 b5be
00000310: 3b3e 34be 4672 3d3b 6d0a fabd b1a7 a0bc
00000320: d06c ee3c 80b8 bd3d 9884 923d 862a 473e
00000330: 6d75 f4bd e0e3 27be dfd3 3ebe a339 92bb
00000340: 61d4 083e bb56 d8bc 8e23 823e bff4 5a3d
00000350: b007 0cbe 91a9 84be dead 6c3e 8fe9 f93c
00000360: 80a1 a63c 9a1f b0bc 79b7 353d 4753 513d
00000370: 84fd ebbd 8f81 3abe 9a46 bcbe 7f12 b6bd
00000380: c188 8abb faab 0abe b8d3 a2be c28e eabe
00000390: 12c7 cbbe 9b3b 33be 42bd d7bd 22db 96bd
000003a0: cac0 cb3d 5241 c23d 522b 063e 1f67 90bd
000003b0: b1ab ecbd 80e4 a1be 3f3a 59be 65fa a93d
000003c0: 037a d03d 07ca 933d 7957 8a3d a9b2 64be
000003d0: 6070 82be f08f e53d ad50 8abe 49aa 7cbd
000003e0: 73f0 d13c 5e40 3b3d d6cb 9a3c ef4c 49bd
000003f0: 59a0 37be 30ed 89be fdaf 84be 7808 61be

ds.fc1_conv.bias f4 [128]
0.025068246 0.03589863 0.049851734 0.041219804 -0.0019960343 0.010613678 -0.0073991762 -0.0230109
0.061296184 0.0011823898 0.009209996 0.06576075 -0.022958383 -0.02688036 0.0068125734 0.023363478
-0.0048826854 0.025220146 -0.0055560875 0.052274887 0.029603956 -0.010435149 0.035498567 -0.0020598534
0.040177446 0.0091835605 0.029626511 0.056309357 0.06529043 -0.0012069644 0.018978732 0.051679626
0.016302185 0.036242813 0.014652029 0.048183385 -0.0013028102 0.032659594 0.027557015 0.044895597
0.05356769 0.025202582 0.029635735 0.044907533 -0.013570119 0.022115935 0.013176347 0.030808762
0.012165961 0.012898 0.02016563 -0.024521973 0.030235037 -0.029270701 0.03549362 0.038628448
0.03616423 0.04313246 0.025891291 0.02108821 0.07444416 0.03993528 0.024640054 0.028483113
0.0007270683 -0.025901811 0.039220914 0.04479153 0.06647583 0.05667898 0.060565226 0.0028591626
0.0043676104 0.012967469 0.04191845 0.040874988 -0.036675528 0.060903557 0.023610098 0.02182985
0.042068183 -0.013133776 0.03577263 0.04862835 0.015640378 0.024309583 0.014970963 0.023953555
0.007882656 0.032095745 0.058045313 0.03337871 0.008534947 0.017126877 0.05159556 0.041514166
0.032665383 0.026836017 0.048148837 0.020823266 0.038978744 0.022969073 0.0048110415 -0.00097115326
0.008808201 0.044378243 0.038754262 0.05724022 0.03267525 0.006283532 0.014782859 0.015986247
0.02278152 0.016780037 0.04302941 0.014174395 -0.008219309 0.059674554 -0.041830976 0.017928757
0.023162717 0.045703612 0.011865893 0.048651922 -0.014300349 0.039456774 0.03492891 -0.009110171
00000000: ec5b cd3c 710a 133d 5531 4c3d 19d6 283d
00000010: e6cf 02bb fee4 2d3c ca74 f2bb 5b81 bcbc
00000020: b511 7b3d 6bfa 9a3a 86e5 163c 92ad 863d
00000030: 3813 bcbc 3334 dcbc 023c df3b c464 bf3c
00000040: effe 9fbb 7b9a ce3c d70f b6bb 311e 563d
00000050: ff83 f23c 30f8 2abc f266 113d 9bfe 06bb
00000060: 1b91 243d a576 163c 4cb3 f23c a4a4 663d
00000070: fdb6 853d 0133 9eba 4979 9b3c 04ae 533d
00000080: 298c 853c 5873 143d 100f 703c f15b 453d
00000090: 0ec3 aaba 11c6 053d 40bf e13c 72e4 373d
000000a0: cb69 5b3d a575 ce3c a4c6 f23c f6f0 373d
000000b0: 3455 5ebc 7a2c b53c 9be1 573c a862 fc3c
000000c0: bd53 473c 2252 533c 6432 a53c 4ee2 c8bc
000000d0: 78af f73c 1cc9 efbc c261 113d dd38 1e3d
000000e0: f220 143d aaab 303d f919 d43c 2fc1 ac3c
000000f0: 2e76 983d 2d93 233d f0d9 c93c 6b55 e93c
00000100: ba98 3e3a 0930 d4bc 1ca6 203d 5377 373d
00000110: 7b24 883d 3828 683d 3e13 783d ca60 3b3b
00000120: 2c1e 8f3b 8275 543c aeb2 2b3d 886c 273d
00000130: 1439 16bd 0276 793d f769 c13c 83d4 b23c
00000140: b04f 2c3d 0d2f 57bc 5286 123d 852e 473d
00000150: 4020 803c e424 c73c c548 753c 3f3a c43c
00000160: 4126 013c d476 033d ecc0 6d3d 1db8 083d
00000170: 2ad6 0b3c aa4d 8c3c de55 533d c20a 2a3d
00000180: 23cc 053d 35d7 db3c b737 453d 8e95 aa3c
00000190: 2da8 1f3d a329 bc3c f1a5 9d3b fe94 7eba
000001a0: 4650 103c f6c5 353d cabc 1e3d b974 6a3d
000001b0: 7cd6 053d 16e6 cd3b ce33 723c 97f5 823c
000001c0: 4fa0 ba3c 4a76 893c 9b3f 303d b93b 683c
000001d0: 48aa 06bc 4e6d 743d f556 2bbd 54df 923c
000001e0: bdbf bd3c b633 3b3d 2a69 423c 3d47 473d
000001f0: 034c 6abc 6d9d 213d 9e11 0f3d d442 15bc

ds.fc2_conv.weight f4 [64, 128]
-0.015404357 -0.0035650206 0.21940465 -0.27114153 0.017862454 0.10558667 -0.6127324 -0.3966956
0.002607338 -0.16251211 -0.1738187 0.016077133 0.13276382 -0.028076125 0.38552815 -0.44011238
-0.15193197 0.30006316 -0.20423043 -0.25128695 0.15767685 0.022627253 0.03245251 0.15264072
0.093012884 -0.42626604 -0.28368428 0.016000617 -0.06913548 -0.34328806 0.049026154 0.041959617
0.20774114 -0.38950253 0.0073677227 0.10016521 -0.3041316 -0.22649089 -0.101376094 0.15866394
0.06996855 -0.29438567 0.027386857 0.044083092 -0.07370804 0.09234244 -0.18155612 -0.5646359
0.0070368634 -0.06498229 0.15103582 -0.38751823 -0.1910131 0.062337473 0.030366665 -0.34555882
-0.036223322 0.007638393 0.10465904 0.1440838 -0.3996085 -0.03442699 0.009618199 -0.05094366
0.11418987 0.24525806 0.099102505 0.12423342 0.13252877 -0.11917805 0.09866783 0.016770896
0.19822657 0.24784069 0.041455287 -0.07890978 0.29227197 -0.018253082 -0.410499 0.12524307
0.116783895 0.17223604 0.1461363 -0.47665295 -0.13940395 -0.14417303 -0.22074504 -0.36155355
0.020825563 0.10263709 -0.02788961 0.045920093 -4.7695612e-05 0.1794291 0.25959623 -0.34612224
0.1263474 -0.030775962 0.22122234 0.011774914 0.05954921 0.26473117 -0.3767563 -0.26800063
0.07249174 0.13105632 -0.2913082 -0.05792961 0.11827077 0.043829218 0.12100903 0.03498421
-0.10051058 0.04264925 0.14250848 0.10489523 0.16718103 -0.24617375 -0.05452701 -0.5393654
-0.17620125 0.13651459 -0.4948314 0.09347749 -0.5824024 0.04506319 -0.12203759 -0.03907808
-0.21435247 -0.07780184 -0.19478703 0.51125944 0.14646487 -0.2168703 0.16787162 -0.0005872305
0.278781 0.20582232 -0.08409822 0.3418158 -0.13586496 -9.8402204e-05 -0.18813883 0.0705525
-0.10364631 -0.18206012 -0.10593381 0.07089807 -0.011893422 0.19681337 -0.29086897 -0.28741255
0.2589579 0.50331163 0.20541903 0.018729437 0.32967132 0.17128332 0.08832716 0.25137413
-0.18950774 0.029590826 0.05216723 -0.064406805 -0.07390687 0.051442754 0.33884272 0.12419124
0.100597516 -0.0762651 -0.23242825 -0.20681234 0.1061835 -0.15091287 0.0863354 0.13722157
0.19778614 -0.13705574 0.10326242 -0.0423446 -0.010145198 0.08147375 0.027149415 0.2020639
0.062363677 -0.08476367 0.092189915 -0.107543014 0.22778068 0.003807457 -0.18428218 -0.025830379
-0.035829566 -9.045425e-05 0.3472565 0.054590035 0.054683607 0.119120106 0.064784184 -0.2875055
-0.055332568 -0.17133708 -0.020042848 0.20506763 -0.15389352 -0.12622027 -0.07958556 0.049571577
-0.11265774 -0.15278323 0.11453351 0.0796415 -0.16730134 -0.033763427 -0.11783507 0.034470182
-0.1735849 0.08488771 0.17328839 -0.16955152 0.1002045 -0.031117374 -0.27774453 0.013442654
0.010692438 0.016100593 -0.12579171 0.04538539 0.47642863 -0.23502094 0.29813942 -0.077073656
-0.015618929 0.093153715 0.08804049 0.25685433 0.37588063 -0.12004012 0.0071542365 0.022237334
0.3547593 0.1719145 -0.10768831 0.08871196 -0.15465309 0.17937975 -0.3842541 0.014649024
0.25733674 0.055846673 -0.10189316 0.023478653 0.016866064 -0.113911025 0.75878555 0.037479807
00000000: 8e62 7cbc 1fa3 69bb 9dab 603e 10d3 8abe
00000010: 4854 923c d33d d83d 08dc 1cbf b01b cbbe
00000020: dfdf 2a3b 9369 26be 87fd 31be 31b4 833c
00000030: 3df3 073e e7ff e5bc f263 c53e 6956 e1be
00000040: 0e94 1bbe e1a1 993e c821 51be afa8 80be
00000050: 0a76 213e ca5c b93c ecec 043d d94d 1c3e
00000060: 8a7d be3d 8b3f dabe 113f 91be ba13 833c
00000070: e796 8dbd 74c3 afbe a6cf 483d d9dd 2b3d
00000080: 18ba 543e e06c c7be f06c f13b 6b23 cd3d
00000090: 23b7 9bbe 3aed 67be 459e cfbd cd78 223e
000000a0: ac4b 8f3d b8b9 96be 675a e03c 7990 343d
000000b0: 3ef4 96bd 081e bd3d d9e9 39be fa8b 10bf
000000c0: 7d95 e63b 6f15 85bd 22a9 1a3e ca68 c6be
000000d0: f098 43be 9455 7f3d 83c3 f83c 16ed b0be
000000e0: e85e 14bd 7c4b fa3b 7b57 d63d b48a 133e
000000f0: 7c99 ccbe 5103 0dbd a795 1d3c 4daa 50bd
00000100: 61dc e93d ee24 7b3e 41f6 ca3d 176e fe3d
00000110: 9fb5 073e 9f13 f4bd 5c12 ca3d 1e63 893c
00000120: e8fb 4a3e f3c9 7d3e 05cd 293d 739b a1bd
00000130: aca4 953e 7d87 95bc ed2c d2be b83f 003e
00000140: 652c ef3d a55e 303e c1a4 153e db0b f4be
00000150: e9bf 0ebe 18a2 13be fd0a 62be 8c1d b9be
00000160: 5f9a aa3c 6533 d23d c078 e4bc b516 3c3d
00000170: c60c 48b8 43bc 373e cce9 843e ef36 b1be
00000180: 3661 013e df1d fcbc 1c88 623e 92eb 403c
00000190: dfe9 733d d88a 873e 34e6 c0be 6137 89be
000001a0: 8d76 943d a133 063e 5926 95be 9947 6dbd
000001b0: f237 f23d 4486 333d 95d3 f73d 9a4b 0f3d
000001c0: 7ed8 cdbd fbb0 2e3d beed 113e 4fd3 d63d
000001d0: 8131 2b3e f914 7cbe b757 5fbd da13 0abf
000001e0: 1a6e 34be 7bca 0b3e 8b5a fdbe 2071 bf3d
000001f0: 5318 15bf 2e94 383d d8ee f9bd 5610 20bd
00000200: 377f 5bbe 9256 9fbd 4076 47be e6e1 023f
00000210: e3fa 153e 3f13 5ebe 8ae6 2b3e 5ff0 19ba
00000220: 62bc 8e3e 16c3 523e b03b acbd 7b02 af3e
00000230: 2f20 0bbe 485d ceb8 77a7 40be d47d 903d
00000240: 8444 d4bd f86d 3abe d3f3 d8bd 0233 913d
00000250: a1dc 42bc 7289 493e c7ec 94be bd27 93be
00000260: 2196 843e 08d9 003f 5e59 523e 7a6e 993c
00000270: aeca a83e e564 2f3e dfe4 b43d 1cb4 803e
00000280: 510e 42be 7668 f23c 4ead 553d b7e7 83bd
00000290: 7c5c 97bd a3b5 523d cb7c ad3e fa57 fe3d
000002a0: 1206 ce3d e030 9cbd ac01 6ebe 9dc6 53be
000002b0: bc76 d93d e788 1abe 9dd0 b03d d083 0c3e
000002c0: 7388 4a3e 5758 0cbe 3f7b d33d 8871 2dbd
000002d0: 0b38 26bc b6db a63d 7368 de3c d7e9 4e3e
000002e0: 0e71 7f3d 9398 adbd 11ce bc3d 833f dcbd
000002f0: 573f 693e 8786 793b 78b4 3cbe 3b9a d3bc
00000300: 06c2 12bd 41b2 bdb8 9bcb b13e cd99 5f3d
00000310: ebfb 5f3d 3ef5 f33d 92ad 843d ec33 93be
00000320: 67a4 62bd fd72 2fbe e630 a4bc 40fd 513e
00000330: 4396 1dbe e33f 01be c1fd a2bd 910b 4b3d
00000340: 1ab9 e6bd 3573 1cbe 8b90 ea3d 151b a33d
00000350: 0b51 2bbe 854b 0abd 8353 f1bd 9b30 0d3d
00000360: 3dc0 31be 9cd9 ad3d 8372 313e ea9e 2dbe
00000370: 0438 cd3d dde9 febc 8834 8ebe 943e 5c3c
00000380: 562f 2f3c 64e5 833c 8bcf 00be 08e6 393d
00000390: 74ee f33e 54a9 70be bba5 983e cbd8 9dbd
000003a0: 89e6 7fbc 60c7 be3d 934e b43d 6982 833e
000003b0: 6d73 c03e 98d7 f5bd 166e ea3b 122b b63c
000003c0: 03a3 b53e 5b0a 303e b08b dcbd 9eae b53d
000003d0: 615d 1ebe 53af 373e f4bc c4be 7602 703c
000003e0: a4c1 833e 7bbf 643d 5cad d0bd 4e56 c03c
000003f0: b32a 8a3c 2f4a e9bd c53f 423f 6d84 193d

ds.fc2_conv.bias f4 [64]
-0.00492906 0.04953228 0.030151486 0.062494434 0.018950626 0.05625257 0.022733798 0.012677449
0.0057108733 0.0895179 -0.008319326 0.06994572 0.055445 0.020484164 -0.053464346 0.087554134
0.045189913 0.04833094 0.030348431 0.07579335 0.019000622 0.03423531 0.016961012 0.028050687
0.058186546 0.04018852 0.018369446 0.061231397 0.02351372 0.0360449 0.016971545 0.049491215
0.08251687 0.03253595 0.054530732 0.031230232 0.013106337 0.011957658 0.04918417 0.04572467
0.09402248 0.055917658 0.047225036 0.05543353 0.044391442 0.0485031 0.01086935 0.049087666
-0.02923 0.06132545 0.054144736 0.05787266 0.014216627 0.04048514 0.091070265 0.04014602
-0.002979142 0.036604177 0.0031593675 -0.02738856 0.07498657 0.07691041 0.028799945 0.028405076
00000000: f483 a1bb 5ce2 4a3d 4000 f73c 2afa 7f3d
00000010: 583e 9b3c 1869 663d 3b3c ba3c 13b5 4f3c
00000020: 4722 bb3b 2955 b73d c84d 08bc b43f 8f3d
00000030: 4c1a 633d 68ce a73c 6efd 5abd 954f b33d
00000040: 0f19 393d aaf6 453d 469d f83c 8b39 9b3d
00000050: 31a7 9b3c 533a 0c3d d2f1 8a3c 8eca e53c
00000060: 0455 6e3d b89c 243d 857b 963c c6cd 7a3d
00000070: d89f c03c d1a3 133d e907 8b3c 4db7 4a3d
00000080: 9bfe a83d 6b44 053d 9e5b 5f3d 8bd6 ff3c
00000090: f6bb 563c 0eea 433c 5775 493d cb49 3b3d
000000a0: dc8e c03d ea09 653d 0a6f 413d 450e 633d
000000b0: cdd3 353d 30ab 463d 5c15 323c 2610 493d
000000c0: c173 efbc 6530 7b3d dfc6 5d3d e20b 6d3d
000000d0: dbec 683c bfd3 253d 0c83 ba3d 2770 243d
000000e0: b53d 43bb 43ee 153d 640d 4f3b f95d e0bc
000000f0: 8f92 993d 3483 9d3d dded eb3c c3b1 e83c

head.weight f4 [15, 64]
-0.6126513 0.2734664 -0.26077065 -1.1904993 -0.10972345 0.23238878 0.16893554 -0.07114243
-1.7648704 0.08245467 0.29772416 0.031625323 -1.1186594 0.05950233 -0.44555205 -1.629852
-0.10166009 -0.087404974 0.24517119 -0.092784666 -1.2694364 -0.6814196 -0.20979306 -0.81223595
-0.06417341 0.23353405 -0.25749508 -0.090695575 -0.04391571 0.17594129 -0.012551893 -0.63365555
0.22146781 0.100677475 0.12707694 -0.09693307 -0.061501186 0.3095219 0.36252457 0.29869333
0.13536902 -0.16369231 -0.38948548 0.07508539 0.13524723 0.19977036 -0.8910091 0.11438588
-0.053373694 0.27516237 -0.54461044 -1.2556933 -0.37898463 0.121676624 0.08812309 -0.074099705
-0.22738895 -0.08969336 0.24395405 -0.066417806 0.02980957 0.100186855 0.08324422 0.057799492
-0.109526865 -0.5104259 -0.07012822 0.25018358 -0.55572736 0.2489131 0.041890703 -0.6237425
0.4157469 0.17872556 -0.14574492 0.13544475 0.3092005 0.17665805 -0.1101472 0.3313205
0.39952156 -0.57936364 0.044214915 0.46265605 0.51949847 -0.9566127 -0.07929099 0.19141012
-0.54671764 0.16740839 -0.22947171 -0.5846092 0.18585736 0.17503445 0.2029833 0.18150623
-0.72656316 -0.8461164 -0.60535336 0.3370886 -0.3871468 0.16974173 -0.13684717 -0.13477321
0.18370077 -0.042235877 -0.09921978 0.22107734 -0.7954356 -0.15934609 0.28108022 0.21464247
-0.5103683 -0.46115115 -0.12551296 0.16229752 -0.11369051 -0.97704285 0.20101155 -0.4820997
-0.13405032 -0.61205316 -0.30527532 -0.6083303 -0.110842295 -0.025925469 -0.7599309 -0.60491616
-0.07993256 -0.71883047 -0.119048245 0.111597985 -0.3265777 0.22618775 -0.8267551 -0.42804223
0.22632386 0.14055566 -1.1462708 0.094913654 0.10866693 0.14563139 -0.072364405 0.17829861
0.23882674 -0.3339729 0.72484255 0.36257395 0.3451586 -0.22482017 -0.10843803 0.114514016
-0.30847988 0.124224946 -1.1003293 -0.40041754 0.114472724 0.15441449 0.14888857 0.12154865
-0.3629214 -0.37536702 -0.35196817 0.2607292 -0.3251551 0.13775285 -0.14053912 -1.260806
0.1408014 -0.76032263 -0.11954802 0.12770799 -0.3146782 -0.123774275 0.21368217 0.16631591
-0.38347295 -0.47035426 -0.12218689 0.14238603 -0.058286346 -0.39880776 0.13588627 -0.3878014
-0.14573775 -0.4099499 -0.2742297 -0.30827314 -0.11252918 -1.0216473 -0.36493173 -0.35588986
-0.25420877 0.15047263 0.25429967 0.105277166 0.08243924 -0.49360853 -0.08067071 0.12719262
0.13300507 -0.19522604 -0.3404629 0.2085414 0.09611617 -0.12905313 -0.24868539 0.08162864
0.14023454 0.11091915 -0.3884653 0.09237913 -0.69169545 0.20361578 0.20856579 -0.4087821
0.14665735 -0.42398307 0.39807498 0.13512379 -0.85501826 -0.08732152 -0.40498844 0.11750352
-0.22699201 -0.13300222 -0.11626968 0.12820706 0.11174374 -0.49412587 -0.82132286 -0.16778463
-0.11289834 0.2230136 0.18801168 -0.10416618 -0.10792488 -0.921706 -1.1257255 0.27813363
0.11978436 0.10066225 0.19487318 0.19472627 -0.8940841 -0.06584175 -0.40664327 0.09931986
0.19959353 0.13654627 -0.15969658 0.15163606 0.24174958 -0.741531 -0.12948963 -0.89921194
00000000: b7d6 1cbf ca03 8c3e bb83 85be 4862 98bf
00000010: b0b6 e0bd 53f7 6d3e 70fd 2c3e 1fb3 91bd
00000020: 46e7 e1bf fedd a83d 4d6f 983e 8e89 013d
00000030: 3b30 8fbf b7b8 733d 661f e4be fe9e d0bf
00000040: 2a33 d0bd 6101 b3bd 280e 7b3e e305 bebd
00000050: e47c a2bf 8471 2ebf fed3 56be b2ee 4fbf
00000060: 596d 83bd 8d23 6f3e 65d6 83be 9abe b9bd
00000070: f6e0 33bd f429 343e 74a6 4dbc 4037 22bf
00000080: 75c8 623e fe2f ce3d 7520 023e d884 c6bd
00000090: abe8 7bbd a879 9e3e d29c b93e 55ee 983e
000000a0: 2d9e 0a3e f59e 27be a46a c7be 5ec6 993d
000000b0: 407e 0a3e 9a90 4c3e 2c19 64bf 2543 ea3d
000000c0: 609e 5abd 15e2 8c3e 976b 0bbf 8fba a0bf
000000d0: 460a c2be 9831 f93d e179 b43d 96c1 97bd
000000e0: a6d8 68be 27b1 b7bd 17cf 793e 0f06 88bd
000000f0: 3333 f43c c42e cd3d f27b aa3d 29bf 6c3d
00000100: 9f4f e0bd 46ab 02bf 629f 8fbd 1018 803e
00000110: 2644 0ebf 13e3 7e3e 9695 2b3d 97ad 1fbf
00000120: c7dc d43e d503 373e 283e 15be 07b2 0a3e
00000130: 874f 9e3e d9e5 343e db94 e1bd d7a2 a93e
00000140: 178e cc3e 2d51 14bf b31a 353d 41e1 ec3e
00000150: dafd 043f 92e4 74bf 5163 a2bd 0401 443e
00000160: b0f5 0bbf 1b6d 2b3e a2fa 6abe f3a8 15bf
00000170: 6451 3e3e 3b3c 333e dbda 4f3e c5dc 393e
00000180: 0b00 3abf 169b 58bf 70f8 1abf e196 ac3e
00000190: 1b38 c6be c7d0 2d3e aa21 0cbe fd01 0abe
000001a0: 0e1c 3c3e 87ff 2cbd bd33 cbbd 1962 623e
000001b0: aba1 4bbf 9f2b 23be bfe9 8f3e 3ccb 5b3e
000001c0: 7fa7 02bf 011c ecbe 7886 00be 5231 263e
000001d0: 92d6 e8bd 7b1f 7abf f9d5 4d3e c6d5 f6be
000001e0: 7d44 09be 84af 1cbf 0c4d 9cbe 89bb 1bbf
000001f0: 4901 e3bd a661 d4bc d58a 42bf c9db 1abf
00000200: afb3 a3bd 4605 38bf 91cf f3bd 7c8d e43d
00000210: 3135 a7be c39d 673e 39a6 53bf 5a28 dbbe
00000220: 71c1 673e d3ed 0f3e 00b9 92bf 1762 c23d
00000230: c48c de3d 6520 153e ca33 94bd e993 363e
00000240: ff8e 743e 7ffe aabe 488f 393f 4ba3 b93e
00000250: a1b8 b03e 4237 66be c214 debd 5386 ea3d
00000260: 13f1 9dbe a669 fe3d 97d7 8cbf 8703 cdbe
00000270: ad70 ea3d d51e 1e3e 3f76 183e 80ee f83d
00000280: d5d0 b9be 1b30 c0be 2c35 b4be 4c7e 853e
00000290: bb7a a6be 150f 0d3e 7de9 0fbe 1762 a1bf
000002a0: 3e2e 103e 81a4 42bf 98d5 f4bd e2c5 023e
000002b0: 801d a1be 5e7d fdbd 80cf 5a3e b84e 2a3e
000002c0: 9156 c4be 46d2 f0be 1f3d fabd a5cd 113e
000002d0: aabd 6ebd 8830 ccbe c525 0b3e e88d c6be
000002e0: 473c 15be f4e4 d1be d667 8cbe fad5 9dbe
000002f0: b375 e6bd 57c5 82bf 55d8 babe 3237 b6be
00000300: a727 82be 7f15 1a3e 9133 823e 8e9b d73d
00000310: e7d5 a83d 42ba fcbe af36 a5bd c83e 023e
00000320: 7b32 083e 56e9 47be 2751 aebe e08b 553e
00000330: 8ed8 c43d 8126 04be 62a7 7ebe eb2c a73d
00000340: a599 0f3e 9429 e33d ece4 c6be 4531 bd3d
00000350: f412 31bf a880 503e 4592 553e e34b d1be
00000360: 582d 163e 4f14 d9be 7cd0 cb3e e45d 0a3e
00000370: 7ae2 5abf a0d5 b2bd a55a cfbe afa5 f03d
00000380: 9870 68be bc31 08be cc1e eebd b648 033e
00000390: e7d9 e43d 11fe fcbe 3742 52bf bccf 2bbe
000003a0: 3f37 e7bd ad5d 643e 2286 403e 1455 d5bd
000003b0: b807 ddbd edf4 6bbf c617 90bf 8867 8e3e
000003c0: 8151 f53d 0228 ce3d d68c 473e 5366 473e
000003d0: b2e2 64bf 0ad8 86bd 8c33 d0be 3668 cb3d
000003e0: 3f62 4c3e c9d2 0b3e 8087 23be 7c46 1b3e
000003f0: 348d 773e fad4 3dbf ee98 04be c132 66bf

head.bias f4 [15]
0.076954365 0.11598471 0.08467627 0.069228865 -0.00021340986 0.03558676 0.036555525 0.14552628
-0.009217373 0.025641318 0.13790351 0.030700516 0.058121204 0.06671826 -0.010076513
00000000: 409a 9d3d 6489 ed3d c16a ad3d ddc7 8d3d
00000010: c6c6 5fb9 6cc3 113d 3fbb 153d d704 153e
00000020: 7704 17bc be0d d23c 9436 0d3e a67f fb3c
00000030: 8010 6e3d 95a3 883d f517 25bc
