surrogate/trained_model/BCRNet/model_rate_ll64_fold2.pth (torch, 179229 bytes, 18 tensors)

ds.proj_conv.weight f4 [16, 2, 7]
0	0xbcf7479e	-0.030185517
1	0xbd470edb	-0.04859815
2	0xbc329ca9	-0.0109016085
3	0xbd33ffa7	-0.04394498
4	0xbcdb57d6	-0.026775282
5	0xbd698a17	-0.05701646
6	0xbd8158b6	-0.063157484
7	0xbd176173	-0.03695817
8	0xbe7cffe5	-0.24706991
9	0xbe9d5c0f	-0.30734298
10	0xbe57d3a2	-0.21076825
11	0xbe4b192b	-0.1983382
12	0xbd06d1d2	-0.032914944
13	0x3b43dc98	0.0029886123
14	0xbe06852a	-0.13136736
15	0xbe20d56c	-0.15706414
16	0xbe5712fd	-0.21003337
17	0xbdd4c601	-0.10389329
18	0xbe03394c	-0.12814826
19	0xbe429fa5	-0.19006212
20	0xbe03de21	-0.12877704
21	0x3c906072	0.017624114
22	0x3d141612	0.03615386
23	0x3d2f6141	0.042817358
24	0x3c90bf5a	0.017669369
25	0x3c0a1785	0.008428459
26	0x3d535742	0.051596887
27	0x3d1bdd42	0.038052805
28	0xbe4d2b72	-0.20036104
29	0xbe4ce97a	-0.20010939
30	0xbe9400b0	-0.28906775
31	0xbe15dc92	-0.14634922
32	0xbe456a80	-0.19278908
33	0xbe888eaa	-0.26671344
34	0xbdffd8f3	-0.12492552
35	0x3cf44655	0.029818693
36	0x3cca394b	0.024685523
37	0x3c935a15	0.01798729
38	0x3cbad9de	0.022808965
39	0xbca2c457	-0.019869013
40	0xbcea96f6	-0.028636437
41	0xbcc1c446	-0.02365316
42	0xb9d2e68b	-0.0004022609
43	0x3c929cca	0.017897028
44	0x3cc36020	0.023849547
45	0xbbae1c40	-0.0053134263
46	0xbb15fdb1	-0.0022886808
47	0x3b9e6976	0.0048343493
48	0xbd1740db	-0.036927085
49	0x3b2178af	0.0024638583
50	0xbe4fbfef	-0.2028806
51	0xbeaa5e52	-0.33275086
52	0xbe8a0de1	-0.26963714
53	0xbe2ff56c	-0.17183465
54	0xbd0b29c2	-0.03397537
55	0x3d5e275a	0.054236747
56	0x3c4fc111	0.012680308
57	0x3cfccc1e	0.03085905
58	0x3d9a817e	0.0754423
59	0x3dddfc61	0.10839153
60	0x3dfee566	0.12446098
61	0x3e144308	0.14478695
62	0x3d7339a9	0.05938116
63	0xb9d7d017	-0.00041163035
64	0x3a29c1ad	0.00064756983
65	0xbcb8de7c	-0.022567026
66	0x3b8ed0d3	0.00435839
67	0xbc109208	-0.008823879
68	0xbd2ffe9e	-0.04296743
69	0xbcfeae8e	-0.031089094
70	0xbadc1d73	-0.0016793445
71	0x3c7cdfe2	0.015434237
72	0xbd379ff4	-0.044830278
73	0xbd854c22	-0.06508662
74	0xbdcd1f8c	-0.10015783
75	0xbe2c6bb1	-0.16837956
76	0xbdca7755	-0.09886042
77	0xbe335723	-0.17513709
78	0xbdfc42d2	-0.123174325
79	0xbd065ba9	-0.032802258
80	0xbd3663ee	-0.044528894
81	0xbaae35bb	-0.0013291159
82	0x3d4b45ea	0.049627222
83	0x3d24e4ca	0.040257253
84	0xbccc9223	-0.024972027
85	0x3cfcb565	0.030848214
86	0x3c677823	0.014127764
87	0x3d7ef869	0.06224862
88	0x3d4f25b9	0.050573085
89	0x3dae3ad6	0.08507316
90	0x3de6b21b	0.1126444
91	0x3de89107	0.11355787
92	0x3e492b0d	0.19645329
93	0x3e00f4e1	0.12593414
94	0x3e01e9d6	0.12686858
95	0x3d34483f	0.04401421
96	0x3b31764f	0.0027078574
97	0xbc4cec86	-0.012507563
98	0xbd15d404	-0.036579147
99	0xbd0826d6	-0.03324016
100	0xbd16a06a	-0.036774077
101	0xbc4d67bb	-0.012536938
102	0xbc89e992	-0.016835008
103	0xbd1b4d58	-0.037915558
104	0xbcf7e604	-0.030261047
105	0xbcadcafe	-0.021214958
106	0xbd2c0f13	-0.042006563
107	0xbdbadea0	-0.091244936
108	0xbe122d1e	-0.14275023
109	0xbe785098	-0.24249494
110	0xbe5ed6c5	-0.21761616
111	0xbe285508	-0.16438687
112	0x3d6295d2	0.05531866
113	0x3d63bed1	0.0556019
114	0x3ddcca0d	0.10780726
115	0x3d850df3	0.06496801
116	0x3dc27bde	0.09496282
117	0x3dcc1d03	0.09966471
118	0x3d14dc3b	0.03634284
119	0xbd0f758f	-0.035024222
120	0xbd98591b	-0.074388705
121	0xbda7f2f8	-0.082006395
122	0xbd97508e	-0.073884115
123	0xbd6d44ec	-0.057927057
124	0xbdea04d7	-0.114267044
125	0xbd701c66	-0.058620833
126	0xbdeb7a86	-0.11497979
127	0xbdabbd0e	-0.08385669
128	0xbd34d9c0	-0.044152975
129	0xbd41298a	-0.047158755
130	0xba9d7a48	-0.0012014592
131	0x3d4e1cef	0.050320562
132	0x3cd0a213	0.025467908
133	0x3d05d0c6	0.032669805
134	0xbc345f65	-0.011009072
135	0xbdc069c3	-0.093951724
136	0xbde01da5	-0.10943154
137	0xbe5e046b	-0.21681373
138	0xbe8bee78	-0.27330375
139	0xbe248c82	-0.16069224
140	0x3db9e6be	0.09077214
141	0x3dcde3d5	0.10053221
142	0x3df9d04a	0.12197931
143	0x3dd520dc	0.10406658
144	0x3e17247a	0.14760008
145	0x3e1850af	0.14874528
146	0x3daf45ea	0.08558257
147	0x3bee4d4d	0.0072723986
148	0x3cafe86e	0.021473136
149	0x3c491bfa	0.012274737
150	0x3d1972ac	0.037462875
151	0x3d56aa7f	0.05240869
152	0x3be13546	0.0068728058
153	0x3d083638	0.033254832
154	0x3d4aac1e	0.04948055
155	0x3d90a931	0.07063521
156	0xbc8f69e1	-0.017506542
157	0x3ca547f6	0.020175915
158	0x3c85d3cb	0.016336342
159	0xbce377c3	-0.027767068
160	0xbd2ef5cb	-0.042714875
161	0xbd4c7c4e	-0.049923234
162	0xbc28000a	-0.010253916
163	0x3d9d5900	0.07682991
164	0x3e11a4c3	0.14223008
165	0x3e09cf3b	0.13457958
166	0x3db15269	0.086582966
167	0x3d39800e	0.045288138
168	0x3d794955	0.06086095
169	0x3d866da6	0.065638825
170	0x3d6c8c62	0.057751067
171	0x3d792800	0.060829163
172	0x3d9e5184	0.077303916
173	0x3d0f28a8	0.034950882
174	0x3caf4315	0.021394292
175	0xbd4c190c	-0.049828574
176	0x3d479e24	0.0487348
177	0x3e1f97d8	0.15585268
178	0x3e026a81	0.1273594
179	0x3e14c2ed	0.14527483
180	0x3ddfb588	0.10923296
181	0x3d9b4f40	0.07583475
182	0x3ca7c2c3	0.020478612
183	0x3cebc0d6	0.028778475
184	0x3cecf7f4	0.028926827
185	0x3d994838	0.07484478
186	0x3d58a115	0.052887995
187	0x3c538c2f	0.01291184
188	0x3c051c8b	0.008124481
189	0x3cc594a4	0.024118729
190	0x3d6e606d	0.058197428
191	0x3e22ea35	0.15909655
192	0x3e0118dc	0.1260714
193	0x3e3a881d	0.18215986
194	0x3dbcaf86	0.09213166
195	0xbc8bc700	-0.017062664
196	0x3d11430a	0.035464324
197	0x3d5eb443	0.05437113
198	0x3cdd31ab	0.027001223
199	0x3d09cf64	0.03364505
200	0x3d2caa2a	0.04215447
201	0x3ced3431	0.02895555
202	0x3d9517ba	0.07279916
203	0x3d841f9d	0.06451342
204	0x3e16e572	0.14735964
205	0x3dbb54f9	0.091470666
206	0x3e15fd42	0.14647391
207	0x3dec71d7	0.11545151
208	0x3d2e5b38	0.04256746
209	0xbc88ba4a	-0.016690392
210	0x3d86f954	0.06590524
211	0x3dcc89cc	0.0998722
212	0x3df40033	0.119141005
213	0x3d827db1	0.0637163
214	0x3d82f9e4	0.06395319
215	0x3d2d8c6c	0.042370245
216	0xbc0ff58b	-0.008786569
217	0xbdaa22b4	-0.083074
218	0xbdbfcc81	-0.09365178
219	0xbe11c009	-0.14233412
220	0xbdc6d472	-0.097084895
221	0xbda0eabe	-0.078572735
222	0xbd96540e	-0.07340251
223	0xbc08264e	-0.008309914

ds.proj_conv.bias f4 [16]
0	0xbd1b1b0b	-0.037867587
1	0x3e559455	0.20857365
2	0x3e455dfa	0.1927413
3	0xbd1c628f	-0.03817993
4	0xbd943af6	-0.072378084
5	0xbe44e4de	-0.19227931
6	0xbb532be0	-0.0032222196
7	0xbd0d7e84	-0.034544483
8	0xbe3892fe	-0.18024823
9	0xbd6006fc	-0.05469416
10	0x3e8209d9	0.25398138
11	0xbadd0381	-0.0016862006
12	0xbe35a193	-0.17737417
13	0x3e4cf4da	0.20015278
14	0x3dae69c0	0.08516264
15	0x3e81c7b9	0.2534769

ds.proj_bn.weight f4 [16]
0	0x3f9ba12c	1.2158561
1	0x3fb62dbd	1.4232708
2	0x3fc171d3	1.5112861
3	0x3f9f6332	1.2452147
4	0x3f90e387	1.1319436
5	0x3f905f1c	1.1279025
6	0x3f863e3f	1.0487746
7	0x3f97d8ef	1.1863078
8	0x3fb4bbae	1.4119775
9	0x3f9faa2f	1.2473811
10	0x3f8f2d06	1.1185615
11	0x3f911a24	1.1336102
12	0x3f81facc	1.0154662
13	0x3f82002e	1.0156305
14	0x3f79fac6	0.97648275
15	0x3fb4363a	1.4079049

ds.proj_bn.bias f4 [16]
0	0x3d3aa685	0.04556896
1	0xbe1f8097	-0.15576397
2	0xbe465a4b	-0.19370382
3	0x3d37ffe4	0.04492177
4	0xbda95179	-0.08267493
5	0xbd928cde	-0.071557745
6	0xbe531e1c	-0.20616955
7	0x3c549279	0.012974375
8	0x3d3d1aed	0.046168257
9	0x3d4e8f61	0.050429706
10	0xbdddb361	-0.108252294
11	0xbe053ea8	-0.13012183
12	0xbe4ab1e7	-0.19794427
13	0xbe3c4b59	-0.18388118
14	0xbe41c242	-0.1892176
15	0x3d74d351	0.05977184

ds.proj_bn.running_mean f4 [16]
0	0xbed957c6	-0.42449778
1	0xbd7d1f23	-0.061797272
2	0xbe79fb19	-0.24412192
3	0xbea0f913	-0.3144003
4	0x3d90b5c8	0.07065922
5	0xbed8301d	-0.42224208
6	0x3e8dac8b	0.27670702
7	0xbebb781d	-0.36615077
8	0xbe2c1b49	-0.16807283
9	0xbeb9544e	-0.36197132
10	0x3f0c98b4	0.54920506
11	0x3e1a5c82	0.15074351
12	0x3df63d1a	0.12023373
13	0x3ee96a98	0.45589137
14	0x3eb3dbaf	0.35128543
15	0x3e63bcde	0.22240016

ds.proj_bn.running_var f4 [16]
0	0x3e0306b9	0.12795533
1	0x3e4c3f99	0.19946136
2	0x3e92fc59	0.2870815
3	0x3e1823ad	0.14857359
4	0x3d691852	0.05690796
5	0x3ce5dabe	0.028058406
6	0x3d20f8c2	0.039299734
7	0x3dd6808a	0.10473736
8	0x3df1e291	0.11810792
9	0x3db990bf	0.09060811
10	0x3d909e1e	0.070614085
11	0x3cd833c8	0.026391879
12	0x3d1adc7e	0.037807934
13	0x3d2c1b9e	0.042018525
14	0x3d1047f2	0.035224862
15	0x3dfe52cf	0.12418138

ds.proj_conv1.weight f4 [8, 16, 5]
0	0xbe2d4463	-0.16920619
1	0xbe2307ef	-0.15920995
2	0xbc89ab7f	-0.016805409
3	0x3d309dee	0.043119363
4	0x3d7b4c9d	0.06135236
5	0x3c7fdb55	0.015616258
6	0x3e802f4d	0.25036088
7	0x3e0b5dc7	0.13609992
8	0x3d92d9b6	0.07170431
9	0x397e8d80	0.0002427604
10	0xbd2feaa2	-0.042948373
11	0x3e516a3e	0.20450684
12	0x3e234db9	0.15947618
13	0x3db11daa	0.08648236
14	0xbd11ef3a	-0.035628535
15	0xbe249298	-0.16071546
16	0xbe040e23	-0.12896018
17	0xbc9e9f14	-0.019362964
18	0xbc72a0f1	-0.014808879
19	0x3d01380c	0.03154759
20	0x3c8372f4	0.016046025
21	0x3d95a2fd	0.07306478
22	0xbd070a17	-0.032968607
23	0x3d6f4f52	0.058425255
24	0xbd848003	-0.06469729
25	0xbddcfb04	-0.10790065
26	0xbe39ff7c	-0.18163866
27	0xbc851101	-0.01624346
28	0x3e16cc6b	0.14726417
29	0x3c944f2f	0.018104164
30	0x3d191533	0.037373733
31	0x3d8f9dda	0.0701253
32	0x3d2c417b	0.042054635
33	0x3da6271c	0.08112928
34	0x3d8cdef6	0.06878464
35	0xbdd83336	-0.10556643
36	0xbd699240	-0.05702424
37	0x3ccae158	0.024765655
38	0x3d62ce8e	0.055372767
39	0x3d6fb5f7	0.058523145
40	0xbd5dbaa5	-0.054133076
41	0x3d84fec2	0.06493904
42	0xbd9bb425	-0.07602719
43	0xbd80896b	-0.062762104
44	0xbdad7403	-0.08469393
45	0xbdaad631	-0.08341635
46	0xbdbd595f	-0.09245562
47	0x3cbef51c	0.023310237
48	0x3de587ad	0.11207519
49	0x3dae85ed	0.08521638
50	0xbd169d9e	-0.03677141
51	0x3d97ab10	0.074056745
52	0x3d162d24	0.036664143
53	0x3d83494a	0.06410463
54	0xbd09a6c3	-0.033606302
55	0x3e17825f	0.14795826
56	0x3e315787	0.17318545
57	0xbae0ed81	-0.0017160625
58	0xbc8a0869	-0.016849713
59	0xbd24a842	-0.040199526
60	0x3d468f3e	0.04847645
61	0x3dd28418	0.10279101
62	0x3d5867fd	0.052833546
63	0xbd12070b	-0.035651248
64	0x3d1108c8	0.035408765
65	0x3d87c1f4	0.066287905
66	0x3e12884f	0.1430981
67	0x3d00c683	0.031439316
68	0x3c1255c2	0.008931579
69	0x3c27d8e3	0.010244581
70	0x3cbd3ce4	0.023100324
71	0x3da5b0a7	0.080903344
72	0x3d4c79cd	0.049920846
73	0xbc6c516b	-0.014423708
74	0x3b0f5dfd	0.002187609
75	0xbde7f2a4	-0.11325577
76	0x3c74ae17	0.014934084
77	0xbcafc8bf	-0.021458028
78	0xbde26926	-0.11055212
79	0xbda58198	-0.08081359
80	0x3d2bd6c5	0.041952867
81	0x3c1a0bac	0.009402197
82	0xbd01eafe	-0.031718247
83	0xbd9cebcd	-0.07662163
84	0xbd43b50d	-0.047780085
85	0x3cd8abed	0.026449168
86	0x3d1482fc	0.03625773
87	0x3d25dff1	0.04049677
88	0x3dec47d8	0.115371406
89	0x3de9917a	0.114047006
90	0xbcd25315	-0.025674382
91	0x3d167af5	0.036738355
92	0x3d769eb8	0.06020996
93	0x3e30b71d	0.17257352
94	0x3e315d35	0.17320712
95	0x3d3ecb15	0.046580393
96	0x3cd2b775	0.025722245
97	0xbc8cbf0c	-0.017180942
98	0xbd8b9e23	-0.068172716
99	0xbc47b00a	-0.012187967
100	0xbcc7137f	-0.024301289
101	0x3c547d5c	0.012969341
102	0xbd834a0c	-0.06410608
103	0xbcb8abfa	-0.022542942
104	0xbdbb8dcb	-0.09157904
105	0xbda055cd	-0.07828865
106	0x3de1817a	0.11011024
107	0x3e136961	0.14395668
108	0x3e1faec2	0.15594009
109	0x3d5c296a	0.053750433
110	0xbd3fc434	-0.046817973
111	0xbe26fd1f	-0.16307496
112	0xbe46726a	-0.19379583
113	0xbe077e43	-0.13231759
114	0xbd298d87	-0.041394737
115	0xbbd98ee0	-0.0066393465
116	0xbcee5fc7	-0.029098405
117	0xbda3e2b2	-0.08002223
118	0xbd5344f3	-0.051579427
119	0xbd82bd30	-0.06383741
120	0x3d1b5516	0.03792294
121	0xbd08e28a	-0.03341917
122	0xbdfe3c20	-0.12413812
123	0xbe7c0819	-0.24612464
124	0xbe161a60	-0.14658499
125	0x3d1995a0	0.03749621
126	0xbbb8af31	-0.005636119
127	0xbd6c311b	-0.057664018
128	0xbd069322	-0.03285516
129	0xbd560a04	-0.052255645
130	0xbdb60d6d	-0.088892795
131	0xbc956795	-0.018237868
132	0xbcee7b6a	-0.029111583
133	0x3d79bcf4	0.060971215
134	0xbc820253	-0.015870249
135	0xbcb6ba5e	-0.022305664
136	0xbd93c552	-0.0721537
137	0xbd0f035f	-0.034915324
138	0x3d30bcd2	0.043148823
139	0x3c2496f1	0.010045753
140	0xbdfc7e97	-0.123288326
141	0xbe2e57e7	-0.1702572
142	0xbdd68af3	-0.10475721
143	0x3c713517	0.01472213
144	0x3b9ccc52	0.004785099
145	0xbd60f6f1	-0.054923
146	0xbe003450	-0.12519956
147	0xbdbb7a81	-0.09154225
148	0xbc31579a	-0.0108241085
149	0xbcb3ebb0	-0.02196297
150	0xbc294add	-0.01033279
151	0xbd606052	-0.05477936
152	0xbdbeaa84	-0.09309867
153	0x3a1f02b9	0.00060657744
154	0xbcfa257b	-0.03053545
155	0x3c8b2b61	0.016988458
156	0x3c1f4e09	0.009723195
157	0xbd8e68da	-0.069535926
158	0xbe5eb98a	-0.21750465
159	0xbe363e3b	-0.17797177
160	0x3df86898	0.12129325
161	0x3d9dac8e	0.07698928
162	0xbd7579f4	-0.059930757
163	0xbe5426c3	-0.20717911
164	0xbd83cd50	-0.064356446
165	0x3c259a73	0.010107624
166	0x3d792317	0.06082448
167	0x3de289d9	0.110614486
168	0x3e162607	0.14662944
169	0x3da99c37	0.08281749
170	0x3c5f2f4d	0.013622117
171	0x3de40596	0.11133878
172	0x3ceef576	0.02916978
173	0x3e0b8954	0.13626605
174	0x3d7269c9	0.059182916
175	0x3dabd5aa	0.083903626
176	0x3da08565	0.07837943
177	0xbd167161	-0.03672922
178	0xbe1e5ca5	-0.15465029
179	0xbd71321f	-0.05888569
180	0xbd570b61	-0.052501086
181	0xbd2f2053	-0.042755436
182	0x3d92945d	0.07157204
183	0x3d93c563	0.07215383
184	0xbdfa4547	-0.12220245
185	0x3e1b5ac6	0.15171346
186	0x3e41a4ca	0.18910518
187	0x3d9cb19e	0.07651065
188	0xbcf64850	-0.030063778
189	0xbd508f69	-0.050918017
190	0xbd578e86	-0.052626155
191	0xba953d79	-0.0011386118
192	0x3d0e1c18	0.03469476
193	0x3d8b1bb1	0.06792391
194	0xb9cceb2c	-0.0003908513
195	0x3dc3a4ae	0.095528945
196	0x3d1d41f5	0.03839298
197	0xbe09a94f	-0.13443492
198	0xbdf0baaf	-0.11754357
199	0xbdbca906	-0.09211926
200	0xbd271abd	-0.040796984
201	0xbdb5963a	-0.08866544
202	0xb81283fa	-3.4932025e-05
203	0x3d6af400	0.057361603
204	0xbd9aaff5	-0.075530924
205	0x3dc60305	0.09668545
206	0xb9d81bbc	-0.00041219394
207	0xbdff385b	-0.12461921
208	0xbe60eba6	-0.21964893
209	0xbe1e663e	-0.1546869
210	0xbd524699	-0.05133686
211	0xbb04dcf3	-0.0020273298
212	0x3d8b663d	0.0680661
213	0x3dc9687f	0.09834384
214	0xbd8f5837	-0.069992475
215	0xbd817d49	-0.06322724
216	0xbd30fe6e	-0.043211393
217	0xbc1013cc	-0.008793782
218	0x3dd7faaa	0.10545857
219	0xbd7a4b40	-0.06110692
220	0xbd5e152b	-0.054219406
221	0x3c2c23a2	0.010506542
222	0x3ca2dc74	0.01988051
223	0x3d7d824f	0.06189185
224	0xbd8c4004	-0.068481475
225	0xbd02963d	-0.03188156
226	0xbd1716f2	-0.036887117
227	0xbc848233	-0.016175365
228	0x3da593c5	0.080848254
229	0xbd18d2b1	-0.037310306
230	0xbd207457	-0.03917345
231	0xbcad44a3	-0.021150893
232	0xbc3571a7	-0.01107446
233	0x3d31860b	0.043340724
234	0xbc0a9bdf	-0.008460014
235	0x3b38a05c	0.0028171754
236	0xbd1d0fd2	-0.038345166
237	0xbdfca5ed	-0.12336335
238	0x3cff2108	0.03114368
239	0xbd6ab6af	-0.057303127
240	0xbb827037	-0.003980662
241	0xbc174d69	-0.009234765
242	0x3b68c47b	0.0035517502
243	0xbc01fe50	-0.007934168
244	0xbcb97b9e	-0.022641953
245	0x3c84c316	0.016206305
246	0x3d4612ae	0.048357658
247	0xbb683d0b	-0.0035436775
248	0xbc433347	-0.011914081
249	0x3c01cee2	0.00792286
250	0x3d5ae873	0.053444337
251	0x3d43ace2	0.047772296
252	0xbc5022d0	-0.012703612
253	0xbcb9a57f	-0.022661922
254	0x3c6f3406	0.014599806
255	0xbd4358f9	-0.047692273

ds.proj_conv1.bias f4 [8]
0	0xbc630d59	-0.013858163
1	0xbdc3d717	-0.095625095
2	0xbd27323c	-0.04081939
3	0x3d22f14c	0.0397809
4	0xbd43d2e8	-0.047808558
5	0xbdab782e	-0.08372532
6	0x3dd57836	0.10423319
7	0xbda4cf0b	-0.08047303

ds.proj_bn1.weight f4 [8]
0	0x3fb9adcc	1.4506164
1	0x3fb77428	1.4332323
2	0x3fc30561	1.5236017
3	0x3fbe2a00	1.4856567
4	0x3fb7aa9a	1.4348938
5	0x3fbdf08d	1.4839035
6	0x3fb71946	1.4304588
7	0x3fbdd88b	1.4831709

ds.proj_bn1.bias f4 [8]
0	0x3e0ec388	0.13941777
1	0x3e11f025	0.14251764
2	0x3e17e373	0.14832859
3	0x3dba6f58	0.091032684
4	0x3e12cb69	0.14335407
5	0x3d8f1808	0.069870055
6	0x3d93d625	0.07218579
7	0x3e1bea7b	0.15226166

ds.proj_bn1.running_mean f4 [8]
0	0x3e429227	0.19001065
1	0xbf0e3b5a	-0.55559313
2	0xbd96a457	-0.07355564
3	0x3f3f7465	0.7478698
4	0xbe6bbfb2	-0.23022345
5	0xbef30520	-0.47464848
6	0x3f0bb25e	0.5456904
7	0xbefbc6ee	-0.4917521

ds.proj_bn1.running_var f4 [8]
0	0x3f6df337	0.9294924
1	0x3f0a0019	0.539064
2	0x3ef4096f	0.47663447
3	0x3f25f4f3	0.6482689
4	0x3ed416bf	0.41423604
5	0x3ee8c7ea	0.45465022
6	0x3f1470eb	0.579848
7	0x3edb218b	0.4279903

ds.fc1_conv.weight f4 [128, 256]
0	0x3e66d132	0.22540739
1	0xbd981a4f	-0.07426893
2	0xbd004be0	-0.03132236
3	0x3ddcd3cb	0.10782584
4	0x3d9a6cf6	0.07540314
5	0xbb87eca1	-0.0041480814
6	0x3ce7d52d	0.028299892
7	0xbd9c8c67	-0.07643967
8	0xbdec7fce	-0.11547814
9	0xbe10c8ae	-0.14139053
10	0xbe87a5c6	-0.26493663
11	0xbe822e94	-0.2542616
12	0x3cc1320c	0.023583435
13	0x3d1a8c1b	0.03773127
14	0xbd58e16f	-0.052949365
15	0xbcef10b9	-0.029182779
16	0x3d6e75ae	0.058217697
17	0x3ba83840	0.0051336586
18	0xbdb9a21b	-0.09064122
19	0xbd9a8887	-0.07545572
20	0xbc2021a4	-0.009773646
21	0x3e0badcd	0.13640518
22	0x3da86f9c	0.08224413
23	0xbe09703b	-0.13421719
24	0x3d20a80b	0.03922276
25	0x3b8a174e	0.004214204
26	0xbdc5da01	-0.096607216
27	0xbd0a4a4f	-0.033762272
28	0x3de9ee39	0.114223905
29	0x3dc25408	0.09488684
30	0x3d9dd45b	0.07706519
31	0x3defa2dd	0.117009856
32	0x3db2d276	0.087315485
33	0x3d34e345	0.044162054
34	0x3d2c3df3	0.042051267
35	0xbdbec791	-0.09315408
36	0xbde29a0b	-0.110645376
37	0xbd3e3988	-0.046441585
38	0xbca5d7a1	-0.020244421
39	0x3e325fed	0.17419405
40	0x3e067e8e	0.13134214
41	0x3ab57cd2	0.0013846403
42	0xbdc9339a	-0.09824295
43	0x3d9f86d6	0.0778939
44	0x3c4eae35	0.012614776
45	0xbdf212e3	-0.118200086
46	0xbd89bfa4	-0.06726006
47	0xbdf3ccb7	-0.11904281
48	0xbe36cf8a	-0.17852607
49	0xbe43eae5	-0.19132574
50	0xbdccf92f	-0.100084655
51	0xbd25176f	-0.04030555
52	0x3d0a9ead	0.03384273
53	0xbe223e2b	-0.15844028
54	0x3bc3bf9c	0.0059737694
55	0x3cca63c7	0.02470578
56	0xbb921e34	-0.004459167
57	0x3d1b8fb3	0.03797884
58	0x3e768aad	0.24076338
59	0x3d0788e0	0.03308952
60	0x3dbdc3fb	0.09265896
61	0x3dffa2e2	0.12482239
62	0x3c77e795	0.015130897
63	0xbd8adf53	-0.06780877
64	0x3bb2e5ec	0.0054595377
65	0x3dbee2d8	0.09320611
66	0x3e2ba969	0.16763844
67	0xbd0612ec	-0.03273289
68	0xbd57a4b5	-0.05264731
69	0xbd666541	-0.056248907
70	0xbe47e4b5	-0.19520839
71	0xbe07d971	-0.13266541
72	0xbdd914d1	-0.105996735
73	0xbe4c5577	-0.19954477
74	0xbe4bcdc3	-0.1990271
75	0x3d6760d1	0.056488816
76	0x3c603417	0.013684294
77	0xbd8ef7d1	-0.06980861
78	0xbcf1a435	-0.029497245
79	0x3e27ebdb	0.16398565
80	0xbc9ae15a	-0.018906284
81	0xbd9a7b25	-0.07543019
82	0xbd852c2a	-0.06502564
83	0xbb0fe1d5	-0.0021954675
84	0x3df21221	0.11819864
85	0x3d9bb1e7	0.076022916
86	0xbe1de0fb	-0.15417854
87	0x3c82f333	0.015985107
88	0xbd11f124	-0.03563036
89	0xbd74eab6	-0.05979415
90	0x3d2408b0	0.040047348
91	0x3dd57c7c	0.10424134
92	0x3d92c6f1	0.07166851
93	0x3dc9f42d	0.09861026
94	0x3d8871ae	0.06662308
95	0x3d3e2aa4	0.046427384
96	0xbd4247bc	-0.047431692
97	0xbf0adb83	-0.542412
98	0xbf063d54	-0.5243733
99	0xbf099468	-0.53742075
100	0xbe6a83d1	-0.22901846
101	0x3da8bc48	0.08239037
102	0x3dd8da9a	0.1058857
103	0x3e46c761	0.19411995
104	0x3e6d449d	0.23170705
105	0x3e80ffba	0.25195104
106	0x3e5016d6	0.20321211
107	0x3d9cc22f	0.07654225
108	0x3cae44e2	0.02127308
109	0xbe7cf57e	-0.24703023
110	0xbda84a04	-0.08217242
111	0xbca62fb3	-0.020286417
112	0x3d9336e8	0.07188207
113	0x3d21f01e	0.039535634
114	0x3ab2bd79	0.001363679
115	0xbe1c839a	-0.15284577
116	0xbe827910	-0.25482988
117	0x3ce20604	0.02759076
118	0x3e0a7bf0	0.13523841
119	0x3d8e5c81	0.069512375
120	0x3e16266d	0.14663096
121	0x3dfcef07	0.12350278
122	0x3dd5389d	0.10411189
123	0x3d884d6c	0.06655392
124	0xbd1a2d01	-0.037640575
125	0xbe26ff12	-0.16308239
126	0xbea20866	-0.31647032
127	0xbecce659	-0.4001949
128	0xbcf5787c	-0.029964678
129	0xbd227163	-0.039658915
130	0x3d69a825	0.05704512
131	0x3e11de52	0.14244965
132	0x3d3220f2	0.04348845
133	0x3c4e1f8d	0.0125807645
134	0xbcc74f62	-0.024329845
135	0xbddfff1e	-0.109373316
136	0xbe0a6e6c	-0.13518685
137	0xbe0d2028	-0.13781798
138	0xbe88224c	-0.26588666
139	0x3cf62776	0.030048113
140	0x3de4a81f	0.11164879
141	0xbd123411	-0.035694186
142	0x3c851523	0.01624543
143	0xba1fad7f	-0.00060912216
144	0x3ddf9853	0.109177254
145	0x3d01b93d	0.031670798
146	0xbcc89330	-0.024484247
147	0xbdb370d4	-0.08761755
148	0x3d5ecc2b	0.05439393
149	0xbd09008f	-0.0334478
150	0xbe07bc92	-0.13255528
151	0xbc981887	-0.018566383
152	0xbcca791d	-0.024715954
153	0xbd9d5098	-0.07681388
154	0xbd117512	-0.035512038
155	0x3da6b5f0	0.081401706
156	0x3d9a508d	0.07534895
157	0x3e21c375	0.15797217
158	0x3e14baee	0.14524433
159	0x3d8a5797	0.06754988
160	0xbd1d3b62	-0.03838671
161	0xbd501cc2	-0.050808676
162	0xbd922593	-0.07136073
163	0x3dbf8387	0.09351259
164	0x3dc36229	0.09540207
165	0x3d8596c1	0.06522895
166	0x3e210be1	0.15727188
167	0x3e2895ea	0.16463438
168	0x3db898bc	0.09013507
169	0x3d164f0b	0.036696475
170	0x3d92cc6e	0.07167898
171	0xbe2a5412	-0.16633633
172	0xbde06f12	-0.10958685
173	0xbd531f09	-0.05154327
174	0x3c4247d5	0.011857946
175	0xbcbabe8c	-0.022795938
176	0xbd20bfde	-0.03924548
177	0x3ae617a7	0.0017554656
178	0xbdd03a9d	-0.101674296
179	0xbe6e039d	-0.23243566
180	0xbdaa22f2	-0.083074465
181	0xbd23af51	-0.039962117
182	0x3d272b7d	0.040812958
183	0xbd9b959c	-0.07596895
184	0x3c066eb9	0.008205109
185	0x3d096d32	0.033551402
186	0xbdb6b4c7	-0.08921199
187	0x3d9a9fa8	0.07549983
188	0x3da281c5	0.07934908
189	0xbd95b896	-0.073105976
190	0x3e137fe7	0.1440426
191	0x3e17360a	0.14766708
192	0xbcc6f7be	-0.024288055
193	0x3d662e87	0.056196716
194	0x3e5d415a	0.21606961
195	0x3e13a003	0.14416508
196	0x3cb12e62	0.021628562
197	0x3c65a92b	0.014017384
198	0xbde03ed7	-0.10949486
199	0xbde8f140	-0.1137414
200	0xbdd382cb	-0.10327681
201	0xbe977add	-0.29585925
202	0xbececd12	-0.4039083
203	0xbd3bcd07	-0.045849826
204	0x3d32ff21	0.04370034
205	0xbd1c9397	-0.03822669
206	0x3caef667	0.021357728
207	0xbd736f14	-0.059432104
208	0x3d81077e	0.06300257
209	0x3c5b6043	0.01338965
210	0x3d0b08aa	0.03394381
211	0xbc87e2a0	-0.016587555
212	0x3e000a48	0.12503922
213	0x3ccb62a0	0.024827302
214	0xbe026ddb	-0.12737219
215	0x3dd49268	0.10379487
216	0xbd519a57	-0.05117258
217	0xbd70d043	-0.058792364
218	0xbd004b6f	-0.03132194
219	0xbca81ad2	-0.020520601
220	0x3dc5e18e	0.09662162
221	0xba88ef3f	-0.0010447277
222	0x3d40f44b	0.047107976
223	0x3d5cc830	0.05390185
224	0x3de0c920	0.109758615
225	0x3d4dba38	0.05022642
226	0x3da4e9eb	0.08052429
227	0xbdac39f2	-0.0840949
228	0xbe6b6b7a	-0.22990218
229	0xbe6a4add	-0.2288012
230	0xbe7e1193	-0.24811392
231	0xbe837c9d	-0.2568101
232	0xbe3966d0	-0.18105626
233	0xbe334551	-0.17506911
234	0xbd9587c7	-0.07301288
235	0xbd466841	-0.048439268
236	0xbe1c9599	-0.15291442
237	0xbcd3734e	-0.025811817
238	0xbaeba94c	-0.0017979532
239	0xbe85a95b	-0.2610577
240	0xbe9e4f36	-0.30919808
241	0xbdeac31f	-0.11462998
242	0x3bf5098b	0.0074779443
243	0x3e689465	0.22712858
244	0x3d82d2e4	0.063878804
245	0xbd9c09f8	-0.07619089
246	0xbd0cf073	-0.034408998
247	0xbdc44ddf	-0.09585165
248	0xbd00fea2	-0.031492837
249	0x3cf0e27f	0.029404877
250	0xbcf0d99a	-0.029400636
251	0xbd6013cb	-0.054706376
252	0xbce04a68	-0.02737923
253	0xbdab484e	-0.083634004
254	0xbe1805a6	-0.14845905
255	0xbe2d6332	-0.16932371

ds.fc1_conv.bias f4 [128]
0	0xbd00b50e	-0.031422667
1	0x3abe43be	0.0014516038
2	0x3d3041c9	0.043031488
3	0x3d8d31bf	0.06894254
4	0x3cff5508	0.031168476
5	0x3d75c878	0.060005635
6	0x3ba59148	0.0050527193
7	0x3d1cd0f1	0.0382852
8	0x3d196481	0.037449364
9	0xbb3bb273	-0.00286403
10	0x3c07dee0	0.008292884
11	0x3d34eca8	0.044171005
12	0x3b6c3a6d	0.0036045567
13	0x3cdaa467	0.026689721
14	0x3c911c6e	0.017713752
15	0x3d0eeffe	0.034896843
16	0x3d9b2ed3	0.075772904
17	0x3d487a50	0.04894477
18	0x3cc7cef4	0.024390675
19	0xbb3aedbe	-0.0028523053
20	0xbd30dc97	-0.04317912
21	0x3c3dd91b	0.0115874065
22	0x3d6d4256	0.05792459
23	0x3d06e804	0.03293611
24	0xbca7b669	-0.020472722
25	0xbd6ac888	-0.057320148
26	0xbc3570dd	-0.011074272
27	0x3ba15245	0.0049231374
28	0xbba440ff	-0.005012631
29	0xbd10a259	-0.035311077
30	0x3c51f1d4	0.012814004
31	0x3b86a8ef	0.004109494
32	0x3d5d7e43	0.05407549
33	0xbcbad769	-0.022807794
34	0x3c75ccbe	0.015002428
35	0xbca245da	-0.019808698
36	0xbd97a0ac	-0.074036926
37	0x3d2075c9	0.03917483
38	0x3ca26ada	0.019826341
39	0x3d01c72a	0.03168408
40	0x3cf9c211	0.030488046
41	0xbd6f7e1d	-0.05846988
42	0x3ce1af8a	0.027549524
43	0x3d418887	0.047249343
44	0x3bed69b1	0.0072452654
45	0x3e120db1	0.14263035
46	0x3cd8aeb1	0.026450487
47	0x3b50eb70	0.0031878613
48	0x3d714692	0.05890519
49	0xbd05f575	-0.03270479
50	0x3cf3ec5c	0.02977579
51	0x3cbacf42	0.022803906
52	0x3d025ab5	0.031824786
53	0xb8892e34	-6.541275e-05
54	0xbb22096e	-0.0024724859
55	0xbc67bbb8	-0.014143877
56	0x3d4caa7b	0.04996727
57	0x3d37400d	0.044738818
58	0xb91bd426	-0.00014860983
59	0x3d88b0f2	0.06674375
60	0x3d4b51b0	0.04963845
61	0x3d04b5d7	0.03239998
62	0x3c79078f	0.015199556
63	0x3bad7d61	0.0052944873
64	0x3c798efb	0.015231843
65	0x3d589664	0.0528778
66	0x3b8ab8c7	0.004233453
67	0x3ce53a07	0.027981771
68	0xbbaa5100	-0.0051976442
69	0x3cee200d	0.029068017
70	0x3c9dba52	0.019253884
71	0x3ce71600	0.028208733
72	0x3d11f75c	0.03563629
73	0x3c8dc2f7	0.01730488
74	0x3c6f4f1a	0.014606262
75	0x3cbba4f8	0.022905812
76	0xbcb907b3	-0.02258668
77	0x3d2def7a	0.04246471
78	0xbb84e78c	-0.004055923
79	0x3bf087d5	0.007340411
80	0x3b422947	0.0029626654
81	0x3be74d42	0.0070587704
82	0xbb6e37cd	-0.0036349178
83	0x3c34a353	0.011025268
84	0x3d180a60	0.03711927
85	0xbc51dcfa	-0.012809033
86	0x3bc0f92a	0.0058890777
87	0x3d46fe6e	0.048582487
88	0x3d519d79	0.05117557
89	0x3cf04a68	0.029332355
90	0x3cbe1c16	0.023206752
91	0x3d26faa3	0.04076637
92	0x3a130a88	0.0005609174
93	0x3d53097d	0.05152272
94	0x3cb0341d	0.021509225
95	0x3a7562a2	0.0009360706
96	0xbadda4e1	-0.00169101
97	0x3b6c2772	0.0036034253
98	0xbb467b06	-0.003028573
99	0x3d2af1c5	0.041734476
100	0xbb8ce6f5	-0.004299993
101	0x3d3d337d	0.04619168
102	0x3d0220a3	0.031769406
103	0x3d395bac	0.04525344
104	0x3d06e10a	0.032929458
105	0xbd0ea429	-0.034824524
106	0x3d495fb2	0.049163528
107	0x3c95f5dc	0.018305711
108	0x3d0285a5	0.031865735
109	0x3d20ed6e	0.03928893
110	0x3d078640	0.033087015
111	0x3c9ee1aa	0.019394714
112	0x3d4e3c6e	0.0503506
113	0x3b90c82b	0.004418393
114	0x3d1d04ad	0.038334537
115	0xbd18309f	-0.037155744
116	0x3c5f82f0	0.013642058
117	0x3d99fe7f	0.075192444
118	0xbcbe3d54	-0.023222603
119	0x3d54a46a	0.05191461
120	0xbc40ae5b	-0.01176032
121	0x3cb8c957	0.022556944
122	0xbb5d334f	-0.0033752506
123	0x3d120f8f	0.03565937
124	0x3c292d9f	0.010325818
125	0x3cadf1fc	0.021233551
126	0x3cccc111	0.024994405
127	0x3cf961bc	0.030442111

ds.fc2_conv.weight f4 [64, 128]
0	0x3e2624e0	0.16225004
1	0xbd159476	-0.036518537
2	0xbe2ff373	-0.17182712
3	0xbec702b3	-0.38869247
4	0xbe377d3c	-0.17918867
5	0xbc1b1ba6	-0.009467041
6	0x3c36ef0e	0.0111653935
7	0xbe6a3fd2	-0.22875908
8	0x3d5c2e58	0.053755134
9	0x3dc271d2	0.09494366
10	0x3e87d212	0.26527458
11	0xbe616d00	-0.22014236
12	0x3d44078f	0.04785877
13	0x3e5fb0dc	0.2184481
14	0x3e5a87f1	0.2134092
15	0xbe6363b8	-0.22206008
16	0xbcbfc3d6	-0.023408812
17	0xbcb57437	-0.022150142
18	0x3bf58a44	0.007493289
19	0x3e870889	0.263737
20	0x3e0a6ec9	0.13518824
21	0xbc1faf0a	-0.009746322
22	0xbddaa63a	-0.106762365
23	0xbe25bed4	-0.16186076
24	0x3dcc0759	0.09962339
25	0x3df4a6d4	0.119458824
26	0x3e2ad8f0	0.16684318
27	0x3e5132dc	0.20429558
28	0x3e277573	0.16353397
29	0x3ea55983	0.32294855
30	0x3d602a69	0.054727945
31	0x3e82a000	0.25512695
32	0xbed0481d	-0.40680018
33	0x3dc7ad2b	0.09749826
34	0x3f0a2c3d	0.5397375
35	0x3e825275	0.25453535
36	0x3e85de28	0.26146054
37	0x3e498f01	0.19683458
38	0xbd2e9d59	-0.042630527
39	0x3d71ac89	0.059002433
40	0xbdbb9e29	-0.09161026
41	0x3e8720ef	0.26392314
42	0xbd5170d5	-0.051132996
43	0x3cbb18f4	0.022839047
44	0x3d710811	0.058845583
45	0xbecf0c9d	-0.4043931
46	0xbea66414	-0.3249823
47	0x3e0704b8	0.13185394
48	0xbdacdd5b	-0.08440658
49	0x3e535100	0.20636368
50	0x3e0fe89b	0.14053576
51	0x3da0908e	0.078400716
52	0x3dfb3c9d	0.122674204
53	0x3c4d480a	0.0125293825
54	0xbebcef89	-0.369015
55	0x3d35bbd3	0.044368576
56	0xbde03809	-0.10948188
57	0x3dd18615	0.10230652
58	0x3e4ea045	0.20178325
59	0x3cf80971	0.03027794
60	0x3d95f0d7	0.07321327
61	0x3cbc6e4c	0.023001812
62	0xbe0f453e	-0.13991258
63	0x3e017ad8	0.12644517
64	0xbdd43520	-0.10361695
65	0xbd8e1562	-0.06937672
66	0x3dc7fbe5	0.09764842
67	0x3db57439	0.08860058
68	0x3d2d40d7	0.042298164
69	0xbdc51cba	-0.0962462
70	0x3d24909e	0.04017698
71	0xbd813738	-0.0630936
72	0x3d951d71	0.07281006
73	0x3d2d69d6	0.04233726
74	0x3e69cc17	0.2283176
75	0xbdb80e16	-0.08987062
76	0x3e7e1a29	0.24814667
77	0xbda228a5	-0.079179086
78	0x3e79e588	0.24403965
79	0x3e2c8b53	0.16850023
80	0xbd178512	-0.03699214
81	0x3d6c052f	0.05762213
82	0x3e844b0c	0.25838506
83	0xbd8734c8	-0.06601864
84	0x3e2be3ce	0.1678612
85	0x3eedfb76	0.46480912
86	0x3d4a4acc	0.049387738
87	0xbe290524	-0.16505867
88	0xbe216d58	-0.15764368
89	0xbe4d0505	-0.20021446
90	0xbe48bb0e	-0.19602606
91	0xbe79be4e	-0.24389002
92	0x3eb49d36	0.35276192
93	0xbe8596e9	-0.26091698
94	0xbc281234	-0.010258246
95	0x3d17cbbd	0.037059534
96	0x3e05cf5f	0.13067387
97	0x3d3621ff	0.044466015
98	0xbc531d6c	-0.012885433
99	0xbcfb3534	-0.030665018
100	0x3ca7b507	0.020472063
101	0xbeb726b1	-0.35771707
102	0xbe2c2c22	-0.1681371
103	0x3c3ff88e	0.011716975
104	0x3e140266	0.1445404
105	0x3ddcdf40	0.10784769
106	0xbe1f3e2d	-0.15551062
107	0x3da896da	0.08231898
108	0xbc9f9238	-0.019478902
109	0xbc4e8258	-0.012604319
110	0xbd35bb17	-0.044367876
111	0x3cc5c1d9	0.024140285
112	0xbc85b385	-0.016320953
113	0x3d3e2dc2	0.046430357
114	0xbdcadc33	-0.09905281
115	0x3e383901	0.17990495
116	0x3c589eb3	0.013221431
117	0xbd8a83ea	-0.06763442
118	0x3dde645e	0.10858987
119	0xbdce7c1d	-0.100822665
120	0x3e7cb22c	0.24677342
121	0xbcda7a73	-0.026669716
122	0x39f2b6c9	0.00046294022
123	0xbc83bf40	-0.016082406
124	0x3c173236	0.00922828
125	0xbd17485c	-0.03693424
126	0x3e252a7b	0.16129486
127	0xbd4e718b	-0.05040125
128	0x3da67754	0.08128229
129	0xbefed850	-0.49774408
130	0x3d51ba99	0.051203344
131	0x3d0beb8e	0.03416019
132	0xbcdb3e55	-0.02676312
133	0x3e06f06b	0.1317765
134	0x3dbe0532	0.09278335
135	0x3dc0f3a5	0.094214715
136	0x3da9781e	0.08274864
137	0x3df68c0a	0.12038429
138	0x3cd5eca4	0.026113816
139	0x3cefbb37	0.029264076
140	0x3e26bb97	0.16282497
141	0x3d4b6e44	0.049665704
142	0xbc482a1b	-0.01221707
143	0x3cdcbbf6	0.026945096
144	0x3e9971cb	0.2996963
145	0xbd72d5b5	-0.05928584
146	0xbf0baa94	-0.54557157
147	0xbd899ec6	-0.06719737
148	0xbe785acd	-0.24253388
149	0xbf03f960	-0.5155239
150	0x3eada723	0.33916578
151	0x3de36672	0.11103524
152	0x3dbacf28	0.09121543
153	0x3dbfeba1	0.093711145
154	0xbd82f707	-0.06394773
155	0x39f1b41c	0.00046101294
156	0xbdcab9d0	-0.09898722
157	0xbd936a0e	-0.07197963
158	0x3db63473	0.08896723
159	0x3c91ec47	0.017812861
160	0xbb9c55ad	-0.0047709555
161	0xbf016806	-0.5054935
162	0xbdc542f8	-0.09631914
163	0xbdde2cb3	-0.108483694
164	0xbc1a7b48	-0.009428807
165	0xbd6a64fe	-0.05722522
166	0x3dd60bf0	0.10451496
167	0xb8bc1476	-8.96835e-05
168	0xbd4eb11d	-0.050461877
169	0x3bf5fd8a	0.007507031
170	0xbd9c6e4c	-0.07638225
171	0xbd82b965	-0.063830175
172	0x3e6b8df9	0.23003377
173	0x3d5c79f8	0.053827256
174	0xbdc7bfb0	-0.09753358
175	0x3e0b56d5	0.13607343
176	0x3e9f58d1	0.3112245
177	0xbe260046	-0.16211042
178	0xbd8b223a	-0.067936376
179	0x3df47cb7	0.1193785
180	0xbde018d1	-0.10942233
181	0x3e5f3792	0.21798542
182	0xbd4ea51c	-0.05045043
183	0x3e078480	0.13234138
184	0xbd99cc93	-0.075097226
185	0xbe7ba9e6	-0.2457653
186	0xbe12a4b8	-0.14320648
187	0x3e4328a3	0.1905847
188	0xbc2a58c3	-0.010397139
189	0x3d74e16b	0.059785288
190	0x3e96ce2b	0.2945417
191	0x3d611228	0.054948956
192	0xbe5e5a39	-0.21714105
193	0xbcc6e635	-0.024279693
194	0x3d9e1fa3	0.07720878
195	0x3c799250	0.0152326375
196	0x3e25c691	0.16189028
197	0x3dfb16e9	0.12260229
198	0xbcc59f9e	-0.024123963
199	0x3c30495e	0.01075968
200	0x3eab0ec8	0.33409715
201	0x3d307beb	0.043086927
202	0xbdd62794	-0.10456768
203	0x3d810e19	0.06301517
204	0x3a05a69b	0.00050983735
205	0xbd802ef4	-0.062589556
206	0xbcf6c6f9	-0.030124174
207	0xbd6d4ce7	-0.057934668
208	0xbc7482c3	-0.014923754
209	0x3de3d16d	0.11123929
210	0xbc8c7201	-0.017144205
211	0xbeea7fab	-0.45800528
212	0xbe65a9ae	-0.22428009
213	0x3dc9a03c	0.098450154
214	0x3d5cdd4c	0.053921983
215	0x3d916916	0.07100122
216	0xbdaf0fb2	-0.085479155
217	0x3d4b3999	0.049615476
218	0x3d0c0111	0.034180705
219	0x3d0184c6	0.031620763
220	0xbd1e138c	-0.03859286
221	0xbc865087	-0.01639582
222	0xbdc9391e	-0.09825347
223	0x3e0064a9	0.12538399
224	0xbe02d208	-0.12775433
225	0x3df78ffc	0.1208801
226	0xbf7acc37	-0.9796786
227	0x3dac74d1	0.084207185
228	0xbd228803	-0.039680492
229	0xbd294178	-0.0413222
230	0x3ce565e1	0.028002681
231	0xbe528d5d	-0.20561738
232	0x3e815c6e	0.2526583
233	0x3de78e72	0.11306466
234	0xbe019d48	-0.12657654
235	0x3d938dd5	0.07204787
236	0xbd524dbf	-0.051343676
237	0xbe7ff3d8	-0.24995363
238	0xbf2531fd	-0.645294
239	0x3d9837ae	0.07432495
240	0xbeca0c66	-0.39462584
241	0x3dccdf3d	0.10003517
242	0x3e0de90e	0.13858435
243	0xbe90baeb	-0.28267607
244	0x3e1ba1c5	0.15198429
245	0x3dc71728	0.097212136
246	0xbf150033	-0.5820343
247	0xbe09267f	-0.13393591
248	0x3cd4aa9b	0.025960257
249	0x3e3b693d	0.18301864
250	0xbd2f5b5e	-0.042811744
251	0xbeae4582	-0.34037405
252	0x3d57a43d	0.052646864
253	0xbe84341b	-0.25821003
254	0xbe255c6e	-0.1614854
255	0xbe40c474	-0.18824941

ds.fc2_conv.bias f4 [64]
0	0xbaa9756e	-0.0012928674
1	0x3da15895	0.07878224
2	0x3ce36daa	0.027762253
3	0x3d602486	0.05472233
4	0x3dca5a7d	0.098805405
5	0x3cf668d8	0.03007929
6	0x3c27e354	0.01024707
7	0x3d3ca24c	0.046053216
8	0x3d8da07c	0.069153756
9	0x3d5e8b1f	0.054331895
10	0xbd2efcde	-0.04272162
11	0x3c88b354	0.016687073
12	0x3bdcdc5a	0.006740135
13	0x3ce7613a	0.028244603
14	0x3d67b815	0.05657204
15	0x3cd6875d	0.026187593
16	0x3d7a90bb	0.061173182
17	0x3dab5f8e	0.08367835
18	0x3dd12dcd	0.10213814
19	0x3d539654	0.051657036
20	0x398bc854	0.00026661402
21	0xbccc4b98	-0.02493839
22	0x3cec1cab	0.028822264
23	0x3cd8e984	0.026478536
24	0x3d7a8199	0.06115875
25	0x3d8e0f5d	0.06936524
26	0xbb5c1bf5	-0.0033586
27	0x3d77c260	0.060488105
28	0x3d0c6992	0.034280367
29	0x3db445b9	0.08802361
30	0x3ceb982e	0.028759088
31	0x3cad4554	0.021151222
32	0x3d880c65	0.06642989
33	0x3b5f0c71	0.0034034515
34	0x3d017ceb	0.03161327
35	0x3d1f32ce	0.03886681
36	0xbbfad726	-0.007655042
37	0x3d315046	0.043289445
38	0xbb7668a3	-0.003759899
39	0x3dba4655	0.09095446
40	0x3d3f6251	0.04672462
41	0x3d8e6436	0.069527075
42	0x3beee834	0.0072908644
43	0x3d8afaba	0.067861035
44	0x3d0bb260	0.03410566
45	0x3cb10b6b	0.02161189
46	0x3d405331	0.046954338
47	0x3b73fa9a	0.0037228228
48	0x3b14be89	0.0022696576
49	0xbbd04ee6	-0.0063570617
50	0x3caa5a4e	0.020795014
51	0x3df0fe07	0.11767202
52	0x3c900709	0.01758148
53	0x3d2510bd	0.040299166
54	0x3d6b86ed	0.057501722
55	0xbbff2382	-0.0077862153
56	0x3d80d952	0.062914506
57	0x3cafcbbd	0.021459455
58	0x3c8611cb	0.016365906
59	0xbca77db2	-0.020445678
60	0x3d060896	0.032723032
61	0x3cfc471b	0.030795624
62	0x3c54b07d	0.012981531
63	0x3cc8a476	0.024492484

head.weight f4 [15, 64]
0	0xbf875538	-1.0572882
1	0x3e2f72b6	0.17133602
2	0xbda6c819	-0.08143634
3	0x3e4e265c	0.2013182
4	0x3d7cd642	0.06172777
5	0x3e81af9b	0.2532929
6	0x3e17917f	0.14801596
7	0x3d834d2b	0.06411203
8	0x3e3c6f9f	0.18401955
9	0x3d8195ab	0.06327375
10	0xbda43f23	-0.08019855
11	0xbd8db466	-0.06919174
12	0xbe9d83f4	-0.30764735
13	0x3cffc74d	0.031222964
14	0x3dbe0c24	0.092796594
15	0xbd2a810f	-0.041626986
16	0x3e97b8ec	0.29633272
17	0x3e0a17dd	0.13485666
18	0x3e8e4483	0.27786645
19	0x3e4c2e0c	0.1993944
20	0xbd4150e1	-0.047196273
21	0xbeeeee8e	-0.46666378
22	0xbeb61d33	-0.35569152
23	0x3e21cff6	0.15801987
24	0xbeb671e3	-0.35633764
25	0x3da20a9e	0.07912181
26	0xbd4f06fe	-0.050543778
27	0x3ee60f0d	0.44933358
28	0xbf8aea26	-1.0852706
29	0x3ddc816e	0.10766874
30	0xbdbbd261	-0.09170986
31	0x3e635d5d	0.22203584
32	0x3d6d5dd9	0.05795083
33	0xbf992d4d	-1.196695
34	0xbdb0bdca	-0.086299494
35	0xbf7d367a	-0.9891125
36	0xbe03faee	-0.12888691
37	0x3e3a119f	0.18170784
38	0xbe7ee59e	-0.2489228
39	0x3e8d9c13	0.27658138
40	0xbbe7fc00	-0.0070796013
41	0x3d646fb1	0.05577058
42	0xbd4507d9	-0.048103187
43	0xbf791137	-0.9729189
44	0xbd7fe961	-0.062478427
45	0xbfa6a34b	-1.3018583
46	0x3d6c0673	0.057623338
47	0x3e2d8923	0.16946845
48	0xbd8690e3	-0.06570604
49	0xbde83b76	-0.11339466
50	0xbf432086	-0.762215
51	0xbfdcf7ce	-1.7263124
52	0x3e311f12	0.17297009
53	0x3e121818	0.14267004
54	0x3e10cd74	0.14140874
55	0xbf0f80ca	-0.5605589
56	0xbddcb9d5	-0.10777632
57	0xbf1d8c01	-0.61541754
58	0x3dab4219	0.083622165
59	0xbd9a4771	-0.075331576
60	0xbe9d6cc2	-0.30747038
61	0xbdc1a692	-0.09455599
62	0x3e5b5dfb	0.2142257
63	0xbed0150b	-0.40641055
64	0x3d8d88e3	0.06910875
65	0x3f056680	0.5210953
66	0xbf1d5fd3	-0.6147434
67	0x3f5ea8ab	0.86976117
68	0x3e90c5c8	0.28275895
69	0x3c8f55c5	0.017496953
70	0xbeed2f0c	-0.46324956
71	0x3ec2c785	0.38042846
72	0xbeb3222b	-0.34987006
73	0xbf135308	-0.5754857
74	0xbdd92b80	-0.10604
75	0xbe063453	-0.13105898
76	0x3d360b91	0.044444624
77	0xbdaa3316	-0.08310525
78	0xbe9330d9	-0.28748205
79	0xbdd639d8	-0.104602516
80	0xbe9e60d7	-0.30933258
81	0x3d16ae15	0.03678711
82	0x3f2a11d2	0.6643344
83	0x3d144956	0.03620275
84	0xbddab742	-0.10679485
85	0xbd98ffce	-0.07470666
86	0xbdf83df1	-0.121211894
87	0xbda53fe4	-0.08068827
88	0xbf295f7b	-0.66161317
89	0xbf004f84	-0.5012133
90	0xbf305e5a	-0.6889397
91	0xbd695f72	-0.05697579
92	0x3d4f6fe3	0.050643813
93	0xbf372805	-0.7154544
94	0x3d21fdcc	0.03954868
95	0x3eb5fada	0.35542947
96	0x3c78ad81	0.015178085
97	0x3da4718e	0.08029471
98	0x3d2a9a0d	0.04165082
99	0x3c6fcedb	0.0146367205
100	0x3dac775e	0.08421205
101	0x3c5c058c	0.013429057
102	0x3d22c05b	0.039734226
103	0xbecd9237	-0.40150616
104	0xbdeb3ed8	-0.11486596
105	0xbf43bffa	-0.7646481
106	0x3d54c02d	0.051941086
107	0xbe12cf91	-0.14336993
108	0x3de7eae2	0.11324097
109	0xbf2b08c8	-0.66810274
110	0xbf231552	-0.6370441
111	0xbf26d235	-0.651645
112	0xbf3701f1	-0.7148734
113	0xbd899a53	-0.06718888
114	0xbfa5fdf5	-1.2968127
115	0x3db2cac0	0.08730078
116	0x3e2f361c	0.17110485
117	0xbf01f4c2	-0.50764096
118	0x3e7dfe7a	0.24804106
119	0xbd545c3c	-0.051845774
120	0x3d05b690	0.03264481
121	0xbd98dc51	-0.07463897
122	0xbddd5163	-0.10806539
123	0xbf47cde6	-0.7804855
124	0x3d216f32	0.039412685
125	0x3d2feeb3	0.04295225
126	0xbd98d775	-0.0746297
127	0xbdbf8af0	-0.09352672
128	0x3e3b510d	0.18292637
129	0xbf34e886	-0.706673
130	0xbee0ce3c	-0.43907344
131	0xbfb0bfde	-1.3808553
132	0xbf8504bc	-1.039207
133	0x3e4189a0	0.18900156
134	0xbe9fa0d3	-0.31177387
135	0xbf779b18	-0.9672103
136	0xbd9f634f	-0.077826135
137	0xbea2564d	-0.31706467
138	0xbe152a81	-0.14566995
139	0xbe1872d8	-0.1488756
140	0x3e3f932d	0.18708487
141	0xbdd43115	-0.10360924
142	0xbddb3395	-0.10703198
143	0xbdf27fa5	-0.118407525
144	0xbf108c96	-0.5646452
145	0x3e23d358	0.1599859
146	0xbee41d12	-0.4455343
147	0x3e3272b2	0.17426565
148	0xbe166994	-0.14688712
149	0xbd8ebde8	-0.069698155
150	0xbe0e5cd1	-0.13902594
151	0xbdca8ac3	-0.09889748
152	0xbedcdcc0	-0.4313717
153	0xbeb2eb5e	-0.34945196
154	0xbeee5969	-0.4655259
155	0xbd8d33ac	-0.06894621
156	0x3e3c3931	0.18381192
157	0xbe5f2eb4	-0.2179516
158	0x3e37530b	0.17902772
159	0x3e902248	0.28151155
160	0x3e4a8f1d	0.19781156
161	0x3e53b96c	0.20676202
162	0x3e24946c	0.16072243
163	0x3e46dcf2	0.19420221
164	0x3e574e48	0.21025956
165	0x3e39bdb5	0.18138774
166	0x3e35f38a	0.17768684
167	0xbd76efb3	-0.06028719
168	0xbe0316d0	-0.12801671
169	0xbe91ff5f	-0.28515145
170	0x3e32fdbb	0.17479603
171	0xbe20c5a8	-0.157004
172	0x3e56cd7c	0.20976824
173	0xbeef57e3	-0.4674674
174	0xbea6ed49	-0.3260291
175	0xbea2303b	-0.31677422
176	0xbf0812ac	-0.5315349
177	0xbd452559	-0.04813132
178	0x3efd50fa	0.49475843
179	0x3e34f168	0.17670214
180	0x3ea4022b	0.32032904
181	0xbe52e68f	-0.20595764
182	0xbf836eec	-1.0268226
183	0xbdb6d168	-0.0892666
184	0x3e3e5c74	0.18589956
185	0xbd7fd9ff	-0.062463757
186	0xbd9c67cc	-0.07636985
187	0xbeb70de6	-0.3575279
188	0x3e3a2438	0.18177879
189	0x3e95216e	0.29127067
190	0xbd789ee5	-0.06069841
191	0xbdb454f3	-0.08805265
192	0x3e1a0067	0.15039216
193	0xbe000cde	-0.12504908
194	0x3e1a3e3e	0.15062806
195	0xbfe3f8d8	-1.7810316
196	0xbe1e4131	-0.15454556
197	0xbea5bcf3	-0.3237072
198	0xbdb4af54	-0.08822504
199	0xbdbdc221	-0.09265543
200	0xbe3de27d	-0.1854343
201	0xbdaf61a6	-0.08563547
202	0x3e357505	0.1772042
203	0x3e3166d0	0.17324376
204	0x3e269a72	0.16269854
205	0xbf4e7b73	-0.8065712
206	0x3e6d3f6d	0.23168726
207	0x3e41c7c6	0.18923864
208	0x3e365b45	0.17808254
209	0xbeb5dc98	-0.35519862
210	0xbf5e29b4	-0.86782384
211	0xbe9d4a36	-0.3072068
212	0x3e3f0840	0.18655491
213	0xbe84b833	-0.25921783
214	0x3e6e192e	0.23251793
215	0xbf2d958e	-0.6780633
216	0x3e187374	0.14887792
217	0xbd98a531	-0.07453383
218	0x3e191425	0.14949091
219	0xbe5a1cee	-0.21300098
220	0xbe50e484	-0.20399672
221	0xbd6e8abc	-0.058237776
222	0x3e2a9893	0.16659765
223	0xbe7884a4	-0.24269348
224	0x3e1e5434	0.15461808
225	0x3e036f4f	0.1283543
226	0xbea80538	-0.32816482
227	0xbedb4c66	-0.42831725
228	0x3e0374df	0.12837552
229	0xbeafbb4b	-0.3432258
230	0x3e0ecef1	0.1394613
231	0xbe3027f9	-0.17202748
232	0x3e4861b7	0.19568525
233	0xbdb7a260	-0.089665174
234	0xbeac8ae9	-0.3369973
235	0x3e3a35eb	0.1818463
236	0x3e1972a2	0.14985135
237	0x3e538a5c	0.20658249
238	0xbd4f46df	-0.050604697
239	0xbd8810fb	-0.06643864
240	0x3e321484	0.17390639
241	0xbf4faad5	-0.81120044
242	0x3e36e616	0.17861208
243	0x3de60ade	0.112325415
244	0xbe698e44	-0.22808176
245	0xbdc12ccf	-0.09432375
246	0xbdb7bdcf	-0.0897175
247	0xbe62e78c	-0.2215864
248	0xbeaa5285	-0.33266082
249	0xbf4fbd95	-0.81148654
250	0xbf3c0502	-0.7344514
251	0x3e4d1037	0.20025717
252	0x3e40a089	0.1881124
253	0x3deb812e	0.114992484
254	0xbe584ef3	-0.21123867
255	0xbf51b5b1	-0.81917864

head.bias f4 [15]
0	0x3d87cbe0	0.06630683
1	0x3b302b65	0.0026881334
2	0x3e29343b	0.1652383
3	0x3da55cbf	0.080743305
4	0x3d43a9fe	0.04776954
5	0x3d3f8b79	0.04676387
6	0x3d843c65	0.06456832
7	0x3d9a8a07	0.07545858
8	0x3d12bb76	0.035823308
9	0xbd71a3f3	-0.058994245
10	0x3d99de62	0.07513119
11	0x3d4581eb	0.048219603
12	0x3d98f6f2	0.07468976
13	0x3c9ab146	0.018883359
14	0x3ba2db13	0.0049699633
