surrogate/trained_model/BCRNet/model_rate4_fold0.pth (torch, 179077 bytes, 18 tensors)

ds.proj_conv.weight f4 [16, 2, 7]
00000000: 9f64 423d 6ea2 bd3d 3843 8f3d 4121 973d
00000010: 76bf f13d 818e e53d 5e62 f63d 9868 bfbb
00000020: 010f 893d 4143 063e 48f3 3c3e 2c70 4a3e
00000030: 650e 213e 5296 de3d d224 acbd 857d 2cbd
00000040: 1306 7a3d 6703 ab3d 3ce2 923d 7dca 203e
00000050: cbb7 c53d ffce 56bd dda9 43be 92fa 0dbe
00000060: 89d5 dbbd d0e7 f7bd b1a2 08be 129c bbbd
00000070: d760 d43d 4118 fb3d a874 273e ef98 7e3d
00000080: 0ccc 673e b7e0 f33d 74fe cd3d 1317 103d
00000090: 74f7 f23d 324f d93d 0935 103d 64f4 2a3b
000000a0: 0943 3ebd 44d3 dcbd 0d13 573e 3186 8e3d
000000b0: 523e 863d 52d4 413e 334b 1f3d d193 483d
000000c0: 9cef dabc 8c00 edbd 0ee7 f2bd 1428 0abe
000000d0: a36b b0bd 2b22 debd 469f 8fbd 5704 46ba
000000e0: 9a1d 2bbd 7e52 edbc 8338 a03c c3bb 663c
000000f0: 0b56 7dbd 12e7 d4bd 7ac5 09be 4e73 e2bd
00000100: 40bb 5ebe 5861 a1be 0dc2 43be 137e 45be
00000110: 7493 c9bd eb13 a5bc 25b9 aa3d 3b07 843e
00000120: 7174 dc3d 9808 4e3d 4aa3 503b 00d3 03bd
00000130: 303e 11bd 16ed 8cbd 1f00 0bbe d086 17be
00000140: 3156 16bb 42ec e0bd 49e9 c8bd b452 d0bc
00000150: eee8 1d3d cc03 d33c edf6 b4bd 1d63 21bd
00000160: b957 69bd c8d4 cfbd c86e 7dbd 5429 983b
00000170: 2b35 b83d 2ede 843d 09d5 363e f1b2 373e
00000180: 7cfb f83d c4b1 8d3d 99a8 c1bd 7ea1 e7bd
00000190: 5e24 3dbe 7968 1ebe 960b 46be 9077 2dbe
000001a0: 53e3 cbbd e058 dd3b 8125 903d f5ff e43d
000001b0: 620b b33d f93c 663d 0825 793d 1a53 293d
000001c0: aee3 0fbd 29ca 27be cb4e 85be b593 67be
000001d0: 1ced 7dbe e4e2 3ebe 7bd4 e3bc f536 3bbc
000001e0: de77 b33c cff7 ab3c f2af 5b3d c669 973a
000001f0: 2606 cc3d 16df 283d 8d84 8b3d 437c 483d
00000200: ee1a d13c 5dda 403d ede6 41bd 51da 2bbe
00000210: 41dc 30be 0610 8bbe 938f 5fbe eea2 11be
00000220: c925 a9bd d23a 1d3d a883 1e3d 4ca2 9c3d
00000230: 7264 18be e140 4cbe 71f9 5abe 9cb8 9ebe
00000240: bec4 88be c6ba 33be 0875 f4bd 8993 7a3d
00000250: a8cf ee3c dfa0 81bb 9c30 f9bc 7de8 a6bd
00000260: c125 bfbd df98 e1bd 14e6 59bd 1800 0dbb
00000270: cdbe ebbc 05dd 0fbd 3b03 69bd c881 e5bd
00000280: c647 0cbd ea30 d2bb ca71 323e 0519 393e
00000290: 1b55 de3d 2ec4 4b3d 9796 0e3d c5f8 83bd
000002a0: f942 7fbc d177 a23d 88ee 423e fa93 253e
000002b0: aa05 7c3e 730e 0f3e a1f5 d33d bb02 793c
000002c0: 3c2e e33d 04b5 e33d 82d5 a13d 8c88 8a3d
000002d0: cefd 2b3d c9f8 99bb 0cf4 9dbb de80 68bd
000002e0: e0ae b4bd a648 e0bc ef1c 56be 17ba 96be
000002f0: c9c9 c1bd f240 e8bd 91eb 73be c94d 45bc
00000300: d9d8 60bc 01a3 583d dc13 1a3d b727 9e3d
00000310: a408 3a3d 0782 9c3d 7a31 023e a9de 9f3d
00000320: de9b 933d 694b 4ebd ba6a 62bd 8faa 96bd
00000330: 9b65 5ebe 2512 81be f26d f6bd db2b 7ebe
00000340: f102 3bbe 9e61 b4ba a2b7 473d ad18 b23d
00000350: 16c2 c03d a985 af3d b62a 013e f66d ea3d
00000360: dc78 e93d 4fc3 b83d 0520 4f3e 570f 6a3e
00000370: 107b 113e b75c f93d 3f17 aa3d 47fe ebbc
0.04745924 0.09259497 0.06995243 0.073793896 0.118040964 0.11208821 0.12030481 -0.005841326
0.06692315 0.13111593 0.1845218 0.19769353 0.15728147 0.10868515 -0.084054604 -0.042111892
0.06104095 0.08350258 0.07172057 0.15702243 0.09654196 -0.0524435 -0.19107766 -0.13865116
-0.10734088 -0.121047616 -0.13343312 -0.091606274 0.10370033 0.122604854 0.16353095 0.062157568
0.22636431 0.11908095 0.10058299 0.035178255 0.11863604 0.106108084 0.03520683 0.002608561
-0.04645065 -0.10782483 0.21003361 0.06959189 0.065548554 0.1892865 0.038890075 0.048969094
-0.026725583 -0.1157237 -0.118604764 -0.13491851 -0.0861428 -0.10846361 -0.07012801 -0.0007553747
-0.041776277 -0.02897 0.019558197 0.014082852 -0.061849635 -0.10395636 -0.13454238 -0.11057149
-0.21751118 -0.3151958 -0.19116993 -0.19286375 -0.098425776 -0.0201511 0.08336095 0.25786766
0.10764397 0.050301164 0.003183561 -0.032183647 -0.035459697 -0.06881158 -0.13574265 -0.1479752
-0.0022939558 -0.109825626 -0.098101206 -0.02543006 0.038552217 0.025758646 -0.0883616 -0.039401162
-0.056968424 -0.10148007 -0.061873227 0.0046435986 0.08994516 0.0648769 0.17854704 0.17939354
0.12157342 0.06918672 -0.094559856 -0.11310099 -0.18470904 -0.1546954 -0.19340357 -0.1694014
-0.09955468 0.0067549795 0.07038403 0.111816324 0.087424055 0.05621049 0.06082633 0.041339017
-0.03512924 -0.16385712 -0.26036677 -0.2261494 -0.24797481 -0.1864124 -0.02781128 -0.011426677
0.021907743 0.020992188 0.05363459 0.0011551909 0.0996211 0.041228376 0.068123914 0.04894663
0.025525536 0.047083247 -0.04733937 -0.167825 -0.1727152 -0.27160662 -0.21832113 -0.14222309
-0.0825916 0.038386174 0.038699776 0.07648143 -0.14882067 -0.19946624 -0.21384217 -0.3100022
-0.26712602 -0.17551717 -0.119363844 0.061175857 0.029151753 -0.003955945 -0.030418687 -0.08149812
-0.09333373 -0.11015486 -0.053197935 -0.0021514948 -0.028777504 -0.03512289 -0.056887846 -0.112063944
-0.034248136 -0.0064145224 0.1742622 0.1807595 0.10856076 0.04974764 0.034811582 -0.064439334
-0.015579932 0.079330094 0.19036305 0.1616973 0.24611536 0.13970356 0.10349584 0.015198405
0.11092803 0.1111851 0.079020515 0.067643255 0.041990094 -0.004698847 -0.0048203524 -0.056763522
-0.08822417 -0.027378391 -0.20909475 -0.2943885 -0.094623156 -0.11340512 -0.2382033 -0.012042471
-0.0137235755 0.052889828 0.037616596 0.07722419 0.045418397 0.07641988 0.12714186 0.07806141
0.07207464 -0.050364885 -0.055277564 -0.0735675 -0.21718447 -0.25209156 -0.12032689 -0.24821417
-0.18262841 -0.0013762002 0.04875911 0.08696113 0.09412019 0.085704155 0.12613949 0.11446755
0.11400005 0.09021627 0.20227058 0.22857414 0.14207101 0.12175887 0.08305215 -0.028807772

ds.proj_conv.bias f4 [16]
00000000: 6224 a9be 8012 1a3e 63ac 5e3e 3b3d 093e
00000010: dedc 78be 8ad3 46be bbf0 59be dbbe 883e
00000020: 3d8d 3a3e dd74 8f3e e0c8 3c3e 58f5 4e3d
00000030: f194 18bd 8820 51be b4d5 88be 8883 3fbe
-0.3303557 0.1504612 0.21745448 0.13402264 -0.24303004 -0.19416633 -0.21283238 0.2670811
0.1821794 0.28018847 0.18436003 0.050526947 -0.037251417 -0.20422566 -0.26725543 -0.18702519

ds.proj_bn.weight f4 [16]
00000000: bcf5 863f 7c58 aa3f a361 9c3f c6b1 933f
00000010: 2d8c 9e3f f628 a13f 1132 903f db6c c13f
00000020: a589 a53f 31b2 963f fb4f a33f 81cb 8e3f
00000030: fdda 803f 4c0a 823f ea67 b43f d6a8 893f
1.0543742 1.3308253 1.2217296 1.1538627 1.2386528 1.2590625 1.1265279 1.5111345
1.2932631 1.177313 1.2758783 1.1155854 1.006683 1.0159392 1.4094212 1.075465

ds.proj_bn.bias f4 [16]
00000000: a76e 5cbe 1067 10be a1b0 9cbc 7fb2 37be
00000010: 43cd b93d b05f f4bd b83b c7bd 6de1 46bd
00000020: abea 13be a902 d03d 7299 40be 1444 0abe
00000030: 03e6 7fbe 27e0 383d a828 cebc 8374 a7be
-0.21526586 -0.14101815 -0.019127192 -0.17939185 0.09072354 -0.119323134 -0.09728187 -0.048554827
-0.14444987 0.101567574 -0.18808535 -0.13502532 -0.24990086 0.045135643 -0.02516587 -0.3270608

ds.proj_bn.running_mean f4 [16]
00000000: 973b e53d 0164 143c d6af 083f 1a1e 043e
00000010: 6d34 2fbf d815 70be c385 b8bd 14fd b23d
00000020: a5ce cebd 99ff 5e3d 1c8d a4be b014 c03d
00000030: f788 ba3e 1fa0 00bf ce26 00bf 6ffd 873e
0.111930065 0.009057046 0.53393304 0.12902108 -0.6843937 -0.23445833 -0.09009888 0.08739677
-0.10098008 0.054442976 -0.32138908 0.09378946 0.3643262 -0.50244325 -0.5005921 0.26560542

ds.proj_bn.running_var f4 [16]
00000000: 6839 943d 917b 323e 9e8e cb3d 6f41 383e
00000010: f6e5 1b3e 5cce 043e abe6 ff3d afd2 7e3e
00000020: 5896 7c3e fb48 6e3d 430c 7e3e 89b2 a33d
00000030: 7f92 a83d d399 a33d 62a6 813e 3ff5 9a3d
0.07237512 0.1742995 0.099393114 0.17993711 0.15224442 0.12969345 0.12495168 0.24885057
0.24666727 0.05817507 0.24809365 0.07993037 0.08231067 0.07988324 0.25322253 0.07566308

ds.proj_conv1.weight f4 [8, 16, 5]
00000000: 60da 883d b6cf 283d 8fee c63d d298 04bd
00000010: e8d9 a3bc 7305 813e 01d5 923e 67de 403d
00000020: e300 7cbd 3daf e1bd 16cd da3c f85e dbbb
00000030: 7bd6 39bd f565 37be 2059 44be 0f37 bc3c
00000040: a780 4e3e 3a19 1b3e a2b3 283d 5dfc cfbd
00000050: dfc0 20bd 9f94 22bd feab 553d 31f4 7c3d
00000060: 2d07 2c3e dea0 7a3d 3b67 cd3d a0dc 8b3e
00000070: dae7 f53c ded6 efbd 27bf adbd a67b adbc
00000080: 1f98 e339 b039 01bd c388 943c e13d 61bd
00000090: 9728 a1bc 3c65 cabd 0167 51bd 7fe1 193c
000000a0: 7519 2f3d 2d16 a4bd fc49 04be 2344 8bbd
000000b0: 4b3b 793d f412 c9bd 32d6 10be 83d7 a83c
000000c0: fa66 af3d 1ecf 8b3d d4be c03d d6bc 64be
000000d0: dd1c 85be cb09 5dbd 0694 e13d 7f83 2abe
000000e0: 2116 a4bc e965 693c 6c6a bfbc 216c 103d
000000f0: a580 ec3d 92b8 cb3d 607c e63c 018f bcbd
00000100: 0d45 31be 909f 8c3d aeaa ffbd b543 9fbd
00000110: 75ae 823c d2e5 c73d 073f 0ebc 80d2 ec3d
00000120: 7832 693e 2287 f43b 518a bcbb f01b 0cbe
00000130: 0961 2e3d 588b 423d 6d4b 693d eddb 703c
00000140: d424 52bd 92d8 e1bd 3e6a 97be 7134 a0be
00000150: deae e3bd 46f9 b4bc 7ffe 92bd 1852 9cbd
00000160: 62f1 d8bd e313 27bd 1703 f43c 31fb 193e
00000170: 659b 053b a5f1 87bd deba daba 4e17 90bd
00000180: e63c d1bd 13cd 36bd fcaa 9f3b fbf7 a5bd
00000190: 9af0 1ebe 8b86 f6bd 244a 4cbd e92c cd3d
000001a0: f346 d93c 4a89 43be b098 27be 61cc 343d
000001b0: 4a8a abbd f41e 113c a6cf b93d 7cfb 743d
000001c0: 158e 053d 07e8 aabd e31f 643d d01c 433e
000001d0: c883 b13d a362 ca3d cb58 abbd a820 c13d
000001e0: bd5d e43d 6917 1a3d 5a27 8cbd 1ba8 b2bd
000001f0: 365d 6f3d 0d7e ccbd 2219 d4bd a247 02bd
00000200: 08a5 333d 80b8 1e3e 0884 803e b1e0 433e
00000210: 28b0 ed3d b629 163c e071 6e3d cfb5 ac3d
00000220: 3ed2 863d 7eea cc3c 6cbe 99bd 7d24 8fbd
00000230: e1e9 a53c 6123 3a3e 0348 95bc 5c79 c1bc
00000240: 4d31 52ba 25fe b53c 89d8 18bd 1d64 84bd
00000250: 204f 103c 4cba e53d 9d75 61be 0f49 a2bd
00000260: d4b6 20bd 0f6a 0abd e8a9 d0bb 57a1 c93b
00000270: ef28 6fbd 48b2 16be e4cf b3be 258a 95be
00000280: 5b3f 983d 1ce2 f63d e5f2 ee3d adce 57bd
00000290: 8832 b8bd 68b7 1cbb a6be c43d 5359 8e3d
000002a0: 0540 37bd a3ef 1cbe a1fc adbd 15ad a6bd
000002b0: 6e06 e93b 4742 6fbe 9940 73be 0a3b 0bbd
000002c0: 24ff a7bd 32f9 ebba a67a 8bbc 14c3 e0bd
000002d0: 460e cf3d a2fc 943e 0430 543e 63fe 293e
000002e0: ecb1 c3bd 2f88 2fbd c109 72bd 2891 953b
000002f0: 426d cf3b db96 01be 9b42 923d 1839 c63d
00000300: bedf 76bc 2875 46be 7de6 753d 5af8 39bd
00000310: aa44 13be 7faf 78be d338 71be 0be6 093d
00000320: df91 c83c a77f c4bd f009 73bd 0c11 3dbe
00000330: 11f5 faba b5f4 a0bc a77b d13d 9b41 af3d
00000340: 7c6f 023e c5c9 053e c8c8 523d 55a6 8dbd
00000350: 4605 ddbd 1564 94be e567 9ebd 75a0 f1bc
00000360: 0b68 8b3d e42b 84bd 791c 5cbd 5928 45bc
00000370: e4b3 7bbd 9289 27bd 7a55 6fbc f754 3bbe
00000380: 8ba1 1ebe 48a4 d3bb 3bc3 00bd 2068 ffbd
00000390: 6bf0 15bd 9bbb 213e cd2f ecbb b7b3 143e
000003a0: b809 283e 2bb9 753c 49a4 8ebd 490f 3c3d
000003b0: de5d bf3d f39f a43d 06b2 453d 523d 08be
000003c0: dea4 0a3e 072c 0a3e 6ed4 433e fb97 253e
000003d0: 8f0a 073e 0340 8bbc e00a ad3e e215 693d
000003e0: cea5 743d 9efc ddba a264 d53d 9bc0 3e3e
000003f0: 1e3e f33d c766 46bc e1f7 aabd 3cde 453d
0.06682277 0.041213714 0.0971347 -0.032372303 -0.020001367 0.2519947 0.28678134 0.0470871
-0.061524283 -0.11019752 0.02670912 -0.0066946708 -0.04537056 -0.17909987 -0.19174623 0.022975473
0.20166264 0.15146342 0.041186936 -0.10155556 -0.039246436 -0.039692517 0.052165978 0.061756317
0.16799612 0.06118857 0.10029455 0.2731676 0.030017782 -0.117109045 -0.08483725 -0.021177124
0.00043410153 -0.031549156 0.01813162 -0.054990653 -0.019672675 -0.0988259 -0.051123623 0.009392141
0.042748887 -0.08012042 -0.12918848 -0.068001054 0.06084756 -0.09818068 -0.14144209 0.020610576
0.08564563 0.06826614 0.094113976 -0.2233766 -0.25998583 -0.053964417 0.11014561 -0.16651724
-0.020030083 0.014245489 -0.023366176 0.03525937 0.115479745 0.09947313 0.028135478 -0.09206963
-0.17311497 0.06866372 -0.124837264 -0.07776586 0.015952328 0.097606316 -0.008682019 0.11563587
0.22773159 0.007462398 -0.0057537933 -0.13682532 0.04257301 0.04749617 0.056956697 0.014700872
-0.051304653 -0.11027636 -0.29573244 -0.3129001 -0.11117338 -0.02209152 -0.071774475 -0.07632846
-0.10592915 -0.04079045 0.02978663 0.15037228 0.0020386812 -0.06637887 -0.0016687771 -0.07035695
-0.102166936 -0.044629168 0.004872678 -0.08103939 -0.1552147 -0.12037381 -0.049875394 0.100183316
0.026523089 -0.1909534 -0.1636684 0.044140223 -0.08375986 0.008857477 0.09072809 0.059810147
0.032606203 -0.08345037 0.055694472 0.1905396 0.086677134 0.09882095 -0.08366545 0.09430057
0.11150692 0.037619982 -0.06843443 -0.0872347 0.058438502 -0.0998498 -0.10356356 -0.031806596
0.043858558 0.15500069 0.25100732 0.19128682 0.11605865 0.009165218 0.05821407 0.08433115
0.06583069 0.025014158 -0.07507023 -0.069893815 0.020253124 0.18177558 -0.018222814 -0.023617439
-0.00080182106 0.022215912 -0.03731588 -0.064644076 0.008807927 0.11217174 -0.22017522 -0.07924091
-0.03923686 -0.03379255 -0.0063679107 0.0061532664 -0.058388647 -0.14716446 -0.35119545 -0.29206958
0.07433959 0.12054846 0.11667422 -0.052687336 -0.08994013 -0.002391303 0.09606676 0.06950631
-0.04473879 -0.15325789 -0.08495451 -0.081384815 0.007111362 -0.23365127 -0.23755111 -0.03399185
-0.08202961 -0.0018003343 -0.017026257 -0.10974708 0.10110144 0.29098994 0.20721442 0.16600947
-0.0955542 -0.042854484 -0.059091333 0.004564423 0.006330163 -0.12655203 0.0714161 0.096788585
-0.015067993 -0.19380629 0.060034264 -0.045402862 -0.14381662 -0.24285696 -0.23556833 0.03366665
0.02448362 -0.0959466 -0.05933565 -0.18463534 -0.0019146522 -0.019647935 0.10228663 0.08557435
0.1273784 0.1306525 0.05146101 -0.06916491 -0.107920215 -0.28982607 -0.0773466 -0.029495457
0.06806954 -0.06453684 -0.05373809 -0.012033545 -0.061450854 -0.04090268 -0.014607782 -0.1829413
-0.15491311 -0.006458793 -0.031436186 -0.12471032 -0.036606234 0.15794222 -0.0072078467 0.14521681
0.16409957 0.014997761 -0.06964929 0.045913015 0.093440756 0.080383204 0.04826548 -0.13304642
0.13539454 0.13493358 0.19124004 0.16171257 0.13187622 -0.016998297 0.3379736 0.056905635
0.059728436 -0.0016936248 0.10419585 0.1862816 0.11877082 -0.012109465 -0.083480604 0.048307642

ds.proj_conv1.bias f4 [8]
00000000: d6f2 1d3c d529 033d 1721 84bc e12a 253d
00000010: 7d88 a83d c675 533d 3154 3c3d 1743 303c
0.009640416 0.032022316 -0.01612906 0.040324096 0.08229158 0.05162599 0.04597873 0.010758183

ds.proj_bn1.weight f4 [8]
00000000: e276 cc3f 268a c33f f802 a83f 1d90 bb3f
00000010: b75e cc3f cf38 af3f 63f5 b33f af23 b63f
1.597378 1.5276535 1.3125906 1.4653355 1.5966405 1.3689212 1.4059261 1.422964

ds.proj_bn1.bias f4 [8]
00000000: badd b33d 9018 853e 7e65 85bc 3063 30bb
00000010: 584c 2b3e c9cc 883d 4141 843e 26b2 8cbb
0.08782525 0.25995302 -0.016283747 -0.002691459 0.16728342 0.06679685 0.25831035 -0.004293698

ds.proj_bn1.running_mean f4 [8]
00000000: 2d4c f53d dd01 b9be 3253 bcbe 8701 a63f
00000010: 4921 d83e 2453 fdbe 4ec4 5abf f483 163f
0.1197742 -0.36134234 -0.36782223 1.2969216 0.42212895 -0.49477494 -0.8545579 0.58795094

ds.proj_bn1.running_var f4 [8]
00000000: 0bdd 473f afe9 0e3f 33c5 0a3f 1d15 3e3f
00000010: b282 e53f 6934 f03e 2924 8f3f 9720 313f
0.7807166 0.5582532 0.5420715 0.74250966 1.793051 0.46914986 1.118291 0.69190353

ds.fc1_conv.weight f4 [128, 256]
00000000: aa0c 213e 0c2d 8639 222d 243c faae 96bd
00000010: c95e ebbc 54c9 9d3e 14eb 5038 c4fa 103e
00000020: 94e2 133e cae9 323e fadf 343e 07b9 953e
00000030: dafb 573d ca60 afbd 954d 2abe c011 ba3d
00000040: 0425 07bd 5a63 c1bd 3c2d 583d 28cb b9bd
00000050: 720e 86be c93d 1dbe 553e b03e 4377 013e
00000060: 4bf2 8e3d 6a05 df3d 58ba 033e 21a2 8b3d
00000070: b713 023e bb31 af3c 7c23 503d 0d1a 513d
00000080: df32 9c3d 2f14 f8be 53ac 83be f9ae 50be
00000090: 0cb4 f63d 8fe8 373e b876 3f3e fdb0 053e
000000a0: 6abc 0a3e 7725 db3e 1988 bf3e c1b2 6dbc
000000b0: 6b15 cf3d 65e8 983e 1221 413e ed04 3a3e
000000c0: b12e 2b3e 35d9 8c3e 03fe de3d 733b ea3d
000000d0: a328 9f3e 8ad8 ce3e 5fae 943e d03f cb3d
000000e0: 25fa d83b d0b1 1e3e 943e 2a3d 66d7 2a3e
000000f0: 8e65 0c3e 56ef 0d3e b6a0 1a3d 5309 f3bd
00000100: 5c3c 073e b897 48ba 2aae 463e 1785 f63d
00000110: 998d fdbc 44e8 113e 9fba 9c3d 3840 dc3e
00000120: 6f4b cb3e e486 2c3e 9197 2b3d e061 a83e
00000130: e6fc 8abd f517 82bd 375a 8a3d 319a ae3d
00000140: d0b1 0dbe 1b6b c7bd 994b a1bd 4db2 04bd
00000150: e739 d9bd 78c3 483e e8ae ad3e 1188 b43d
00000160: ebac 2f3e b251 873e 660c 6d3e e968 ae3d
00000170: 3ba5 363e 2398 3e3e 6c31 9e3e 2de4 793d
00000180: 4d14 97bc ecbf e1bc 14c9 5dbd 12dd 39bc
00000190: 889d 4f3d 9b5e 163e 87db 623d d779 f53d
000001a0: 050b 663e e422 09bd a0c9 aab9 3220 a13e
000001b0: a484 0abe 00ba 86be afb0 27be f845 53bc
000001c0: 5fd4 a9bc a3e7 ddba c499 033d 8d4c f1bd
000001d0: 9644 92be 3cee af3c 7dc0 633e ffcb 97bd
000001e0: 4a1e b43d dc48 f5bd 29bd 02be 95b9 aa3d
000001f0: 27a0 9fbc 495f acbd 4c5d 723c b256 e8bc
00000200: 22fd 893b a00c 2b3e c28b 5d3e 448c 033e
00000210: 6753 ec3d 9edf 14be aa21 03be 687f 49be
00000220: 9695 81be 5bbb 33be 5162 bcbe 300a 203d
00000230: 6a37 1f3e b1dd e83d 655c 9bbe e578 edbd
00000240: 48d7 ab3d 18fe 123e ae83 22be 74df 1e3e
00000250: 323f 093e a792 363d 13aa dabd acb3 d1bd
00000260: f9f1 68bd 9a10 edbc 1976 92bd 593a 07bd
00000270: 078b 28bd 9a08 b0bd 6fec e2bc 8245 62bb
00000280: ba0c be3c b077 843c ba4c 093e 19b5 08bb
00000290: cde5 ad3d 9289 9b3e e91d 533e 041a 373e
000002a0: cb7b 5a3e 82f3 643e c591 893e c24f ba3e
000002b0: 9d31 c6bd 36f2 6cbd 0640 18bd 21f1 a83d
000002c0: 140a 52bd 86d8 d9bd 328e cfbd f717 0abe
000002d0: ae11 e8bd 6563 a03e 324c 7a3e 7c79 123e
000002e0: d08e e23d 5666 113e d54d 873e d4ed 50bd
000002f0: fade 103d 3bec 833b 9535 1e3e 6689 133c
00000300: 05fe fc3d adc7 bdbe b033 2dbe bd58 fa3b
00000310: 11a1 d73d 8d2e 9d3e 13a8 8d3e 67a7 bd3e
00000320: 72e3 6f3e 01e6 b53e 9280 9a3e 0f1e 7d3d
00000330: 03e0 9b3e 3e7c 003e 8c4c 1a3e 77a6 af3e
00000340: ab53 0f3e b91e 6d3c ea42 c73d 1080 fd3d
00000350: 1095 9c3e 2194 e9bd e5be 1c3e 9149 213e
00000360: 3643 753d 196b 9b3d e922 ba3d ff46 1f3e
00000370: a435 723e 8135 3b3e 533a 663e 5b6b 323e
00000380: a3f8 da3c f76a 253d bac5 803b ee7d 01be
00000390: f232 303e 7353 e5bc a4ed f43d 5e5f 1a3e
000003a0: ecb3 f93d 1b2c 1c3e a4f0 943e 9a88 273e
000003b0: 07fe 23be b8f1 36be b8ca 683c 49de e43c
000003c0: 079b 3dbd 32d5 b33d ed34 0bbe 3dd9 40be
000003d0: a8ab 06be 2120 023f 634c 063e c88c 043e
000003e0: 7884 403e bbb1 203e c7e2 48bd e100 56bc
000003f0: 5ca9 fb3c 6bd7 aa3c 9ebe 163d 6eca 00be
0.15727487 0.00025592034 0.010020526 -0.07357593 -0.02873172 0.30817664 4.9809998e-05 0.1415816
0.14441901 0.17471996 0.17663565 0.29242727 0.05273042 -0.08563383 -0.16631158 0.09085417
-0.032994285 -0.09442778 0.052777514 -0.09071952 -0.26182896 -0.153556 0.34422556 0.12643151
0.069798075 0.108897045 0.12864053 0.06818033 0.12702833 0.021386018 0.05081509 0.051050235
0.076268904 -0.484529 -0.2571741 -0.20379247 0.1204606 0.17959808 0.18697631 0.13055797
0.13548437 0.4280202 0.37408522 -0.01450795 0.10111507 0.29864803 0.18860272 0.18165942
0.1671703 0.27509466 0.10888293 0.1143712 0.3108569 0.4039958 0.29039285 0.09924281
0.0066216164 0.15497518 0.041563585 0.1668373 0.13710615 0.1386083 0.037750922 -0.11867013
0.13206619 -0.00076520024 0.19402376 0.120371036 -0.030951308 0.14248759 0.07652783 0.43017745
0.3970599 0.16848332 0.041892592 0.32887173 -0.06786518 -0.06352226 0.06755488 0.085255034
-0.13837361 -0.097372256 -0.07875747 -0.032396603 -0.10606747 0.19605815 0.33922505 0.08815015
0.17155807 0.26429516 0.23149261 0.08516104 0.17836468 0.18612723 0.3089708 0.06100862
-0.018442297 -0.027557336 -0.05414684 -0.011344211 0.050687343 0.14684527 0.05538514 0.1198613
0.22465141 -0.03348054 -0.0003257515 0.31469876 -0.13527161 -0.26313782 -0.16375993 -0.0128951
-0.02073115 -0.0016929995 0.032129064 -0.11782179 -0.28567952 0.021475904 0.22241397 -0.07411956
0.0879484 -0.119767874 -0.12767471 0.08336178 -0.019485546 -0.08416612 0.0147927515 -0.028361652
0.004211084 0.16704035 0.21635345 0.12846476 0.11539345 -0.14538428 -0.1280581 -0.19677508
-0.25309438 -0.17551939 -0.3679376 0.039072216 0.15548483 0.11370409 -0.3034393 -0.115953244
0.08390671 0.14354742 -0.15870544 0.15514928 0.13403013 0.044573452 -0.1067697 -0.10239348
-0.056871388 -0.02893858 -0.071514316 -0.03301463 -0.04114821 -0.085953906 -0.027700631 -0.0034526293
0.023199428 0.016170353 0.13408175 -0.0020859896 0.08491097 0.30378395 0.20616879 0.17881018
0.21336286 0.22358516 0.26869026 0.36388975 -0.09677432 -0.057848178 -0.037170433 0.08249117
-0.051279142 -0.10637002 -0.101345435 -0.13485704 -0.11331497 0.31325832 0.24443129 0.14304155
0.110623956 0.14199194 0.2642657 -0.05100806 0.035368897 0.0040259636 0.15450127 0.009004926
0.12353138 -0.37066403 -0.16914248 0.007639973 0.10528768 0.30699578 0.27667293 0.3704178
0.23426607 0.35527042 0.30176216 0.061796244 0.30444345 0.12547395 0.15068263 0.3430669
0.1399676 0.014472657 0.0972956 0.123779416 0.30582476 -0.114052065 0.15307195 0.1575072
0.05987855 0.07588787 0.0908869 0.15554427 0.23653275 0.18282129 0.22483186 0.17423765
0.026729887 0.040385213 0.003929821 -0.12645695 0.17206934 -0.027993893 0.11959389 0.15075442
0.121925205 0.152512 0.29089844 0.16360703 -0.16014872 -0.17865646 0.014208488 0.027938025
-0.046290424 0.08780898 -0.13594408 -0.1883287 -0.13151419 0.50830275 0.13115077 0.12944329
0.18800533 0.15692799 -0.049044397 -0.013061733 0.030720405 0.020854672 0.03680288 -0.12577221

ds.fc1_conv.bias f4 [128]
00000000: cefd fb3d 2e17 173d 033b 083e d5ce 203d
00000010: 7c6b ab3d af44 f63c 7c97 8d3d 9f80 273d
00000020: b4ea 383d 74a2 9e3d 6d5b 163c 7c99 a8bc
00000030: fb22 cc3c b0f4 c03c 49a3 413c 7aeb f23d
00000040: 9453 bcbc 98a6 15bd 991c 053d 62ab 533d
00000050: e5a2 823d 66e9 5a3d 0085 e63c 0857 783d
00000060: 75cb 143c 3d6f 313d 4346 243d 39bf a4bd
00000070: b3d4 2abd d0f1 463d d2ca 603d ae60 03bd
00000080: 9de4 1fbc cad0 fdbc 27d2 8fbc e894 1abd
00000090: d219 613d 2190 9f3c b7bb 11bc f60a 5c3d
000000a0: 1f8d 803d 21cd b63d 11de f8bc 23ac 583c
000000b0: 8c17 b7bc 13d2 3b3b 11ad 2b3d 2c68 663d
000000c0: cad9 c83d 650c 9e3c 55a0 413c db1e ecba
000000d0: 243a 3cbc 2c4b 9fbb 8cc3 b8bb 822f 933c
000000e0: f9ce b73d eff8 133e 663f 983c 2795 553d
000000f0: 15eb 093d 6b32 db3d 41b8 823c 2e63 c13d
00000100: 8b9a e6bc 2bf0 63bc 21ab 4bbc 1bc2 f73b
00000110: e57f 08bd 9f5c d03c ef25 5d3d 9079 1abd
00000120: 0eeb 023e 5d43 603d 6f9d 22bd eb47 373d
00000130: 51c1 e8bc d6e9 233d 5542 de3c 9798 e43c
00000140: e4d2 b33a d45b e2bb 96c7 0c3e dbf3 d13d
00000150: 6b0a 643d 4ae9 823d c751 9d3d 561e 3b3d
00000160: 9f11 a4bc f850 23bd 1c45 6f3d 6fa3 b13c
00000170: 6c83 813d d5ab 30bd 0a8b d4bb 8c32 833d
00000180: 9c95 3b3c dec2 203d 9d2e e43c 53d8 c83d
00000190: 1e01 f8bc 0744 2d3d ec23 c43c b7ec 063d
000001a0: 01c1 a33d 1573 24bd 1d10 ee3c 5ff1 7c3d
000001b0: a061 dd3b ba83 3e3d 5649 1c3d 70ad 763d
000001c0: bc25 953c 08c8 823b ad47 d53c a05f 613d
000001d0: cad9 843d c2f0 613c d0a5 8a3c 7397 a93d
000001e0: a025 563d 98b6 9d3d 5312 ed3d 0d33 023e
000001f0: d12e 8a3d d6a8 4dbd 69ca da3d 15c1 993d
0.12304269 0.03688734 0.13303761 0.03925975 0.083701104 0.030062048 0.06913659 0.040894147
0.045145705 0.07745829 0.009177071 -0.020581 0.024919024 0.023554176 0.011818715 0.1186132
-0.022989072 -0.03653583 0.032497976 0.051677115 0.06378726 0.053445242 0.028139591 0.060629874
0.009081711 0.043318976 0.04010607 -0.08044285 -0.041706752 0.048570454 0.054880925 -0.032074623
-0.0097590955 -0.030983347 -0.017556263 -0.037739664 0.054956265 0.019477906 -0.008894852 0.05372139
0.06276917 0.08925844 -0.030379327 0.013224634 -0.022350095 0.002865915 0.041913096 0.05625169
0.09807165 0.01929302 0.011818011 -0.0018014567 -0.011488471 -0.004861256 -0.0056385454 0.01796699
0.08975024 0.1445043 0.018584918 0.052144196 0.033671457 0.10702976 0.015957 0.09442745
-0.028149864 -0.013912241 -0.012430937 0.007560981 -0.033325095 0.02543479 0.053991254 -0.037713587
0.12784979 0.054751743 -0.03970092 0.04474632 -0.028412493 0.040017925 0.027131239 0.027904792
0.0013719467 -0.0069079194 0.13748011 0.1025159 0.055673998 0.063921526 0.076816134 0.045683227
-0.020027934 -0.03987214 0.058415517 0.021684377 0.06323895 -0.04313262 -0.0064863013 0.064061254
0.011449244 0.03924834 0.027854258 0.098068856 -0.03027397 0.042301204 0.02394291 0.032940593
0.07995797 -0.040148813 0.029060418 0.061753627 0.0067560226 0.046512343 0.038155876 0.060223997
0.01820647 0.0039911307 0.026035154 0.055022836 0.064868525 0.013790311 0.016924769 0.0828084
0.052281976 0.077008426 0.11575761 0.12714787 0.06747211 -0.050209843 0.10683138 0.075075306

ds.fc2_conv.weight f4 [64, 128]
00000000: 97ff c43d ae4d ebbe 9cdc a73c 8ee3 9d3d
00000010: 8cd5 043b 641c 043e f88b 32bd b8f6 513d
00000020: b8bb c6be 5174 8cbe 5bcd 593d 7abc 2d3e
00000030: 796e 903d 64d1 c73d e05e dcbe ff4f 403d
00000040: 6567 d33d 0a75 bdbd e0f5 2a3b 3c7f 8dbe
00000050: 5e23 0fbd c0e3 cb3c 53cb fc3d f7cd 9ebe
00000060: e3d5 bb3d ca1a 083e cf3c 573d d262 0d3e
00000070: aca5 853c 5cec 85be 2b8f 41bc 7ca5 cb3c
00000080: 0c6e 9c3b 2f97 b7bc 39e5 c63c 2d9a ddbd
00000090: 36a7 91be 4cd9 debd 2454 ca3e 81d4 bf3c
000000a0: 4c6c 953e 5ebb 4d3e 7fa2 0a3a 4734 e0be
000000b0: 5f46 abbd 5948 703e 743e c5be 4265 f0be
000000c0: ea55 17bc e899 273e e0f2 9abd 4565 75bd
000000d0: d763 983d 0b94 903d 4d4a 083f 785b aa3d
000000e0: 4463 833e 4793 29bd 0b19 0b3d b206 703e
000000f0: ea05 d83c bbb2 383d 5b0f e63d e054 8a3c
00000100: 6f56 c53c 721b fbbb fe09 fabc 0b6b 7bbe
00000110: 24ae 573e 68cb 88be 596b a63e 26fb 5f3d
00000120: e710 293c 14f8 64be bdd0 c63c 360f fc3d
00000130: 620a 353e 1ae3 a33d 0824 453d 9a8b 833e
00000140: 4c83 063d 5b71 663d 5b09 b13c a0ef 2e3e
00000150: 81f9 0c3e 6ebc ad3d 6664 81bd 4c4d 78be
00000160: 705b 663d dd01 ac3d 2544 70bc 72c3 693d
00000170: 1acb 183d 8118 a73e eaec 033e cd05 8e3e
00000180: 52d5 943d e207 923a 8328 ed3d 9a29 87bd
00000190: fb51 db3d 2b97 a43e bd67 d5be 4357 3f3d
000001a0: e3c1 93be de71 b9bd 309a 443e 5af4 663e
000001b0: 658e aabe acae 223d 3fae 9f3e 5bbb 83be
000001c0: 4bb7 833c 49c9 96bd cbb4 56be 418a 863b
000001d0: 9886 9dbd 258a 103d 69de ecbe 17fb 93be
000001e0: 1cab 1ebd 0083 b43c d5e8 8bbd ad24 12bd
000001f0: 18d0 7b3e 453a c93d 044f 613c d3f9 e1bc
00000200: 7bd9 1b3e a94d 073c 53ab cbbd ee76 773e
00000210: 936f d43d e16c 4a3c 9439 11be efc3 9e3e
00000220: 1580 c5bc e742 11bd 0431 853e 04ed d53d
00000230: 32db 8c3e 0160 683e f5a3 433d 3988 9ebd
00000240: 411d 143d 93fd 783c 2ded 9c3d 4e18 b6be
00000250: b473 8fbe 1369 76be 45d4 813e 9277 f0be
00000260: 3aa9 873e 856d ea3b 168b 203c 8d8a 723e
00000270: 45fc c93d 084e cebe 4cca d43d d94c e13e
00000280: 6cd4 8abd f19a babb 865f e43d 38e2 05be
00000290: c353 bdbe c38e c0be 260f a5bd 6f72 f23d
000002a0: ebe8 6e3d 039f 813d 25f0 ec3c e4b2 15bd
000002b0: 7d33 3039 7cd3 443e 0c92 1bbe 585a d2bd
000002c0: 4c92 1f3e cb06 afbc 8107 c2be 81de 96bd
000002d0: 71f2 7f3d 649e 913d d06c c23e 15cf 07bd
000002e0: f78b b13d 4793 64bd 928a 0a3e 2a38 873d
000002f0: ee0f 83be 87a4 853d 8b86 f6bc 3d18 763c
00000300: a2a1 1f3e 72e9 bfbc a139 e73c 3409 3abe
00000310: 4b0a 8e3e 9f7c b73c d01e 4e3d 5788 8c3c
00000320: 2d66 22bd 6fce 223d 23a7 653d fd00 713c
00000330: c980 a63c 45fa 1a3e d6b3 3cbd e2b7 043e
00000340: f688 8e3d 6b5a ff3b 1267 ffbd b063 dc3d
00000350: 0d37 833c ef11 d63d 1805 3ebe f7b8 ddbe
00000360: dc71 0c3e 90d4 743e f70f 663d d884 9ebc
00000370: a25b 8b3c 3fe2 753d fe54 d03e ab3f 2c3d
00000380: b9d9 633e f4dc 02be b1af cf3c e217 80bc
00000390: fc20 1f3e a5db e33d 6a17 b7bc ce04 013e
000003a0: e53a 11be cc3d 94bd 5656 043d 1600 163d
000003b0: 97be c1bc 5d43 ad3c 0eda c83d c9ca 043c
000003c0: 1106 ae3e f5af 15bd 4783 c9be 21a5 e53d
000003d0: 23e8 03be 2a0b 233e aa0d d33c 0352 9ebe
000003e0: 2eb0 40be 86ed f13d 8543 f83b 4fb3 babd
000003f0: 9180 dfbd 5b35 2d3e 5867 b53d a1ea cd3c
0.096190624 -0.45957702 0.020490937 0.07709418 0.0020268885 0.12901455 -0.043590516 0.05126068
-0.38815093 -0.27432492 0.053174358 0.1696643 0.07052321 0.09756735 -0.43041134 0.04695129
0.10322455 -0.09250839 0.0026086494 -0.27636135 -0.03494584 0.024888873 0.123434685 -0.31016514
0.09171655 0.13291469 0.052548226 0.13807228 0.01631435 -0.2615689 -0.011813919 0.024859183
0.004773861 -0.022410957 0.024279224 -0.10820422 -0.28447884 -0.1088129 0.3951732 0.02341676
0.29184186 0.20091006 0.0005288496 -0.43789884 -0.083630316 0.23465098 -0.3852421 -0.46952254
-0.009236792 0.16367304 -0.07565856 -0.05991103 0.07440918 0.07059487 0.53238374 0.083182275
0.2566167 -0.04140022 0.03395943 0.23440054 0.026370008 0.045092326 0.112333976 0.016886175
0.024089066 -0.007663184 -0.030522343 -0.24552552 0.21062523 -0.26717687 0.32503775 0.054682873
0.010318971 -0.2236026 0.024269456 0.12307589 0.17679742 0.080023006 0.048130065 0.25692445
0.03284006 0.056260448 0.021610906 0.17083597 0.13767053 0.08483206 -0.063179776 -0.24248236
0.056239545 0.08398793 -0.014664684 0.057071157 0.037303068 0.32635882 0.12883344 0.277388
0.0726725 0.0011141265 0.115799926 -0.06599732 0.10708996 0.32146582 -0.4168071 0.04671408
-0.2885886 -0.090549216 0.19199443 0.2255415 -0.33311763 0.03971736 0.31187627 -0.25728878
0.016078612 -0.07362611 -0.20967405 0.0041058366 -0.07691687 0.035287995 -0.46263435 -0.28902504
-0.0387374 0.022035122 -0.068315186 -0.035679508 0.245911 0.09825567 0.013751749 -0.027584946
0.15219681 0.008258262 -0.09944787 0.24166462 0.103728436 0.01235506 -0.1418212 0.3100886
-0.024108926 -0.035464194 0.26013958 0.10445598 0.27510983 0.22692873 0.047763783 -0.07740826
0.03616071 0.015197176 0.07662425 -0.35565418 -0.28017962 -0.2406352 0.2535726 -0.46966225
0.26496297 0.007154169 0.009798786 0.23685665 0.0986257 -0.40293908 0.103901476 0.44003943
-0.067787975 -0.00569474 0.11151032 -0.13074577 -0.36977968 -0.3760892 -0.0805953 0.11838233
0.058327597 0.06329157 0.028923104 -0.036547557 0.00016803849 0.192213 -0.15192431 -0.10271138
0.15583152 -0.021365544 -0.3789635 -0.07366658 0.06248707 0.07110289 0.37973642 -0.033156473
0.08669274 -0.055804517 0.13529423 0.06602509 -0.2559809 0.06525522 -0.030093452 0.015020427
0.15589002 -0.023426745 0.028225722 -0.18167573 0.27742228 0.022398291 0.050322354 0.017154856
-0.039648224 0.03974765 0.056067597 0.014709708 0.020325081 0.15134533 -0.046069942 0.1296077
0.06959717 0.007792761 -0.12470831 0.107612014 0.016017461 0.10452639 -0.1855663 -0.4330518
0.13715309 0.23909211 0.05616757 -0.019350454 0.017011467 0.06003022 0.40689844 0.042052906
0.22251023 -0.127796 0.02535233 -0.015636388 0.15539926 0.11125878 -0.022350032 0.12599489
-0.14182623 -0.07238349 0.0323089 0.036621176 -0.02365045 0.021150285 0.09807216 0.008104988
0.33989003 -0.03654476 -0.3935797 0.112131365 -0.12881522 0.15922228 0.025763351 -0.30921945
-0.18817207 0.11812882 0.0075764083 -0.09116232 -0.10913194 0.16914885 0.08857602 0.025136294

ds.fc2_conv.bias f4 [64]
00000000: 3b36 783d c218 2d3d 0478 c83b c4d2 373d
00000010: 550d c23a 31a5 d13c df85 0a3c 4f26 213c
00000020: de6b e93c b012 253d 8061 823c 63fb d03c
00000030: e85c 313d ba7d 9e3d acb4 da3c 74d9 a33c
00000040: ef77 15bd f639 5c3d 7eba 8b3d 3dcd 3f3a
00000050: 8cb6 a23c 100e 933d 3f53 913c 3877 963d
00000060: 2b11 a63d 28f2 4cbb bc9e 733d a228 d93c
00000070: 130a af3c 105a 9b3d e4a8 cfbc 24d0 b83d
00000080: 2594 923c b7c0 c33d 2083 033d 7f5e d5bc
00000090: 5c6a 6d3d 6521 e03d 9d79 813b e925 cb3d
000000a0: 3491 333d 9a19 543d 10ea 3c3d 9c17 bc3c
000000b0: b695 b73d 7312 273d 0623 833d eab7 cf3d
000000c0: f619 0b3d 5b75 923d e566 a13d d55d bb3c
000000d0: e11c bb3d 0b06 9e3d a3db 2a3d 9674 e5bc
000000e0: a51f 2e3d 041e bb3b c227 9f3d 1cee 803c
000000f0: 8988 513d 54d9 7a3d 530d a23d 409c 083d
0.060598593 0.04225994 0.0061178226 0.044878736 0.0014804999 0.025591465 0.008454769 0.009835794
0.028493818 0.040301025 0.015915632 0.025510496 0.043301493 0.07738824 0.02669748 0.02000115
-0.03649133 0.053766213 0.0682268 0.00073166547 0.019862436 0.071804166 0.01773989 0.07346958
0.08108743 -0.0031272266 0.059477553 0.026508633 0.021367108 0.075855374 -0.025349088 0.09024075
0.017892906 0.09558242 0.032107472 -0.026046036 0.05796276 0.109438695 0.003951265 0.0991934
0.04383965 0.051782228 0.046121657 0.022960477 0.08964102 0.04078908 0.064031646 0.10142501
0.033960305 0.0715129 0.07880954 0.022871891 0.091363676 0.07715996 0.04171337 -0.028009694
0.042510647 0.0057103653 0.07771255 0.01573854 0.0511556 0.061242417 0.07912698 0.033352137

head.weight f4 [15, 64]
00000000: 56ab 7f3c 9fe2 efbc 7ad5 463c b3f5 4bbf
00000010: 29ea c6bc cc20 853c 6f7d 383e c8b2 34be
00000020: a6d6 203e 0ea3 f2be d70b 17be ebdd 833e
00000030: 5e09 993e 1076 35bf 50b0 993b 19dd 1d3d
00000040: f046 3d3e 6095 83bf 18dd f23e 9c82 0cbe
00000050: 4990 913b 0d71 81bf e5f4 583e dd32 d33e
00000060: eafb 843e 9dd9 8a3e cc71 413e db72 f53d
00000070: 8f63 9c3e 9097 58bf a35f 89be 081f 5b3e
00000080: 4d7b 47be f3b6 a13d 8b9a c63e c1e7 19bf
00000090: ab7a 1cbc 3585 6ebe 927b b33e caf6 12bf
000000a0: 8852 32bf b51d 303e c52e 63be 047e b73e
000000b0: 7a57 7ebf ef5f debe 1ee7 66bf 8131 bf3d
000000c0: 1191 ac3c 5c3d 39be 9bb8 933d 1cdc 463e
000000d0: f6bf 65bd 9b68 80bd 0816 cfbe e5d0 2abe
000000e0: 2cae 0fbf 3876 d1be 0bba 7bbf 5749 18bf
000000f0: 2b92 5d3e 61f9 873c 4236 8b3d 4dfa 2e3d
00000100: 49b8 083e e025 933c b12e 58bf 16b2 1f3e
00000110: dbd4 2ebf 5bc8 2ebf 7cd3 c5be c62e 05bf
00000120: 0db5 bfbe 9e3c 0f3e 2cf0 0fbf 29be 243e
00000130: 2413 193e bc05 4ebf f479 8e3d 152c 66bf
00000140: d028 acbe a1de c53d 0866 063e 7829 453d
00000150: 961d 49bf b83b 923e 464d c7be c8f0 d43d
00000160: e149 e63d a168 24bf 5ea2 013f d5f5 5fbf
00000170: ee77 523e c865 533e e7b8 44bf e89a fe3e
00000180: c4ca 6abf 38a9 9d3d ca6c 1a3e 2053 a1be
00000190: c474 0e3e d7c8 c93d a70c a1be bcb6 37bf
000001a0: 766b 8c3e 663f 1d3f a082 f6be 7b2d 21bf
000001b0: 385a fdbe 1d4d d8be 62cf 1ebf b73a 0b3f
000001c0: 2127 59bf dc2c 9abe a59e 263f 027c d6be
000001d0: 8770 713e 62b0 c53d 2505 a63e f811 48be
000001e0: c7d0 313e 19ed 53be b8ac 1e3e 3d4b 80be
000001f0: f5c9 f2be 406a 153e dd1c 90bf 987e 35bf
00000200: d7af 493e abeb 723e bdfe 0cbf 2774 553e
00000210: d873 08bf b15c 2dbf bfdc 65be 43b5 18bf
00000220: 51b4 76be a846 583e e6b7 1abf 0bd0 5d3e
00000230: 7470 683e 88ae e43e eb9c 573e ab51 09bf
00000240: 1f6f 67be a5e3 553e b256 7a3e 06fa 4fbf
00000250: fa79 0dbf 0a37 af3e a547 7fbe 645e 713e
00000260: 5c95 713e afcb ebbe a351 88bf 3962 dabe
00000270: 85a2 783e 471d 633e 2d9f 52bf 0566 81bf
00000280: 9d8f 0a3f 53cc 5b3e e264 7b3e 6399 dcbe
00000290: 7ddc 7d3e bbd8 3d3e 8d94 83be 38cf 2f3e
000002a0: d8f0 8a3e bf3d 6cbf fac2 18bf 2b6e ecbe
000002b0: 9b7f 23bf b0dc dfbe 4218 003e caef 9ebf
000002c0: 29cd 0cbf a5fb debe a407 8cbf cbeb c5be
000002d0: 6d30 9e3e 95df 5b3e 25fe a13e 7323 d2be
000002e0: 1f70 6b3e dca4 b5be 684b 433e ba1c e8be
000002f0: 4fa9 bdbe 95a5 673e 20d4 1cbf 2c52 d1be
00000300: bb1d c6be 426a a4be d684 86be 02e6 3e3e
00000310: cd1d 78be 3c42 dcbe f5b5 a9be 89f7 833e
00000320: aa54 b6be 9f65 673e 8287 863e cf5f 9d3f
00000330: 9dbb c8be 2745 373e d5eb bbbe 3663 a6be
00000340: 3b7e a7be a1a6 593e 52db e6be 26fd 813e
00000350: f8c4 8bbe 9e89 88bf 52d4 dbbe 5037 efbe
00000360: 35c0 09bf fd09 94be 5d13 eabe 1854 3ebe
00000370: 805b babe 6b74 553e 4fb1 893e c473 eebe
00000380: 5192 5e3e dd81 34bf 9bb2 c5be 0461 b2bf
00000390: 8733 31bf e02f 323f a2bd c6be e906 3c3e
000003a0: 8d08 543e 9aad 5abf 8f68 7b3e 5966 7ebe
000003b0: 2d56 713e d19d 533e f476 3c3e 53c4 87bf
000003c0: ca84 73be 90a4 b63e 9e67 7bbf 9faa b5bf
000003d0: 6de1 3cbf 80a6 cbbe 142d 763e afe3 c43e
000003e0: e4b2 583e f433 b33e e336 503e e2cc af3e
000003f0: 5266 adbf 8f44 b1be a9f7 98be ecfc 92be
0.0156048145 -0.029282866 0.012135858 -0.7967178 -0.024281578 0.01625099 0.18016599 -0.17646325
0.15706882 -0.47390026 -0.1475061 0.25755247 0.2988996 -0.70883274 0.0046902075 0.038540933
0.18484092 -1.0279961 0.47434306 -0.13721699 0.004442249 -1.0112625 0.2118717 0.41249743
0.25973445 0.2711915 0.18891066 0.119847976 0.30544707 -0.84606266 -0.26830778 0.21398556
-0.1948063 0.07896223 0.38789782 -0.60119253 -0.009550731 -0.23293002 0.35055214 -0.5740782
-0.6965718 0.17198832 -0.2218581 0.3583833 -0.9935223 -0.43432567 -0.90196407 0.09335614
0.021065267 -0.18089813 0.07212945 0.19419903 -0.05609127 -0.06269952 -0.40446496 -0.1668125
-0.5612514 -0.40910506 -0.98330754 -0.5948691 0.2163779 0.016598405 0.06797458 0.042719174
0.13351549 0.017962396 -0.84446245 0.15595278 -0.6829354 -0.6827447 -0.38637912 -0.52024496
-0.37442818 0.13987967 -0.5622585 0.16088165 0.14948708 -0.804775 0.069568545 -0.89911014
-0.33624887 0.09661604 0.1312486 0.04813525 -0.7856077 0.28561187 -0.38926142 0.10397488
0.1124456 -0.6422215 0.5063838 -0.87484485 0.20553562 0.20644295 -0.7684464 0.4972756
-0.91715646 0.076982915 0.15080562 -0.31508732 0.1391173 0.0985276 -0.31454965 -0.71763206
0.27425736 0.61424863 -0.48146534 -0.6296002 -0.49482894 -0.42246333 -0.6203519 0.54386467
-0.8482533 -0.3011235 0.6508582 -0.41891485 0.23578082 0.09652783 0.324258 -0.19538105
0.17364798 -0.20695914 0.15495574 -0.25057402 -0.47419706 0.14591312 -1.1258808 -0.7089629
0.19695984 0.23722713 -0.550762 0.2084509 -0.53301764 -0.6771956 -0.22447489 -0.59651583
-0.24092223 0.21120703 -0.60436857 0.21661393 0.22699147 0.44664407 0.21055953 -0.5364024
-0.22600983 0.20887621 0.24447134 -0.8124088 -0.55264246 0.3422168 -0.24929674 0.23571163
0.23592132 -0.46053836 -1.0649914 -0.42653063 0.24280746 0.22179137 -0.8227413 -1.0109259
0.54125386 0.21464662 0.24550202 -0.43085775 0.24791141 0.18539707 -0.25699273 0.17168891
0.27136874 -0.9228172 -0.5967251 -0.461778 -0.63866585 -0.4372306 0.12509254 -1.2416928
-0.5500055 -0.43551365 -1.0939832 -0.38656458 0.3089632 0.21472009 0.3163921 -0.4104267
0.2299199 -0.3547734 0.19071734 -0.45334417 -0.37043235 0.22621758 -0.6126118 -0.40883005
-0.38694558 -0.32112318 -0.2627322 0.18642429 -0.24230118 -0.43019283 -0.33146635 0.25774792
-0.3561147 0.22597359 0.2627526 1.2294863 -0.39205638 0.17897473 -0.36703363 -0.32497567
-0.32713494 0.2125497 -0.45089203 0.2538845 -0.27298713 -1.0666997 -0.42935425 -0.46721888
-0.5380891 -0.2891387 -0.45717898 -0.18586767 -0.36397934 0.20845191 0.26893088 -0.46572697
0.21735503 -0.70510656 -0.38612828 -1.3935857 -0.6921925 0.696043 -0.38816553 0.18362011
0.20706387 -0.85421145 0.24551605 -0.2484373 0.2356803 0.20665671 0.18404752 -1.0606788
-0.23781124 0.35672426 -0.9820498 -1.4192694 -0.7378147 -0.39775467 0.24040633 0.3845496
0.21161991 0.35000575 0.20333438 0.34336 -1.3546851 -0.3462262 -0.2987645 -0.2870859

head.bias f4 [15]
00000000: c71c 90bd 8d1f baba 8576 e83d 9953 813d
00000010: e2a4 afbd 4a89 07bc 038c 59bd 8be8 a53c
00000020: 8c56 183e 89b0 963c 1913 f63b 26d5 df3c
00000030: ad84 30bc 563b 9f3c d7fc e1bd
-0.07036739 -0.0014200077 0.11350731 0.06314773 -0.08576371 -0.008272478 -0.05311204 0.020252487
0.14876765 0.018394725 0.007509601 0.027323317 -0.01077382 0.019437473 -0.110345535
