surrogate/trained_model/BCRNet/model_rate300_fold3.pth (torch, 179121 bytes, 18 tensors)

ds.proj_conv.weight f4 [16, 2, 7]
00000000: 2a9b 5b3d ade3 593d c43f 013e aad5 173e
00000010: 12c5 043d d93a 023d 5f1d 593c 2f42 e1bc
00000020: 8447 e13b 89cf 153b 4fee 5fbc 2ee5 d4bb
00000030: 12d0 f0bd 7673 13be fde4 0c3d 517a 633d
00000040: 6670 a23b 0951 7c3b c50d 033d ed04 943c
00000050: 589a 083d efcb 51bd 9bd7 57bb 98f2 d23d
00000060: a18d 5d3e 276a 5e3e 910a df3d 8eca 4c3b
00000070: 9288 f73d 6e32 0a3e b15d 273e eb6b e83c
00000080: da3a 69bd 4bd2 cdbd 458d b3bd bea0 bbbc
00000090: b23c 45bc 5e79 92bd 0f4c 9fbd 8f51 4bbd
000000a0: 8643 31bd ad76 ac3c afd1 5abd 79b3 a4bd
000000b0: d9d4 9ebe 9e2c 56be 8ee6 6abe 38fa 6cbe
000000c0: 1889 72bd 2eb2 95bd 9aff 72bd 274d 9fbc
000000d0: a331 063d 5e7b 233d 0ca5 4e3d b612 1f3d
000000e0: f07d 963b a438 b63c 6402 7d3d 6234 e73d
000000f0: 3ade af3d 62ec b63d f979 2c3d fdfc 84bc
00000100: 4525 aebc 5004 64bd 1afe a6bd e5cb 5cbd
00000110: db9e 02be 24e1 12be a67c cebc ef04 c6bd
00000120: c18b 8ebe 107a 62be cd47 7fbe 552f 85be
00000130: d685 5ebd 380f 0abc 907e 8ebc 0b4d ab3a
00000140: 8d47 a13c 793c 033d 6ae7 783c f143 52bc
00000150: 35b6 5d3d 50e9 753d 44b3 ca3d 5d52 ba3d
00000160: 1503 a73d 2b7c 953c e3bb 0ebd d357 34be
00000170: c92a 12be 9880 3cbe fa8c 06be 4943 06be
00000180: 0026 40be bb15 a0bd a95b fbbc 3d2a 383d
00000190: 1d7c 80bd fe1d 22bc 9565 9ebd 145c b7bd
000001a0: ad34 6ebd a68e 45bd f14c 46bc 1442 c63d
000001b0: 3aa3 dd3d a036 cf3d 2fff a53d 6cd4 253d
000001c0: 2bb1 dbbc aa8e 503c 6d20 9d3d f1f3 cb3d
000001d0: 243e 033d 9b47 213e dc87 fa3d 0c56 19bd
000001e0: be8a ba3b ea71 c0bc 29b0 99bd 4f30 88bd
000001f0: 76de 00be 7174 01be 3504 d8bb e349 ca3c
00000200: 9dda c83c 78bf 9c3c ad23 6cbd e014 17be
00000210: a8c8 24be 5d1f 6ebe 4d76 7abe cd6a e8b9
00000220: f45a 353c ea4b cfba 4dda 213c d754 683d
00000230: ed8e 0ebe caa1 0cbd 6166 a4bd 0c6a 8dbd
00000240: 9ff5 35be 245b 5dbe 4de1 70bc 6657 b63c
00000250: 7c45 593d fffe 8b3d 3d4c 6c3d 7131 a93d
00000260: 76b4 1d3c a034 67bd b2a5 9d3d 54db 9a3d
00000270: 20b2 8a3d 6356 673d 6c61 fb3c 4030 843c
00000280: 6a41 96bb f393 a6bd 3b45 bf3c 9247 453d
00000290: 7e18 ad3d a3f4 473e 2620 4c3e e2fb 313e
000002a0: 0358 21bd bd1e e5bc 16ae dbbd d1f9 56bd
000002b0: 0d1a 65bd 123d 9cbd 71e3 16bc 0797 b4bd
000002c0: 4e42 eabc 3644 8f3c 176d d43d c467 183e
000002d0: 8ac7 893d abd3 9d3d 29ca 28bd af47 46bd
000002e0: 8390 25bd 397e cfbd 6abd 60bd 7803 60bd
000002f0: bbe8 32bd c9ad 7d3b f5f7 75bd 5cb2 f8bd
00000300: 26d7 acbd 1895 55be acf4 27be fe61 35be
00000310: a3be f2bd 1e7f 89bd 56a7 11bd ca74 bebc
00000320: f432 c2bd b76d 00be 1109 a6bc 47da d43c
00000330: fee9 dc3d 2f3c a33d 62af 9b3d dab7 9f3d
00000340: 6122 f03c d281 58bb fc2e 98bc 8404 a5bc
00000350: d11d 8e3d 4bb2 2e3c 457b 583c dc40 f93c
00000360: 603e 6d3c 43d4 6fbc 3cec a5bd 3442 dabd
00000370: 7aaf 23be 5f72 c5be 163c bebe 04c0 a5be
0.053614773 0.053195644 0.12621981 0.148276 0.032414503 0.031794403 0.0132516315 -0.02749738
0.0068749804 0.0022859296 -0.013667657 -0.006497047 -0.11758436 -0.14399514 0.034398068 0.055536572
0.0049572466 0.003850045 0.031995554 0.018068755 0.03335032 -0.051219877 -0.0032934907 0.10300177
0.21636058 0.21720181 0.10890687 0.0031248662 0.120865956 0.134958 0.16344334 0.028371772
-0.05694089 -0.10049876 -0.087671794 -0.022903796 -0.012038397 -0.07152055 -0.07778179 -0.049638327
-0.043277286 0.021052683 -0.053422626 -0.08042044 -0.31021765 -0.20915458 -0.22939512 -0.23142326
-0.059212774 -0.07309376 -0.059325792 -0.019445969 0.03276218 0.039912574 0.05045037 0.038836204
0.0045926496 0.022243805 0.061769858 0.11289288 0.08587308 0.08931805 0.04210851 -0.016233915
-0.021258006 -0.055668175 -0.08153935 -0.053905386 -0.12755911 -0.14343697 -0.025205921 -0.0966891
-0.27841 -0.22116876 -0.24929734 -0.26012674 -0.054326855 -0.00842648 -0.017394334 0.0013069225
0.019687438 0.032040093 0.015191892 -0.012833581 0.054128844 0.060036957 0.098974735 0.09097741
0.08154885 0.018247684 -0.03484715 -0.17611627 -0.14274134 -0.1840843 -0.13139716 -0.13111605
-0.18764496 -0.07816645 -0.030683355 0.044962157 -0.06273673 -0.009894846 -0.07734219 -0.089531094
-0.058155704 -0.048231743 -0.012103305 0.09680572 0.108221486 0.10117841 0.08105313 0.040485784
-0.026817879 0.012729326 0.076722 0.099586375 0.032041684 0.15749972 0.12232944 -0.037435576
0.005692809 -0.023491818 -0.07504303 -0.06649839 -0.12584862 -0.12642075 -0.0065922984 0.024693435
0.024518305 0.019134268 -0.05765121 -0.14754057 -0.1609217 -0.23254152 -0.2445919 -0.0004433006
0.011069048 -0.0015815471 0.009878707 0.056721535 -0.1392171 -0.03433398 -0.0802734 -0.069049925
-0.17769478 -0.21616799 -0.014702153 0.022258472 0.05304478 0.06835746 0.057689894 0.08261383
0.009625545 -0.05644667 0.076976195 0.07561365 0.06772256 0.05647887 0.030686103 0.016136289
-0.0045854347 -0.08133688 0.023348441 0.048163958 0.08451937 0.19526915 0.19934139 0.17381242
-0.039390575 -0.027968759 -0.10726564 -0.052484337 -0.055933047 -0.07628836 -0.0092095 -0.08817869
-0.02859607 0.01748858 0.1037237 0.14883333 0.06727512 0.07706388 -0.04120842 -0.048408207
-0.04042102 -0.10131497 -0.05486814 -0.054690808 -0.04367898 0.003870832 -0.060050923 -0.12143394
-0.08439474 -0.20857656 -0.16401929 -0.17713162 -0.11852767 -0.06713699 -0.035559975 -0.023249049
-0.09482375 -0.12541853 -0.020267995 0.025982989 0.10786818 0.079704635 0.07601811 0.07798739
0.029313268 -0.0033036363 -0.018577091 -0.020143755 0.06939281 0.010662626 0.0132129835 0.030426435
0.014480203 -0.0146380095 -0.08101699 -0.106571585 -0.15984908 -0.3856382 -0.37155217 -0.3237306

ds.proj_conv.bias f4 [16]
00000000: e8cb 243d f67c ffbc f252 6a3e f096 2dbe
00000010: 0b61 1b3c bdda c63d ad1b f63e c43c b9bc
00000020: 960f fb3d d5fe 6cbd 0909 db3c 709c da3d
00000030: f500 fd3d bace a33e 33f6 e23b 258d 193e
0.040233523 -0.031187516 0.22883204 -0.1695211 0.009483586 0.0970969 0.4806799 -0.022611983
0.12258832 -0.057860214 0.026737707 0.10674369 0.12353698 0.31993657 0.006926322 0.14995249

ds.proj_bn.weight f4 [16]
00000000: 3ff9 963f 97de 833f 03a9 a23f d351 973f
00000010: 4eb2 9d3f 7403 9c3f d063 9e3f efb1 763f
00000020: fb06 8f3f 36ce 8e3f f3f2 903f 27b5 843f
00000030: 43b6 893f 87a2 833f eb70 853f 9d35 a03f
1.1794814 1.0302304 1.2707828 1.1821846 1.2320039 1.2188554 1.237421 0.96365255
1.1174005 1.115668 1.1324142 1.0367783 1.0758747 1.0283974 1.0425085 1.2516361

ds.proj_bn.bias f4 [16]
00000000: 31c5 dcbc a5b5 1dbe 6409 03bd e15e e6bd
00000010: dbc8 25bd 4c93 9bbd cbad dbbd 24a0 41be
00000020: 8e10 bbbc b31a acbd 3d2f cfbd ead7 60be
00000030: 399a e9bd 5c36 19be 13b2 ffbd b2c5 c2bd
-0.026949497 -0.15401323 -0.031991377 -0.112485655 -0.040474754 -0.07596454 -0.10726508 -0.18908745
-0.022835042 -0.0840353 -0.10116432 -0.21957365 -0.11406369 -0.14962143 -0.12485137 -0.09510364

ds.proj_bn.running_mean f4 [16]
00000000: 4128 c83d 3e46 543e 870e 593e cdef 08bf
00000010: 6fc7 6ebc 24b0 87be 53c3 8c3e a759 253a
00000020: bad8 073e c6c9 8dbe 3628 ffbd e188 ce3e
00000030: 542b cc3d d2ab 44bd e830 c7bc 4f03 83be
0.09773303 0.2072992 0.21196948 -0.53490907 -0.014573916 -0.26501572 0.2749277 0.000630761
0.13266268 -0.27693003 -0.124588415 0.40338805 0.09969202 -0.048015423 -0.024315313 -0.25588462

ds.proj_bn.running_var f4 [16]
00000000: bb8b 913d 3f85 3c3d 0f23 173d f56e 593e
00000010: 93ff d43d 5a42 623e 2ad7 803e 7847 643d
00000020: 2fea d83d 34e4 023d c61a f93d e78d 4d3d
00000030: 2dcb 703d 4b80 8a3d 3576 bf3d 9499 b53e
0.071067296 0.04602551 0.03689867 0.21233733 0.104003094 0.22095624 0.25164157 0.05573222
0.10591542 0.031955913 0.1216331 0.050184157 0.058787514 0.06762751 0.09348718 0.35468733

ds.proj_conv1.weight f4 [8, 16, 5]
00000000: a6be 1cbe 5321 8abd 0501 ea3c 02ac e73d
00000010: a757 62bd 3a1d dc3c ba2d 22bd 7c59 863d
00000020: 29b5 c43c 11cc 92bb 8ad3 1fbe 2bf4 bebd
00000030: 14cf 83bc 0053 263e 567a f43d 2daf de3a
00000040: 1eaa 0dbe 33a0 80bd 78b0 f7bd adba b2bd
00000050: 908e 9dbd c339 203d 6068 433e 2376 033e
00000060: 9496 b0bc cba8 093d ed7b edbd 0de5 18be
00000070: dacd 01be 05e0 f8bd 207f d8bd ee5f 7d3c
00000080: 72d0 573e f200 b83e b40f 2c3d 4709 b53c
00000090: 962e c5bd 16c8 8a3d 268a af3c 0b83 98bb
000000a0: 9d9b cebd 17a0 37bc 8500 1b3e 28ec aa3c
000000b0: cd25 d9bd 1740 85bd bffb 61bd 7631 d1bd
000000c0: c24b 01bc a70e 493c 3f53 903d 5730 7bbd
000000d0: 09cf 1ebc 19d0 403d 9fc8 443a c09e d9bc
000000e0: fe77 c4bc 9fc2 a73c bc95 553c c7f5 0d3c
000000f0: 346b 70ba 91f3 61bd 73d4 863d 1c7a 28bc
00000100: a9ba dd3b 089c bf3d 73be da3d 2377 f23c
00000110: 6ea8 063c a228 133d d2c2 9d3d 6107 edbc
00000120: 3e1c f43c 9989 4c3d 7f58 96bc 9ab3 9cbd
00000130: f52f 5d3d 9b02 0d3e 8087 a53d e5c8 0dbd
00000140: a876 f1bd 6698 943c ca27 033e dca5 153b
00000150: 9ce9 f0bd 69ed 843b 8c4f c93c cbb2 663d
00000160: 0e98 96bd 060e ef3c d373 efbd 2867 92bd
00000170: 1687 233e bea7 aa3e b356 b83c 9903 a0bc
00000180: 2330 00be 5ae8 bbbd 18bd e9bd ffcb 043e
00000190: 535a 58bd eed9 103e ef72 403e 6da5 38bd
000001a0: 8f73 ebbd ce52 43bc 9a07 09be 3d4b 13be
000001b0: b4e2 f4bd 46e7 8f3c af24 dbbd 0ffb 113e
000001c0: 3771 b33e 0dda c53d 39c0 a0bd 2f88 0bbc
000001d0: 7e7f a7bc 5c4d 8c3d b432 1cbc 3164 843d
000001e0: 16c6 aabb b1d5 0b3d b2b6 d63d 1108 ebbd
000001f0: fd4b d5bd e6a8 51bd 4346 7bbd c929 8bbd
00000200: 7dc8 a63d bbb4 893d 75a4 02bc 2a08 50bd
00000210: 76bb acbb 5eb1 85bc 9ec3 953c 2bc7 183d
00000220: bfae 883c f975 58bd 4cef 83bd 2fe9 233d
00000230: 08f8 00bd dc1d 7e3c 6325 f33c 2c6f a0bc
00000240: cce7 973d 53fb 0c3e 5555 233d 7017 acbc
00000250: d7d6 1a3c 303d 053d d6d1 1b3c 1c86 f4ba
00000260: 2317 3e3d 72e1 733b 10d0 0b3d 7aea 193c
00000270: 5139 8b3d 8a0a be3d 2002 18bd 6275 bfbd
00000280: 9d62 cebd f675 75bc d936 003e 9fbc b13e
00000290: a76e 96bb 1e1c 353c f0d5 10bd 83f7 c7bb
000002a0: 06f0 0a3c b1fd 68bc cef5 f7bc 2596 e9bc
000002b0: e7e0 983d 2a03 663e f91e ab3e c484 23bd
000002c0: 988b 373c fb9b a23d 2e20 b43d e057 a03b
000002d0: 0389 7bbd 363c c53d 9b87 633e 4e4c 583e
000002e0: 1f1d 8ebd 39cf 193d 01f3 883c 9331 ff3d
000002f0: 14ba c13d 3526 0a3b 47fb 1abd 2997 3b3d
00000300: 77b7 d83d 8638 6d3e 9f30 e5b9 8cad 4e3d
00000310: d2a3 c3ba 2211 273d bcd7 753d 3ab4 4d3c
00000320: 7014 15bd f281 fc3d 5538 af3e 9891 e13d
00000330: 66fb 73bd bb3f e3bd 770a d53d 8b4e 83bd
00000340: d0cf 583c 1a2a 78bc 9be8 063d 90ad 323c
00000350: 342b 633d b4e1 643d 123b b03c accc 223d
00000360: 7ec6 8abc f311 c33c 81af 2e3d 91d9 983c
00000370: 11ad 6c3b 9da3 743b bb85 0d3d 4452 4f3d
00000380: f3c6 523c 67fb 0b3e c36e be3d 7156 ff3c
00000390: c2ba 003d 9389 c9bb 3c1a 893d bef2 59bc
000003a0: 0027 973c 8328 f23c 2943 84bc 1df7 d1bc
000003b0: 5c64 1bbd f43e 2abd 815e 15b8 2ad2 d4bd
000003c0: 1a79 5e3c 208d d73d 0c1f 173d 66f2 2d3c
000003d0: 1f4b 8a3d 2888 823d e7db f4ba 9327 54bd
000003e0: 480f b1bc ef5d d8bc c791 b8be 3dd2 563c
000003f0: 6991 503d c2f7 80be 2d50 9f3d 8fba 543e
-0.15307102 -0.06744637 0.02856494 0.11312105 -0.055259373 0.026869405 -0.03959439 0.065600365
0.024012165 -0.004479893 -0.1560804 -0.09323915 -0.016089953 0.162426 0.11937396 0.0016989462
-0.13834426 -0.062805556 -0.120942056 -0.08727012 -0.07693207 0.039117586 0.19082785 0.12838034
-0.021556176 0.03360824 -0.115959026 -0.14931126 -0.12676182 -0.12152103 -0.10571122 0.015464766
0.2107561 0.3593822 0.042007163 0.02209915 -0.09628026 0.067764446 0.021428179 -0.0046542934
-0.10088275 -0.011207602 0.15136917 0.020864561 -0.10602913 -0.06506365 -0.055171724 -0.10214512
-0.007891597 0.01227156 0.07047128 -0.061325397 -0.009692916 0.047073457 0.00075067015 -0.026564956
-0.023982998 0.020478545 0.013036188 0.008664555 -0.0009171248 -0.055163924 0.0658349 -0.010283019
0.0067666364 0.093559325 0.106808566 0.029597824 0.008218868 0.035927422 0.07703175 -0.028934183
0.029798623 0.04993591 -0.018352745 -0.07651444 0.054000814 0.13770525 0.08082485 -0.034615416
-0.1179021 0.018139075 0.12808147 0.0022834456 -0.117633075 0.004056622 0.024574064 0.056322854
-0.07353221 0.029181492 -0.116920136 -0.07148582 0.159695 0.33331102 0.022502279 -0.019532965
-0.12518363 -0.09175177 -0.1141302 0.12968443 -0.052820515 0.14145634 0.18793844 -0.045079637
-0.114966504 -0.011921598 -0.13381806 -0.1438417 -0.11957303 0.017566334 -0.10700356 0.14255928
0.35047314 0.096607305 -0.078491636 -0.008516355 -0.020446535 0.06850693 -0.009533573 0.064644225
-0.005211602 0.03413934 0.10484065 -0.11476148 -0.10414884 -0.051186465 -0.061346304 -0.06795079
0.08143709 0.06723925 -0.00797378 -0.050789036 -0.0052713705 -0.016319927 0.018281754 0.037299316
0.016684888 -0.052846882 -0.06442127 0.040017303 -0.03148654 0.015510049 0.029680913 -0.01958426
0.074172586 0.13767748 0.0398763 -0.02100727 0.009450636 0.032529056 0.009510478 -0.001865569
0.046408784 0.0037213233 0.03413397 0.0093942825 0.067980416 0.09279354 -0.0371114 -0.09348561
-0.10077403 -0.014981737 0.12520923 0.3471422 -0.0045908275 0.011054067 -0.035360277 -0.0061025037
0.008480078 -0.014220641 -0.030268576 -0.028513977 0.07464772 0.22462144 0.33422068 -0.039921537
0.011202715 0.07939907 0.087952 0.004893288 -0.06140996 0.09630625 0.22219698 0.21122858
-0.06939148 0.03755114 0.016717436 0.124606274 0.0945932 0.0021079902 -0.037837293 0.045798454
0.10581868 0.23166093 -0.0004371451 0.050458476 -0.0014926142 0.040787823 0.060020193 0.012555176
-0.036396444 0.123294726 0.34222665 0.11014098 -0.059565924 -0.1109614 0.10402387 -0.06411465
0.01323314 -0.015146757 0.032936674 0.010905638 0.055461124 0.05587931 0.021512542 0.03974597
-0.016940352 0.02381227 0.042647842 0.018658431 0.0036113898 0.0037328966 0.034551363 0.050615564
0.012864816 0.13670121 0.0929847 0.031169148 0.031428106 -0.0061504333 0.06694457 -0.013302503
0.018451214 0.029560333 -0.016145306 -0.025630528 -0.037937507 -0.041563943 -3.5612382e-05 -0.10391648
0.013578678 0.10524964 0.036894843 0.010616874 0.067526095 0.06373626 -0.0018681259 -0.051795553
-0.021613732 -0.026411979 -0.3604872 0.013111648 0.050919924 -0.25189024 0.07778964 0.20774291

ds.proj_conv1.bias f4 [8]
00000000: 2a13 0fbe 6d59 26be c1a2 1e3d 25d8 1fbe
00000010: fb6b 9bbd 070e 8c3d 5f37 28bf ff76 4abd
-0.13972154 -0.1624505 0.038729433 -0.15609796 -0.07588955 0.06838613 -0.6570949 -0.04942989

ds.proj_bn1.weight f4 [8]
00000000: da20 ad3f a23b af3f 2a78 ab3f ae5d c83f
00000010: 75f1 d13f dc0a c03f 66cb b43f 67a5 bb3f
1.352565 1.3690073 1.3396046 1.5653589 1.6401812 1.5003314 1.4124572 1.4659852

ds.proj_bn1.bias f4 [8]
00000000: 1316 1e3d 32be 573d 7b27 4cbd d457 373e
00000010: ac75 583a 41c0 943d 778b 7d3e f7c6 6c3d
0.03859527 0.05267162 -0.04984234 0.17904598 0.00082572806 0.07263232 0.24760233 0.057806935

ds.proj_bn1.running_mean f4 [8]
00000000: baa2 96bd a4c0 01bd f7f7 683f 2db9 3fbe
00000010: 45a8 d1bd 243f 873d b94b bdbf 1a33 4e3f
-0.073552564 -0.031677857 0.91003364 -0.18722983 -0.10237173 0.0660384 -1.4788734 0.80546725

ds.proj_bn1.running_var f4 [8]
00000000: ec42 ec3e 3b13 c33e 85ff fd3e c29a 0f3f
00000010: f4ee ba3e 5fe3 223f 4f8a f73e 8469 b33f
0.46144807 0.3810061 0.49609008 0.56095517 0.36510432 0.6362819 0.4834771 1.4016576

ds.fc1_conv.weight f4 [128, 256]
00000000: 5433 a73e 7207 083e 609b 443d 7922 df3e
00000010: 3f1d 243e 0335 b73d beea c7bb af70 8d3c
00000020: cbd3 75bd 9d78 25bd 45d4 043e 6033 5d3e
00000030: 4b06 583d f8f4 d43d d837 123d 63e5 9ebe
00000040: 661c 5bbe 953f 04be dc66 5d3d 8e52 d03d
00000050: 05b2 35bd c43c c43d 2073 2e3d fed7 0c3d
00000060: 2e2c 193d 1e5c bbbc 6f9e 093b 0813 083e
00000070: c896 703e 7ea7 8d3e 0444 7d3e 5686 593e
00000080: 3d46 b63e a04c 6c3e c4ec 733d 5875 ce3d
00000090: 2a22 0c3e 45ca 603e b26e 723d 30e0 443a
000000a0: b8af 1d3c 8d63 1ebd 8a28 0cbd 3059 cd3d
000000b0: 06dd 64bd f06c 143e fc54 973b b507 53be
000000c0: 84fd 57be 8f2b 4abe 385b 2b3d f0d9 de3d
000000d0: 93f1 773d b92c 1f3e c76d 923b f3f9 e63c
000000e0: b1ef 903d eb5d ee3a 6221 57bd 3cc6 a33d
000000f0: ca93 8e3e 48c1 923e 7e05 953e 2444 843e
00000100: f9e0 193e 8409 903d 79e5 263d 332e 1a3e
00000110: b16d fe3d 63a5 ee3d 2381 6b3d 7e90 b7bb
00000120: 1432 15bd ea7f 83bc 4816 d73d b048 093e
00000130: b9a4 b63d a965 ad3d f642 7ebd 98e7 25be
00000140: 2c12 d1bd 2ffc 06bd e950 a83d 8a1e 003e
00000150: ee87 dbbd c44b 943d 43a6 943b cbc1 f13c
00000160: cd22 6c3d d4b3 9dbc 3d6f 423c 4849 203e
00000170: 09b1 3c3e aad3 1a3d 9c80 3a3d 0f2f ee3d
00000180: 0aa5 a2ba 22e7 32be 3785 73bd 5557 aebd
00000190: ce8a 3abe 68db 8abd b23b 703d 4960 0b3e
000001a0: 7689 ee3d db7d 093e 32e4 2f3e 6f4d 1e3d
000001b0: fe70 09be 5321 f5bc 31be e83b 42c0 ef3e
000001c0: fa59 f03e b930 673e 4f91 893e 8798 d9bc
000001d0: 75a5 853d b99c 50bd 519a 1f3e 55d8 973d
000001e0: a526 873d 2c66 bc3d c50d d73d ede4 d33d
000001f0: 4f30 fcba ad58 6ebd 20d9 10be d2f2 9ebd
00000200: 8973 ce3d 1e2e b33e ec52 9c3e 9a7d 8a3c
00000210: 59e5 283e e690 803e bc03 903c 255e 6bbb
00000220: 6b74 6bbd 80b5 f0bd 803e 0c39 5163 313d
00000230: 85c3 f13d fe8f 11bb 351c 313e a06d 76bd
00000240: 31c2 3cbe 7a19 e1bd bb1b 3bbe 0258 283d
00000250: d650 b63d 98e9 13bc f45c 9ebd f586 d3bd
00000260: 0d0d aabb b8f9 2c3d 58f9 77bd a713 f43c
00000270: 5d7a e43d 3318 903e 7d32 d83e 91d4 8e3e
00000280: ad29 06be 7623 cebd def0 98be 73bb debd
00000290: 7c44 8fbd b6a2 3c3d f42a e53d 7abd 053d
000002a0: 1463 463d 27df 353d 1f43 96bd f513 433a
000002b0: 5240 dbbb 1623 923d 02b7 d43e 27c7 af3e
000002c0: 120b 5c3d 173e 06bd 950b f2bd 570d 83bd
000002d0: 81f0 b6bd 2fcc 99bd fd3f 413c 017e 273c
000002e0: 4d07 873d 658f 883d 7e69 9b3d 4a31 5ebc
000002f0: 89cf 80be a973 9ebd 5fef a6bd 624d cebd
00000300: 8f7b 713e 4772 4a3d 30a9 613e 9ab1 193e
00000310: 1499 c8bb 4c33 9abd 10ec 803c f973 cebd
00000320: 561d aebb 8923 253e b485 643e c79e f43e
00000330: c3c7 e83d ded3 603d 249f 43bd 5201 213d
00000340: a3e1 ce3d f86e c43d 5dc2 963e 0909 413e
00000350: 4d39 793e 7b45 ab3c aedf 403e 00fb 4f3d
00000360: 8942 e9bd 8a11 663c eff1 f03b 99a5 1a3d
00000370: 2c08 f23d 4a46 ad3d 2003 983d cf0a 973d
00000380: d6f4 dbbe 63e6 4abd 201c 5dbc ea9a afbe
00000390: 9d1f 39be 9edb 333d 0041 d53d f3ab 023e
000003a0: 0e6f 103e 668c ca3d b3cb 5a3d 3ff6 49be
000003b0: e962 72bd ec09 d2bc fa95 823e e8df 083f
000003c0: f6ff ac3e 7ae1 a23e 750c 843c bc1d 1ebe
000003d0: 0e9a abbd be49 c7bd 248c 89bd f7a8 513d
000003e0: 1794 b73d 04b5 bb3d dffd ef3d 3975 843d
000003f0: 5b4a fdbc 0ded 0abe 7c25 e7bb ca5d 2ebe
0.32656348 0.1328409 0.04799974 0.43580988 0.16026781 0.08945658 -0.0061009815 0.017265646
-0.060016435 -0.04039823 0.129716 0.2160163 0.052740376 0.103982866 0.035697788 -0.31034383
-0.21397552 -0.1291488 0.054053172 0.10171996 -0.044359226 0.095819026 0.04259026 0.034385674
0.03739565 -0.022871073 0.0020998975 0.1328851 0.23495018 0.2766685 0.24732977 0.21242651
0.35600463 0.23076105 0.05955197 0.10080975 0.13684908 0.2195216 0.0591876 0.0007510213
0.009624414 -0.038669158 -0.03421835 0.10026777 -0.055874847 0.14494681 0.004618285 -0.20608409
-0.21092802 -0.19743179 0.04183504 0.10881412 0.060533118 0.15544404 0.004468653 0.028195357
0.070769675 0.0018185949 -0.05252207 0.079967946 0.2784713 0.28663087 0.29105753 0.25833237
0.15027227 0.07033065 0.040746186 0.15056686 0.12423266 0.11652639 0.0574962 -0.0056019416
-0.03642471 -0.016052205 0.10502297 0.13406634 0.08918137 0.08466656 -0.062075578 -0.16201627
-0.10208544 -0.032955345 0.082185574 0.1251165 -0.10719286 0.07241014 0.0045364215 0.029511353
0.057650376 -0.019250788 0.011867342 0.15652955 0.18426909 0.037799515 0.045532808 0.116300695
-0.0012408805 -0.17470983 -0.059453215 -0.08512751 -0.18217012 -0.0678013 0.05865068 0.13610949
0.11647312 0.13426916 0.17176893 0.038648065 -0.1342201 -0.029923117 0.0071027507 0.4682637
0.46943647 0.2257718 0.26868674 -0.026561989 0.06525699 -0.050930712 0.15586211 0.07414309
0.06599168 0.09199175 0.10500673 0.103463985 -0.0019240471 -0.058190037 -0.14145327 -0.07761158
0.1008063 0.34996122 0.30532014 0.016905595 0.16493739 0.2511055 0.017579906 -0.0035914269
-0.05748407 -0.117533684 0.00013374723 0.043307606 0.118048705 -0.002221107 0.17295916 -0.06016314
-0.18433453 -0.109911874 -0.18272297 0.041099556 0.08902137 -0.009027861 -0.07732573 -0.103284754
-0.005189544 0.042230338 -0.060540527 0.029794527 0.111561514 0.28143463 0.4222602 0.2789655
-0.13101836 -0.100653574 -0.29871267 -0.10875597 -0.06995484 0.04605361 0.11189833 0.032651402
0.048434332 0.044402268 -0.07337021 0.00074416335 -0.006691017 0.07135598 0.41545874 0.3433163
0.053721495 -0.032774057 -0.11818615 -0.06399029 -0.08932591 -0.07509648 0.011795041 0.010222913
0.065931894 0.06667975 0.075884804 -0.013561556 -0.25158337 -0.07736904 -0.08151125 -0.10073353
0.2358229 0.04942539 0.22037196 0.15009156 -0.006121764 -0.07529315 0.015737563 -0.10080714
-0.0053135557 0.16126837 0.22316629 0.47777387 0.113662265 0.054889552 -0.04775919 0.0393079
0.101016305 0.09591478 0.29445162 0.18851103 0.24338265 0.020907154 0.18835327 0.05077648
-0.11389644 0.014042268 0.0073530595 0.037755582 0.11817965 0.08460672 0.07422471 0.073751085
-0.42960232 -0.04953612 -0.013495475 -0.34297878 -0.18078466 0.043910615 0.104127884 0.12760906
0.14104864 0.0989006 0.05341692 -0.19722842 -0.05917636 -0.025639497 0.25505048 0.53466654
0.33789033 0.3181265 0.016119221 -0.1544103 -0.08378993 -0.09730862 -0.06716183 0.051186528
0.08963793 0.09165385 0.11718344 0.06467671 -0.030919245 -0.1356699 -0.007054029 -0.17027965

ds.fc1_conv.bias f4 [128]
00000000: 8e8d c53d 00c9 863c 6bd7 883c eea6 8c3d
00000010: 824c ab3c 4818 2bbd 542a db3b 4649 b3bd
00000020: a0ed a8bc 575b 9a3c 134c 82bd 4e31 a7bc
00000030: 8ded 2dbd 57cc 16bc 26c5 1c3b 0854 113d
00000040: c253 e03d 1953 8d3c 5f99 a13d afd1 6439
00000050: 54ca 47bd f499 2d3c 47c0 9a3d c0c0 ae3d
00000060: 813a 2fbd 64ea 583d 63d7 c53d f474 113d
00000070: f1e2 5ebd d407 11bd 4b4f 9f3d 1241 d43c
00000080: bf53 27bd c7f7 093e 118a 913d 0d51 a03c
00000090: 6e32 263c 36a4 c9bb a331 313c 356e 9bbd
000000a0: 5d1a 8e3c de8e ac3b 7596 99bc 1263 523d
000000b0: f25a 9fbc ee9f 57bd e9ce 93bd 0872 8a3c
000000c0: 2270 51bc cd00 353d c2da a93c 2ac2 4dbc
000000d0: 5784 7fbb ead8 a63c 86ae 4abc 8855 873d
000000e0: c414 af3c 6eb3 6c3d 3fcf 293d 52a4 d23a
000000f0: 89df e1bd 7e01 6bbc fac1 a93d b8bf 51bd
00000100: d9cd 0d3d a360 f1bc ce95 45bd 0b9a 4ebc
00000110: b4cb 6a3b c0ce 93bd 5675 62bd 31eb 41ba
00000120: 6407 54bd be73 803c ee8d b73d 413a 393d
00000130: 444a 79bd 9713 49bd 6d14 c2bd fe3c b43c
00000140: d233 d73c c367 093d f3d6 e23c 2b73 133c
00000150: a688 9a3d 52b4 5f3d 39bb f33c 2ea8 1b3d
00000160: 99fc 37bd 5511 a7bd f67f 123e c505 f23d
00000170: 0101 3d3d d512 553d 3a12 28bd 193e 48bd
00000180: 9d24 f23b 4771 c4bc c231 903c 2edf 4bbd
00000190: f910 22bd 8e44 52bd 5570 2bbc fc9c 153e
000001a0: 4820 c43c 1240 63bd 9701 8e3d 9bc4 713c
000001b0: 8636 33bd 8b8c f93b f4e0 dc3d a6a4 22bd
000001c0: 61c7 8c3d b5ba 0a3d 0e95 d1bc ca4c b83c
000001d0: af7f 373d 7f72 f93c 26cf 27bd caf4 6e3d
000001e0: d07b ff3d c0c8 843c 4f23 e0bc 8bc0 923d
000001f0: fa97 9f3c 2157 3e3d f7db e03c a115 1f3c
0.0964614 0.016453266 0.016704282 0.06867777 0.020910505 -0.041771203 0.0066883955 -0.0875421
-0.02062112 0.018842382 -0.06362166 -0.020409252 -0.042462874 -0.009203992 0.002392122 0.03548053
0.109534755 0.017251538 0.07890581 0.00021821888 -0.04877694 0.010595787 0.07556205 0.08532858
-0.042780403 0.052957907 0.096602224 0.035511926 -0.054415647 -0.035407856 0.07778796 0.025909934
-0.04085135 0.13473426 0.07106412 0.019569898 0.010143859 -0.0061536087 0.010815057 -0.0758938
0.017346555 0.0052660545 -0.018748501 0.051364012 -0.019452546 -0.052642755 -0.07217199 0.016900077
-0.012783082 0.044190217 0.020734195 -0.012558499 -0.0038988793 0.020367105 -0.012370711 0.06608111
0.021372207 0.057788305 0.04145741 0.00160707 -0.11028964 -0.0143436175 0.08288951 -0.051208228
0.03462014 -0.029465025 -0.048238568 -0.012609969 0.0035826983 -0.07217169 -0.05528768 -0.0007397412
-0.05176486 0.01568019 0.08962618 0.04522157 -0.06086184 -0.049090948 -0.09476552 0.02200174
0.026269827 0.03354622 0.027690386 0.008999626 0.07545595 0.054615326 0.02975236 0.038002186
-0.04491863 -0.08157603 0.14306626 0.11817507 0.046143536 0.052019913 -0.041033007 -0.048887346
0.0073896185 -0.023979796 0.017601851 -0.049773388 -0.039566968 -0.05133491 -0.010463794 0.14610666
0.023941174 -0.055481024 0.06933897 0.014756347 -0.04375317 0.007615631 0.10785094 -0.039707802
0.06873966 0.033869464 -0.02558377 0.022497553 0.044799503 0.030450104 -0.040969037 0.058338918
0.12474787 0.016209006 -0.027360586 0.07165631 0.019481648 0.04646981 0.027448637 0.009709747

ds.fc2_conv.weight f4 [64, 128]
00000000: daa1 58be 45f8 b7bd 298d de3e e80f cbbd
00000010: 91e7 133b 4aba a3bd 8e64 3f3f ee7d 3abe
00000020: cca5 20be 03f2 d13c d9c5 0abe 36c4 383f
00000030: 5fce 633c 2717 073e 60e1 553d 04a4 e9bc
00000040: 7d3d 303d cb7d 563e a970 36be bdc6 903e
00000050: b5e1 c3be 20af 37bd 2765 acbc 2695 ebbd
00000060: 8826 e5be a342 43be bf14 c13e 6491 033e
00000070: 0121 a53d 0120 bc3d 5bc1 fb3d 1459 d3be
00000080: 66b0 a7bc 01ed 443d 8036 593d e88c c3bc
00000090: 3403 923c 6893 86bd 5606 2dbd f558 52bd
000000a0: 509e 79bd 1ce2 213d 9745 cdbe 6b95 b9bd
000000b0: 5eae edbd 44c4 a73c f6f6 f4bd b318 813e
000000c0: a7a7 81bd d82c c1bb 0c0e 8cbc 47d5 cb3e
000000d0: 2c74 1abd db81 603d 0b40 5bbd bf17 6fbd
000000e0: d395 02bd 9e50 e83d a9b1 823d 4ad3 b3bc
000000f0: 2352 4dbc ef3a 3b3d 500e 6bbe 0b67 9dbc
00000100: 186a e5bc 0828 50bd 8b9b 7abc 3a26 013d
00000110: d2c6 68bc a84b 44be 3104 48bd 7382 a7bd
00000120: 4363 25bd 5980 ebbc a7ca b73e 55bc b43e
00000130: a85f 58be 9e98 2dbb c43b dd3c 51ed 58bd
00000140: 3174 81be d614 ab3d e26d 60bd 6f28 823d
00000150: 6c53 d73c 2365 eb3c 033d bf3d f475 54bd
00000160: adc6 3a3d 8819 d6bd 2d64 433d 57a1 443e
00000170: d7e1 1e3d be3a a53d 1128 f1be 3092 003e
00000180: abc4 193d 8aed 0e3c 48cf a83d ac80 45ba
00000190: f9e1 91bd 0541 1ebd b93a 84bd 12e4 e8bb
000001a0: 404e e5bc b7c3 94bc fb3b 23bc 1b59 fa3e
000001b0: 817b 9a3d f60d 20bd 871e 3b3e eab5 cabe
000001c0: 39f8 4bbc d0f5 ab3e be10 353e acd7 58bd
000001d0: fad8 babb 7d62 8fbc fe21 f3be af92 d1bd
000001e0: d316 513d f26f 893d 079a 553e 2b11 2c3e
000001f0: 1b96 af3e 5fb5 df3e c3b5 6a3e 6860 ccbd
00000200: 7cda 49bd 1d7d c9bc c60e 94bd cee4 e83d
00000210: b6a0 a43d e82e 773e 35c9 bfbe fc0a 1f3f
00000220: b7c8 22be 0756 2abe e891 743e 9d4e a5be
00000230: 6607 9ebb af0b f83c fddd d23b 968b 33be
00000240: b002 acbd 1877 cabd b294 cfbc 2c6a a83a
00000250: 1e58 7a3e 0c46 ba3d 1a3a 063d 37be 0fbe
00000260: 7f39 1c3f 0603 a93c f582 6ebe c234 97bd
00000270: ccfc 36bd 3e48 523e 1263 fabd b402 2e3e
00000280: c850 543d d468 25be f355 8a3e a50a 5f3e
00000290: 9906 2cbe 94e2 823e 8b0b 6d3e d365 d03e
000002a0: c962 833e 1773 cb3c be96 893e 2e0d 173e
000002b0: 66fe 0a3f 2d32 87bd eaf7 0a3f 3174 a8bd
000002c0: 269b 8c3e 866b 3dbe e61f 32bd 2403 5ebe
000002d0: 8bac 783d 1f06 34be 0019 013e 92f7 e13c
000002e0: 2698 843e 2cff 8fbe dc0e 91bd 28de c33c
000002f0: 9a8a 563e a1c4 6dbd 3d50 99bc 627c 8d3e
00000300: ab14 603e 5375 643b f923 f73b 1a51 323e
00000310: feb2 58bd dfa8 113f b06f 983e 3c21 213e
00000320: 1183 d13e 5a54 3e3e fd04 b0be f757 77be
00000330: c2b5 a13e add0 07bd 9f05 9a3e 6677 2abd
00000340: c5ff dcbd 693f 973d b07d 673e 9081 043c
00000350: 729d 293e 571b e63d 87b0 063d 6f18 823e
00000360: 9433 243e 2b8a e63e 83c1 1dbe 31e8 2abe
00000370: fa99 8dbe f00d aebe 174b 9a3e 1df5 99bc
00000380: 757b 41be 49c0 2b3e 781a 61be 32ef 34b9
00000390: 493f c13d d748 ab3d d152 7e3d 7833 02be
000003a0: 247e f53d 2572 833e 2237 9c3d 3696 92be
000003b0: b3ce 553e 9b75 063e 872c c6bd 988f 843e
000003c0: 21c6 393d ced7 61be 2e62 17bc 682b 3abc
000003d0: 5df4 3e3e e0c3 6f3e e310 a03e 0e39 6d3e
000003e0: 1ffc 55be e363 a5bb 9942 e0bd f270 48be
000003f0: ea84 4cbe 4416 81be dd22 4bbe 275c d73e
-0.21155491 -0.089829005 0.43467072 -0.09915143 0.0022568444 -0.07994516 0.7476281 -0.18212101
-0.15688246 0.025628095 -0.13552035 0.72174394 0.013904183 0.13192426 0.052216887 -0.028520592
0.04302739 0.20946424 -0.17816414 0.28276625 -0.38258138 -0.044844747 -0.021044327 -0.11503057
-0.4475596 -0.19068389 0.3771114 0.12848431 0.080629356 0.09185792 0.12292739 -0.412789
-0.020469856 0.048077587 0.05303049 -0.0238709 0.017823793 -0.06571084 -0.04224237 -0.051354367
-0.060941994 0.039522275 -0.40092155 -0.09061702 -0.116055235 0.020479329 -0.119611666 0.25214157
-0.06330805 -0.0058952384 -0.017096542 0.39811155 -0.037708446 0.05481134 -0.053527873 -0.058372255
-0.031881165 0.113435015 0.06381542 -0.021951336 -0.01253179 0.0457105 -0.22954679 -0.019214174
-0.028004691 -0.050819427 -0.015295873 0.031530596 -0.014207559 -0.19169486 -0.048832122 -0.08179178
-0.040377866 -0.028747724 0.358968 0.35299936 -0.2113024 -0.0026488672 0.027006038 -0.052960698
-0.2528396 0.083535835 -0.054792292 0.06355368 0.026284896 0.02873475 0.09337809 -0.0518703
0.04559963 -0.104540884 0.047702957 0.19202171 0.038789596 0.08067845 -0.4710088 0.12555766
0.037541073 0.008723626 0.08242661 -0.0007534127 -0.07123179 -0.038636226 -0.06456513 -0.007107266
-0.027991414 -0.01815973 -0.009963031 0.48896107 0.07543088 -0.039075814 0.18273364 -0.39591914
-0.012449318 0.33585978 0.17682168 -0.052940056 -0.005702135 -0.017503018 -0.4748687 -0.10233056
0.051047157 0.06710805 0.20859538 0.16803424 0.3429421 0.43693063 0.22920899 -0.099793255
-0.04928063 -0.024595791 -0.0722938 0.11371766 0.08038466 0.24138987 -0.37458196 0.62126136
-0.15896879 -0.1663438 0.23883784 -0.3228654 -0.0048226593 0.030279009 0.0064351545 -0.17533717
-0.0839895 -0.098859966 -0.025339458 0.0012849024 0.24447677 0.09095392 0.032770254 -0.14037405
0.6102523 0.020631324 -0.23292144 -0.0738311 -0.04467468 0.2053537 -0.122259274 0.16993219
0.05183485 -0.1615327 0.270187 0.21781404 -0.16799392 0.2556349 0.23148935 0.40702686
0.25661305 0.024835153 0.2687282 0.14751121 0.5429443 -0.06601367 0.54284537 -0.08225287
0.2746212 -0.18498048 -0.043487452 -0.21680886 0.060711425 -0.1758046 0.12607193 0.027583871
0.2589733 -0.28124368 -0.07082912 0.023909643 0.2095131 -0.058048848 -0.018715018 0.2763396
0.21882884 0.003485997 0.00754213 0.1741375 -0.052905075 0.568983 0.2977271 0.15735334
0.40920308 0.18586865 -0.34378806 -0.2415465 0.31583983 -0.033157993 0.30082414 -0.041617773
-0.10790972 0.073851414 0.2260654 0.008087531 0.16563967 0.112356834 0.032883193 0.25409266
0.160353 0.4502729 -0.1540585 -0.16690136 -0.27656537 -0.33995008 0.30135414 -0.018793637
-0.18894751 0.1677257 -0.21982753 -0.00017255245 0.09435899 0.083635025 0.0620907 -0.12714946
0.1198695 0.25673023 0.07627703 -0.28630227 0.2087963 0.131308 -0.09676462 0.25890803
0.045354966 -0.22054979 -0.009239716 -0.011362888 0.18647905 0.23414564 0.31262884 0.23166296
-0.20896958 -0.005047308 -0.109502025 -0.19574335 -0.19972578 -0.252123 -0.19837518 0.42062494

ds.fc2_conv.bias f4 [64]
00000000: bf34 6c3d 19e7 a7bb 52e4 923d 6113 85b9
00000010: adc3 a43d cdf3 893d c5bb 933b 7d70 3cbd
00000020: 8c7f 183d 2c20 b73d a9e8 0cbd 4614 77bd
00000030: 7789 a7bc 4da9 1b3d 26ae 00ba a047 03bd
00000040: 2750 143c 935c 253d f21b ddbb c8b5 af3d
00000050: 3f2b 423c dc85 9a3d 47fb 513d 14e8 843d
00000060: f87f 2f3d 5e81 383d 2271 0d3e f5f2 de3d
00000070: d7a8 033d d05a e9bc 0a83 cd3d b61f 9d3d
00000080: 898b fcbc 339d fb3b c7c6 71bd 6586 63bd
00000090: a776 693d 17c8 943d 5778 043e 00ba c03d
000000a0: 0ed5 883d 6ec5 7dbd f992 7f3d 1661 34bd
000000b0: aa3f c9bb fd60 b43d c615 41bd f650 12bb
000000c0: 11ec 0a3d 96f9 983c 2208 b13b 1bd1 01bd
000000d0: c374 1a3e ddb8 033e 9d11 983c a936 f03d
000000e0: 2ece 403d 8a0f f93d f231 a1bc af98 3c3c
000000f0: 2510 863d 3135 d43d a53b 9a39 b328 bf3c
0.05766749 -0.0051239845 0.07172455 -0.00025382175 0.08045135 0.067359544 0.004508468 -0.046005715
0.037231013 0.08941683 -0.03440157 -0.06032207 -0.02045129 0.038003255 -0.00049087626 -0.03205073
0.009052313 0.04037149 -0.006747716 0.08579594 0.011851131 0.07545063 0.051265027 0.06489578
0.04284665 0.04504525 0.13812688 0.10886184 0.03214344 -0.028485686 0.10034759 0.07672064
-0.030828254 0.0076786517 -0.05902746 -0.05554809 0.05699792 0.072647266 0.12936531 0.09410477
0.06681262 -0.06195586 0.062396023 -0.0440379 -0.0061416226 0.088075615 -0.047139905 -0.0022326089
0.033916537 0.0186737 0.005402581 -0.03169356 0.15083604 0.12863488 0.018563086 0.117291756
0.04707163 0.12161167 -0.019677136 0.011511012 0.06546048 0.10361708 0.00029417608 0.023334837

head.weight f4 [15, 64]
00000000: 1889 8abf 0034 3b3e 64f8 29be ed3d 86be
00000010: 57f0 2dbf 6081 833d cf7c 283e ba36 4cbe
00000020: aa29 71be 3e70 69bf f1b5 19bf a3da 4dbe
00000030: 4f75 03bf ee76 72be fe1c 0dbf 7522 f9be
00000040: 07d6 cf3e a761 7a3e 6bf5 babe 71a3 c13d
00000050: ea6e e4be c610 b93e 6476 543e c6a3 9e3e
00000060: 4a1b 34bf bef1 0bbf ebb1 033e 826c df3d
00000070: 7f43 6a3e d0e8 70be 20aa 263e b729 11bf
00000080: 9688 0dbf 9c0c 27be 111e edbe 0db1 4fbe
00000090: 5d15 69bf 3281 4cbe 62d6 da3d 2c47 293e
000000a0: 897c 3c3d e008 d2be 9769 52bf 7a31 403e
000000b0: 3d01 1ebe 03cc e13d 53e2 05bf 1778 32be
000000c0: 7e9b cebe 5085 59be d719 cebe b8f4 dcbd
000000d0: ffe5 fc3d 466a dc3d c532 033f 315c 0a3e
000000e0: 24df 6b3e 9500 343e 71d3 09bf 61b5 5abe
000000f0: a292 a53e 2a9f e73c 5e10 e3be 00c4 8ebe
00000100: 9cc6 ad3d 7b64 2dbf 3509 f7be e6ae 8b3e
00000110: defb bd3d 9126 5dbd 0c84 71be 536a bbbe
00000120: 925f 943e a4cc b1be 624d 42bf b825 50bf
00000130: 976a 9e3d f4f6 98be 5ed0 a53e 9214 b83c
00000140: ca8f 993e 9cfa 913e cccc a1be 3ab8 39bf
00000150: bc4c b2be 3d9a 7e3c 58a5 21bc c084 91bd
00000160: 49d8 fdbb 4a26 97bd 4a3b fdbc 5b61 a7bd
00000170: ffaf cebc b132 9d3e e6ed 7abc 45f9 b1be
00000180: 9a44 90be 423f a9be 3a75 69bd 5822 9a3e
00000190: 538f 5b3d a0b4 a53e ad68 19bf c31e 1abf
000001a0: fe14 733e f5a8 a7be 9b02 703e bf3c e6be
000001b0: 2526 a0be ea78 d3be db07 f2be 5c7f 57bf
000001c0: b4fd 123e aa0a 7e3e 94fd 5fbe 540d d7be
000001d0: d494 20bf 2d5a 25bf ccf9 083c e686 153d
000001e0: 2009 0fbd 5d8e 9e3e f518 523d 9944 5f3e
000001f0: 3874 a53e ad44 1bbf dbc9 b83c 3d80 ba3e
00000200: 09d4 1d3e 7542 d8be d0a3 c0be 0e41 2b3e
00000210: daad 533d 9fe9 983d 62d4 8b3e 68fa 0ebf
00000220: a1b6 1e3e fc88 09bf b0e8 f53e 9504 fb3e
00000230: 9895 1f3d fc90 f7be 4ab9 c1be a5cd 153d
00000240: 5c63 2dbf bf28 2cbf ea01 ddbe 4357 d0be
00000250: d799 08bf 7411 e53d 62eb 123e 6a76 8e3d
00000260: 421d f53d 9248 183d 643a 4fbf cb6e 4b3d
00000270: fbea e63d 1f6d 193e 24c3 2f3e a6da 06bf
00000280: 6d88 5c3e ec36 0cbf 9335 953d 1206 273e
00000290: 00fe d83d 6b29 0b3e 320a d6be c6d7 a0be
000002a0: 3edf 2abf 55e4 753e 74dd 2f3e bf1d a6be
000002b0: cff7 02bf 94ed c5be 7594 06bf 65e8 ec3e
000002c0: 87d3 963d b02b ec3d 65b8 acbe 76c0 18bf
000002d0: c005 e7be 17de b7be 4c08 183e 7850 cf3d
000002e0: a132 823d a61f 36bf dac7 633d adff 3b3e
000002f0: 4bba 38bf 121a d9be a16f 393e a1da 273e
00000300: 0a25 0cbf 811c e13e cf1e dfbe e53a 3e3d
00000310: 32d4 25bf fc0d a0be c8c9 553f 09d8 b73d
00000320: 8c9a 103d e231 1e3d f5a1 473e bc90 533d
00000330: ae9f 173e 2b23 9e3e db60 c7be ae00 083e
00000340: 5d53 4bbe 1d72 80be 9df5 973d 82cd 78be
00000350: 745f 8f3d 98bb b1be 5c1a 8cbe 862d 25bf
00000360: d05f 1dbf 3616 1d3f 0377 2dbf 27e5 c7be
00000370: dc82 8cbe 8e9f 153e f0c4 99be f245 573d
00000380: c07e 2c3e 2831 963d 1670 f43d e5d8 b13d
00000390: b7b4 37bf 5038 ea3d 35e0 b8be 8855 7ebe
000003a0: 49fb 6ebe 3bf4 183e 9b70 9d3d 8934 6dbf
000003b0: fa4e 8f3d 0fb3 87bf c0e0 273d f389 173d
000003c0: 1ce5 093e bae6 1b3d dce2 873e d798 403e
000003d0: 17c1 babe 0f7a b3be d776 95be d929 a4be
000003e0: e8d2 18bf a7a8 99be 3237 293f 23b4 863d
000003f0: 1571 6dbe 0f73 84bf 6571 aebe cb7a da3a
-1.0823088 0.18281555 -0.1659866 -0.2621912 -0.67944854 0.06421161 0.1645386 -0.19942752
-0.2355105 -0.91186893 -0.60043246 -0.20102935 -0.51350874 -0.2367818 -0.55122364 -0.486591
0.40592977 0.24451314 -0.36515364 0.09455002 -0.4461587 0.3614561 0.20748287 0.30984324
-0.7035414 -0.54665744 0.12860839 0.10909368 0.2287731 -0.23526311 0.16275835 -0.56704277
-0.5528654 -0.16313404 -0.46312 -0.20282383 -0.9104822 -0.19971159 0.106854215 0.16531056
0.046017203 -0.41022396 -0.8219237 0.18768874 -0.1543016 0.1102524 -0.5229847 -0.17428623
-0.40353006 -0.21242261 -0.4025409 -0.10788864 0.12348556 0.107624575 0.51249343 0.1351173
0.2303434 0.17578347 -0.5383826 -0.21358253 0.32338434 0.028274138 -0.44348425 -0.2788391
0.08485147 -0.67731446 -0.48249212 0.27281874 0.092765555 -0.053991858 -0.23585528 -0.36604556
0.28979164 -0.3472644 -0.75899327 -0.81307554 0.07735174 -0.2987591 0.32385534 0.022470746
0.29992515 0.28511512 -0.3160156 -0.7254673 -0.3482417 0.015539703 -0.009866081 -0.07105398
-0.0077467305 -0.0738035 -0.03091206 -0.08172866 -0.025230406 0.30702737 -0.0153155085 -0.3476049
-0.2817734 -0.33056074 -0.05699656 0.30104327 0.05360348 0.32364368 -0.5992535 -0.6020319
0.23738477 -0.3274609 0.23438494 -0.4496822 -0.31279102 -0.41303188 -0.47271618 -0.8417871
0.14354593 0.24808756 -0.21874076 -0.42002356 -0.62727094 -0.6459072 0.0083603375 0.036505602
-0.03492081 0.3096799 0.051293332 0.21803512 0.3231523 -0.60651666 0.02255719 0.36425963
0.15412916 -0.42238203 -0.3762498 0.16724035 0.05167947 0.07466435 0.27310473 -0.5585084
0.15499355 -0.53724647 0.4802909 0.49026933 0.038961023 -0.48352802 -0.37836677 0.03657307
-0.67729735 -0.67249674 -0.43165523 -0.40691575 -0.5335974 0.111849695 0.14347604 0.069561794
0.11968471 0.037178583 -0.8094847 0.049666207 0.11275288 0.14983033 0.17164284 -0.5267738
0.21536417 -0.54771304 0.07285609 0.1631091 0.10595322 0.13590018 -0.41804653 -0.31414622
-0.6674689 0.24012883 0.17174321 -0.3244457 -0.51159376 -0.3865782 -0.5257028 0.46271053
0.073645644 0.1153177 -0.33734432 -0.5966867 -0.45121574 -0.3591163 0.14846915 0.1012277
0.06357313 -0.7114204 0.055610515 0.18359251 -0.7215926 -0.42402703 0.1810899 0.16391994
-0.5474402 0.4396706 -0.43578193 0.046442885 -0.6477691 -0.3126067 0.8351102 0.08976752
0.035303637 0.03862179 0.19495375 0.0516517 0.14807007 0.30886206 -0.38941082 0.1328151
-0.1985602 -0.25087062 0.07419894 -0.24297145 0.07000628 -0.34713435 -0.2736386 -0.6452259
-0.61474323 0.61362016 -0.6775972 -0.39042017 -0.27443588 0.14611647 -0.30033064 0.05255694
0.16845226 0.073335946 0.11935441 0.086839475 -0.71760124 0.11436522 -0.36108556 -0.24837315
-0.23338045 0.14936917 0.076874934 -0.9265829 0.069974855 -1.0601519 0.040985823 0.036996793
0.13466305 0.038061835 0.26540267 0.18808304 -0.3647544 -0.3505406 -0.2919223 -0.32063177
-0.5969682 -0.30011484 0.66099846 0.06577327 -0.23187669 -1.0347613 -0.34070888 0.0016668675

head.bias f4 [15]
00000000: cf5a f03c d803 15be a117 cabd 5ec4 b3bd
00000010: 8495 f63a e8b7 913d e9e2 01be 7f18 193e
00000020: 179d b13d 5c73 9fbd 3925 163e d9fa e53d
00000030: 3fef 7bbd 19d9 1dbc 71a8 3ebd
0.029340176 -0.14552248 -0.09867788 -0.087776884 0.001881287 0.071151555 -0.12684216 0.14950751
0.08672541 -0.07785675 0.14662637 0.11229486 -0.06150746 -0.00963428 -0.046547357
