surrogate/trained_model/BCRNet/model_direct16_fold2.pth (torch, 182605 bytes, 24 tensors)

encoding.conv2d.weight f4 [4, 2, 8]
0	0x3d8c8ef1	0.068632014
1	0x3dbaeafd	0.09126852
2	0x3da1dd19	0.07903499
3	0x3da2c8aa	0.0794843
4	0x3d94a643	0.072582744
5	0x3db3c718	0.087782085
6	0x3dda43ae	0.1065744
7	0x3e1fe508	0.15614712
8	0x3b52139d	0.0032055147
9	0xbd6d505f	-0.057937976
10	0xbd516c32	-0.051128574
11	0xbdb37072	-0.087616816
12	0xbd75be5c	-0.059995994
13	0xbdc31789	-0.09525973
14	0xbdd8351c	-0.10557005
15	0xbd9ecb4f	-0.07753622
16	0xbd501d07	-0.050808933
17	0xbdec4f17	-0.11538523
18	0xbdc6e463	-0.0971153
19	0xbde315c2	-0.11088134
20	0xbdf00d29	-0.1172126
21	0xbde0f1e3	-0.10983636
22	0xbd925e69	-0.071469136
23	0x3c385a7e	0.011252044
24	0x3d9551e6	0.072910115
25	0x3e040bd2	0.12895134
26	0x3e40c4bc	0.18825048
27	0x3dc7f765	0.09763984
28	0x3d9501d0	0.07275736
29	0x3d99d1ad	0.075106956
30	0x3c99c442	0.01877034
31	0x3d0723ec	0.032993242
32	0x3d80770f	0.062727086
33	0x3da13e39	0.07873196
34	0x3d11d2b8	0.035601348
35	0xbe0c27d4	-0.13687068
36	0xbe258a51	-0.16166045
37	0xbe0beca5	-0.13664491
38	0xbbc71bf3	-0.00607633
39	0x3ddcd4b2	0.10782756
40	0xbe3f3e43	-0.18676095
41	0xbdacd76f	-0.08439528
42	0x3d9d1b34	0.07671204
43	0x3e3cf48d	0.18452664
44	0x3e305998	0.17221677
45	0x3d93f66f	0.07224738
46	0x3c16dac7	0.009207434
47	0xbcbee5d5	-0.023302952
48	0x3d969278	0.073521554
49	0x3debd1ad	0.11514602
50	0x3dcd62fb	0.10028645
51	0x3d954f10	0.072904706
52	0x3d6ad177	0.057328667
53	0x3e050341	0.12989523
54	0x3dbd7e33	0.09252586
55	0x3e2384c8	0.15968621
56	0xbd74acb4	-0.059735015
57	0xbd1221e0	-0.035676837
58	0xbd81c45d	-0.063362814
59	0xbe105619	-0.14095344
60	0xbe0984e3	-0.13429599
61	0xbda160a9	-0.078797646
62	0xbde954d7	-0.11393135
63	0xbd8d1899	-0.06889457

encoding.conv2d.bias f4 [4]
0	0xbe4fff56	-0.20312247
1	0xbe24771c	-0.16061062
2	0x3e0d6924	0.13809639
3	0xbe484c45	-0.19560345

encoding.bnorm1.weight f4 [4]
0	0x3fcefb5c	1.6170459
1	0x3fdf7013	1.7456077
2	0x3fb69261	1.4263421
3	0x3fd96341	1.6983415

encoding.bnorm1.bias f4 [4]
0	0x3eda78c2	0.42670256
1	0x3f2b2bef	0.6686391
2	0x3eb088b1	0.34479287
3	0x3edb729f	0.42860886

encoding.bnorm1.running_mean f4 [4]
0	0xbe4cc563	-0.19997172
1	0xbe27dfc3	-0.16393952
2	0x3e0d63bb	0.13807575
3	0xbe461a20	-0.19345903

encoding.bnorm1.running_var f4 [4]
0	0x3fae16b8	1.3600683
1	0x3fc73633	1.5563415
2	0x3e2ea622	0.17055562
3	0x3ff0e2e4	1.8819242

ds.proj_conv.weight f4 [16, 4, 7]
0	0xbd628a44	-0.05530764
1	0xbe0ad8ec	-0.13559312
2	0xbe8f0a3a	-0.2793749
3	0xbeb1b35f	-0.34707162
4	0xbec09670	-0.37614775
5	0xbe5a925f	-0.21344899
6	0xbcc423e8	-0.023942903
7	0x3d428cde	0.047497623
8	0xbcdd5206	-0.02701665
9	0xbd2609eb	-0.040536802
10	0x3c23bd3f	0.00999385
11	0x3a64828e	0.0008716964
12	0xbb6e6b20	-0.003637977
13	0x3caec794	0.0213354
14	0xbc96ff0e	-0.018432166
15	0xbd4e3d3a	-0.05035136
16	0xbda2b7ea	-0.07945235
17	0xbd8e7a3e	-0.069569096
18	0xbd4f61c2	-0.05063034
19	0xbd2c6921	-0.042092446
20	0xbceb439b	-0.02871876
21	0xbe078a9a	-0.13236466
22	0xbe008644	-0.12551218
23	0xbe57649f	-0.21034478
24	0xbecfde86	-0.4059946
25	0xbebe5751	-0.37175992
26	0xbe6d9d09	-0.23204435
27	0xbd0c49e2	-0.034250148
28	0x3d8cccad	0.06874976
29	0x3d974a5e	0.07387231
30	0x3d8251b6	0.063632414
31	0x3d0422a7	0.03225961
32	0x3bba0ce4	0.005677806
33	0xbd01a458	-0.03165087
34	0xbbcdbac2	-0.006278367
35	0x3ce6b162	0.028160755
36	0x3e43f9c0	0.19138241
37	0x3e27030e	0.16309759
38	0x3e416208	0.18885052
39	0x3de6517c	0.11246011
40	0xbdaf9523	-0.085733674
41	0xbd8503a7	-0.06494837
42	0x3ea96fad	0.33093014
43	0x3e406089	0.18786825
44	0x3e0f9552	0.14021805
45	0x3cb8ad5a	0.022543598
46	0x3bc71b6e	0.006076268
47	0x3cfca25e	0.030839141
48	0xbe4e564e	-0.2015011
49	0x3d1ab6c6	0.037771963
50	0x3e18a058	0.14904916
51	0x3e194bf9	0.14970388
52	0x3d855066	0.065094754
53	0x3d6cf56e	0.057851247
54	0x3c62d8a4	0.013845596
55	0xbb6b9b6b	-0.003595079
56	0x3da8cda5	0.082423486
57	0x3c82d586	0.015970957
58	0xbd08bcc2	-0.03338314
59	0xbd840b4e	-0.06447469
60	0xbdda51c0	-0.10660124
61	0xbe08c5b2	-0.13356665
62	0xbde472fd	-0.11154745
63	0xbbfe7436	-0.0077653183
64	0xbbc04eb3	-0.0058687567
65	0xbe0d58ad	-0.13803358
66	0xbe7eda15	-0.24887879
67	0xbe9bbb0f	-0.30416152
68	0xbe88683e	-0.2664203
69	0xbe32b118	-0.17450368
70	0xbd5670e0	-0.05235374
71	0xbdd56d5f	-0.104212515
72	0xbe27c484	-0.16383559
73	0xbdb2cd91	-0.08730615
74	0xbcfec1f9	-0.031098353
75	0xbc9b9b5b	-0.018994978
76	0x3ce0f297	0.027459426
77	0x3d3093ea	0.04310981
78	0xbc38be99	-0.011275911
79	0xbbd3c85c	-0.0064630937
80	0xbd550ae4	-0.05201234
81	0xbda37741	-0.0798173
82	0xbde34358	-0.11096829
83	0xbe0c445d	-0.13697954
84	0x3be2f56a	0.0069262283
85	0x3db2bd11	0.08727468
86	0x3ddeddc4	0.10882142
87	0x3df7239d	0.120673396
88	0x3df9f30a	0.12204559
89	0x3d93cb94	0.07216564
90	0x3c56fe04	0.0131220855
91	0x3a846f05	0.0010103887
92	0x3d8c0c50	0.06838286
93	0x3cc12572	0.023577426
94	0x3d1cc09c	0.038269624
95	0x3d0e727d	0.034777153
96	0x3d1c9d3d	0.03823589
97	0x3ce5a902	0.02803469
98	0x3e212201	0.15735628
99	0x3db085d3	0.08619275
100	0x3d6674ae	0.05626362
101	0x3ddc661e	0.10761665
102	0x3dd9b690	0.10630524
103	0x3e05e5d7	0.13075958
104	0x3deb3849	0.11485345
105	0x3d78e3be	0.060764067
106	0x3dc13674	0.09434214
107	0x3dae43d1	0.08509029
108	0x3dcc7210	0.09982693
109	0x3e11b830	0.14230418
110	0x3d3b6ce3	0.04575814
111	0x3d22c1f9	0.039735768
112	0xbce1349e	-0.02749091
113	0x3d2671a3	0.040635716
114	0x3c9385e2	0.018008176
115	0xbc26715d	-0.010158864
116	0xbc640a9a	-0.013918543
117	0x3c32259b	0.010873224
118	0xbc817280	-0.015801668
119	0xbd9b4e11	-0.07583249
120	0xbca1f5a2	-0.019770447
121	0x3d00ccc9	0.0314453
122	0x3d828230	0.063724875
123	0x3d8f4f55	0.06997553
124	0xbdc2a5ad	-0.095042564
125	0xbcbea7b4	-0.023273326
126	0x3e3d91c4	0.18512636
127	0x3e682b1f	0.226727
128	0x3e9bd2e5	0.30434337
129	0x3e4562ce	0.19275972
130	0x3cf26258	0.02958791
131	0x3cc0b966	0.023525905
132	0xbdb184e2	-0.086679235
133	0xbd0c9dd1	-0.034330193
134	0xbd0c964f	-0.034323033
135	0xbcd4ce44	-0.025977261
136	0xbcf74553	-0.030184424
137	0xbcaa8d8c	-0.020819448
138	0xbcb971fb	-0.022637358
139	0xbc31c971	-0.01085125
140	0xbdc1abdc	-0.09456608
141	0xbdeb229c	-0.114812106
142	0xbe643eb5	-0.22289546
143	0xbe59f82c	-0.21286076
144	0xbea7f421	-0.32803443
145	0xbe87e8bd	-0.26544753
146	0xbd4f26e8	-0.050574213
147	0x3d12b905	0.03582098
148	0xbcfc5d73	-0.030806279
149	0xbbf744ca	-0.007546042
150	0x3cb07b6f	0.021543233
151	0x3cc43961	0.023953142
152	0xbc954fc0	-0.018226504
153	0x3bdb640f	0.0066952775
154	0xbc2fea9d	-0.0107370885
155	0xbab601e9	-0.0013886067
156	0xbca2de95	-0.019881526
157	0xbc1be38b	-0.0095147
158	0xbd83bccd	-0.06432495
159	0xbd87de77	-0.06634229
160	0xbd86d16f	-0.06582915
161	0xbdf12f0f	-0.11776554
162	0xbda995d7	-0.08280533
163	0xbe03d3de	-0.1287379
164	0xbe62779a	-0.22115937
165	0xbe99ea60	-0.30061626
166	0xbe9c9f34	-0.30590212
167	0xbd13c8eb	-0.036080282
168	0xbdd70e0b	-0.10500725
169	0xbcdace07	-0.02670957
170	0x3d23efe6	0.040023707
171	0x3d3f9fe2	0.046783336
172	0x3e0e4aa9	0.13895668
173	0x3dac3c8c	0.08409986
174	0xbd162fc1	-0.036666635
175	0xbd2163a5	-0.03940167
176	0xbd7591b5	-0.05995341
177	0xbd94d893	-0.07267871
178	0x3be3e986	0.0069553284
179	0x3b6b74e2	0.0035927822
180	0xbc9b9cf9	-0.018995749
181	0xbc3d9f13	-0.011573571
182	0xbd8447a1	-0.06458975
183	0x3c33c120	0.010971338
184	0x3c770ff2	0.015079485
185	0x3be610b4	0.007021034
186	0x3ced0185	0.028931389
187	0x3c8dc4d9	0.017305778
188	0xbc33eeae	-0.010982199
189	0xbe20c202	-0.15699008
190	0xbd9799b8	-0.074023664
191	0xbd45b519	-0.04826841
192	0x3d2e300e	0.042526297
193	0x3e5353a4	0.20637375
194	0x3e3435a4	0.17598587
195	0x3e3226df	0.1739764
196	0x3dc4f308	0.09616667
197	0x3d1d167a	0.038351513
198	0xbe31c7f4	-0.17361432
199	0xbec68ad5	-0.38777795
200	0xbefab05f	-0.48962685
201	0xbe7582a3	-0.23975615
202	0xbe07e4ab	-0.13270824
203	0x3d610147	0.05493286
204	0x3d789bb8	0.06069538
205	0x3d55a50d	0.052159358
206	0xbc67cb64	-0.014147613
207	0xbd1c09df	-0.03809535
208	0xbd873284	-0.06601432
209	0xbd1da4c1	-0.0384872
210	0x3c8e3b5a	0.017362285
211	0xbd00d90f	-0.031457003
212	0xbcea675f	-0.028613744
213	0xbdc18e84	-0.09451011
214	0xbd808b7c	-0.062766045
215	0xbd8ef828	-0.06980926
216	0xbd4a7d63	-0.049435984
217	0x3c5ae426	0.013360059
218	0x3c24891e	0.010042457
219	0xbcff5914	-0.031170405
220	0xbeed37d1	-0.46331647
221	0xbee3d472	-0.4449802
222	0xbea8b9b4	-0.3295418
223	0xbe2c6937	-0.16837011
224	0xbd53dab0	-0.05172223
225	0xbb44ecb4	-0.0030048313
226	0xb9c80bae	-0.00038155675
227	0x3c88ae08	0.016684547
228	0xbaa8bf97	-0.0012874481
229	0xbd1dde1c	-0.038541898
230	0xbd6938c0	-0.056938887
231	0xbc8c53a4	-0.017129727
232	0x3d7b1177	0.061295953
233	0x3d984144	0.074343234
234	0x3e0f4d1d	0.1399426
235	0x3e065eaa	0.13122049
236	0x3ba2ba3a	0.0049660476
237	0x3cd45067	0.025917245
238	0x3e3bf76a	0.183561
239	0x3e3fa69f	0.18715905
240	0x3e5370ae	0.20648453
241	0x3e250b18	0.16117513
242	0xbb91cffa	-0.0044498416
243	0x3d15db83	0.036586296
244	0x3c3e02f5	0.011597385
245	0xbdb36d2c	-0.08761057
246	0xbc7d3d8a	-0.015456567
247	0x3bf5ebf0	0.0075049326
248	0x3ab02e10	0.0013441462
249	0xbb994eb5	-0.004678572
250	0xbcbc717d	-0.023003334
251	0xbd562afd	-0.05228709
252	0x3d8e41cf	0.06946146
253	0xbb9db7aa	-0.004813154
254	0xbc3b820a	-0.011444578
255	0xbc953373	-0.01821301

ds.proj_conv.bias f4 [16]
0	0x3bcef317	0.0063155997
1	0x3e541d39	0.20714273
2	0x3dd375d0	0.10325205
3	0x3cb54ad8	0.022130415
4	0xbc65b78f	-0.014020815
5	0xbdb20a8b	-0.08693417
6	0x3e00cada	0.12577382
7	0x3e583fef	0.21118139
8	0x3e4fd1e6	0.20294914
9	0xbdec71ee	-0.11545168
10	0x3ae3b49b	0.001737255
11	0x3ca293d9	0.01984589
12	0x3d345be7	0.044032957
13	0x3d3956ad	0.045248676
14	0xbe224a08	-0.15848553
15	0x3da5295e	0.08064531

ds.proj_bn.weight f4 [16]
0	0x3fc6126f	1.5474375
1	0x3f94513a	1.1587288
2	0x3fd43b87	1.6580666
3	0x3f94baa3	1.1619457
4	0x3f955ad7	1.1668347
5	0x3fa7fc4f	1.3123873
6	0x3f933152	1.1499426
7	0x3fd1f455	1.6402689
8	0x3fa0c4bc	1.2560039
9	0x3f9abae9	1.208829
10	0x3fb01dc3	1.3759083
11	0x3fa2a589	1.2706767
12	0x3f84b1ae	1.0366724
13	0x3f8bf8d7	1.0935315
14	0x3f872aa3	1.0559887
15	0x3fa43664	1.2829099

ds.proj_bn.bias f4 [16]
0	0x3e4301c6	0.19043645
1	0x3e1f73dd	0.15571542
2	0xbc8926dc	-0.016742162
3	0xbdcd65ff	-0.1002922
4	0x3ce62602	0.028094295
5	0x3e03aa1d	0.12857862
6	0xbd6fc20a	-0.05853466
7	0x3e731217	0.2373737
8	0x3d8e25d7	0.06940811
9	0xbbcdc681	-0.006279767
10	0x3dea1dda	0.11431475
11	0x3c556cca	0.013026426
12	0xbd02ac26	-0.031902455
13	0xbe51b7b3	-0.20480232
14	0xbd881274	-0.06644145
15	0x3de224c7	0.11042171

ds.proj_bn.running_mean f4 [16]
0	0xbf44090a	-0.7657629
1	0x3f20459c	0.62606215
2	0xbef7ceaf	-0.48399875
3	0x3eff3f40	0.49852943
4	0x3db9450e	0.09046374
5	0xbf3893aa	-0.7210032
6	0x3e377ee8	0.17919505
7	0xbeff35c7	-0.49845716
8	0x3ec9df55	0.394282
9	0x3db00273	0.08594217
10	0x3e29191b	0.16513483
11	0x3f19a454	0.6001637
12	0x3ec4b1ff	0.3841705
13	0x3ef999b7	0.48750088
14	0x3e4c42a7	0.19947301
15	0x3f280f81	0.6564866

ds.proj_bn.running_var f4 [16]
0	0x3fa4007a	1.2812645
1	0x3e299b8f	0.16563247
2	0x3ea95026	0.3306896
3	0x3e3e6c12	0.18595913
4	0x3de72d1a	0.11287899
5	0x3f6aa718	0.91661215
6	0x3da1b531	0.07895888
7	0x3f92f63a	1.1481392
8	0x3e74480e	0.23855612
9	0x3df30f3e	0.118681416
10	0x3de49bc1	0.1116252
11	0x3e85dd12	0.26145226
12	0x3deb6bcb	0.11495169
13	0x3e8aa3ec	0.27078187
14	0x3df16cf4	0.11788359
15	0x3e808b0f	0.25106093

ds.proj_conv1.weight f4 [8, 16, 5]
0	0x3e1c913e	0.1528978
1	0x3da7aa9a	0.081868365
2	0x3e34f81f	0.17672776
3	0x3e2399f6	0.159767
4	0x3da7eb36	0.0819916
5	0xbc224e22	-0.009906324
6	0x3cbefe06	0.023314487
7	0xbbfc4cec	-0.0076995995
8	0xbd90cbed	-0.07070146
9	0xbe6cc2cf	-0.23121189
10	0x3c20cdb0	0.009814665
11	0x3de1883a	0.11012311
12	0x3ea00487	0.31253454
13	0x3e873d3a	0.264139
14	0x3e6d9fd4	0.23205501
15	0xbd0eab7d	-0.034831513
16	0xbcbdd12c	-0.02317103
17	0xbd44460d	-0.047918368
18	0x3cc0c3f1	0.023530932
19	0xbd6db6bc	-0.058035597
20	0xbbc71031	-0.006074928
21	0xbcd514fb	-0.02601098
22	0xbe11f79d	-0.14254613
23	0xbe6d3ff3	-0.23168926
24	0xbe21268d	-0.15737362
25	0x3e08a2fd	0.13343425
26	0x3de4b8d1	0.111680634
27	0x3dda43c0	0.106574535
28	0x3e1444b0	0.14479327
29	0x3e4df574	0.20113164
30	0x3c774286	0.015091544
31	0x3d87f18f	0.066378705
32	0xbd413d36	-0.047177516
33	0x3d7af8c3	0.061272394
34	0xbdab6a7d	-0.083699204
35	0x3d270f2f	0.040785965
36	0x3bb46c80	0.0055060983
37	0x3d9ab9aa	0.07554944
38	0x3db22ebd	0.08700321
39	0x3d43f081	0.047836784
40	0xbc16a119	-0.009193682
41	0x3cc27805	0.02373887
42	0xbdbbca67	-0.091694646
43	0xbe5ad3fa	-0.21369925
44	0x3c15f413	0.00915243
45	0xbcd3f767	-0.025874807
46	0xbdad22a6	-0.08453874
47	0xbbe0c12e	-0.0068589663
48	0xbd003f5a	-0.031310417
49	0xbde25212	-0.1105081
50	0x3d9c7e19	0.07641239
51	0xbd2a3357	-0.041552868
52	0xbdedcb7b	-0.116110764
53	0xbd9f2123	-0.07769992
54	0xbe4491d5	-0.19196256
55	0x3bb70922	0.0055858055
56	0xbda0fa74	-0.0786027
57	0xbd8ded23	-0.06929996
58	0xbd50398e	-0.05083614
59	0xbe38abcc	-0.18034285
60	0x3c13476d	0.008989197
61	0xbc0c3581	-0.008557678
62	0x3c62e9c4	0.013849679
63	0x3cc0bc73	0.02352736
64	0x3ccf9535	0.025339702
65	0xbdbfab1c	-0.093588084
66	0xbd8d07f0	-0.068862796
67	0xbd57b101	-0.05265904
68	0xbdc50f51	-0.09622062
69	0xbd534c8d	-0.051586676
70	0x3d04854f	0.032353695
71	0xbda068fd	-0.07832525
72	0x3c804ab2	0.015660618
73	0xbcec68b1	-0.028858515
74	0xbc40f254	-0.0117765255
75	0xbd146e33	-0.036237907
76	0xbdd87976	-0.10570042
77	0xbdd360cb	-0.10321196
78	0xbd1f93a7	-0.03895917
79	0xbe229c1c	-0.15879864
80	0x3d77ed47	0.06052902
81	0x3e04f266	0.12983093
82	0x3cef608c	0.029220842
83	0x3df32438	0.118721426
84	0x3dc05b1e	0.09392379
85	0xbbb9983f	-0.005663901
86	0x3de29d48	0.11065155
87	0xbd249278	-0.040178746
88	0x3b864967	0.0040981057
89	0x3c3f10f1	0.011661754
90	0xbe15e995	-0.14639886
91	0xbef109b3	-0.47077712
92	0xbedf35ec	-0.43595827
93	0xbe223d04	-0.15843588
94	0xbd258105	-0.040406246
95	0xbdf89be9	-0.121391125
96	0xbd3f1af3	-0.04665656
97	0xbd8f55a7	-0.06998759
98	0xbd0c43c8	-0.03424433
99	0xbd45637d	-0.048190583
100	0x3ce03844	0.02737058
101	0x3c81d633	0.015849208
102	0x3bbb1b28	0.0057100244
103	0xbd033fad	-0.032043148
104	0xbdcd9c47	-0.10039573
105	0xbcfdc5db	-0.030978134
106	0x3d0adfc6	0.033904813
107	0xbd6631cb	-0.05619983
108	0xbd4840ac	-0.0488898
109	0xbc04ff51	-0.008117513
110	0x3c8007eb	0.015628776
111	0xbd22f087	-0.039780166
112	0xbd3feef4	-0.046858743
113	0xbd9cae7c	-0.07650468
114	0xbdb5d14b	-0.0887781
115	0x3c9ba9c9	0.019001858
116	0x3d95c24b	0.07312449
117	0x3d3c255e	0.045934074
118	0x3d610fdf	0.054946776
119	0x3ce0231e	0.027360495
120	0xbc01cc67	-0.0079222685
121	0x3dcc519d	0.09976504
122	0x3d426783	0.047461998
123	0x3d238355	0.03992017
124	0xbd9dfe6b	-0.07714542
125	0xbdb97235	-0.090549864
126	0x3d95cbfc	0.073142976
127	0xbd0aad53	-0.0338567
128	0x3b190b6a	0.002335275
129	0x3c2e5855	0.010641177
130	0xbdd20362	-0.102545515
131	0x3e1279b8	0.14304245
132	0x3e2b4f6a	0.16729513
133	0x3df8b685	0.12144188
134	0x3d22aae4	0.039713755
135	0xbda1133a	-0.07864995
136	0xbc02981b	-0.007970835
137	0xbd71ae32	-0.059004016
138	0xbd314231	-0.043276016
139	0xbd3ed295	-0.046587545
140	0x3bd8e4aa	0.0066190558
141	0xbd0fdd25	-0.03512301
142	0xbccef742	-0.025264386
143	0xbd7d9331	-0.06190795
144	0xbdc0302b	-0.09384187
145	0x3d480220	0.04883015
146	0x3cb266ce	0.021777537
147	0x3acdff51	0.0015716349
148	0xbd569113	-0.052384447
149	0xbd881e1a	-0.066463664
150	0xbce225cc	-0.027605914
151	0xbc13e2e8	-0.009026267
152	0xbd2f286b	-0.042763155
153	0xbd42883a	-0.047493197
154	0xbd890df6	-0.06692116
155	0xbc593291	-0.013256685
156	0xbd2943db	-0.041324478
157	0xbc0ddfe3	-0.008659336
158	0x3c05f354	0.00817569
159	0xbd01a0d3	-0.031647515
160	0xbd91ee3e	-0.07125519
161	0x3d2ba90b	0.04190926
162	0x3d29d8be	0.041466467
163	0x3d4bee9c	0.049788103
164	0xbdaa375c	-0.0831134
165	0xbd9157c5	-0.07096819
166	0x3d3ad09e	0.04560911
167	0x3d6a8ed8	0.057265133
168	0x3e047472	0.12935045
169	0x3dc7d5c7	0.09757572
170	0xbe2f4e6c	-0.1711976
171	0xbd501060	-0.050796866
172	0x3d6084a0	0.05481398
173	0x3ce5d1ca	0.028054137
174	0xbd983993	-0.074328564
175	0xbaf1afc2	-0.0018439221
176	0x3e21c156	0.15796408
177	0x3e4c655c	0.1996054
178	0x3e007e1a	0.12548104
179	0x3d46387e	0.04839372
180	0x3cf5766d	0.029963696
181	0x3d6e8acf	0.058237847
182	0x3ca271c1	0.019829633
183	0x3e09c2f6	0.13453278
184	0x3cdc3cf0	0.026884526
185	0xbdd671cb	-0.10470923
186	0x3cff98aa	0.031200726
187	0xbc7f9982	-0.015600564
188	0x3d8d67f1	0.06904591
189	0xbd2f9b61	-0.04287279
190	0x3dfb00b4	0.122559935
191	0x3e117d7c	0.14208025
192	0x3d87ff06	0.06640439
193	0xbd458731	-0.04822463
194	0x3d28be1c	0.041196927
195	0xbe072a21	-0.13199665
196	0x3d10aff3	0.03532405
197	0x3c580a73	0.013186085
198	0xbd2e8a75	-0.04261251
199	0xbdc7b371	-0.097510226
200	0x3ca2f981	0.019894363
201	0x3c3b8425	0.01144508
202	0x3c85c2bb	0.016328206
203	0x3d9d0be1	0.07668281
204	0x3c2348d7	0.009966097
205	0xbda3a4d5	-0.079904236
206	0xbc764b3d	-0.015032587
207	0xbd39d45a	-0.04536853
208	0x3d901bf1	0.070365794
209	0x3d29d919	0.041466806
210	0xbd310665	-0.04321899
211	0x3cd29735	0.025706867
212	0xbc9084a2	-0.01764137
213	0x3d1ed736	0.03877946
214	0x3d0d0735	0.0344307
215	0x3d797901	0.060906414
216	0x3e4be16a	0.19910207
217	0x3eb674d1	0.35636
218	0x3e55d100	0.20880508
219	0x3cc22a05	0.023701677
220	0x3d2f705b	0.04283176
221	0x3e24d76c	0.16097802
222	0x3de81c57	0.113335304
223	0xbc5a7ed0	-0.0133358985
224	0x3dbe4cdf	0.09292006
225	0x3decf37b	0.11569878
226	0x3e0ee96c	0.13956231
227	0x3dd9813d	0.10620353
228	0x3dd1db91	0.10246957
229	0xbc653e98	-0.013991974
230	0x3d02077c	0.03174542
231	0x3e0ca0f4	0.13733274
232	0x3e002894	0.1251548
233	0x3b6e519d	0.0036364563
234	0x3d0241de	0.031801097
235	0x3dcfcd00	0.101465225
236	0x3df4e5d4	0.11957899
237	0x3e87b9ff	0.2650909
238	0x3e4bf34d	0.1991703
239	0xbc288d48	-0.01028759
240	0x3d882f46	0.06649642
241	0x3ca2c53a	0.019869436
242	0x3ba1c009	0.0049362225
243	0x3d630859	0.055427883
244	0xbd0ae13a	-0.0339062
245	0xbe0e5ca8	-0.13902533
246	0xbe001e5d	-0.12511583
247	0x3cac7968	0.021053985
248	0x3ddc22e4	0.10748842
249	0x3d246d0c	0.040143058
250	0x3e18652d	0.14882345
251	0xbe7ca194	-0.24671012
252	0xbea00630	-0.3125472
253	0xbe0ed606	-0.13948831
254	0xbe0901be	-0.13379571
255	0xbe30b54f	-0.17256664

ds.proj_conv1.bias f4 [8]
0	0xbd254758	-0.04035124
1	0xbd0034f6	-0.031300507
2	0xbcea2f20	-0.028586924
3	0xbe057ae1	-0.13035156
4	0x3dcbbf64	0.09948614
5	0xbdedd884	-0.11613563
6	0xbdee7838	-0.11644024
7	0xbdf6fd5d	-0.12060044

ds.proj_bn1.weight f4 [8]
0	0x3fb5f9f9	1.4216911
1	0x3fccc6e2	1.5998194
2	0x3fba95fe	1.4577024
3	0x3fbfa66f	1.4972667
4	0x3fbda6fb	1.4816583
5	0x3fb32129	1.3994495
6	0x3fcc8c9a	1.5980408
7	0x3fc653a0	1.549427

ds.proj_bn1.bias f4 [8]
0	0x3db46b92	0.0880958
1	0x3d3be97b	0.04587696
2	0xbda170b6	-0.07882826
3	0xbc931760	-0.017955482
4	0xbd838067	-0.06420975
5	0xbe2c336f	-0.16816495
6	0x3c6c4075	0.014419665
7	0x3c3b8182	0.011444451

ds.proj_bn1.running_mean f4 [8]
0	0x3e8145bb	0.25248513
1	0xbed5e86f	-0.41778895
2	0x3f574615	0.8409131
3	0xbe1932c7	-0.14960776
4	0x3f29bb3f	0.6630134
5	0x3dd43a5e	0.10362695
6	0xbf89b9cb	-1.0759825
7	0xbf949a27	-1.1609544

ds.proj_bn1.running_var f4 [8]
0	0x3fe5da54	1.7957253
1	0x3edc5bb7	0.43038723
2	0x4004766c	2.069728
3	0x3f1878f5	0.59559566
4	0x3f52628b	0.82181615
5	0x3f044f86	0.51683843
6	0x3f7ab7c3	0.9793665
7	0x3f39c9c0	0.7257347

ds.fc1_conv.weight f4 [128, 256]
0	0xbc1aa8b6	-0.009439638
1	0x3d9623dc	0.073310584
2	0x3d5740f2	0.05255217
3	0x3e0d8ff0	0.13824439
4	0x3d9bede4	0.076137334
5	0x3de3d058	0.11123723
6	0x3c85d25c	0.016335659
7	0xbcb3626d	-0.021897519
8	0xbc95c119	-0.018280553
9	0xbdb789a6	-0.08961801
10	0x3bed619c	0.007244302
11	0x3e0021d0	0.12512898
12	0x3edc33e4	0.4300834
13	0x3eb94dbb	0.36192116
14	0xbda85075	-0.08218471
15	0xbec50965	-0.3848373
16	0xbed7c0b7	-0.42139217
17	0xbe93b2ca	-0.28847343
18	0xbbef24ce	-0.0072980886
19	0x3dac22ec	0.08405098
20	0x3cd3f8dc	0.025875501
21	0xbd51de21	-0.05123723
22	0xbdca0266	-0.09863739
23	0xbb964d79	-0.004586872
24	0x3cd21e05	0.02564908
25	0x3e1195de	0.14217326
26	0x3e07794b	0.13229863
27	0x3e018a7e	0.12650487
28	0x3e3c591d	0.18393369
29	0x3e00c3b6	0.12574658
30	0x3d52663e	0.051367037
31	0x3db7578c	0.08952245
32	0xbe064b5b	-0.13114683
33	0xbd885cd6	-0.06658332
34	0xbdad9928	-0.08476478
35	0xbe1b79f5	-0.15183242
36	0xbe9e595b	-0.30927548
37	0x3d0ada88	0.033899814
38	0xbc1448ab	-0.0090505285
39	0x3c93c359	0.018037485
40	0x3e1d0fa8	0.15338004
41	0x3e87b2ff	0.2650375
42	0x3e5e0450	0.21681333
43	0xbd7ff159	-0.062486026
44	0xbdf3c33b	-0.11902472
45	0xbe459b04	-0.19297415
46	0xbdfff22a	-0.12497361
47	0x3e91dbc2	0.28487974
48	0x3f03dae5	0.5150588
49	0x3e2cad6b	0.16863029
50	0x3cb5d4e5	0.022196243
51	0xbe0f8e04	-0.14019018
52	0xbe18ac56	-0.14909491
53	0xbd3ec387	-0.04657319
54	0xbe2fc3cd	-0.17164536
55	0x3c9a5f7b	0.018844357
56	0xbdf53689	-0.119732924
57	0xbdbf9551	-0.09354652
58	0x3c72f604	0.0148291625
59	0x3cc9c0fe	0.024628159
60	0xbe894691	-0.2681165
61	0xbe35fbf0	-0.17771888
62	0x3d9ba39a	0.07599564
63	0xbdd9e213	-0.10638823
64	0xbf0732d2	-0.5281192
65	0x3b6ff10d	0.0036612183
66	0xbe2a2fdf	-0.16619824
67	0xbde18a31	-0.11012686
68	0xbdda3776	-0.106551096
69	0x3d397c58	0.0452846
70	0x3dd86d18	0.10567683
71	0x3daaa55e	0.083323225
72	0x3df4fcc0	0.11962271
73	0x3d8c60df	0.06854414
74	0x3e2a7724	0.16647011
75	0xbdba72c7	-0.09103923
76	0xbdb55765	-0.0885456
77	0xbceb93bb	-0.028756967
78	0xbd0bc951	-0.034127537
79	0x3ea314c8	0.31851792
80	0x3e346f24	0.17620522
81	0x3e26369d	0.16231771
82	0x3cdb8f26	0.026801657
83	0xbd8f5eb4	-0.07000485
84	0xbdf3a175	-0.1189603
85	0x3efed920	0.49775028
86	0xbe26fdfa	-0.16307822
87	0x3da64361	0.0811832
88	0x3df5409a	0.119752124
89	0x3d1cde80	0.03829813
90	0xbd8c6e8a	-0.06857021
91	0xbe0064e4	-0.12538487
92	0xbd683ced	-0.05669873
93	0xbd397b5e	-0.045283668
94	0x3d8e8904	0.069597274
95	0x3cea8b80	0.028630972
96	0xbbd3e150	-0.0064660683
97	0x3d5c781f	0.053825494
98	0xbe732f75	-0.23748572
99	0xbdbe3d3d	-0.09289024
100	0x3e17bb45	0.14817531
101	0x3e076d0e	0.13225195
102	0xbbc1d71a	-0.0059155347
103	0x3d4f6873	0.05063672
104	0x3c7f64e1	0.015588016
105	0x3dcd5b2a	0.10027154
106	0xbdd6dbfa	-0.10491176
107	0xbe75e37f	-0.24012564
108	0x3daf82ad	0.08569846
109	0xbe455c9b	-0.19273607
110	0x3e0f37b1	0.13986088
111	0x3eb7d165	0.35901943
112	0x3d901cad	0.070367195
113	0xbd4d2b45	-0.050090093
114	0x3c0645e2	0.008195372
115	0xbe063bc5	-0.13108738
116	0x3d11afd0	0.03556806
117	0x3eaeba61	0.3412657
118	0x3cd63517	0.026148362
119	0x3d1bd44b	0.038044255
120	0xbd511a4c	-0.05105047
121	0xbda9ac45	-0.08284811
122	0xbe11d02e	-0.1423957
123	0xbc44a8e0	-0.012003154
124	0xbced0329	-0.028932171
125	0xbbb2dffe	-0.005458831
126	0x3e1f37a2	0.15548566
127	0xbe8eab2d	-0.27864972
128	0x3d4bcea6	0.049757622
129	0xbb320d30	-0.0027168505
130	0xbd2f35a7	-0.042775776
131	0xbe320640	-0.17385197
132	0xbe5779a1	-0.21042491
133	0x3c67c2c1	0.014145554
134	0x3e479100	0.19488907
135	0x3d8fc7ef	0.07020556
136	0x3d9de8d3	0.07710423
137	0x3e03baa3	0.12864165
138	0x3e402ba0	0.18766642
139	0x3d29ce76	0.041456662
140	0xbe092956	-0.13394675
141	0x3c94e7b4	0.01817689
142	0xbe0d4b21	-0.1379819
143	0xbe908072	-0.28222996
144	0x3ec7bc58	0.39010882
145	0x3e18d39e	0.14924476
146	0x3e2111f2	0.15729502
147	0x3d01da2e	0.031702213
148	0xbdd6cf25	-0.104887284
149	0x3d7bdd7c	0.06149052
150	0xbe6ba2bc	-0.23011297
151	0xbc88690f	-0.016651658
152	0x3df4e9d1	0.119586594
153	0x3dc54414	0.096321255
154	0xbccbd432	-0.024881456
155	0xbdfea40e	-0.12433635
156	0xbd966a6a	-0.073445156
157	0xbcfefcc9	-0.031126397
158	0x3d0162b1	0.03158826
159	0xbd2ac96e	-0.041696005
160	0x3da4e4a6	0.08051424
161	0xbe1a88a6	-0.1509119
162	0xbd226ba7	-0.039653447
163	0xbd448fc1	-0.047988657
164	0xbe8583be	-0.26077074
165	0xbde6ebdc	-0.11275455
166	0xbd2c5ba8	-0.042079598
167	0x3e162649	0.14663042
168	0x3e714812	0.23562649
169	0x3e338be8	0.17533839
170	0x3e834d28	0.25644803
171	0x3ec1e308	0.37868524
172	0x3d05e4c4	0.03268887
173	0xbde37d70	-0.1110791
174	0xbe6fb29a	-0.23407975
175	0xbe3547e8	-0.17703211
176	0x3e65ef25	0.22454508
177	0x3edfdc76	0.43722886
178	0x3e667e5f	0.22509144
179	0xbd1a0065	-0.037598033
180	0xbe1ab19f	-0.1510682
181	0xbde5a01b	-0.11212178
182	0xbe6db374	-0.23212987
183	0x3b4a9686	0.0030912473
184	0xbc932ff7	-0.017967207
185	0xbdacd664	-0.08439329
186	0xbc999e10	-0.018752128
187	0x3d90413c	0.070436925
188	0x3df91008	0.12161261
189	0x3da9a715	0.082838215
190	0xbe9bfcaa	-0.30466205
191	0xbe362d8a	-0.1779081
192	0x3e347a92	0.17624882
193	0x3e974a0e	0.29548687
194	0xbcc09bb3	-0.023511743
195	0x3ba19c33	0.0049319505
196	0x3b595241	0.00331606
197	0x3d4d57b1	0.050132457
198	0xbcbe3eb3	-0.023223257
199	0x3d8e7f61	0.06957889
200	0x3d9d014d	0.07666264
201	0x3dd49145	0.103792705
202	0x3d213105	0.03935339
203	0xbe18b936	-0.14914402
204	0x3e442cca	0.1915771
205	0x3e4ce8d4	0.20010692
206	0xbea4a9b4	-0.32160723
207	0xbdb0fe32	-0.08642234
208	0xbef9d457	-0.48794815
209	0xbe0e7db9	-0.13915147
210	0x3de91e7f	0.1138277
211	0x3da0a8c6	0.07844691
212	0x3f043caa	0.51655066
213	0xbc94c7b7	-0.018161638
214	0xbd05f011	-0.03269965
215	0x3e033fd8	0.12817323
216	0x3df67c19	0.120353885
217	0x3cafce54	0.02146069
218	0xbcce5465	-0.025186727
219	0x3c011fff	0.007881164
220	0x3d7ea3e8	0.062168032
221	0xbc97db0b	-0.018537065
222	0x3db8aa90	0.09016907
223	0x3da72af8	0.081624925
224	0x3e6819f5	0.22666152
225	0x3e79277e	0.24331471
226	0x3cc5bc9c	0.024137788
227	0x3d9851b3	0.07437458
228	0x3da97ed3	0.08276143
229	0xbc8358a6	-0.016033482
230	0x3ca56e43	0.020194178
231	0x3d770d82	0.060315616
232	0x3e1b9702	0.15194324
233	0xbd859fc0	-0.065246105
234	0xbc1527cc	-0.009103727
235	0xbd35f8b8	-0.04442665
236	0x3e4ab2a9	0.19794716
237	0x3dee2a69	0.11629183
238	0xbddf40f5	-0.109010614
239	0xbe593af2	-0.21213892
240	0xbe378d72	-0.17925051
241	0x3d1eb9dd	0.03875147
242	0xbd1f9e1c	-0.038969144
243	0x3e3ef470	0.18647933
244	0x3ea01a0a	0.31269866
245	0xbcbfcb11	-0.02341226
246	0x3e0791f2	0.13239267
247	0x3d3a8957	0.045541134
248	0x3dba37ff	0.09092712
249	0x3cf2cef8	0.029639706
250	0xbd1a3065	-0.03764381
251	0x3d594c66	0.053051375
252	0x3dcb48f1	0.09926022
253	0x3c1d5b57	0.009604297
254	0x3e13a7a4	0.14419419
255	0xbd5846f6	-0.05280205

ds.fc1_conv.bias f4 [128]
0	0xbe13bc4d	-0.144273
1	0xbe265a56	-0.16245398
2	0xbe33a2fb	-0.17542641
3	0x3d9bad1f	0.076013796
4	0xbe295d7f	-0.16539572
5	0xbddec4a3	-0.10877349
6	0x3d13f345	0.03612067
7	0xbdb8fb64	-0.09032324
8	0xbda8082e	-0.08204685
9	0x3e94521f	0.28968903
10	0x3d27d955	0.04097875
11	0xbd9d441f	-0.07679009
12	0xbde30b48	-0.11086136
13	0xbd9d67cc	-0.07685813
14	0x3e1041f9	0.14087667
15	0x3e9ab5a4	0.30216706
16	0xbe468d85	-0.19389923
17	0xbe60ed87	-0.2196561
18	0x3e6f2dad	0.23357268
19	0xbd3754c1	-0.044758562
20	0xbe14eabb	-0.14542668
21	0xbe230674	-0.1592043
22	0xbe42633b	-0.18983166
23	0xbda175bc	-0.07883784
24	0x3e84d9ff	0.25947568
25	0xbe0f1ec1	-0.13976575
26	0xbe200809	-0.15628065
27	0xbdc8d145	-0.0980554
28	0xbe3cad55	-0.18425496
29	0xbe7578e2	-0.23971894
30	0x3e4fc7ed	0.2029111
31	0xbdb6fdcf	-0.08935129
32	0xbe0336de	-0.12813899
33	0xbe24cac7	-0.16092978
34	0xbd8c52d0	-0.06851733
35	0xbdc15dc8	-0.094417155
36	0x3ea4f86f	0.3222079
37	0xbdba2e2f	-0.0909084
38	0xbe51b706	-0.20479974
39	0x3b04715c	0.002020917
40	0x3da10c50	0.078636765
41	0xbd989896	-0.074509785
42	0x3e5d53b3	0.2161396
43	0x3d238fcd	0.03993206
44	0x3e142150	0.14465833
45	0x3e521dc4	0.20519167
46	0x3d73e88d	0.05954795
47	0xbe113892	-0.14181736
48	0x3e159e10	0.14611077
49	0x3e65da6f	0.22446607
50	0x3e3dc7b7	0.18533216
51	0xbe2795d4	-0.16365749
52	0xbd16dacc	-0.036829755
53	0xbe0c63f5	-0.13710006
54	0xbe355e80	-0.1771183
55	0xbd971862	-0.073776975
56	0xbe5103a1	-0.2041154
57	0x3de39a4a	0.11113413
58	0xbe556bff	-0.20841978
59	0xbe5d60da	-0.21618977
60	0xbe8154d6	-0.25260037
61	0x3daac33e	0.08338021
62	0x3ea6d528	0.325845
63	0xbe178e66	-0.14800414
64	0xbe6c3f65	-0.23071058
65	0x3eaebbb0	0.3412757
66	0x3e468f53	0.19390611
67	0x3e3ec87c	0.18631166
68	0xbe566ec2	-0.20940688
69	0x3e2add04	0.16685873
70	0xbe58b12d	-0.21161337
71	0x3df61bec	0.120170444
72	0x3d36bf0f	0.0446158
73	0xbe295b53	-0.16538744
74	0x3e4975f5	0.19673903
75	0xbd6424ff	-0.055699345
76	0x3e85c6e2	0.26128298
77	0xbe3d6d20	-0.18498659
78	0xbe0253ff	-0.12727354
79	0x3e577374	0.21040136
80	0x3e1385d0	0.14406514
81	0xbe28d92c	-0.16489094
82	0xbe56b679	-0.20968045
83	0x3ca2d823	0.019878453
84	0xbe6cc4d9	-0.23121966
85	0x3e994652	0.29936463
86	0xbdf6fce3	-0.12059953
87	0xbe0183ef	-0.12647985
88	0x3e02f74a	0.12789646
89	0xbe047779	-0.129362
90	0x3dc7f65f	0.097637884
91	0xbdba50b8	-0.09097427
92	0x3e7bdb2f	0.2459533
93	0xbe202ec3	-0.15642838
94	0xbe2e265b	-0.17006819
95	0x3e0d362f	0.137902
96	0xbe31c995	-0.17362054
97	0xbe20e6a2	-0.1571298
98	0xbdac0efa	-0.08401294
99	0xbdf8dc46	-0.12151389
100	0xbdbd8bc7	-0.09255176
101	0x3cd7b12b	0.026329597
102	0xbe6494a8	-0.22322333
103	0xbe1b3998	-0.15158689
104	0xbd01dd06	-0.031704925
105	0xbe459957	-0.19296776
106	0x3dfcbadb	0.12340327
107	0x3e834878	0.25641227
108	0x3dc1fa7b	0.094716035
109	0x3dcf21f8	0.10113901
110	0xbc875172	-0.016518328
111	0xbe088055	-0.13330205
112	0xbbe5bb75	-0.007010872
113	0x3a224530	0.00061901193
114	0xbe180bc9	-0.14848246
115	0xbe62f4b9	-0.22163667
116	0xbe038ced	-0.12846728
117	0xbe3fa695	-0.1871589
118	0x3eb9f153	0.36316928
119	0x3eaf22c9	0.34206226
120	0xbe3a1258	-0.1817106
121	0x3e11cce8	0.14238322
122	0xbdc0cd82	-0.094141975
123	0x3d295b0f	0.041346606
124	0x3e7621e6	0.24036369
125	0xbe582c78	-0.21110713
126	0x3c415656	0.011800369
127	0x3bc81cc2	0.006106944

ds.fc2_conv.weight f4 [64, 128]
0	0x3e854721	0.2603083
1	0x3d098479	0.0335736
2	0x3dfe3b53	0.12413659
3	0xbe9b2732	-0.3030334
4	0x3e939250	0.28822565
5	0x3e89cd09	0.26914242
6	0x3dc011d8	0.093784034
7	0xbbbe0999	-0.005799484
8	0xbdc8ef55	-0.09811274
9	0xbd60101c	-0.054702863
10	0xbcab5eac	-0.020919167
11	0x3d43dfe5	0.047820944
12	0x3c60f907	0.013731248
13	0xbbaeae6e	-0.0053308522
14	0x3c855f10	0.01628068
15	0x3e5ed584	0.21761137
16	0x3edb7f4d	0.4287056
17	0x3d651149	0.055924688
18	0xbe16b434	-0.1471718
19	0xbe47032f	-0.19434808
20	0x3dd1929a	0.1023304
21	0xbd642b65	-0.055705447
22	0x3e8f4ad9	0.27986792
23	0x3eafc8f8	0.34333014
24	0x3bdf00ad	0.0068055005
25	0x3e02545a	0.1272749
26	0x3d3873ba	0.04503224
27	0x3e42c023	0.19018607
28	0xbd80da20	-0.06291604
29	0x3d62d04f	0.05537444
30	0xbe32d56b	-0.17464225
31	0x3c4a1a32	0.012335347
32	0xbe245458	-0.160478
33	0x3e695716	0.22787127
34	0x3e599f62	0.21252206
35	0xbd9fc9df	-0.07802176
36	0xbd516dc8	-0.051130086
37	0x3e5d36d9	0.21602954
38	0x3db5bda1	0.088740595
39	0x3de657c5	0.112472095
40	0xbe04f351	-0.12983443
41	0xbdea23aa	-0.11432584
42	0xbe4cf9f4	-0.20017225
43	0xbc91b618	-0.017787024
44	0xbe4a81c5	-0.19776066
45	0xbe173f51	-0.14770247
46	0xbdad6cae	-0.08467995
47	0xbe0c7308	-0.13715756
48	0xbe1b2e2f	-0.15154336
49	0x3b224520	0.002476044
50	0xbd28e446	-0.041233324
51	0x3e0dfa45	0.13865001
52	0xbe4f153b	-0.20222943
53	0x3e7e1c76	0.24815544
54	0x3d6e1786	0.058127902
55	0xbdc23370	-0.09482467
56	0xbd074505	-0.033024807
57	0xbeb70384	-0.3574487
58	0x3daae718	0.08344859
59	0x3d3ae19e	0.04562532
60	0x3e356b42	0.17716697
61	0xbe97dadb	-0.2965916
62	0xbdb57888	-0.0886088
63	0x3e883638	0.26603866
64	0x3d359bca	0.044338025
65	0x3e235f3e	0.15954301
66	0xbe178648	-0.14797318
67	0xbcd6901b	-0.026191762
68	0xbd3dd0d5	-0.046341736
69	0xbd19f5b2	-0.03758783
70	0x3b892278	0.004185017
71	0xbe51c184	-0.20483977
72	0x3c5a8e79	0.013339632
73	0xbd71ee9c	-0.059065446
74	0xbe14ccd1	-0.14531256
75	0x3e925027	0.28576776
76	0x3cb4c222	0.022065226
77	0x3e806164	0.25074303
78	0xbcd6bfcd	-0.026214505
79	0xbdd17fa3	-0.10229423
80	0xbce5552c	-0.027994715
81	0x3d51e158	0.051240295
82	0x3daa2fc5	0.083098926
83	0x3dd59f71	0.10430802
84	0xba07f761	-0.00051867036
85	0x3e9fc96b	0.31208357
86	0x3ce6055e	0.028078731
87	0x3cf7bf5f	0.03024262
88	0x3edbda2c	0.4293989
89	0x3d8707a7	0.065932564
90	0xbe7eb958	-0.2487539
91	0x3f169c5f	0.58832353
92	0xbaeacf49	-0.0017914559
93	0x3e0b15ff	0.1358261
94	0x3c8be2c1	0.017075898
95	0xbd10b1ea	-0.035325922
96	0x3e69c971	0.2283075
97	0x3e774472	0.24147204
98	0x3d237d71	0.039914552
99	0xbe09ea10	-0.13468194
100	0x3ec711e0	0.38880825
101	0x3ece145d	0.4024991
102	0x3d8697ec	0.065719455
103	0x3e32f65c	0.17476791
104	0x3ecdf3f2	0.40225178
105	0x3e0ca2a1	0.13733913
106	0xbda32b55	-0.07967249
107	0xbd43ec4c	-0.047832772
108	0xbdc2d8bc	-0.09513995
109	0xbee0668e	-0.43828243
110	0x3edfdc28	0.43722653
111	0x3e426c6b	0.1898667
112	0x3eed1033	0.46301422
113	0x3c26f4be	0.010190187
114	0x3dc6298b	0.096758924
115	0x3da68a78	0.081318796
116	0x3e8ad3c5	0.27114692
117	0x3e940c95	0.2891585
118	0xbc4db88e	-0.012556208
119	0xbd0f5b36	-0.034999095
120	0x3e062bff	0.1310272
121	0xbe41f456	-0.18940863
122	0x3c6eb94a	0.014570544
123	0x3e5e95cb	0.21736829
124	0xbd45d564	-0.04829921
125	0x3da5dc3d	0.08098648
126	0x3ec1c37e	0.3784446
127	0x3cbc214a	0.022965092
128	0x3de1ba4e	0.11021863
129	0xbdd9a599	-0.10627288
130	0xbd097f25	-0.03356852
131	0x3e944f75	0.2896687
132	0xbcba863e	-0.02276909
133	0x3e1e834f	0.15479778
134	0x3e32a272	0.1744478
135	0xbe5a085c	-0.21292251
136	0x3cd93afd	0.026517386
137	0xbd565f1f	-0.05233681
138	0xbe8a4a5f	-0.27009866
139	0xbe1d80b6	-0.1538113
140	0xbe8bc61b	-0.2729958
141	0xbe124881	-0.1428547
142	0x3e1127bd	0.14175315
143	0x3e155af3	0.14585476
144	0x3e102bd3	0.14079218
145	0x3bdad5e9	0.006678332
146	0xbf2bc97e	-0.6710433
147	0xbc375b9e	-0.011191277
148	0xbda7b8e0	-0.08189559
149	0xbe021dcd	-0.1270668
150	0x3c512d87	0.012767202
151	0x3dbb8332	0.09155883
152	0x3d6b4735	0.057440955
153	0xbe02badc	-0.12766594
154	0x3e01d217	0.12677799
155	0x3ecfe765	0.40606228
156	0x3dfb189f	0.122605555
157	0x3cc0f7e8	0.02355571
158	0x3e880c13	0.26571712
159	0xbe458a16	-0.19290957
160	0xbe32521a	-0.17414132
161	0xbde86119	-0.11346645
162	0x3dff86c5	0.12476877
163	0xbe40da1c	-0.18833202
164	0x3e2a6749	0.16640963
165	0x3ef8c0a9	0.48584488
166	0xbd4032ba	-0.046923377
167	0xbdfd3ad0	-0.12364733
168	0x3dcd657c	0.10029122
169	0x3ea1800e	0.3154301
170	0x3ec699e4	0.38789284
171	0x3e58c9b2	0.2117069
172	0x3e394b87	0.18095218
173	0x3e9212da	0.28530008
174	0x3e2dab67	0.16959916
175	0x3dad7f0c	0.08471498
176	0x3e9bdfde	0.30444235
177	0xbe3716e9	-0.17879833
178	0x3e29bdbb	0.16576283
179	0xbb910fe2	-0.004426942
180	0xbc0ef5f2	-0.00872563
181	0x3e44aea8	0.19207251
182	0xbcf4c181	-0.029877426
183	0x3e573f45	0.21020229
184	0xbdb46192	-0.088076726
185	0xbe13c484	-0.14430434
186	0x3e3af08d	0.18255825
187	0x3d119611	0.035543505
188	0xbd5bcf04	-0.053664222
189	0xbb163807	-0.0022921578
190	0x3d8a0bce	0.06740533
191	0xbd769574	-0.060201123
192	0x3cf7c00e	0.030242946
193	0x3e12b34a	0.14326206
194	0x3ea37b6e	0.31930107
195	0xbe69ede1	-0.2284465
196	0x3db27a49	0.0871473
197	0xbe855139	-0.2603853
198	0x3e30bafc	0.17258829
199	0x3e0f3476	0.13984856
200	0xbe85bcfc	-0.26120746
201	0xbdaa669a	-0.08320351
202	0x3ead13d7	0.338042
203	0x3c52ede4	0.0128741
204	0xbe16defc	-0.147335
205	0x3ecfa175	0.4055287
206	0x3d5cf97a	0.053948857
207	0x3e10abeb	0.14128082
208	0x3e1b4ea9	0.15166725
209	0x3d072706	0.0329962
210	0x3dd9cfa1	0.10635305
211	0xbdb44bb3	-0.08803501
212	0xbe10d3b6	-0.14143261
213	0x3d95f197	0.0732147
214	0xbe061b14	-0.13096267
215	0x3d6ae9db	0.05735193
216	0x3e0c4509	0.1369821
217	0xbe016861	-0.12637474
218	0xbd3bf497	-0.045887556
219	0xbe364aaa	-0.1780192
220	0x3ee2d9de	0.44306844
221	0xbe8b3b10	-0.271935
222	0xbe25fade	-0.1620898
223	0xbe6e734d	-0.23286171
224	0xbcbfa234	-0.023392774
225	0xbf0c6f4c	-0.54857326
226	0xbe14092e	-0.14456627
227	0x3dcd1346	0.10013442
228	0xbc44dd3a	-0.012015635
229	0x3e8a22df	0.2697973
230	0x3e9b66be	0.30351824
231	0x3ecd9dda	0.40159494
232	0x3d283aaf	0.04107159
233	0xbc986556	-0.018603008
234	0x3dab291e	0.08357452
235	0x3dd4b85b	0.103867255
236	0xbe93b7df	-0.2885122
237	0xbd2650d0	-0.040604413
238	0xbd254db3	-0.040357303
239	0x3d816046	0.06317191
240	0x3e99148d	0.29898492
241	0xbe760ffa	-0.24029532
242	0xbdad9ac6	-0.08476786
243	0x3ca8650b	0.020555994
244	0x3dce8edc	0.10085842
245	0x3ee7b40a	0.45254546
246	0xbda97bef	-0.082755916
247	0x3d16efc0	0.036849737
248	0xbd11af9c	-0.035567865
249	0x3d2d665f	0.042333957
250	0xbd7cb096	-0.061691843
251	0x3e6b9711	0.23006846
252	0x3e046212	0.12928036
253	0x3de4f8e3	0.11180284
254	0x3e9d6c89	0.30746868
255	0x3d66c319	0.056338403

ds.fc2_conv.bias f4 [64]
0	0xbe1c2b1f	-0.15250824
1	0x3cd4f46e	0.02599546
2	0xbb3282b4	-0.002723855
3	0xbd95baf5	-0.0731105
4	0xbdc5a615	-0.09650818
5	0xbe0b2888	-0.1358968
6	0xbcab4af0	-0.020909756
7	0xbe38e3d7	-0.18055664
8	0x3e2bd1bb	0.16779225
9	0x3d84082f	0.064468734
10	0x3cff7343	0.03118289
11	0xbe273d90	-0.16332078
12	0x3e703d41	0.23460867
13	0xbba0e57d	-0.0049101696
14	0x3dabf7ab	0.08396848
15	0x3c0d9bd2	0.0086431075
16	0x3e42a2cb	0.19007413
17	0x3e58fa91	0.21189333
18	0x3d672fd3	0.056442093
19	0xbe1c1e8b	-0.15246026
20	0xbdcf5409	-0.1012345
21	0xbd995ff8	-0.07489008
22	0x3d32c458	0.04364428
23	0xbe344814	-0.1760562
24	0xbe02225c	-0.1270842
25	0xbd38fd18	-0.045163244
26	0xbdb50b3a	-0.08840032
27	0xbd9fa5e9	-0.07795317
28	0xbd0b93a0	-0.034076333
29	0xbd8acac8	-0.06776959
30	0xbd048800	-0.032356262
31	0x3dfbd4b1	0.12296427
32	0xbe1124d9	-0.14174213
33	0xbd89c7a9	-0.06727535
34	0xbcd40e96	-0.025885861
35	0xbe0d9eab	-0.13830058
36	0xbe28ea9e	-0.1649575
37	0xbdd1e523	-0.102487825
38	0x3aa38b9e	0.0012477522
39	0xbe22950d	-0.15877171
40	0xbe171a12	-0.14756039
41	0xbe095451	-0.1341107
42	0x3e7ef734	0.24898988
43	0x3d36817e	0.044557087
44	0xbdae5bdc	-0.085136145
45	0xbdff8387	-0.12476259
46	0x3d2ca110	0.04214579
47	0x3e88b590	0.2670102
48	0xbda23e58	-0.079220474
49	0x3dd2c4fe	0.102914795
50	0x3ddd543a	0.108070806
51	0xbdc09b16	-0.0940458
52	0x3e541909	0.20712675
53	0x3d430ae6	0.047617815
54	0xbe13937f	-0.14411734
55	0x3ce47518	0.027887866
56	0xbdabb8b5	-0.083848394
57	0xbd81d360	-0.06339145
58	0xbd54ec47	-0.051983144
59	0xbd22ed91	-0.039777342
60	0xbe160cc9	-0.14653315
61	0xbd91d1ef	-0.0712012
62	0xbd81b074	-0.06332484
63	0xbddb3db7	-0.107051305

head.weight f4 [15, 64]
0	0xbf4073d7	-0.7517676
1	0xbf07b320	-0.530077
2	0x3de67e45	0.11254553
3	0xbf27dd84	-0.6557238
4	0xbeaf9213	-0.34291133
5	0xbe5a994a	-0.21347538
6	0xbef686ec	-0.48149812
7	0xbef5c184	-0.47999203
8	0x3e3eeff6	0.18646225
9	0xbea93c03	-0.33053598
10	0x3ecb585c	0.3971585
11	0xbeb54065	-0.35400692
12	0xbf39a801	-0.7252198
13	0xbf2322d3	-0.6372501
14	0xbf621db2	-0.8832656
15	0xbf380dbd	-0.7189596
16	0xbf67db02	-0.90568554
17	0x3e74a7c4	0.23892123
18	0x3e42fce0	0.19041777
19	0xbeee92d1	-0.46596387
20	0xbf1fbbf8	-0.6239619
21	0xbecdae7a	-0.40172178
22	0xbf89211e	-1.0713232
23	0xbea176c4	-0.31535923
24	0xbf03974f	-0.51402754
25	0xbf4974f8	-0.78694105
26	0xbf985c69	-1.1903201
27	0x3efb058b	0.49027666
28	0xbee71a0d	-0.45137063
29	0x3edad0f5	0.42737547
30	0x3e917c39	0.28415087
31	0x3e5a2278	0.21302211
32	0xbee23024	-0.44177353
33	0xbf221edb	-0.6332833
34	0xbe984dd6	-0.29746884
35	0xbee3a8ad	-0.44464627
36	0xbec34524	-0.38138688
37	0xbe92d8b5	-0.2868096
38	0x3e6f6a97	0.23380505
39	0xbe436878	-0.1908282
40	0xbe494ccd	-0.19658203
41	0xbec1ce3c	-0.37852657
42	0x3e7a4866	0.2444168
43	0xbec2d22c	-0.38050973
44	0x3eb17be4	0.34664834
45	0xbed7922e	-0.42103714
46	0x3e3afe5a	0.1826109
47	0x3e802ddd	0.2503499
48	0xbec36c25	-0.38168445
49	0xbf7e27d1	-0.99279505
50	0xbf630016	-0.88672006
51	0xbeaab3d7	-0.33340332
52	0x3e6fbadc	0.23411125
53	0xbef6d803	-0.4821168
54	0xbef1a423	-0.4719554
55	0x3e6d72f8	0.23188388
56	0x3eb4a123	0.35279188
57	0x3ed84fd1	0.42248395
58	0x3edc4965	0.43024746
59	0xbf493572	-0.78597176
60	0x3eb7f994	0.359326
61	0x3ec67c3a	0.38766652
62	0xbf009711	-0.5023051
63	0xbee4e69b	-0.44707188
64	0xbe8c05df	-0.2734823
65	0x3e815060	0.25256634
66	0x3eb2619a	0.3484009
67	0xbee0f5ab	-0.4393743
68	0xbe5e0af8	-0.21683872
69	0xbec45e77	-0.3835332
70	0xbf40c717	-0.75303787
71	0xbf36d740	-0.71422195
72	0xbf818916	-1.011996
73	0x3ed5b048	0.41736054
74	0x3e5006a3	0.20315032
75	0xbec20284	-0.37892544
76	0x3e6cc636	0.23122486
77	0x3e90f593	0.28312358
78	0xbf23fe12	-0.64059556
79	0x3e937346	0.28798884
80	0x3e634f9d	0.22198339
81	0x3e205e80	0.15661049
82	0x3e05049b	0.12990038
83	0xbf3070f7	-0.6892237
84	0xbe72a85f	-0.23697041
85	0xbefc9fa9	-0.4934056
86	0x3e78a103	0.24280171
87	0xbe898e9c	-0.26866615
88	0x3e8852eb	0.2662576
89	0x3e393406	0.18086252
90	0xbf1427a1	-0.5787297
91	0xbf5a3fde	-0.85253704
92	0x3e851513	0.2599264
93	0xbf45473e	-0.7706183
94	0xbf3bd8e7	-0.7337784
95	0xbf843bbc	-1.033073
96	0xbf60681c	-0.8765886
97	0x3e7d0029	0.24707092
98	0x3e8ec716	0.27886266
99	0xbeb81df9	-0.35960367
100	0xbe648824	-0.22317559
101	0xbf024127	-0.50880665
102	0xbf4957fd	-0.78649884
103	0xbf4497cd	-0.7679413
104	0xbf485eee	-0.7826985
105	0xbf28a592	-0.6587764
106	0x3e825a77	0.25459644
107	0xbf32fdd0	-0.6991854
108	0x3e709b2c	0.23496693
109	0xbf55560e	-0.83334434
110	0x3e9f07e4	0.31060708
111	0x3e7b8586	0.24562654
112	0xbf14cd15	-0.5812543
113	0x3e44734e	0.1918461
114	0x3e77ef6f	0.2421243
115	0xbe825a5b	-0.2545956
116	0x3ea68522	0.32523447
117	0xbf3d094d	-0.73842317
118	0x3e5af81d	0.2138371
119	0xbf5b006f	-0.85547537
120	0x3e1a7ab5	0.15085872
121	0xbf5de155	-0.86671954
122	0xbf23b974	-0.63954854
123	0x3e4ca183	0.19983487
124	0xbf353a97	-0.70792526
125	0xbf41d8c5	-0.7572139
126	0xbec1e6ce	-0.37871403
127	0xbed61d30	-0.41819143
128	0xbe9d1259	-0.3067806
129	0x3e46ebcb	0.19425885
130	0xbf74424e	-0.9541367
131	0x3ef3841a	0.47561723
132	0xbe8e23a7	-0.27761576
133	0x3ee43d96	0.44578236
134	0xbf4a54fa	-0.79035914
135	0x3ef7b2e4	0.4837867
136	0xbf0919e8	-0.53555155
137	0x3e3e82f7	0.18604647
138	0x3e1b73ee	0.15180942
139	0xbec1a57d	-0.3782157
140	0x3e0cad4a	0.1373798
141	0x3e384f89	0.1799909
142	0xbf2410c1	-0.64088064
143	0x3e4c5e47	0.19957839
144	0x3da3b8aa	0.07994206
145	0x3dd4515d	0.10367081
146	0xbf713dcf	-0.9423494
147	0xbee35603	-0.4440156
148	0xbe94ef36	-0.29088753
149	0xbf52e6ef	-0.82383627
150	0x3e026af0	0.12736106
151	0xbeaf4183	-0.3422967
152	0x3e1a0626	0.15041408
153	0x3e704959	0.2346548
154	0xbf224442	-0.63385403
155	0xbeed8e8f	-0.46397826
156	0x3e31a115	0.17346604
157	0xbee8a506	-0.45438403
158	0xbf547164	-0.8298552
159	0xbf129216	-0.5725416
160	0x3dd475a2	0.10373999
161	0x3e3127fe	0.17300412
162	0x3e6a9f79	0.22912396
163	0x3ebbe940	0.36701393
164	0xbe93152f	-0.287271
165	0xbec160ab	-0.37769064
166	0xbef2f968	-0.47455907
167	0x3f1c7cde	0.6112803
168	0x3ed3e662	0.41386706
169	0xbf42b48b	-0.76056737
170	0xbf48bf85	-0.78417236
171	0xbf37940c	-0.71710277
172	0xbf6d1718	-0.92613363
173	0x3ee2dfd2	0.44311386
174	0x3ea43975	0.32075086
175	0xbf51c8de	-0.81947124
176	0xbf3c192f	-0.7347593
177	0x3dda9e33	0.10674705
178	0x3e164070	0.14673018
179	0xbe950526	-0.2910549
180	0xbf604748	-0.87608767
181	0xbf8c9584	-1.0983129
182	0x3e2da3e0	0.16957045
183	0xbf0445f7	-0.5166926
184	0xbc14d4f1	-0.009083972
185	0xbef9aef6	-0.48766297
186	0xbecbaa61	-0.39778426
187	0x3e34e5bf	0.17665766
188	0x3ea0ef06	0.3143236
189	0xbeef1e35	-0.46702734
190	0xbeed12f3	-0.4630352
191	0x3ec627bd	0.38702193
192	0x3dc9137b	0.09818169
193	0xbf3990ab	-0.7248637
194	0x3dea979b	0.11454698
195	0xbcb1d590	-0.02170828
196	0x3dc4fb6e	0.09618269
197	0xbe556762	-0.20840219
198	0x3da40eee	0.0801066
199	0x3ee41401	0.44546512
200	0xbf267cef	-0.65034384
201	0xbf62dd56	-0.8861898
202	0xbf2a4324	-0.665087
203	0x3ecf0ef4	0.40441096
204	0xbf8b1205	-1.0864874
205	0xbf5bc3b3	-0.8584549
206	0x3e7239b2	0.23654822
207	0xbf68e2f8	-0.90971327
208	0xbf7d39d4	-0.98916364
209	0xbf4790f9	-0.77955586
210	0xbf3beb45	-0.7340587
211	0x3e361b6e	0.17783901
212	0x3df56979	0.11983008
213	0x3e0b7df8	0.13622272
214	0xbee3b025	-0.44470325
215	0x3da2d3a1	0.07950521
216	0x3e3b2d98	0.18279111
217	0xbe7108e6	-0.2353855
218	0x3e3aa2bb	0.18226139
219	0x3f031197	0.51198715
220	0xbe952074	-0.29126322
221	0x3e118135	0.14209445
222	0x3d8337cb	0.06407126
223	0xbf1ecea0	-0.62034035
224	0x3d801953	0.0625483
225	0xbeafb154	-0.34314978
226	0x3e981c81	0.29709247
227	0x3df23c4a	0.118279055
228	0x3de69d3f	0.11260461
229	0x3e275f5f	0.16344975
230	0xbf02a157	-0.51027435
231	0x3eca678c	0.39532125
232	0x3e488ac1	0.1958418
233	0x3db65265	0.08902434
234	0xbf447dd6	-0.7675451
235	0x3e4f8cf4	0.20268613
236	0x3e0b0e1c	0.13579601
237	0x3dcb7d6d	0.099360324
238	0xbf229925	-0.6351493
239	0xbf5bfe6d	-0.859351
240	0x3df82a5f	0.12117457
241	0xbf156b9e	-0.58367336
242	0xbf8714a5	-1.0553175
243	0x3db2cbc7	0.08730274
244	0xbf45c8d4	-0.77259564
245	0xbf1d8c7c	-0.6154249
246	0x3eea4709	0.4575732
247	0xbf673c8b	-0.90326756
248	0x3eec0b6f	0.46102473
249	0x3dcb7473	0.0993432
250	0x3e55f87f	0.20895575
251	0x3e464cd1	0.1936524
252	0xbf0f690d	-0.5601967
253	0xbf1d6a4c	-0.6149032
254	0x3e29576c	0.16537255
255	0x3e2d49f2	0.16922739

head.bias f4 [15]
0	0x3e4f348c	0.20234889
1	0x3cecb075	0.028892735
2	0xbd8e724a	-0.06955393
3	0xbe413fb7	-0.18871962
4	0xbd57987f	-0.052635666
5	0xbda0ffda	-0.078613
6	0xbe85a488	-0.2610209
7	0x3e9dc113	0.30811366
8	0xbe86e84c	-0.26349103
9	0x3a8f5fb3	0.0010938555
10	0x3e65d717	0.22445332
11	0xbe384dcf	-0.17998432
12	0xbd7b2130	-0.061310947
13	0x3e44f7dc	0.19235176
14	0xbe30170e	-0.17196295
