surrogate/trained_model/BCRNet/model_rate16_fold2.pth (torch, 179099 bytes, 18 tensors)

ds.proj_conv.weight f4 [16, 2, 7]
000000 e4 69 45 bd c5 c4 eb bd 3a 76 4c be 86 3f 1d be
       -0.04819669 -0.1151214 -0.19966975 -0.15356264
000010 34 54 11 be d3 1a 02 be 75 a4 ec bd ad 4b de bd
       -0.14192277 -0.12705545 -0.11554805 -0.10854278
000020 e7 bd 4b bd 10 41 11 bd a0 5b b3 bc 88 48 e6 3b
       -0.049741652 -0.03546244 -0.021894276 0.0070276894
000030 2e 20 c5 3c e8 00 ea 3c 76 e4 50 3d 61 fa 95 3d
       0.024063196 0.028564885 0.050999127 0.073231466
000040 1e 1e c0 3d 1d 3f f0 3d 9b aa c1 3d 06 25 05 3e
       0.093807444 0.11730788 0.094563685 0.13002405
000050 d9 3e e1 3d 6c 5d e7 bc 83 31 1f bc d8 d2 8d 3c
       0.10998315 -0.02824279 -0.009716394 0.017312452
000060 48 76 29 3d 1c 7a 6b 3d 7b 73 dc 3d b7 92 d5 3d
       0.041372567 0.0574895 0.10764214 0.10428374
000070 e4 7a cd 3d b5 91 c2 3d ca 9a 1a 3e 7d 6c d7 3d
       0.10033205 0.09500448 0.1509811 0.10518739
000080 92 9c 5d 3d 63 85 f6 3b 7a 92 35 bd 54 a4 bd bd
       0.054104395 0.007523225 -0.044329144 -0.09259859
000090 b7 22 00 bd 4e 73 9c bd 2f 83 88 bd 2f 51 1d bd
       -0.031283107 -0.0763918 -0.06665646 -0.0384075
0000a0 3a 87 b8 bd 0b 2d e4 bc ce 99 37 3c a3 c3 d8 3c
       -0.090101674 -0.02785351 0.0112061035 0.026460474
0000b0 f3 18 03 3d b5 8f 64 3d 00 19 ba 3d 3f 00 b4 3d
       0.032006215 0.055801112 0.090867996 0.087891094
0000c0 67 fc ca 3d a5 a4 fa 3d 12 1c 45 3e 49 a2 48 3e
       0.09911423 0.12238435 0.19248989 0.19593157
0000d0 bd 7b f8 3d 5a 47 a1 3d fb fe c8 3d da 3a f3 3c
       0.12132976 0.07874937 0.09814259 0.029691149
0000e0 a5 f2 3f bd 6e 7e 21 bd 0c e8 95 bc dc 90 8b bd
       -0.046862263 -0.039427213 -0.018299125 -0.06814739
0000f0 c1 cd da bd 58 f8 d6 bd 5f 5b d5 bd 66 fe 10 bd
       -0.10683776 -0.104965866 -0.10417818 -0.035398863
000100 a3 1e f2 bd 68 c6 06 be 9d 0e 02 be c1 6a 2a be
       -0.1182225 -0.13161623 -0.12700887 -0.16642286
000110 2b c4 c8 bd 60 45 c0 bd f8 cb 18 bb 69 11 f1 3c
       -0.09803041 -0.09388232 -0.0023314934 0.029427247
000120 0f 38 96 3d b6 a1 ba 3d 54 d2 b1 3d a7 71 f1 3d
       0.07334911 0.09112875 0.08682695 0.117892556
000130 e2 c1 db 3d 9f ed 76 bd 4b bd 60 bd ba 35 48 3c
       0.107303396 -0.060285207 -0.054868024 0.012219841
000140 1e c9 58 3d d5 25 9c 3d 7c 83 8f 3d c4 64 a3 3d
       0.052926175 0.076244034 0.070075005 0.07978204
000150 8b 06 76 3d 67 5c ad bd 95 22 5b be a3 74 2c be
       0.060064834 -0.0846489 -0.21399911 -0.16841368
000160 e0 fa 37 bd b2 b9 2b bd 45 49 89 bd e2 f4 3d be
       -0.044916987 -0.04192514 -0.06703428 -0.18550447
000170 9d 82 db bd ce d2 2f bd 8a a5 a8 3c de cc 7f 3d
       -0.10718272 -0.04292565 0.020586748 0.062451236
000180 98 b5 6b 3d 65 d3 96 3d 74 62 c6 3b 95 ff 29 3d
       0.05754623 0.07364539 0.006054217 0.041503508
000190 98 27 30 3e 10 b4 fe 3d 83 c3 52 3d 2e fd 52 3d
       0.17202604 0.12436688 0.051455986 0.051510982
0001a0 3f 41 a5 3a 26 12 91 bd 9c 74 2d bd fb 36 09 be
       0.0012607946 -0.0708354 -0.042347535 -0.1339988
0001b0 c9 cc d4 bd 73 6d b2 bd 92 ba 05 be e0 0d a5 bd
       -0.10390622 -0.08712282 -0.13059452 -0.08059287
0001c0 c0 ef 1e be f7 8c 6f be c6 bd 8f be 34 50 4b be
       -0.15521145 -0.23393618 -0.28074473 -0.19854814
0001d0 23 72 41 be 0c 9e f3 bd aa 27 5e bd 72 d3 b3 3c
       -0.18891196 -0.118953794 -0.054237045 0.02195141
0001e0 09 e6 ef 3c 41 e4 e5 3c 5a 91 f8 3b 52 89 2d bc
       0.029284494 0.028062942 0.0075856866 -0.010591822
0001f0 eb ab 2d bd 70 36 91 bd 12 cb 63 3d 64 88 89 3d
       -0.042400282 -0.07090461 0.055613585 0.067154676
000200 58 4e 52 3d 21 f5 97 3d b6 03 f7 3d 25 84 be 3d
       0.051344246 0.074198015 0.12061255 0.09302548
000210 f2 e8 17 3e c8 26 d0 3d b9 49 3b 3e 0f 3e 36 3e
       0.14834955 0.10163647 0.18289842 0.17797111
000220 6e 47 d2 3d 8b 0c bc 3d cb 4c 15 3d a2 0d e1 bc
       0.102675304 0.0918208 0.03645019 -0.027472321
000230 bb 27 84 bd 4f 41 06 be f9 e7 49 be da c4 bf bd
       -0.064528905 -0.13110851 -0.19717397 -0.09363718
000240 58 00 b2 bd d6 5f 4e be c4 3d 18 be 4a d3 1e bd
       -0.08691472 -0.20153746 -0.14867312 -0.03877572
000250 8b fd 1d 3d a0 52 2c 3d 5d 92 4a 3d 93 28 d1 3d
       0.038571876 0.042070985 0.04945599 0.10212817
000260 44 57 89 3d 39 da 40 3c 4f 2b 98 bd 4f cf e1 bd
       0.06706098 0.011770778 -0.074301355 -0.11025869
000270 e3 84 0c be 91 13 89 bd ee e9 cd bd 2d 77 15 be
       -0.13722567 -0.06693185 -0.10054384 -0.14596243
000280 23 10 b6 bd 12 43 de 3b e9 7d 32 3d d7 d1 c4 3d
       -0.088897966 0.0067828977 0.04357711 0.09610336
000290 3a b7 b7 3d 3f 6d c1 3d 8c 7b 4d 3d c8 3f 4b 3c
       0.089704946 0.09444665 0.05016665 0.012405343
0002a0 80 e6 b9 bb ec ac 1a bd ec a1 a7 bd 6a 89 d5 bc
       -0.0056732297 -0.037762567 -0.08185181 -0.0260665
0002b0 4e 74 08 3d b1 47 bb bc ec 63 85 3d d1 a0 98 3d
       0.03331404 -0.022861334 0.06513199 0.07452548
0002c0 7b b1 02 3e c2 c9 53 3e 40 7b 31 3d b1 c1 ff 3c
       0.12763016 0.20682433 0.04333043 0.031220289
0002d0 b3 27 21 bd 66 24 9e bd 24 0a 89 3d 7c 7e c2 3d
       -0.0393445 -0.07721786 0.06691387 0.09496781
0002e0 fb a0 be 3d 7b c3 8d 3d 22 4a bb 3d d6 e9 9b 3d
       0.09308048 0.069220506 0.09144999 0.0761296
0002f0 ef ec 62 3d c1 25 9e 3d ae cf d8 3d 70 70 ed 3d
       0.05540174 0.07722045 0.10586487 0.115937114
000300 74 0f 92 3d 1c 5f 93 3d 4a b0 5a 3d d7 11 58 bb
       0.07131854 0.07195875 0.05339078 -0.0032969618
000310 41 82 0b be 18 fd 47 be ca d6 74 be 51 6c 36 be
       -0.13623907 -0.19530141 -0.2391006 -0.17814757
000320 f1 1b 0f be 33 22 07 bd ff 22 e8 bc 27 79 8f 3d
       -0.13975503 -0.0329916 -0.028337 0.0700553
000330 b9 c7 d6 3c f3 6d 66 bc ae 0b 94 bb 53 87 33 bd
       0.026218282 -0.0140643 -0.004517994 -0.043830227
000340 2c 1b c9 bd 27 23 cb bd de 75 a3 3d e7 ff be 3d
       -0.09819636 -0.09918814 0.07981466 0.09326153
000350 e3 c6 c2 3d b1 6e 37 3d b0 18 b8 3b 2e 03 16 bc
       0.09510591 0.044783298 0.0056181774 -0.0091560315
000360 c5 1b 46 bd 23 aa b0 bd 4e 6d 24 be da 0a 63 be
       -0.048366327 -0.08626201 -0.16057321 -0.22172108
000370 a0 3d 59 be 59 60 1f be ec ce 85 bd 5f 32 d8 3b
       -0.21214914 -0.15564097 -0.06533608 0.0065978016

ds.proj_conv.bias f4 [16]
000000 99 c7 16 be 15 22 9f 3b a9 bd 2a 3e 22 d1 37 be
       -0.14724578 0.004856358 0.16673912 -0.17950872
000010 dd 8d 83 be 47 dc e8 3d 67 17 3c 3d bd 6f 81 3d
       -0.2569417 0.113701396 0.045920756 0.063201405
000020 5d 1d 54 be 88 63 5d be 74 ee 28 3c 48 ba 12 3e
       -0.20714326 -0.2162 0.010310758 0.14328873
000030 32 1e 8e be 1e 0d 67 be f1 50 a1 3e 0a 9c 2d 3e
       -0.27757412 -0.22563598 0.31507066 0.16954055

ds.proj_bn.weight f4 [16]
000000 0f 95 8e 3f 60 05 86 3f 53 e5 9b 3f 07 14 81 3f
       1.1139239 1.047039 1.2179359 1.0084237
000010 5d 48 99 3f 76 8c 84 3f e4 56 91 3f 4d 6c a0 3f
       1.1975209 1.0355365 1.1354642 1.2533051
000020 9e 62 95 3f 95 b6 80 3f a6 4b 87 3f 2d f3 9d 3f
       1.167072 1.005572 1.0569961 1.2339836
000030 29 2c 7a 3f d9 f6 87 3f 8b f2 8c 3f 33 2b b2 3f
       0.97723633 1.0622207 1.1011518 1.3919433

ds.proj_bn.bias f4 [16]
000000 8d 48 0d be 11 7e 23 be 1f 90 a8 bc 85 fa 57 be
       -0.13797207 -0.1596606 -0.020576535 -0.2109166
000010 41 e9 87 bd e7 96 4d be fd ae 39 be 42 bb 03 bd
       -0.066362865 -0.20077096 -0.18133159 -0.032161005
000020 55 3b 4c be 9f ca c0 bd 8d ba 58 be ad 74 e8 bc
       -0.19944508 -0.09413647 -0.21164913 -0.028375948
000030 9e 68 ff bd 22 48 af bd a8 dc 62 be ff 7d af 3d
       -0.12471126 -0.0855868 -0.22154486 0.08568954

ds.proj_bn.running_mean f4 [16]
000000 a6 dc ee be d2 f7 94 3e 6e c3 33 3e 6c b7 47 3e
       -0.46652716 0.29095322 0.1755502 0.19503564
000010 1d ec 22 bf ae 7a a2 3e 01 22 23 be 66 6b 5c 3b
       -0.6364153 0.31734222 -0.1593094 0.003363335
000020 b7 f1 16 bf bf 25 28 3e cc 47 43 be ea c4 1f 3d
       -0.5896258 0.16420649 -0.19070357 0.03900615
000030 1c 17 48 be 1e 1c b2 3d 02 8f a9 bc f6 3e b6 bc
       -0.19540066 0.08696769 -0.020698074 -0.022246819

ds.proj_bn.running_var f4 [16]
000000 7b 82 c8 3d 06 d6 38 3d 10 e9 c3 3d 83 c5 8e 3d
       0.09790512 0.045125984 0.095659375 0.06971266
000010 d2 6e 6f 3d 6f 96 f2 3c ab 2d 45 3d 62 74 14 3e
       0.058455296 0.029612748 0.048139255 0.14497522
000020 2b f8 55 3e 18 ab 52 3d 63 77 34 3e fc 6b 16 3e
       0.2089545 0.0514327 0.17623667 0.1468963
000030 ca 4a 07 3d 11 50 05 3d d2 1a e6 3d db 62 36 3e
       0.03303031 0.03254706 0.11235584 0.17811148

ds.proj_conv1.weight f4 [8, 16, 5]
000000 a6 25 96 3b 16 bf 4f bd 78 35 1d be 2a c3 15 be
       0.0045821248 -0.050719343 -0.15352428 -0.1462523
000010 36 ec c5 bd 88 0b c3 bd 55 3d 93 bc 70 32 a3 3d
       -0.09664194 -0.09523684 -0.017973581 0.079686046
000020 25 25 96 bd bf bc 9d bd 74 71 18 be 0d 12 97 bd
       -0.073313035 -0.07702016 -0.14887029 -0.0737649
000030 27 48 6b 3d 0d 7b 5d 3e 1f 9e 88 3d b4 21 85 bd
       0.057441857 0.21628971 0.06670784 -0.06500569
000040 1a f6 78 bd b6 7b 57 bd 25 65 22 3d df 4c a3 3c
       -0.060781576 -0.052608214 0.03964724 0.019934116
000050 b6 28 c9 3d 4c 00 0d 3e 4a ff 41 3d 4b 65 05 3d
       0.09822218 0.13769644 0.047362603 0.032567304
000060 a3 b9 88 3d 3a 75 54 bd 35 95 a6 3b 72 21 e0 3d
       0.066760324 -0.05186961 0.005083705 0.10943879
000070 67 c9 d5 bc eb d0 7e bd 72 49 14 3d 52 ca b6 3c
       -0.026097013 -0.06221096 0.036202855 0.02231327
000080 40 58 ee bd 7f bd 16 be 70 25 d1 3b 2a 07 e7 bd
       -0.11637926 -0.14720725 0.0063826367 -0.11280663
000090 3e 5e 14 3d 1e 67 61 3e 38 da 92 3e 24 2c 01 bc
       0.03622269 0.22011992 0.28682113 -0.007884059
0000a0 f4 0e 59 3d 9c 18 90 3c 5d 15 19 be 16 11 36 be
       0.052992776 0.01758986 -0.14949556 -0.17779955
0000b0 df 86 f3 bd 97 50 56 bd 62 03 9a bd f5 20 2a bd
       -0.11890959 -0.05232295 -0.075201765 -0.041535337
0000c0 ac bc 0d 3d c7 96 c2 3c 5f fb 47 3c 53 d4 72 bd
       0.03460376 0.023753537 0.012205928 -0.05928452
0000d0 a6 32 26 3d 86 e1 93 3d c5 17 9b bc 22 e5 6c 3c
       0.040575646 0.072207496 -0.018932233 0.014458926
0000e0 47 bb 96 bd d9 15 0c 3d c0 37 2b 3d 0a bb 33 bd
       -0.07359939 0.034200523 0.041801214 -0.043879546
0000f0 46 01 ab 3b bf 81 8d bc 72 b7 d4 bd ac 03 ce 3a
       0.0052186577 -0.017273782 -0.10386552 0.0015717647
000100 b7 d7 06 3c 14 50 03 bd 2a 9c a4 bc 90 14 6c 3d
       0.008230141 -0.03205879 -0.020093996 0.057636797
000110 f3 f4 61 3d a4 cc bb 3c 94 2f 09 3e 7f 79 05 3e
       0.055165242 0.022924729 0.13397056 0.13034628
000120 af ec 4e bd c1 5d 2e be 46 54 45 bd e0 a1 df bd
       -0.050518688 -0.17027952 -0.048176073 -0.10919547
000130 ad ef 3c bd 91 39 f8 3d 2b 07 b3 3e 3b ed 07 3e
       -0.04612701 0.12120355 0.34966406 0.1327409
000140 0e 06 6d bd 77 d6 99 bd ab 18 68 bd f1 23 7b bd
       -0.057867102 -0.07511609 -0.05666415 -0.061313573
000150 e6 21 90 3d 79 3d c2 bd 21 fa 67 be 63 72 3a be
       0.070377156 -0.09484381 -0.2265401 -0.18207698
000160 7a ad a0 3b 7b ed b3 3d 3f f9 c8 3d 6e 7a 03 bb
       0.0049034925 0.0878553 0.09813165 -0.0020061987
000170 67 1e 13 bd b7 37 0d bc 25 f5 f9 3c f6 0a 9b 3d
       -0.035917666 -0.0086192405 0.030512402 0.0757045
000180 93 0e c1 3d d5 de ce 3c 6c 18 70 bd 86 77 52 bd
       0.09426608 0.025252739 -0.05861704 -0.051383518
000190 98 60 43 3e c3 af 51 3e b8 bb 3b 3c b2 55 e5 bd
       0.19079816 0.20477204 0.01145833 -0.11197986
0001a0 f1 b6 13 be 6d b5 1f be f0 9f 74 be 60 80 27 be
       -0.14425255 -0.15596552 -0.23889136 -0.16357565
0001b0 67 dc f8 3c 4c eb fc 3d e9 39 da bd 0f df b0 bc
       0.030378534 0.12349567 -0.10655577 -0.021590738
0001c0 27 20 ba 3b 5d c0 7c bd dd a2 ad 3d 46 1c ae 3d
       0.0056801024 -0.06170689 0.08478329 0.085014865
0001d0 00 07 37 bd ca 88 0d bd be ee 93 bc 71 20 8d bc
       -0.04468441 -0.03455428 -0.018058177 -0.017227383
0001e0 ee 8b 51 bd 78 db 1a be d2 af 15 be 06 80 a0 bd
       -0.051158838 -0.15122783 -0.14617851 -0.078369185
0001f0 99 6e 84 3c 4f 82 b6 bc 70 ad 95 3b 3e 09 7c bd
       0.016166018 -0.022278933 0.0045677945 -0.06153225
000200 c1 d8 fd bd 28 57 ac bd 4b 73 d8 bd e9 02 17 be
       -0.12394858 -0.08415061 -0.105688654 -0.14747204
000210 62 1c 86 bd 56 a8 9e bb da f3 a6 3c b1 78 18 be
       -0.06548382 -0.0048418446 0.02037995 -0.1488979
000220 1c 26 55 be a7 f0 a8 bd 52 a9 05 bd c8 79 16 3c
       -0.20815319 -0.08249026 -0.03263218 0.009184308
000230 b7 75 a3 bd 38 e8 38 bd ee 1b f8 bc 19 f3 12 3c
       -0.07981437 -0.045143336 -0.030286755 0.008969092
000240 7a 77 fd bc da 0c da bd c8 f0 5c bb ad b8 d1 bc
       -0.03094076 -0.106469825 -0.0033712853 -0.025600756
000250 15 e0 a4 bd 16 50 ce bd f1 67 a6 bb a7 f1 a0 bd
       -0.08050553 -0.10073869 -0.0050783087 -0.078585915
000260 b3 df d6 bd 26 99 48 bd f1 ea 2d 3d 88 70 ac 3d
       -0.10491886 -0.04897418 0.042460386 0.08419901
000270 52 d7 50 3e c6 13 f4 bc d2 e1 9e 3c 06 8a 5e bd
       0.20394638 -0.029794585 0.019394789 -0.05433085
000280 2a 23 16 3e dc 81 50 3d 21 99 4f 3b 91 3b b1 b9
       0.14661852 0.050905094 0.0031676965 -0.0003380445
000290 2a 8b 36 bd 4c 12 65 3d a0 14 d5 3d 15 f8 47 3d
       -0.04456631 0.055925652 0.104043245 0.048820574
0002a0 26 99 20 3c 72 5d 8b bd 9d c8 df bd 12 f9 84 3d
       0.009802138 -0.06804933 -0.10926936 0.06492819
0002b0 76 1c 2b 3c fd fa 1b bd 92 de 9b bd 76 64 11 be
       0.010443797 -0.038081158 -0.07610811 -0.14198479
0002c0 ee 0b 85 bd b2 d5 91 bd f6 d5 4f bd e2 b9 da bd
       -0.06496416 -0.07120837 -0.05074116 -0.106799856
0002d0 29 b1 12 be 4e 30 22 be 36 0f c4 bd 67 33 92 bd
       -0.14325394 -0.1583874 -0.09573214 -0.071387105
0002e0 90 02 d5 3a d3 e2 db 3d 68 ef c9 3d f7 65 44 3c
       0.0016251374 0.10736623 0.09860116 0.011987201
0002f0 d3 c0 23 38 d2 23 7a bd 2c 69 88 3e f2 97 c1 3c
       3.904181e-05 -0.061069317 0.2664274 0.023632023
000300 78 0d 06 bd 5c 06 0a bd 09 7d 01 be 2b e9 a1 bd
       -0.03272769 -0.03369747 -0.12645353 -0.079058014
000310 75 a6 59 bc 68 f6 11 bd c1 cd c4 bd b1 3a be bc
       -0.013284315 -0.035635382 -0.09609557 -0.023221346
000320 dc 2d cf bb 97 84 be 3d 8a d5 77 3d 27 08 01 3d
       -0.0063226055 0.09302633 0.06050638 0.031501915
000330 9e a7 05 3c 6e c7 a2 bd c4 be 61 3b a7 a9 f3 bb
       0.008157639 -0.079481944 0.003444598 -0.0074359956
000340 76 08 15 bd 0e 0f 5b bd 63 dc d6 3c ec 54 98 3d
       -0.036385022 -0.053481154 0.026228135 0.074380726
000350 11 aa 47 3d 0f 01 cc bc 2c 08 df bc 10 8a a5 3d
       0.048746172 -0.024902849 -0.027225576 0.08082974
000360 2a e2 22 3e 28 fd 04 3e b6 e9 39 3d 41 09 85 3c
       0.15906587 0.12987196 0.0453889 0.016239764
000370 29 cf a4 bd aa fe 91 3a 87 b5 e8 3c 7d 74 17 bc
       -0.08047325 0.0011138518 0.028406871 -0.009244082
000380 3f 16 94 bc 61 23 4b be 4a 8d 3e bd c6 4e 52 bd
       -0.018077014 -0.19837715 -0.046521463 -0.051344655
000390 1d 08 9e bd f0 9d c4 bd 3d b4 e4 bc 0a 44 3a bc
       -0.07716391 -0.09600437 -0.027917976 -0.011368761
0003a0 a9 f0 4e 3d 45 53 a2 3d 4b 4c 90 3c 70 6d 5d be
       0.05052248 0.07926039 0.017614504 -0.21623778
0003b0 be 58 51 be c5 0e f2 bd 55 0a 1c be e3 b0 3f bd
       -0.20444009 -0.11819223 -0.15238316 -0.04679955
0003c0 ea d6 0e 3e 80 7f eb 3c 31 8a 7c bd b7 c8 9c bd
       0.1394917 0.02874732 -0.061655227 -0.07655471
0003d0 7f 95 1f 3d 0f 56 59 3e 3f 38 17 3e 86 b6 c8 bc
       0.03896093 0.21224235 0.1476755 -0.024501096
0003e0 45 4c 86 ba 98 ac 11 3c ec 39 c1 bd c7 7d 9a bd
       -0.0010246119 0.008891247 -0.09434876 -0.075435214
0003f0 ef 2c 7a bd b4 c8 14 bd 0d cb f1 3b 5d e1 ca bc
       -0.06107801 -0.036324218 0.007378942 -0.024765665

ds.proj_conv1.bias f4 [8]
000000 5c a1 f4 bb f7 2c 99 3c fe 69 da bd f7 52 75 3d
       -0.0074655246 0.018698199 -0.10664748 0.059893575
000010 83 dc 08 bd 46 ae dc bd a3 db df 3d f9 ba 4c 3d
       -0.03341342 -0.107754275 0.10930564 0.049983

ds.proj_bn1.weight f4 [8]
000000 3a 7d a0 3f a2 52 b4 3f 6f a5 b6 3f 25 54 bf 3f
       1.2538216 1.4087718 1.4269236 1.4947554
000010 f4 74 bd 3f c4 34 aa 3f a7 6e a6 3f 45 85 a7 3f
       1.4801316 1.3297353 1.3002518 1.3087546

ds.proj_bn1.bias f4 [8]
000000 37 4c 36 3d 56 18 13 3e 43 23 0a bd 08 b1 e2 3d
       0.044506278 0.14364752 -0.033725034 0.11068922
000010 a4 09 e6 3d 34 e4 9c 3d da 34 3a 3d 33 1a ce 3c
       0.112323076 0.07660714 0.04546056 0.025158977

ds.proj_bn1.running_mean f4 [8]
000000 7a ca 1b 3e b6 28 05 bf 22 fd 16 bf fc ea f3 be
       0.15213957 -0.52015245 -0.5898 -0.47640216
000010 85 dd c1 3e 70 01 92 be eb 90 d3 3e 8c c4 0d 3f
       0.37864318 -0.28516722 0.413215 0.5537803

ds.proj_bn1.running_var f4 [8]
000000 ec 91 02 3f fa 61 b3 3e 7f 59 b9 3e d9 0f bc 3e
       0.5100391 0.35035688 0.36201093 0.3673084
000010 c9 e2 55 3f dd cb ae 3e ca 7d 04 3f c6 b8 fe 3e
       0.8354917 0.3413991 0.5175444 0.49750346

ds.fc1_conv.weight f4 [128, 256]
000000 7d 25 23 bd fe bc e4 bd 89 b6 81 be 3f 59 50 be
       -0.039830673 -0.1116886 -0.25334576 -0.20346545
000010 f3 dd 5c bd f3 16 d6 bd a8 97 be bd 17 df 82 3d
       -0.053922605 -0.10453596 -0.0930627 0.06390207
000020 4a 98 7a 3d 7d 5c ac 3d f2 d3 9d 3c e5 c6 91 3e
       0.06118039 0.08416078 0.019266102 0.28472057
000030 d4 60 29 be bb c5 37 be 57 2b 11 3d 06 26 b0 3d
       -0.16540843 -0.17946522 0.035441723 0.086010024
000040 c2 2a 05 3e 53 bd c7 3e 83 41 b1 bd 66 3c 4f be
       0.13004592 0.3901163 -0.086550735 -0.20237884
000050 22 ef 04 bd 36 9d 13 3e c5 bf f1 3c b4 99 f7 3c
       -0.032454617 0.1441544 0.029510388 0.030224659
000060 ae 91 8e 3b 96 2c d4 3d b1 dd 85 bd 67 2e 81 bd
       0.0043508625 0.103600666 -0.06536425 -0.06307679
000070 b0 96 ac be 71 ed b0 be 7f 77 9f 3c 19 90 31 3d
       -0.33708715 -0.34556153 0.01946616 0.043350313
000080 d9 7b 5d bd 0b 16 04 3c e7 47 6e 3d 60 f4 50 be
       -0.05407319 0.008061896 0.05817404 -0.20405722
000090 06 4c 02 be 8a f6 21 bd bb 75 d1 3c 00 3c 15 bc
       -0.12724313 -0.03954176 0.025568834 -0.009108543
0000a0 55 93 1b bd 21 48 fd bc 71 16 cb bb 81 37 47 3d
       -0.037982304 -0.030918183 -0.0061977436 0.048636917
0000b0 82 74 fb 3d 2f 98 29 3e e8 ef 15 bd 5e 57 a8 3d
       0.122780815 0.1656196 -0.036605746 0.08219789
0000c0 54 87 2a 3e e2 9f a4 3e c1 6a 99 3d b8 b0 17 bd
       0.16653186 0.3215323 0.07491065 -0.037033767
0000d0 43 96 97 3e b7 66 8c 3e 9b b5 e0 3d db cc 33 3e
       0.29606828 0.27422115 0.109721385 0.17558615
0000e0 1b 6e 8d 3d 3f cd ac 3d a7 8b c5 3d ee f5 fa 3c
       0.069057666 0.08437585 0.09645777 0.030634847
0000f0 9a 69 25 bd 8f 9f 1c be fe 74 76 be 97 9b 8e bd
       -0.040383913 -0.15295242 -0.24068066 -0.0696327
000100 26 a1 4f bd 3c 66 b2 3c 22 3b 0c bc 66 a3 ff 3d
       -0.050690793 0.021777265 -0.00855902 0.12482338
000110 a6 3f 50 ba 56 17 a5 3d 73 aa b4 3d 46 25 43 3d
       -0.00079440547 0.080610916 0.08821573 0.04764297
000120 ac ea 3e 3c 29 74 d7 bd f8 75 64 be d7 67 9e bd
       0.01165263 -0.10520203 -0.22310627 -0.0773465
000130 84 46 7b 3e c9 e8 8f 3d ce 7d dc 3c fa dd 4e ba
       0.24538618 0.07026822 0.026915457 -0.00078913535
000140 4d c3 4d be 3f ed 36 be ec 6f 70 bd f6 d2 9c bd
       -0.20094033 -0.1786394 -0.058700487 -0.07657425
000150 8f 6f 37 be 56 48 39 3d 86 27 24 39 ff 9f 99 bd
       -0.1791365 0.045235 0.00015654982 -0.0750122
000160 24 a5 c2 bd a4 43 09 be 59 78 ba bc 1e 69 e2 3c
       -0.09504154 -0.13404709 -0.022762464 0.027638014
000170 41 fb b8 3e 46 76 65 3e 35 41 43 3d 14 fc 8d bd
       0.36129192 0.22408399 0.04766961 -0.06932846
000180 9c 2a ce bd 9f 8d ea bc 8e 31 3d be b3 e2 a4 bc
       -0.10066721 -0.028631983 -0.18475935 -0.02012763
000190 8a 00 d6 3c 51 96 27 3e 19 69 31 3e 94 a0 a1 3e
       0.026123304 0.16365935 0.17325248 0.31567824
0001a0 a3 f7 3e 3e 27 9f 48 3c e8 e9 f7 3d 95 a7 07 be
       0.18649153 0.012244976 0.12105161 -0.13247521
0001b0 ef 25 af 3c 2e f1 10 3e 9e 1b e1 3d 9e 4c 34 3d
       0.021380393 0.14154503 0.10991596 0.04401838
0001c0 65 70 af 3d db 97 71 bd d2 06 6c be ce 59 1f 3d
       0.085663594 -0.05898271 -0.23049477 0.038904004
0001d0 26 2f 4c bd f8 6b 1a 3a 2a 25 6c 3d 51 86 4a bc
       -0.04984965 0.00058907224 0.05765263 -0.012361125
0001e0 9e 4b 2f bd ec 1f ae 3d a0 68 fc 3c 6a 3d 85 bc
       -0.042796724 0.08502182 0.030811608 -0.016264636
0001f0 4a 04 0a 3e 21 57 ce bd 9a cb fe bb 3c ed 66 bd
       0.13478199 -0.10075212 -0.007775736 -0.056378588
000200 ea 4d 5f 3e dd 0e 26 3d 64 93 06 3e 13 f6 3b 3e
       0.21807066 0.04054152 0.13142163 0.18355589
000210 18 e4 4b 3d 5e 7c 9d bd cd 12 10 be 77 e0 0c be
       0.049778074 -0.07689737 -0.14069672 -0.13757502
000220 ad dd b2 bd 74 57 4d be bc 49 d0 be 0f a5 84 3d
       -0.087336875 -0.20052892 -0.40681255 0.06476795
000230 01 1b 13 be c7 8f 21 be 29 00 4f be 42 24 cd be
       -0.1436577 -0.15777503 -0.20214905 -0.40066725
000240 1d 1d d6 be 28 b4 a9 be 01 45 8e 3d 23 53 b9 bc
       -0.41819087 -0.3314526 0.06946755 -0.02262265
000250 06 5e 62 ba a3 4d f7 3c c3 59 c4 bd 44 33 2d bc
       -0.00086352264 0.030188387 -0.09587433 -0.010571305
000260 e0 41 c6 ba 00 3a 4e bd 79 6a 0e be c1 67 13 bd
       -0.0015125833 -0.05034828 -0.13907804 -0.03598762
000270 5b 30 bb 3d a9 b8 8a 3e 2a 47 cb 3d 18 db 31 3e
       0.091400824 0.2709401 0.09925683 0.17368734
000280 1d 1c f7 3b 04 f5 80 bd 5e a5 88 3d d7 21 31 be
       0.007541193 -0.06296733 0.06672166 -0.17298065
000290 65 be ff bd fd 50 93 bd 2d a1 4c 3d 10 5a 14 3d
       -0.12487487 -0.07193182 0.049958397 0.036218703
0002a0 d0 50 e9 3c d2 c8 38 3c a9 76 a1 bc 8a a4 be 3d
       0.028480917 0.011278348 -0.019709902 0.09308727
0002b0 2d b2 6a 3d 12 f3 86 3e 1a 05 c5 3c 6b 1a 78 3d
       0.057298828 0.26357323 0.024050284 0.06057207
0002c0 6c 19 cd 3d 7c bc 2c 3e b1 99 cc 3b 56 ee dd bd
       0.100146145 0.16868776 0.0062439074 -0.108364746
0002d0 e4 45 62 3e 0c ac ac 3d 3e be 32 3c 24 fe 2c 3e
       0.22096974 0.08431253 0.010909615 0.16893822
0002e0 f7 17 af 3d a8 44 92 3a f7 a4 2a 3d 02 02 67 bb
       0.08549493 0.0011159377 0.04166123 -0.0035249
0002f0 53 0a 0b 3d cf 99 74 bd 95 f1 14 be 57 e5 93 bd
       0.033945393 -0.059716996 -0.14545281 -0.072214775
000300 26 8d a3 3d f9 50 f1 be 61 97 54 bd 60 5a bd be
       0.07985906 -0.4713209 -0.05190218 -0.36983013
000310 a4 d7 8f be a7 e7 42 bc 4c 85 c9 bd bb 69 23 bd
       -0.28094208 -0.011896051 -0.098398775 -0.039895754
000320 76 b5 b7 3d ce 5f bf 3d 63 cc de 3d 32 6d 02 3e
       0.08970158 0.09344445 0.108788274 0.12736967
000330 78 94 f1 3d a6 c9 d5 bd cc 76 07 be 41 9f 3a bd
       0.11795896 -0.10438852 -0.13228911 -0.045562033
000340 6b 2b 3a 3c dc 4a 3e bc 37 26 75 3e 4a 1b 21 3e
       0.011362891 -0.011614528 0.23940359 0.15733066
000350 fa e1 d1 bd a9 af 4d be a9 52 07 3e e0 17 c8 bc
       -0.1024818 -0.2008654 0.13215126 -0.024425447
000360 34 48 e8 3a a1 ff 45 3c b6 6a 9d 3c 87 26 0d 3d
       0.0017721714 0.012084872 0.019215923 0.03446057
000370 57 1d 01 bd c3 43 66 be 5e 42 00 bf 33 0b 55 be
       -0.03152212 -0.22486787 -0.5010127 -0.20805053
000380 0f da d6 3a 06 84 90 be 15 a4 03 bf db dc ec be
       0.0016391891 -0.28225726 -0.51422244 -0.4626225
000390 75 df ea be 03 15 13 be 31 8c 09 be a9 5a 2a bd
       -0.4587361 -0.14363484 -0.13432385 -0.041590367
0003a0 02 f8 cb 3d b3 93 e9 3d aa 9f df 3d df 81 4d 3c
       0.09959413 0.114051245 0.109191254 0.012543171
0003b0 9e 62 b5 3d b8 df 79 be 99 b0 4a be a8 c8 33 3d
       0.088567 -0.24401748 -0.19793929 0.043892533
0003c0 98 5a bf 3c ce 91 0d 3c 61 b8 a7 3d 9c 6e 21 be
       0.023358628 0.00864072 0.08189464 -0.1576485
0003d0 f5 9e 38 be c3 77 a0 bd a2 e4 10 be c8 89 27 bd
       -0.18029387 -0.07835343 -0.14149716 -0.040902883
0003e0 21 3c 49 bc c5 ae 7e 3c 85 ba bc 3b 5c b0 03 bd
       -0.012282402 0.015544598 0.0057595395 -0.03215061
0003f0 07 a4 34 be c5 25 ee be b0 a6 d0 be e5 10 e1 be
       -0.17640696 -0.4651319 -0.40752172 -0.43958202

ds.fc1_conv.bias f4 [128]
000000 ac 84 02 3d a0 d9 05 3d 08 96 c1 3c de 42 26 3d
       0.031864807 0.032678246 0.02363111 0.040591113
000010 4c be c1 bb 6e c9 85 3c 51 52 e8 bb c8 fe 41 3c
       -0.0059125777 0.0163314 -0.007089891 0.01184053
000020 ed 20 73 3d c3 7a ee 3b a7 17 aa bb 53 41 67 3d
       0.059357572 0.007277818 -0.005190808 0.056458782
000030 a9 eb 89 3c 1d c4 68 bb c7 f4 c9 3b 43 6a 35 3d
       0.016836004 -0.0035517283 0.006163213 0.044290792
000040 39 59 4f 3c d6 56 e0 3c e8 d3 81 3d 14 8d 26 3d
       0.01265555 0.027385157 0.06339246 0.040661886
000050 cb 4d 0d 3d 26 16 04 bd 4f e9 0a 3d a6 42 0d 3c
       0.034498017 -0.032247685 0.033913907 0.008621847
000060 cd bf 23 3d e7 a0 10 3a 78 1d 26 3c 22 5a 70 3d
       0.039977837 0.00055171404 0.010138862 0.058679707
000070 40 20 a7 3d 8f 05 b0 3b d6 fe dc 3b ed c0 2f 3d
       0.08160448 0.0053717564 0.006744246 0.042908598
000080 2c 2e 35 3d 40 04 5c 3d 0f 18 fd 3c 7b ed 1d 3d
       0.044233486 0.05371499 0.030895261 0.038556557
000090 48 76 3e 3d f9 f9 24 3d 3d ac 89 3c 25 57 43 3d
       0.04649952 0.040277455 0.016805762 0.04769053
0000a0 66 06 2d 3d 16 01 35 3d 6a 38 28 3d 33 89 5a 3d
       0.04224243 0.04419049 0.041069426 0.0533535
0000b0 64 d7 69 3c 70 12 8d 3c 65 2f 25 3d b1 d0 69 3d
       0.0142725445 0.017220706 0.040328402 0.05708379
0000c0 6d fa 07 3c 47 cd 47 3c 1c 62 1a 3d 85 f3 14 3c
       0.008299452 0.012194938 0.03769122 0.009091263
0000d0 57 b8 d2 3c da fb 46 3d 7a db 53 3d 08 3c 3d 3d
       0.025722666 0.048580028 0.05172298 0.04619983
0000e0 68 d6 06 3d 3f bb 1e 3d 6c 36 f2 3b 39 a1 34 3d
       0.032919317 0.03875279 0.0073917415 0.044099066
0000f0 b7 ef 84 3d c7 c2 aa 3c c6 08 ea 3c 6c 72 cf 3c
       0.064910345 0.02084483 0.028568637 0.025323115
000100 e5 7b 96 b9 8d 06 04 bc 7f 71 ee 3b 23 74 1b 3d
       -0.00028702538 -0.008058202 0.0072767134 0.037952553
000110 72 0f 82 3d a2 c1 99 3d 8e 6e 9b 3d 3f 1e f5 3c
       0.06350602 0.07507636 0.07589446 0.029921649
000120 bf 7a bf 3c b0 10 49 3c 24 e2 55 3d 8d 3b 6e 3d
       0.02337396 0.012272045 0.052217618 0.05816226
000130 80 03 d5 3c 16 44 80 3d cc 66 22 3d 70 e4 b2 3c
       0.026002645 0.06262986 0.039648816 0.021837443
000140 13 a3 37 3c df bd a2 bb 40 bb 31 3d 5e 15 1f 3d
       0.0112083135 -0.004966482 0.043391466 0.038838737
000150 50 13 28 3c 35 64 2b 3d 97 30 33 3d 97 73 50 3d
       0.010258511 0.04184361 0.04374751 0.050891485
000160 8d 48 67 3c fc eb 05 3d 33 4d 41 3d c0 6e 10 3d
       0.014116419 0.032695755 0.047192764 0.03526187
000170 80 5c 0c 3d 5e 78 d2 3c a7 9f 28 3d d1 c6 b1 3b
       0.034267902 0.025692161 0.04116788 0.005425312
000180 e9 66 93 3c 5e c4 1b 3d 9c 31 4c 3d 84 3f 66 3b
       0.017993407 0.038029067 0.049852 0.0035133073
000190 3f a7 f4 3a ec 87 c2 3c 5c 7e 7d 3c 2a 79 b6 3c
       0.0018665566 0.023746453 0.015472021 0.022274572
0001a0 f6 d6 c7 3c 22 53 34 3d 60 7e 30 3d e3 e9 eb 3c
       0.024394494 0.044024594 0.04308927 0.02879805
0001b0 0a bb c9 bc 50 ba 08 3c df 72 39 3d 2c 1e 11 3c
       -0.02462532 0.008345202 0.045275565 0.008857291
0001c0 8c 00 a3 3b a5 66 81 3d 03 f4 36 3c 08 d9 9b 3b
       0.0049744304 0.06318406 0.011166575 0.0047560968
0001d0 ca ae 36 3c 27 3a 49 3d 4a 3a b3 bb 80 92 aa 3c
       0.011150071 0.049127724 -0.005469595 0.02082181
0001e0 7f e6 15 3d f0 4a 54 3d 86 03 02 3d 57 8f ba 3c
       0.03659677 0.05182928 0.03174164 0.022773428
0001f0 2a f0 37 3b 49 11 17 3d dc 63 5c 3d 0b b2 05 bc
       0.0028066733 0.03688172 0.05380617 -0.0081601245

ds.fc2_conv.weight f4 [64, 128]
000000 44 23 eb bd 8e e1 71 be 19 60 21 bd eb 7a 26 3d
       -0.11481336 -0.23621199 -0.039398286 0.040644567
000010 c1 69 64 3c d5 cd e8 3e e1 03 02 be b5 49 af bc
       0.013941229 0.45469537 -0.12696792 -0.021397451
000020 e2 7c 8e 3d 58 e3 fb bc 5e e2 5f bf 6c 7b 43 3e
       0.06957413 -0.030748054 -0.87454784 0.1909005
000030 e6 89 1b 3e 89 a5 aa 3c eb eb 6f 3e 1b 02 c1 be
       0.15189323 0.020830886 0.2342984 -0.3769692
000040 5d 59 65 be 9e 34 56 3e 8f 6a cb be 96 c7 a9 bd
       -0.2239737 0.2091851 -0.39729735 -0.08290021
000050 45 46 44 3e 71 b9 18 3d 3a 20 a1 bd 05 ea 30 3e
       0.1916743 0.037286226 -0.07867475 0.17276771
000060 52 15 ae 3d ca 14 c3 bd ac 56 32 be 08 44 07 3e
       0.0850016 -0.095254496 -0.17415875 0.13209546
000070 1d 92 8d 3d 7e 6f 77 be 8e 46 85 3d a5 2b 8a 3e
       0.069126345 -0.24163625 0.06507598 0.26986423
000080 15 67 74 3e 50 4f cd bc 9b 5e d8 3d 74 fb 1d be
       0.23867448 -0.025062233 0.105649196 -0.15427953
000090 5c cd 1a be 1d ea 2a be d3 d7 2f bd 22 48 5d 3e
       -0.15117401 -0.1669087 -0.042930435 0.21609548
0000a0 56 f3 fe 3c 74 fc bd bc 93 97 bf 3e b4 78 81 be
       0.031121891 -0.023191668 0.3742033 -0.25287402
0000b0 6d cc a9 bd 40 de 9c 3e 84 31 bd bd 19 df 6d be
       -0.08290944 0.30638313 -0.0923796 -0.23229636
0000c0 4e 7d 72 bd ec 98 be bc d0 ba f0 3d af 28 9f bd
       -0.05920153 -0.023266278 0.11754382 -0.07771432
0000d0 44 71 14 be b7 5d 79 3d af 36 01 3e 35 26 1f be
       -0.14496332 0.06088039 0.12618516 -0.15541919
0000e0 9e 94 ea bc 26 a2 47 be 01 67 29 3d 54 d4 08 3e
       -0.02863532 -0.19495448 0.041357998 0.13362247
0000f0 a5 ff 47 be a1 61 8b be 61 41 f6 bc 2f 5f a9 3d
       -0.19531114 -0.27222922 -0.030060472 0.08270108
000100 0e 0b ae 3e f9 9a b1 3e 9d 76 de 3c da a7 36 3e
       0.3399281 0.34688547 0.027156169 0.17837468
000110 db 70 27 3d 53 ad 68 be e9 77 36 3e cd 7b fe 3d
       0.04087911 -0.22722368 0.1781918 0.12425957
000120 d5 8a 3a 3e 51 74 1f 3e 6b 7f 17 3e 92 9d ba bd
       0.18217023 0.15571715 0.147947 -0.091120854
000130 a9 48 a8 3d 94 05 d7 3d 40 42 3a 3b 28 12 b0 3e
       0.08216984 0.10499111 0.0028420836 0.34388852
000140 f9 dd 62 3d 10 23 83 3e 58 99 55 3e 2c 99 0d be
       0.05538747 0.25612688 0.20859277 -0.13827962
000150 00 78 3e be c3 1c e7 bd 79 f8 6b be e3 82 9d bc
       -0.18600464 -0.11284783 -0.23044004 -0.01922745
000160 52 ec 2b 3e 9e ce cf 3d 44 66 f4 3c 09 a2 39 3e
       0.16789368 0.10146831 0.02983392 0.18128218
000170 5b f7 d0 3b 29 b0 87 3e 51 bb 98 3e c9 97 06 bf
       0.0063771433 0.26501587 0.2983041 -0.52575356
000180 31 cd e2 3b 5c df bf 3d a8 c3 3b 3e 0e 81 b8 3c
       0.0069214334 0.09368774 0.18336356 0.022522476
000190 00 f7 6b 3d 63 8a 9f 3e 7c 87 9d 3b d5 d3 b4 3b
       0.057608604 0.31160268 0.0048074108 0.0055184164
0001a0 73 56 5e 3d cf ea c9 3d b1 7d b9 be 90 77 ed be
       0.054281663 0.09859239 -0.36228707 -0.4638028
0001b0 8d 5b b0 3c 43 79 57 3d 39 bf 68 3e b2 b1 b3 3d
       0.02152803 0.05260588 0.22729196 0.08774127
0001c0 ea 8e 00 3c 6b 3f 47 3e 2d d0 5e 3e 67 f6 9e 3d
       0.007846573 0.19457786 0.217591 0.07761841
0001d0 25 0e 9b 3e 3c 02 78 be b8 31 53 bf f6 93 19 be
       0.3028423 -0.24219602 -0.8249774 -0.14997849
0001e0 c1 c4 95 bd 9b 81 3b 3d 93 3b 20 be 49 43 ce 3d
       -0.073129185 0.0457779 -0.15647726 0.100714274
0001f0 25 d1 d0 be cb f4 68 be 60 93 ba bd 4b 04 08 3d
       -0.40784565 -0.22749631 -0.09110141 0.03320722
000200 f3 fc 7a be 63 26 76 bd 0c ee 06 3e 36 54 2c 3e
       -0.24510555 -0.060095202 0.13176745 0.16828999
000210 7d 7e bf 3d 2a 50 af bd 8c 25 64 be 13 d2 44 bd
       0.093502976 -0.08560212 -0.22279948 -0.048051905
000220 7c 76 40 3e 48 62 95 3e 89 15 c6 bd 3d c9 ad 3d
       0.18795198 0.29176545 -0.09672076 0.08485649
000230 4a 81 27 bd 32 47 89 be b0 97 5e be 95 ca b3 3d
       -0.040894784 -0.2681213 -0.21737552 0.08778874
000240 88 32 4f bd 3b 82 72 3d cb 31 7b be 0f 59 1a be
       -0.0505853 0.05920623 -0.24530713 -0.15073036
000250 f7 4c ad bd c7 9f 93 3e c3 1b 9b be 91 2e 9c be
       -0.084619455 0.28832838 -0.30294618 -0.30504277
000260 26 57 b4 3e 1f 84 4b be 98 06 41 3e 76 71 64 bd
       0.3522274 -0.19874619 0.18850172 -0.055772267
000270 bc 2c 4e 3e f8 6d 26 3e 25 82 d1 3d f2 e3 09 3e
       0.20134252 0.16252887 0.10229901 0.1346586
000280 2f 4b ae bd 93 9c 60 3d 35 be 11 bd 57 99 53 be
       -0.08510434 0.05483682 -0.035581786 -0.20663963
000290 7f 04 61 be e6 70 d9 3b 20 99 9a 3e 94 46 5b bc
       -0.21974371 0.006635773 0.3019495 -0.013383526
0002a0 76 69 76 3d 1c c3 38 be c3 3d ea bd be 89 42 be
       0.06015917 -0.18043178 -0.11437561 -0.18997857
0002b0 03 24 02 3e 78 42 63 be 1b 5c 4c 3d 7f a3 12 3e
       0.1270905 -0.22193325 0.049892526 0.14320181
0002c0 48 08 66 3d 61 74 28 be 99 cf 68 3e 4a 11 ef bc
       0.05616024 -0.16450645 0.22735442 -0.029183049
0002d0 aa 97 3b 3d 4e db 2b 3e 34 5d c0 bd ce d9 95 3e
       0.045798935 0.16782877 -0.09392777 0.29267734
0002e0 56 21 2a 3d 85 80 a4 bd 13 64 6e 3e 0b 7f c4 3d
       0.041535698 -0.08032326 0.23280363 0.09594544
0002f0 e8 05 1b 3e f8 fc 97 bc 27 f6 f4 bd fb b5 61 bc
       0.15138972 -0.018553242 -0.11961012 -0.013776298
000300 5d ae 60 bc 1f 57 50 be a6 ce 89 3e 34 a3 0b 3e
       -0.013713446 -0.20345734 0.26915473 0.13636476
000310 d6 a5 05 3e c9 2f 68 3e 7c 1c 57 bd 88 f9 bd be
       0.13051543 0.22674479 -0.0525174 -0.3710444
000320 23 fa 25 bc 72 d0 e1 3d cf 71 ea bd c6 1f 03 3e
       -0.010130438 0.11026086 -0.114474885 0.1280509
000330 58 cc ee bd 3b 12 1c be b1 73 ba bd d3 0e 9a 3d
       -0.11660069 -0.1524133 -0.09104098 0.07522359
000340 e1 96 c6 bc 78 9b 8d be 1b a4 8f bc e6 57 d8 3d
       -0.024241867 -0.27657676 -0.017534306 0.1056364
000350 48 99 52 be 87 79 ee 3c 2b 67 9c bd 08 38 e3 3d
       -0.20566285 0.029110683 -0.07636865 0.110946715
000360 a7 1f 97 bd 30 8a 73 3e 37 93 04 3e 23 1e a3 bd
       -0.07379084 0.23783183 0.12946783 -0.079647325
000370 97 f6 ae 3d 40 f1 a8 bb dd e7 26 3c 75 b8 c3 bd
       0.08543127 -0.0051557124 0.010187116 -0.09556667
000380 75 00 11 3e 85 99 d3 bd 35 3d f8 bd f1 19 21 3d
       0.1416033 -0.10332016 -0.12121049 0.03933138
000390 e2 e6 6c 3e a8 bf 2b 3d f7 db 23 3d f4 a7 ad bd
       0.2313495 0.041930825 0.040004697 -0.084793
0003a0 43 3a 2d bd ea 51 bf bc c7 f4 14 3e 72 95 d3 3c
       -0.04229189 -0.02335449 0.145465 0.025828097
0003b0 04 7d a5 3e 74 f3 48 be f2 8b ce bc fb 54 27 3c
       0.32321942 -0.1962412 -0.025213216 0.010213132
0003c0 ec 8b d7 3e 64 47 a5 3b 7a d3 86 bd 4c a8 6e 3e
       0.4209894 0.005043911 -0.06583305 0.23306388
0003d0 54 e8 b9 be 95 94 9f 3e 6d cd ef bd 9c c8 bc be
       -0.36310065 0.31168047 -0.11709104 -0.36871803
0003e0 88 74 9d 3e f2 4f 0d bc 20 b3 6a be 77 d5 23 3e
       0.3075297 -0.0086250175 -0.22919893 0.15999399
0003f0 cf 63 c3 3b f3 7f e3 bd e3 ca 59 3e 39 5d e3 bd
       0.005962826 -0.11108389 0.21268801 -0.11101765

ds.fc2_conv.bias f4 [64]
000000 20 37 62 3d 49 9e 0f bc 73 16 1a 3d 26 2e 7f 3d
       0.055228353 -0.0087657655 0.037619065 0.06229987
000010 4f 37 aa 3c 21 98 a5 3b f4 41 39 3c 42 db 0d 3d
       0.020778326 0.0050535356 0.011307228 0.03463293
000020 05 8a 62 b9 37 8c f3 3c df ff 28 bc 56 ca 61 3d
       -0.00021604456 0.029729946 -0.010314911 0.055124603
000030 64 c3 63 3d ba 5b 00 3d 5b 7f ea bb f1 26 88 3d
       0.05560626 0.031337477 -0.0071562952 0.066480525
000040 11 52 23 3d 0f 80 61 3d 05 4d 4c 3d 74 e5 3b 3d
       0.039873186 0.055053767 0.04987814 0.04587312
000050 fa 14 d7 39 31 c3 4b 3d ea 11 52 3c ce 9e 1e 3d
       0.00041023624 0.049746696 0.012821654 0.038725667
000060 17 f3 7a 3d dd 48 ea 3c 94 46 6c 3d 64 19 7b 3d
       0.061266985 0.028599197 0.057684496 0.06130351
000070 24 75 24 3d 45 3b 35 3d 9a d2 4a 3d 83 48 3c 3c
       0.040150777 0.044245977 0.04951725 0.0114918975
000080 e2 0d 50 3d c4 60 b7 3d 55 b7 91 3d fd 75 a5 3d
       0.05079449 0.089540035 0.07115046 0.08079145
000090 05 80 3b 3c f8 62 69 3d ee e0 b2 3c aa 36 c4 3c
       0.011444096 0.05697915 0.02183577 0.023951847
0000a0 a2 b5 d1 3d 43 ed 73 3d 1c 08 06 3d 19 4d 0c 3d
       0.10239722 0.059552442 0.032722577 0.034253214
0000b0 f2 bd bf 3c 71 46 82 3d 3a b2 25 3d 44 5f 1a 3d
       0.023406003 0.06361092 0.040453173 0.03768851
0000c0 06 cb 94 bc 3e 3b 1b bc cf a9 9c 3d 12 c2 be 3d
       -0.018163215 -0.009474574 0.07649576 0.0931436
0000d0 9c 4e 54 3d 72 55 8b 3c c6 3f 86 3d 2d bf 2c 3d
       0.05183278 0.017008517 0.065551326 0.042174507
0000e0 ae 75 60 3c 08 b2 b0 3d 52 0b 2d 3d 2a 97 ca 3b
       0.013699932 0.08627707 0.042247124 0.006182571
0000f0 5a c4 5f 3d 71 e2 2e 3d 7b 50 67 3d 90 f4 99 3a
       0.054630615 0.04269642 0.056473237 0.0011745859

head.weight f4 [15, 64]
000000 24 30 d5 be 1c 4a 3e 3e 4b 7f 59 be ff 46 b7 be
       -0.4163829 0.18582958 -0.21239965 -0.35796353
000010 73 68 29 be ba 99 2e bf 8c cf c2 3e e0 83 1a be
       -0.1654375 -0.6820332 0.3804897 -0.15089369
000020 f1 4d 86 be b0 0a ce 3d 33 17 00 3f 24 29 01 bf
       -0.2623134 0.10060632 0.500354 -0.504534
000030 36 cf 24 bf 85 68 f9 be 54 2e 2a bf 93 d9 d4 be
       -0.6437868 -0.48712555 -0.6647694 -0.41572246
000040 d8 7e 57 be 37 ff 1a be 5e 1c 07 bf cc 54 27 be
       -0.21044481 -0.15136419 -0.5277766 -0.16340941
000050 fc 32 1f bf 4d 8c e9 be 41 ea 1c be bd 3a 29 bf
       -0.6218717 -0.45614854 -0.15323736 -0.6610525
000060 8b 30 09 be f8 8a 93 3e e5 6f e7 3e 62 bc 24 be
       -0.13397424 0.28816962 0.45202556 -0.16087487
000070 bf 61 2d bf dc da 1b 3e 3c 5c 95 3e ae 22 5d be
       -0.67727274 0.15220207 0.29171932 -0.2159526
000080 ad d9 66 3e a3 50 ed 3d 4a 8c 0e 3e 46 15 10 bf
       0.22543974 0.11587646 0.13920704 -0.5628246
000090 fe ba 00 be d6 e5 41 be 90 86 97 3e fa f8 58 3e
       -0.12571332 -0.18935332 0.2959485 0.21188727
0000a0 91 77 03 3e 89 b1 00 bf c2 bd d5 bd e2 fb 44 3e
       0.1283858 -0.502709 -0.10436584 0.1923671
0000b0 bf 65 36 3e 5c b8 7c 3e 28 6a 29 bf 93 18 28 bf
       0.1781225 0.24679703 -0.66177607 -0.656625
0000c0 d5 2d 00 be f0 8f 3c 3e e3 96 cb be 50 68 33 bf
       -0.12517484 0.18414283 -0.39763555 -0.70081043
0000d0 16 b2 5b be 95 29 2d 3e 50 36 88 3e 39 80 07 be
       -0.21454653 0.16910394 0.26603937 -0.13232507
0000e0 e6 ed 19 be de 0a 31 bf 73 fc b1 3e 0f e4 5d be
       -0.15032157 -0.69157207 0.34762916 -0.21669029
0000f0 90 0a f7 be fe 4f b8 3e c0 bb cd 3d 05 f7 10 be
       -0.48250246 0.3599853 0.10045576 -0.1415673
000100 05 2b 4e be df 4b f2 be 23 58 39 be 7a 8d 7e 3e
       -0.20133598 -0.4732351 -0.18100028 0.24858657
000110 ec 85 b6 be f8 c6 88 3e 0b 80 08 3f 4f 5b ac be
       -0.3564905 0.267143 0.5332038 -0.33663413
000120 5a bd 8b 3e dc ac 0a bf dd 7d fa 3e d7 65 f0 3d
       0.272929 -0.5417001 0.4892415 0.117381744
000130 a1 a7 f9 3e 58 ee e4 3d 68 9e 40 bf b3 9f 83 3e
       0.48760703 0.11178273 -0.7524171 0.25707778
000140 37 e9 80 3e 61 b8 95 be c4 9a 5c bf de 60 5b bf
       0.2517793 -0.29242232 -0.86173654 -0.8569468
000150 e6 c0 28 3e fb e8 95 be 33 a5 27 be 1e c3 1f 3e
       0.16479835 -0.29279312 -0.16371612 0.15601775
000160 a6 62 9a be 22 00 ea 3d dd 60 55 bf b8 36 9a be
       -0.30153388 0.114258066 -0.83350927 -0.30119872
000170 dc ac 3c 3e 59 02 bb 3d 77 9f 0a 3e eb 6d 91 3e
       0.18425316 0.09131307 0.13537394 0.28404173
000180 15 c3 11 bf 24 75 2e bf d7 71 1a bf 97 5a b0 be
       -0.56938297 -0.6814749 -0.60329956 -0.34444115
000190 0a 9d 86 be ae 36 10 3e 4d 8a 91 be e9 eb 05 bf
       -0.26291686 0.14083359 -0.28425828 -0.52313095
0001a0 f5 75 9b 3d 77 c6 14 bf de dc 43 be 1e 3e ab 3e
       0.07590858 -0.58115333 -0.19127223 0.3344583
0001b0 cc 90 f1 be 6a 30 a5 be 07 76 40 3e 05 cf 26 3e
       -0.47180784 -0.322635 0.18795024 0.16289909
0001c0 09 ee b2 be fe 5e c4 be c0 03 16 be f0 a5 e3 3d
       -0.3494723 -0.38353723 -0.14649868 0.111156344
0001d0 e7 a6 59 be f7 69 f2 be 15 eb 30 3e fd f0 86 be
       -0.21255074 -0.4734647 0.17277177 -0.26355734
0001e0 24 ef 67 be c9 61 d0 be 26 fd 1e bf a8 d1 88 3e
       -0.22649819 -0.40699604 -0.62105024 0.26722455
0001f0 ef b2 40 be 32 3f 04 bf 80 26 23 bf e3 c0 8d be
       -0.18818258 -0.5165893 -0.6373062 -0.27686223
000200 8f 59 74 be cd cd fe be 92 61 85 be 78 2d 20 3e
       -0.23862289 -0.4976639 -0.26051003 0.15642345
000210 bf d0 de be ff c5 82 3e 83 89 43 bf d9 39 e4 be
       -0.43518636 0.25541684 -0.763817 -0.44575384
000220 79 51 3f 3e b7 e3 c8 be 93 df 51 bf fb dc 05 3e
       0.18683423 -0.39236233 -0.8198177 0.13072579
000230 92 87 88 bf ff 1c 33 3e 4a 15 2b 3f ce 27 56 3e
       -1.0666373 0.1749153 0.6682936 0.20913622
000240 34 cc 67 3e c3 a4 d9 be 81 14 25 3f 0b 35 2f 3f
       0.22636491 -0.42508516 0.6448441 0.6844031
000250 32 8a 5e bf d9 61 87 be 21 d1 5d be 5e 41 09 3e
       -0.8692962 -0.2644184 -0.21661808 0.13403842
000260 63 47 bf be d9 77 11 3e 0b f2 de be 3c 1f c6 be
       -0.3735915 0.14205875 -0.4354404 -0.38695705
000270 a1 2f 1e 3e a8 fc 1e 3e 67 5f 37 3e e5 5e 5e 3e
       0.15447856 0.15526068 0.17907487 0.21715887
000280 49 b5 ef be 65 de d1 be 46 f3 d0 be b5 59 00 3f
       -0.46817997 -0.40989986 -0.40810603 0.5013688
000290 fa 47 ed be a4 f9 46 3e 67 3c b9 be 54 fa ce be
       -0.46343976 0.19431168 -0.36178896 -0.4042536
0002a0 d3 78 f7 3d 16 68 c5 be 80 93 57 be 55 ec 42 be
       0.12083592 -0.38555974 -0.2105236 -0.19035466
0002b0 20 43 ae be 0f 90 b1 be a7 9b 5b 3e f5 19 53 3e
       -0.34035587 -0.3468022 0.21446095 0.2061537
0002c0 6d bc e6 be d8 82 09 bf b2 fe 52 be 61 9f 1e 3e
       -0.45065632 -0.53715277 -0.20604971 0.15490486
0002d0 4d 66 85 be bb 16 c3 be 15 f0 59 3e ed ac c3 be
       -0.26054612 -0.3810328 0.2128299 -0.3821787
0002e0 31 66 84 be 88 ed e0 be 12 d0 6e be 07 4f 6f 3e
       -0.25859216 -0.43931222 -0.2332156 0.2336999
0002f0 ac 8f 83 be 7e 06 b6 be 03 f2 cb be ed 12 69 be
       -0.2569555 -0.35551828 -0.39833078 -0.22761126
000300 ed 33 a0 bf 62 e9 9a be 9f 52 56 3e a4 f6 46 3e
       -1.2515846 -0.30256182 0.20929955 0.19430023
000310 7e 55 26 3e 88 17 03 bf ea c4 96 be 48 24 5e 3e
       0.1624355 -0.5120778 -0.29447109 0.21693528
000320 46 6a 51 3e be b9 5a be 58 09 b0 be 60 43 d0 be
       0.20450696 -0.21359918 -0.3438213 -0.40676403
000330 15 f5 1d 3e 26 e4 99 be 4f ba f6 be f7 38 fd 3d
       0.15425523 -0.30056876 -0.48189017 0.12364381
000340 ad bd 38 3e 71 d2 47 3e 77 86 01 bf 9d e8 2d 3e
       0.18041106 0.19513871 -0.505958 0.16983266
000350 ce fb 8c bf 95 c2 81 3e 03 e0 89 3e f1 ca 02 bf
       -1.1014345 0.25343767 0.2692872 -0.51090914
000360 c4 fe 6f 3e d7 66 e8 be 81 c7 b0 3e c2 5e 64 3e
       0.23437029 -0.4539096 0.3452721 0.22301772
000370 e6 bc 06 bf a6 9e 92 be 3c 6c 94 be df 4e 3f 3e
       -0.52631986 -0.28636664 -0.28988826 0.1868243
000380 e1 1b c3 be 7a d8 66 be 0b 54 78 be 49 1f 4c 3e
       -0.38107207 -0.22543517 -0.2425081 0.1993381
000390 c1 ca 50 3e 10 7b 82 be db 42 b6 be b9 ad 69 be
       0.20389844 -0.25484514 -0.35597882 -0.22820176
0003a0 d9 1a 8e be c0 63 a5 3e bf 14 85 3e df f1 87 be
       -0.27754858 0.32302666 0.2599239 -0.2655172
0003b0 c4 38 59 be 2e 09 85 bf 10 0a f1 be 6e 11 7a be
       -0.2121306 -1.0393426 -0.4707799 -0.24420711
0003c0 a0 90 59 3e 12 bf ea be 54 14 84 3e 6a 59 18 3f
       0.21246576 -0.458489 0.2579676 0.59511435
0003d0 3a bb 8b bf d3 ab 51 be ec 80 91 be 34 5e 3d 3e
       -1.0916512 -0.20475702 -0.28418672 0.18492967
0003e0 55 ed 80 3e 02 be 5e 3e 98 8c 8a be b3 eb 7c 3e
       0.2518107 0.2175217 -0.2706039 0.24699287
0003f0 ce ab 4c 3e f7 f7 87 be 01 a4 7e be ca 30 92 bf
       0.19987413 -0.2655637 -0.2486725 -1.1421139

head.bias f4 [15]
000000 e7 55 7c 3d 5b 92 e9 bb 9a 6e be 3c 61 85 7d 3d
       0.06160536 -0.0071280426 0.023246098 0.06189478
000010 b3 8b 1f be 41 01 fd bc d3 dd 5d bd 37 b3 0c 3e
       -0.15580635 -0.030884387 -0.054166626 0.1374024
000020 1a a5 d3 bd 07 d2 60 bd 9b 3e 13 3e ef eb a0 bd
       -0.10334225 -0.054887798 0.14379351 -0.07857501
000030 02 04 8c bd f4 05 87 bb 68 4c 11 bd
       -0.06836702 -0.0041205827 -0.035473257
