surrogate/trained_model/model_rate4_fold3.pth (torch, 179077 bytes, 18 tensors)

ds.proj_conv.weight f4 [16, 2, 7]
00000000: 40d3 933d 74ca 1cbb 9afb 873e 5b99 393e
00000010: e8a3 263d 2aad a33c 9193 0cbd 7c80 4bbc
00000020: cd77 78bc 4597 abbb 4556 87bc 2af4 33bd
00000030: 3537 32bd c844 8ebd c216 b63d b236 2d3e
00000040: 3228 ea3d 3eb1 bf3d b876 01bd 1548 33bd
00000050: 72c2 22bd d2b5 febd bde9 e8bd 2bff edbd
00000060: c10b babd 2b34 97bd 010a deba a04c 353d
00000070: b7eb 13be de40 f7bd e047 a9bd 1184 51bd
00000080: d7d8 8bbd d06e dabd 2d72 0bbd bfd8 1dbd
00000090: 9295 993d 231e ef3d 1e3d eb3d 8128 0b3e
000000a0: edd4 373d 7f8d bf3d c3d7 b13d 22b6 c63d
000000b0: c357 313e 395b 713e e415 923d 7a80 053e
000000c0: d797 493c 457d 8d3d d47d ec3c 4a5c be3c
000000d0: 6698 f83c 23b8 543d 12cd 043d 2e6d d93c
000000e0: 19da fcbd 299c 2fbe 43a5 26be f505 0ebe
000000f0: 92a5 1ebe faf7 bebd a892 b63b 228e bd3d
00000100: bd9e fe3d f5b1 8e3d 7a8f 2a3d 22fb 973c
00000110: c0c5 1abb 4ea7 4c3c 66bb 20bd 5874 d0bc
00000120: 2bf1 8abd 5c1a 47be 6847 0bbe a622 07be
00000130: c117 f7bd 8286 15be dd3b e4bd 5223 1fbd
00000140: 2f09 1dbc dda9 2c3d 4ac3 303d be38 8e3d
00000150: 9fca 423d 7d21 823d e8d5 1e3d f5d3 3e3c
00000160: 60b7 09bd c870 67bd 876a bebd 32e9 dabd
00000170: 9f4c cbbe f094 bbbe 3d86 67be 8d30 2abe
00000180: 6c73 94bd 3b73 2e3a 7bab 13bc 639f 053d
00000190: 5150 6fbb c458 1a3d c133 853d ed94 6a3d
000001a0: 68f5 eb3d 8cb2 bcba 184f e33a f00b cf3d
000001b0: 7b41 213e ad4f 683e faa5 ea3d 74bb a43d
000001c0: 8dbf 1ebc c7b8 be3d a625 033e 6457 893d
000001d0: 49e3 453e c230 fd3c d7cc 02bd 3c2e dabd
000001e0: 3b1b 9dbd 7ec3 f1bd 3cec cbbd 20c2 96bd
000001f0: f66f 88bd b960 f6bc 25ec 1cbe 55ea 4fbe
00000200: e855 39be 7649 f6bd c9c5 e3bd abc2 2cbd
00000210: d0af 2f3d fc55 243e bf10 e53d 17de 8d3d
00000220: cdc0 063d 692d 70bc 9eba 59bd 8e8d 03bd
00000230: 59b8 ecbd c5ce 05bd dafd 493d 7431 4b3d
00000240: 5894 c33c 799c b33c 191f e13c e3ee b0bd
00000250: 8369 8bbe 0ccc 97be b606 0ebe f8bb 52be
00000260: b61b 8abe 3f16 fbbd bd5c cbbd d329 adbc
00000270: f370 263c e26d 773d fecd 813d 7415 e63d
00000280: 070a 8b3d 70fb 0bbb 0f3a babd 725f 3fbe
00000290: 8a19 26be 215c 1cbe 38d0 32be 0989 b1bd
000002a0: 7809 563c d69d 223d e5de fd3c fbf2 69bc
000002b0: 4cc7 90bd d76b 99bd 9ff2 08be 705e 4ebe
000002c0: 0a14 bebe 502c 8ebe b16e 1abe b0c5 ebbd
000002d0: 8579 06bd 248e ec3b 5cc0 01be b26a d2bd
000002e0: ebdf c3bd 7871 abbd 6f82 97bd 6a7d dbbd
000002f0: 13b3 dfbb 5d69 ccbc bb06 ed3c d82c 3b3e
00000300: 3567 533c d2d2 003e a25e 553d 6822 993d
00000310: cedc b8bd eb3a 6fbe 8ef7 57be adfe aabe
00000320: b232 8fbe 1113 fcbd 60c2 62bc a3ef 2b3d
00000330: 135d 913c 909a 0e3d eaec 023b 9539 b8bc
00000340: 18b0 3dbd b7d4 35bd a76c 283d 1fab 873d
00000350: 41f0 ab3d 2550 bf3d 0579 a23d 1be6 893d
00000360: 4a86 b23d d948 1d3d 6f36 b83d c144 003e
00000370: a120 0f3e d683 213e f363 d63d 43e1 b23d
0.07218027 -0.0023924382 0.26559144 0.18124907 0.040683657 0.019980032 -0.034320418 -0.01242077
-0.0151652815 -0.0052365386 -0.016520629 -0.043934025 -0.04350968 -0.06946713 0.088910595 0.16915396
0.11433448 0.09359978 -0.03160736 -0.043769915 -0.03973622 -0.12437023 -0.11372707 -0.11620935
-0.09084273 -0.07382997 -0.0016940237 0.04426253 -0.14445387 -0.12072919 -0.08265662 -0.05115134
-0.06828468 -0.10665667 -0.034044433 -0.038536783 0.074992314 0.1167567 0.114862666 0.1358967
0.044880796 0.0935316 0.086837314 0.09702708 0.17318635 0.23569955 0.071330816 0.13037291
0.012304268 0.06908659 0.028868593 0.023237366 0.030346107 0.05193342 0.032422133 0.026541319
-0.12346286 -0.17149414 -0.1627398 -0.1386946 -0.15492848 -0.093246415 0.005571682 0.09255625
0.12432621 0.06967536 0.041640736 0.018552367 -0.0023616403 0.01249106 -0.039241217 -0.025446102
-0.067842804 -0.19443649 -0.13601458 -0.13196811 -0.120650776 -0.14602092 -0.111442305 -0.038852043
-0.009584709 0.04215418 0.043154992 0.069444165 0.047556516 0.06354044 0.038778216 0.011647214
-0.033622146 -0.05650404 -0.09297662 -0.1068901 -0.39706895 -0.36637068 -0.22609802 -0.16620083
-0.072485775 0.0006654744 -0.009013052 0.032622706 -0.0036516378 0.03768231 0.06504012 0.057270933
0.11521417 -0.0014396473 0.0017342297 0.10109699 0.15747635 0.22686644 0.11457439 0.08043566
-0.009689224 0.09312587 0.1280733 0.067061216 0.19324984 0.030907039 -0.03193363 -0.1065335
-0.076712094 -0.11804865 -0.099571675 -0.07361245 -0.0666198 -0.030075418 -0.15324457 -0.20304234
-0.18099177 -0.1202573 -0.11121709 -0.042177837 0.042892277 0.16048425 0.11184835 0.06927126
0.032898713 -0.014659264 -0.053156488 -0.03211742 -0.11558599 -0.032667894 0.049314357 0.04960771
0.023874447 0.021925198 0.027480649 -0.08639314 -0.27228937 -0.29647863 -0.13869748 -0.20579517
-0.26974267 -0.122601025 -0.09929798 -0.021138107 0.010158765 0.060407527 0.06338118 0.112345606
0.06789022 -0.0021359585 -0.09093105 -0.18688753 -0.1622068 -0.1526952 -0.17462242 -0.086687155
0.013063781 0.039701305 0.030990073 -0.014279122 -0.07069263 -0.07491272 -0.13373803 -0.20153213
-0.37124664 -0.27768183 -0.15081288 -0.11512315 -0.032830734 0.007219093 -0.12671036 -0.10274257
-0.09564193 -0.08371252 -0.07397925 -0.1071728 -0.006826767 -0.024952585 0.028933873 0.18278825
0.012903024 0.12580422 0.052092202 0.074772656 -0.0902649 -0.23362319 -0.21090528 -0.33397427
-0.27968365 -0.12308324 -0.013840288 0.041976582 0.017744577 0.03481537 0.0019977638 -0.022488395
-0.046310514 -0.044392314 0.041119244 0.06624436 0.08395434 0.09341458 0.07933239 0.06733342
0.0871702 0.03839955 0.089947574 0.12526228 0.1397729 0.15772948 0.104682826 0.087343715

ds.proj_conv.bias f4 [16]
00000000: bae5 17be 477a 413e c5ab f3bd fe22 61be
00000010: e210 9bbe 7cad 183e d61f 42be cca4 fb3a
00000020: 1120 9ebb 4e72 20be a89d 8abe 34ee 8b3e
00000030: 8998 24be 8232 793e bf47 34be 5015 d93d
-0.14833727 0.18894301 -0.11897997 -0.21986005 -0.30286318 0.14909929 -0.18957457 0.0019198894
-0.0048256 -0.15668604 -0.27073407 0.27330172 -0.16073813 0.24335673 -0.17605494 0.10599768

ds.proj_bn.weight f4 [16]
00000000: 0e94 913f a406 9e3f a5b7 8e3f 5923 823f
00000010: 33fd a23f bcf2 963f 58d5 b03f b71b 853f
00000020: fcc9 9c3f f457 b23f 6854 9e3f e5f1 b43f
00000030: f842 953f 6398 8e3f 7549 ac3f 6c3a 883f
1.1373308 1.2345777 1.1149794 1.0167037 1.273352 1.1792827 1.3815107 1.0399083
1.2249141 1.3933091 1.2369509 1.413632 1.1661062 1.1140255 1.3459917 1.0642829

ds.proj_bn.bias f4 [16]
00000000: ff0b dcbd d7e0 8fbc f259 c0bd a2b6 54be
00000010: 0d72 d3bc bdf0 a93c 1da1 173e d64d e2bd
00000020: 9a0d dcbc 8eb1 3d3d f4dd 873c c1a0 c43d
00000030: 022f 9ebb 9c1c a4bd 5f0f 13bd 59d7 71be
-0.107444756 -0.017563267 -0.09392156 -0.20772794 -0.02581122 0.020744676 0.14807554 -0.11050002
-0.026861954 0.046311907 0.016585328 0.09600974 -0.004827381 -0.08013269 -0.03590333 -0.23617305

ds.proj_bn.running_mean f4 [16]
00000000: 50ba 36bd 54bb 233e ee79 16be 5d17 be3d
00000010: 9d50 e6be 6ee0 dbbd 6ac2 13bf dfbf 903e
00000020: ac15 cabc 3d92 9dbe 9d29 29bf 99a7 ab3d
00000030: e823 0cbf 44cf 463e ebf9 0fbf 9676 f13e
-0.044611275 0.15989429 -0.1469495 0.092818 -0.44983378 -0.10736166 -0.5771853 0.28271386
-0.024668537 -0.30775633 -0.6607912 0.08381576 -0.5474229 0.19415003 -0.5624072 0.47160786

ds.proj_bn.running_var f4 [16]
00000000: eb1f 8f3d e6e9 ac3d d2b0 163e 633d 8b3d
00000010: c00a 2a3e 4d3c 823d 39e5 833e 5ca8 493d
00000020: 3bb4 fb3d ce42 0c3e cf7f 8e3e 8ac0 103e
00000030: c7e4 253e 0322 fc3d 71e3 6d3e bcb6 523d
0.0698851 0.0844305 0.14715889 0.06798818 0.16605663 0.06359158 0.2576082 0.049232826
0.122902356 0.13697359 0.27831885 0.14135948 0.16200553 0.12311175 0.23231293 0.0514438

ds.proj_conv1.weight f4 [8, 16, 5]
00000000: 50cd 8b3c 1246 fb3c 2544 183d 89db dfbc
00000010: 3bbe 003d 6687 a8bd 4107 093d 9700 0e3c
00000020: 25fe b2bc 622c 203d 2bea fc3c ea04 9e3e
00000030: 7fb9 bbbd df17 25bd cda1 8b3c 17fd 1b3d
00000040: eb47 0e3d 031a 963d 639f 0d3c 47e8 5a3d
00000050: 1a04 f838 867c ed3d 98b6 333e 0030 633c
00000060: 4e2d aabb f0ff 353d 79ba e93c 39e2 5fbd
00000070: 807e 003e 1ef2 3d3d b5e5 9fbe 595b 08be
00000080: 1f40 7cbd 700f e0bd 2747 da3d 4c6d 643e
00000090: 6fc1 853e 1568 6cbd 10c5 463d ad6b f23c
000000a0: e535 b13c 12cd 283d 24f6 183d 6164 7dbc
000000b0: efd8 8ebd 51d2 88bc 9b32 3c3c e7d0 be3e
000000c0: b250 dd3d 3eaf 753d 1484 9fbd 68f4 043c
000000d0: 092d 87bd 0b5c d5bd b488 8d3d ea33 62bd
000000e0: 370a 4fbd 013f 11be 5c66 28be f192 d33c
000000f0: 4a47 62be 36b4 d3bd 1c71 04bd bd0a b0bb
00000100: 30d9 023e 4a27 fc3c ac8b 953e c08c d6bc
00000110: 65b9 1fbd 82f4 68bc 30b5 aebd c5a4 fd3c
00000120: 927e f13d cec6 9d3d 9a96 d2bb e35d bb3c
00000130: d9c6 073e f029 8b3d eccb 46bd 770c 34bc
00000140: 460c 10be 1944 59be 40ab cf3c 08ec a0bd
00000150: d0fa 82bd 2c6f cdbd d53a a4bd 8399 06be
00000160: 870d 8dbd d9fc e2bd a875 47bd 3c11 9cbd
00000170: 8c86 72bc e024 fa3b 3cbd cd3c dae9 3cbe
00000180: 1091 7dbd f669 123c ca63 343c 5381 7d3c
00000190: 81b0 80bd 9d60 16bd 8282 4dbd 2d26 fa3c
000001a0: af4c 933c b726 b63d 86dc 323e 1cc3 263e
000001b0: 2f12 a33d b5e2 083e 4ad1 d7bb 33d6 d2bc
000001c0: 34d4 c6bd a7dd 7fbd 117f d9bd 74e9 33be
000001d0: e2a8 5ebe 7563 2fbd 8bbd 26bd d7f9 763b
000001e0: f97e e6bd 80e4 31be 1c81 acbd 9ac0 e7bd
000001f0: 6ca1 aebd 9c7e 0ebd 721a 32bd fc6a b7bd
00000200: 753e 143d 5b81 93bc 65da 6b3c 6280 933c
00000210: 7b91 0dbb f590 53bd 6a93 75bd 32ad c4bd
00000220: 1e60 433c 39d6 bfbd 7409 82bd f420 5dbe
00000230: ddf5 563d 967e 853d 3007 96bc 92fb 643a
00000240: 1062 143d 156e 78bd 35f5 c8bd bead 18bd
00000250: 9a90 cb3b 551e 783b 5c98 c33d df24 a63d
00000260: 4a55 8b3d 6691 0f3e ea23 f33d 1329 9fbe
00000270: 74cc 91be 86bd 0fbe 2e74 14bd 7d12 19b9
00000280: 841a 60be c31d 63bd 68ed 243d 5bcb 833d
00000290: 46b2 7bbd 3194 11be bc9a e8bd 3f67 b33d
000002a0: 7572 3d3e e137 0e3b 5000 00bd 99a4 c3bc
000002b0: 4d1b 2d3b cd47 1a3c ba7a 91bc dbaa 15be
000002c0: aa82 49bd e62b 6a3d a999 5a3c ce59 9abd
000002d0: 22f9 243d 2053 babd 603e 44bd ff38 79bb
000002e0: 0e87 e43b ddd7 2f3d 76de a4bd 084d 2dbe
000002f0: ac09 07be ae53 ad3d 150b 3abd 0cb1 88bc
00000300: 6b9e 913d 0c27 193e bc1c bbbc dd14 cebc
00000310: 6b11 9bbd c897 96bc 839e 77bc bd1c 5a3d
00000320: bdc5 d1bd c197 0a3d d816 743e 02f4 c73d
00000330: 487f 173c 13bb 843d 0d26 d9bd e28c 3ebe
00000340: f5df 6cbd 6c60 6dbc 5151 c1bd c814 b73d
00000350: fbb2 403e cfa9 b7bd 0cdc 91bd b808 53bc
00000360: 42c8 b53e c7d8 863e 1eeb 8ebd 0ce7 6cbd
00000370: 27b7 7cbd 8f36 56bd 69ce d63c 0539 593c
00000380: a58f 87bd 594b 74ba 688e 9cbd 69e7 f4bb
00000390: 28fc 78bc b6bf d43c 672e 163e 51a5 4ebe
000003a0: 06f4 a7be b995 20be 4aaa b13c b9fb 093d
000003b0: 65ca 5cbc b01c b73c 7934 f43c b367 a23d
000003c0: 90ee 813b 545c 1bbd fdb1 5ebd 6a85 aabd
000003d0: be2d d7bd 6ba1 d03d 5560 d03d 80b8 c3bc
000003e0: c85e 89bd 7634 f4bd d3d7 573d be63 d6bd
000003f0: 4878 12bd 9e07 db3c 2824 093d c342 a5bd
0.017065674 0.03067306 0.037174363 -0.027326362 0.031431418 -0.0822895 0.033454183 0.008667133
-0.021849701 0.039104827 0.030873379 0.30863124 -0.0916624 -0.04030597 0.017044926 0.038083162
0.034736555 0.0732918 0.008643958 0.053444173 0.000118263255 0.115960166 0.17550123 0.013866425
-0.005193389 0.044433534 0.0285313 -0.054659102 0.12548256 0.04637348 -0.3122994 -0.13316096
-0.06158459 -0.109404445 0.106581025 0.22307318 0.2612414 -0.057716448 0.048527777 0.02959236
0.021632144 0.041211195 0.037344113 -0.015465827 -0.069749705 -0.01670185 0.011486675 0.37268755
0.10806407 0.059981577 -0.07788864 0.008114912 -0.06600387 -0.104179464 0.0691084 -0.05522529
-0.05054685 -0.1418419 -0.16445297 0.025826903 -0.22097507 -0.10337107 -0.032334432 -0.005372374
0.12778163 0.030780453 0.29208124 -0.026190162 -0.038995165 -0.014218451 -0.085306525 0.030962357
0.117917195 0.077039346 -0.0064266445 0.022871917 0.13259448 0.06795108 -0.04853432 -0.0109893
-0.14067182 -0.21217383 0.025350213 -0.078575194 -0.06395495 -0.1003097 -0.08019034 -0.13144498
-0.06887346 -0.11083383 -0.04869619 -0.07620475 -0.014802586 0.0076337904 0.025114648 -0.18448582
-0.06190592 0.008936396 0.01101012 0.015472728 -0.062836654 -0.03671323 -0.05017329 0.030535782
0.017980902 0.08894103 0.17466936 0.16285366 0.079624526 0.13367732 -0.0065862285 -0.025736904
-0.09708443 -0.062467244 -0.10619939 -0.17569524 -0.21744111 -0.04281946 -0.040708106 0.0037685537
-0.11254687 -0.17372322 -0.08423063 -0.11316033 -0.085268825 -0.034788713 -0.04348225 -0.089559525
0.036192376 -0.018006017 0.014395331 0.018005554 -0.0021601606 -0.051651914 -0.059955038 -0.09603347
0.011924772 -0.093670316 -0.06349459 -0.21594602 0.052480567 0.06518285 -0.018313974 0.00087349967
0.036226332 -0.060651857 -0.098123945 -0.03727507 0.006212306 0.0037859876 0.095505446 0.08112501
0.06803377 0.14020309 0.118720844 -0.31086025 -0.28476298 -0.14037141 -0.03624361 -0.00014598104
-0.21885115 -0.055448305 0.04026547 0.06435271 -0.06144931 -0.14216687 -0.11357638 0.08759927
0.18500693 0.0021700787 -0.031250298 -0.023882197 0.0026413978 0.009416533 -0.017758716 -0.14615957
-0.049196877 0.05717077 0.0133422995 -0.0753666 0.040276654 -0.09097886 -0.047911048 -0.0038028357
0.0069741076 0.042930473 -0.080502436 -0.16923916 -0.13187283 0.08463226 -0.045420725 -0.016685985
0.07110294 0.14956301 -0.02284085 -0.025156433 -0.075716816 -0.018382922 -0.015113476 0.053250063
-0.10242794 0.03383613 0.23836839 0.09763338 0.009246655 0.06480994 -0.10602961 -0.1860843
-0.05783077 -0.014488321 -0.09439338 0.089395106 0.18818276 -0.08967935 -0.07122049 -0.012880497
0.35504347 0.26337263 -0.06978439 -0.05783753 -0.061698105 -0.052298125 0.02622147 0.013258223
-0.06619195 -0.0009319089 -0.07644349 -0.0074738753 -0.0151968375 0.025970321 0.14666139 -0.2018025
-0.32803363 -0.15682115 0.021687645 0.033687327 -0.013475989 0.022352546 0.029810177 0.07929935
0.0039652064 -0.037929848 -0.05436896 -0.08326228 -0.105067715 0.10187038 0.10174624 -0.023891687
-0.06707531 -0.11924069 0.05269606 -0.10468243 -0.03575924 0.02673703 0.033481747 -0.080693744

ds.proj_conv1.bias f4 [8]
00000000: 5794 5d3d 9a6e 953d 71a3 a83d 2a07 683d
00000010: a0dc c73c 9e9c 2bbd 8319 4d39 2ae9 a8bb
0.054096546 0.07296486 0.08234299 0.056647457 0.024397194 -0.04189741 0.00019559827 -0.0051547484

ds.proj_bn1.weight f4 [8]
00000000: d122 ba3f b35b b63f 0da9 ac3f b443 ac3f
00000010: 2af3 c53f c51b a83f 9bbe af3f e33c b13f
1.4541875 1.4246734 1.348909 1.3458161 1.5464833 1.3133475 1.3730043 1.3846706

ds.proj_bn1.bias f4 [8]
00000000: 9b80 f63d ebfc 8d3e 7004 7d3d 8346 92bb
00000010: 7fd2 7b3d 32c0 0bbe 6c11 8d3d df66 163d
0.12036248 0.27732024 0.06177181 -0.004463972 0.06148004 -0.13647535 0.068880886 0.0367192

ds.proj_bn1.running_mean f4 [8]
00000000: 9734 6a3e 8045 36bf 7f96 f3bd f5b7 84be
00000010: ea7e f5be cb04 a13f 5e32 d93e 309b e73e
0.22871624 -0.711998 -0.11893939 -0.25921598 -0.4794839 1.2579588 0.4242124 0.45235586

ds.proj_bn1.running_var f4 [8]
00000000: 434e a23f e586 643f b3a9 2c3f 45d4 093f
00000010: b1d1 fc3e 6e76 2e3f e168 693f 6370 483f
1.2680134 0.8926833 0.6744644 0.5383952 0.49378732 0.6814946 0.9117566 0.7829649

ds.fc1_conv.weight f4 [128, 256]
00000000: 2616 053e b0b4 6a3c 962f cb3d 158e b4be
00000010: 74af b13c 6cfc 333e 8f83 d0bd b138 093d
00000020: 5ff3 e3ba d50a ecbc 0a30 b5bc b6f6 96bd
00000030: cddc 8cbd 4e6b d43d c1a3 2f3d bb7c 88bc
00000040: 4472 fabd 3221 d43c ad7e 9d3e 656a 833c
00000050: 7b4a cb3d 8e62 cebd a6d4 1f3d f040 89bd
00000060: dd96 aebd 3d81 bb3b d22f 8ebc 37d8 aebc
00000070: a4f0 22bb 9393 29bf 5309 d8be e972 8dbe
00000080: 30e6 f63c bd2a f3bc 2793 a3bd c27e 853d
00000090: fc92 0d3e c1a7 89bc 266e 8d3c d700 953c
000000a0: ecd2 f13d b824 283e 27f1 853d d2fb c23d
000000b0: 97d2 5d3d c889 8cbc c162 393d 91f4 a53d
000000c0: 318b da3d 137c ca3d a4e0 e2bb 6e78 fc3b
000000d0: b77a 153e defe 853e d0aa 4e3c 2291 2f3e
000000e0: ab64 683e 97bb 823e 3a1d 193e 08a9 a23d
000000f0: 3dcc 843d ab31 ffbd 3011 373d 6700 163e
00000100: e77f 943c efdc acbc 4e21 f73d 638e 02be
00000110: 1698 c8bc 02cf 4b3e e2b4 fcbd ab22 893d
00000120: c0db 8ebd a8b3 54bd 4af1 c9bd 988d 963e
00000130: 0e6f 8e3d 516a 94bd 72af e1bc 60da 053f
00000140: 52e8 7abe a52c ae3d 0db3 1ebd 6e84 fcbd
00000150: 14b0 9cbd 387b 2a3e b1a1 acbc 32f6 993c
00000160: 671b 85bd ece4 17be 3b4a 77bd 51de 9b3d
00000170: b799 b53d 5fbb 1c3e af7d 6e3e b606 513d
00000180: 98aa bd3c 433b 3abd 83f0 80bc 9135 0c3e
00000190: 406e c8bd 8393 d23d ada1 4c3e 2a1b 033e
000001a0: a1e9 983d 1abf 4a3c 5090 333c 59c1 27bb
000001b0: d98b ab3e bb54 3d3e 16a6 7dbd 0e28 323c
000001c0: bd3d d03e a75b a3be db4e 22be 4134 d73c
000001d0: 3fc4 823d 31e0 563c 5a67 12bd ccee 07bd
000001e0: f439 65bd e4fd 1d3c bc87 06be c41d 82bc
000001f0: 9d4d 6f3d d2f1 d5bd 1d77 7a3e 64d5 913e
00000200: 2084 39bb a7ab 38bc e871 be3e bfb8 a43d
00000210: 2dc2 10bd 1568 d23c bfb9 883d cf6a 003d
00000220: 69a8 a73d dd83 263e 1f7e da3d 186f 883b
00000230: 20f3 97bd c5ea aa3d 7a66 023e c61f 963c
00000240: cc18 7cbe 6d23 eb3d a377 6b3e a769 3f3e
00000250: 21f5 d73d a67d cd3d 9918 1d3e 7a84 103e
00000260: 1665 04be d670 533e c20b ce3d e375 a83d
00000270: 8e85 3abc 7364 d73d 3e35 46bd 2570 12bf
00000280: 26fa 1c3c 5123 15be 99fa d8bb c90b 7dbd
00000290: a2e7 c33d c75e 103c fb01 11be df30 afbe
000002a0: df5b 95be 7203 8ebe b667 6ebe 6c73 ac3b
000002b0: 6600 85bd c6b7 3abe 980e 61be 91ab e3bc
000002c0: 6bea da3d 4196 a03d 0c42 353e 1ebe 04be
000002d0: 5e0c 46be 583c 313e 0377 3a3d 85b6 b9bd
000002e0: 575e 17be b2f8 b13d 916c e23c aa44 6b3d
000002f0: 6e70 2a3e 6ed1 e4bc 18d7 29bc cb77 bb3d
00000300: 26c1 0abe 9761 103e 6f15 88be 2d6d fbbd
00000310: ca97 9d3d 4230 b23c 8d5b 403c dc64 e2bc
00000320: 4edf acbd 9d73 21bd 939f ccbd 185f 203b
00000330: f936 343d 7597 9c3d c04f 4fbc 8713 5abe
00000340: d668 0fbd f6d0 063e a9af 263d d3ee e93c
00000350: ec63 9e3d 3c99 4c3d 56c2 76bd dedc c6bd
00000360: ba59 71bd 2140 0f3c 26dc 27be c271 0e3e
00000370: dc6d e0be 12a4 04bf 8cd3 d4be 2ace cbbd
00000380: 3b65 bd3b f28e ab3d 2983 a13c 7025 c7bd
00000390: 7d4b 893d d56e 053c 470b 00be 0d11 4fbe
000003a0: 66ba f9bd f32d 2ebe 7e0b f7bc 56e5 2cbd
000003b0: e0d2 cabc c371 32be 47db 073d 2853 6f3e
000003c0: ae4c 77be b0af 993e 7020 febd 0256 66bd
000003d0: ea7d 5cbd 291f bf3d da3a 863c 95b5 ddbd
000003e0: 9668 c5bc b238 dc3c 3fee 7d3d c8ec b9bc
000003f0: 219b 0d3e 4952 073e 2c02 a03d a776 283e
0.1299673 0.014325306 0.09921186 -0.3526465 0.021690108 0.1757676 -0.10181343 0.03350133
-0.0017391256 -0.028813759 -0.022117633 -0.07371275 -0.06878052 0.10372029 0.042880777 -0.016661039
-0.12228826 0.025894735 0.30760708 0.016041944 0.099263154 -0.100773916 0.039021157 -0.06701839
-0.08524869 0.0057221935 -0.017356787 -0.021343334 -0.0024862671 -0.66240805 -0.42194614 -0.27626732
0.030139059 -0.029683465 -0.079870515 0.06518318 0.13825601 -0.016803624 0.017264437 0.018188877
0.11807808 0.16420257 0.06540137 0.09520687 0.054155912 -0.017155543 0.045260195 0.08103288
0.1067108 0.098869465 -0.006923752 0.007704786 0.14597593 0.2617101 0.012613967 0.17145208
0.22694652 0.25533745 0.14952555 0.079423964 0.06484268 -0.12460645 0.044694126 0.14648591
0.018127395 -0.021101443 0.12066899 -0.12749629 -0.024486583 0.19903186 -0.12339188 0.066960655
-0.06975508 -0.051929146 -0.09860475 0.29404902 0.06954776 -0.07246841 -0.02754948 0.5228634
-0.24502686 0.08504609 -0.038744975 -0.123299465 -0.07650772 0.16648567 -0.021073194 0.018794153
-0.06499367 -0.1483342 -0.060373526 0.07610763 0.088672094 0.15305851 0.23290132 0.05103179
0.023152635 -0.045466673 -0.015739685 0.13692309 -0.097866535 0.10282042 0.1998355 0.12803331
0.07466436 0.012374664 0.0109597 -0.0025597422 0.33505133 0.18489353 -0.06192597 0.010873808
0.40672103 -0.31905863 -0.15850393 0.026270034 0.06385087 0.013114975 -0.035743095 -0.03318672
-0.05596347 0.009643052 -0.13137716 -0.015883334 0.058423627 -0.10446514 0.244595 0.28483117
-0.0028307512 -0.011271394 0.3719628 0.0804305 -0.03534143 0.025684396 0.06676053 0.03135186
0.081864186 0.1626124 0.10668587 0.004163634 -0.07419419 0.0834556 0.12734404 0.018325698
-0.24618834 0.11481366 0.22994857 0.18692647 0.105448015 0.10033731 0.15341415 0.14113036
-0.12929186 0.20648512 0.100608364 0.0822561 -0.011384381 0.10517206 -0.04839062 -0.5720237
0.009581124 -0.14564253 -0.0066216704 -0.061778817 0.09565665 0.008811659 -0.14160912 -0.34216973
-0.29171655 -0.27737004 -0.2328175 0.005262783 -0.064942166 -0.18234167 -0.21978223 -0.02779177
0.10689243 0.07841159 0.17700976 -0.12963149 -0.19340655 0.17308176 0.045523655 -0.09068016
-0.14782082 0.08690013 0.02763966 0.05743853 0.16644451 -0.027931895 -0.010366224 0.09153708
-0.13550243 0.14099728 -0.26578853 -0.12276683 0.07694967 0.021751527 0.011740577 -0.027635984
-0.084410295 -0.039416898 -0.09991374 0.0024470743 0.04399774 0.07646076 -0.012653291 -0.21296512
-0.03501209 0.1316565 0.040694866 0.028556263 0.07733902 0.049950823 -0.060243927 -0.09710096
-0.05892346 0.008743317 -0.16392574 0.13910583 -0.43833816 -0.5181285 -0.41567647 -0.09951432
0.00577989 0.08376874 0.019715862 -0.097239375 0.06703851 0.0081441 -0.12504302 -0.20221348
-0.12193756 -0.17009716 -0.030156847 -0.0422109 -0.024758756 -0.17426209 0.033168104 0.23371565
-0.24150345 0.3001685 -0.12408531 -0.056234367 -0.05383102 0.09332115 0.016385484 -0.1082565
-0.024097722 0.026882503 0.061994787 -0.022695914 0.13828708 0.13214983 0.07812914 0.16451512

ds.fc1_conv.bias f4 [128]
00000000: ef76 b53d 1836 993c d0be 8d3d 94b8 7c3d
00000010: 12a9 cf3c 3c7c 8d3d 6cd4 303b e081 4abd
00000020: 165f 78bd 0e0b 3bbc a20b 503d 883a 1dbd
00000030: f0bc a03c eb55 4a3e bc33 103d 018e c73b
00000040: ed62 93bd 3b79 82bd e0c0 813d b009 ff3c
00000050: 07d5 44bc db0a 0a3d a37e 4ebd 37ea 853d
00000060: 5004 0cbd 160f 3c3d d6cd 62bc 7fe7 d9bd
00000070: a717 86bc 0646 233e 6701 b6bd 4647 debc
00000080: 2791 403d e457 e0bb 13d7 56bd b0ad db3b
00000090: 08ef 89bd 1552 6dbd 4b35 943c 0c1f fc3c
000000a0: 3a86 af3d 0b6d 163d 8ab9 49bc f969 60bc
000000b0: d6c4 d9bc f44a 543d b6a3 75bd 133a d53b
000000c0: fb0e 75bd 37a2 1ebd 392c 2c3c adee 8d3d
000000d0: 660f 073d 9b02 623c bb2b 743c 0cf4 de3d
000000e0: b406 0f3c 89e5 6f3c ce42 2f3d 4d4f 463d
000000f0: 2af9 d4bc 4f84 c53a 6e6a f33d aa3f 5bbd
00000100: 3d25 6fbc 0cb9 92bb c71a 8b3a 938d d13d
00000110: ffa5 3e3c f1ae dc3d 1260 80bb 0d7f 603d
00000120: 482f 9dbc c453 e73c 9ea1 87bd f2e8 90bd
00000130: 316a 6ebd 5113 ccbd 33bf f4bb 9f42 73bd
00000140: b305 0d3d 6e76 cf3b 1f06 4cbb 6a4a 91bc
00000150: 1d6c b23c 812c 753b 5554 663d a08c 023e
00000160: a4d3 c6bd 714b 843d 0ba9 44bc 97b2 84bd
00000170: 00a9 1a3e bc90 e0bd e07d 3b3d 0e07 0bbd
00000180: 0033 143b c8c7 66bd f140 86bd 411a e2bd
00000190: 6808 da3b 2ee1 9bbd 029d 073d 1cd6 0bbd
000001a0: de50 f3bd 22d2 073d 8e2a 243d b70f 973d
000001b0: 1f28 133d d700 fcba 2092 bcbd dfc4 0fbc
000001c0: 8bb9 9dbd e124 303d 8bea 01bb bd39 dabd
000001d0: a213 0ebc 5d98 2c3d 7453 323d 4f3c c2bd
000001e0: 8b30 9f3d 7483 c43d 54b0 e73c c608 763d
000001f0: d989 35bc 1e35 a4bd e1ad 1f3c 638e f5bd
0.088605754 0.018702552 0.0692116 0.061699465 0.025349174 0.069084615 0.0026982082 -0.049440265
-0.060637556 -0.01141621 0.050792344 -0.038385898 0.019621342 0.19759338 0.035205588 0.006089926
-0.07196603 -0.06370779 0.06335616 0.031132549 -0.01201368 0.03370176 -0.05041374 0.065388136
-0.0341838 0.045912825 -0.01384302 -0.106398575 -0.0163687 0.1594468 -0.08886986 -0.027133595
0.047013428 -0.006846415 -0.052451205 0.006704055 -0.06735045 -0.057939608 0.018091818 0.030776523
0.085705236 0.036725085 -0.012312302 -0.013697141 -0.026583117 0.051829293 -0.05997058 0.006507167
-0.05982874 -0.03872892 0.01050859 0.069302894 0.03297367 0.0137945665 0.014903004 0.10886392
0.0087296255 0.014642128 0.04278832 0.04841547 -0.025997717 0.0015069338 0.11885534 -0.05352751
-0.014596281 -0.0044776257 0.0010612839 0.10232081 0.011636256 0.10775555 -0.0039177025 0.054808665
-0.019187585 0.028238185 -0.06622623 -0.07075681 -0.05820674 -0.09964622 -0.007469082 -0.059389707
0.034429263 0.0063312566 -0.0031131578 -0.017735679 0.021780068 0.003741056 0.05623277 0.12748957
-0.09708336 0.06459702 -0.012003194 -0.06479376 0.15103531 -0.10965106 0.04577434 -0.033942275
0.0022613406 -0.05634287 -0.06555355 -0.11040164 0.006653834 -0.07611309 0.03310872 -0.034139737
-0.118806586 0.033159383 0.040079646 0.07376044 0.035926934 -0.0019226325 -0.09207559 -0.008774965
-0.07701405 0.04300392 -0.0019823636 -0.10655544 -0.008671673 0.042137492 0.04353662 -0.09484159
0.07772931 0.09595385 0.028282322 0.06006696 -0.011080229 -0.08017944 0.009746046 -0.11990049

ds.fc2_conv.weight f4 [64, 128]
00000000: ed27 a83e 3c13 c63d 22a3 2b3e 1e67 5bbc
00000010: ea29 ab3d 0f8b eabb bc64 c43d 88f1 a7bc
00000020: e844 21be ac8e 92bc 6e02 9c3d 350c 0d3e
00000030: 547f 0cbd 3b5d cf3e 02e2 253e 604c 373e
00000040: 133e 923d 1f12 9cbd 21d1 fc3d 08a6 16be
00000050: 045c 683d 3bfa 463b bd2b c1be d16c 103e
00000060: 8902 68bd ab62 20be acde 8dbe 9849 383d
00000070: 1ddd 943e 570d a13e cc4e a9be 4e03 9d3d
00000080: ad5f f93d 8f56 a13d 4b67 bebd 943c 313d
00000090: 82cf 9e3d 6438 0bbe aa72 13bc 8d82 64bd
000000a0: 8fd1 10be 96bf cd3d 1436 763d d47a 8dbc
000000b0: f114 3f3e c82f 583e 199b 1fbe 9cc6 02be
000000c0: ce19 063e 6970 7bbe a37e 3dbd 56e0 263e
000000d0: 228f ecbc 5f57 19bc f7c7 383d 80f3 2e3e
000000e0: 721a 44be 0a6c f9bd ac75 163d 7ae2 3d3e
000000f0: 6892 8cbe c01e b43d a926 bb3e fa77 38bc
00000100: 47ef a43d 44a9 f8bd a619 343d f051 b73d
00000110: 7667 753d d921 3b3e ebc7 5fbe d6a5 0e3e
00000120: 036c d43d f2ec 1d3c 6e37 9d3d a978 4bbe
00000130: b53a d13d 8605 ba3d 73f3 343d e3d7 aebe
00000140: 9c9a 773e e028 223e 3353 85be b4d6 c73d
00000150: 88e5 4f3d bbec da3c 65bb 183e 839d 7a3e
00000160: a9d8 b13d 4c5c 0abe c422 99be 4fee 30be
00000170: ec7b 623e 36da e1bd c73b 903e c375 e5bd
00000180: 75e7 afba ec4e b6be 7366 b6bd 6e82 f6be
00000190: c275 c5bd c0b5 5cbe d098 f23d 1ccf 3bbe
000001a0: b287 0ebe 7e40 503d e8e3 5b3e 298e f5bd
000001b0: fc70 8cbb 7153 143e 1fdb 99be e20c 303e
000001c0: 2399 d33c 94c0 d83c a46f 043e a765 abbe
000001d0: 81af 6fbe 1c91 c73e 9bd8 d8bc 4b10 bdbe
000001e0: 1e27 df3d 5cc0 b23e 903a 113d 4495 eb3d
000001f0: a127 4f3d 934d 47bc 63f9 58bd 1716 783d
00000200: 0543 3abd be24 803d d6ec c6be 94be a33e
00000210: cadd 9a3d c280 ac3e 42d9 bc3d ec16 57be
00000220: 3c5a 273e 0407 26be 031d ce3d 9390 a03d
00000230: b447 183d 1bb6 03bd ee82 c1bd 6b10 9bbe
00000240: 0271 4e3e e918 933d 2556 493e b538 863d
00000250: b4c1 8f3d 189a 533c 7eba 113e 1fce f63c
00000260: 5acc b0bd 80e3 f83e cb21 d53d 69c4 bc3c
00000270: dd8b 69be 162a c03c 47bf d4bd a893 a33d
00000280: a026 34bc af91 a43d c841 0c3c 750d a93d
00000290: e8c8 5e3d a0f8 4b3e abc3 093d c058 1c3d
000002a0: 9253 8c3e cd57 e5bb 2dc5 d43d b2ac 89be
000002b0: 0325 dbbc 89bf ba3d 6e62 403e 9ce9 b73d
000002c0: fb67 abbd a564 df3d b6c2 063d 70b6 fd3c
000002d0: c7e8 3bbe f93c 23be 1641 a53e 9c5f bf3d
000002e0: 770c 993d 1881 aa3e 0f8a 9a3e 499a 8c3d
000002f0: e038 cb3d 588e ae3d ab18 6fbe c06b 39be
00000300: d878 943d bdaa 863d fa0e a73d 4ea3 9fbc
00000310: 087e 543e 289c a0be ccc6 8d3d 4e3d 063e
00000320: e533 593d 3cb4 883e 5111 773d b2d7 173e
00000330: ec61 b13d 988b 5bbe 3263 793e cfd8 a13d
00000340: 1711 c7be 73a3 cd3d 440e a43d 3d5e 8c3d
00000350: e4af d13d c937 cd3d ada4 e43c c1e7 abbe
00000360: f721 a3bd c277 003f aa09 c33e df8f 0e3e
00000370: 6ce2 4c3e 5103 07bc fedc 3bbe ea6f 593d
00000380: bf93 ba3d e6c3 9c3d 13bd e73d 4f8a 0dbd
00000390: 3240 a73d e868 d43d 2d3c b33d 8fc1 653e
000003a0: c352 873e 6813 c9bb f80c e5be da0d 3a3e
000003b0: 3ac1 ba3b e2a3 863d 259f 53bd 72cf c83c
000003c0: 4000 49be 971d 263e e6c6 223b 7907 92bb
000003d0: d780 033e 23b4 4fbe 6ed9 a93e 04c4 613d
000003e0: b433 7cbd 07bb 9cbe 6e8f bb3c 1fe8 a6bd
000003f0: 09fa c23d 391b 3abe 521a 3c3d 86c8 4bbe
0.3284296 0.096716374 0.16761449 -0.013391284 0.08357604 -0.0071576904 0.09589526 -0.020500913
-0.15748942 -0.017890297 0.07617651 0.13774188 -0.034301117 0.40500817 0.16199496 0.17900229
0.07140746 -0.07620644 0.12344576 -0.14711773 0.056728378 0.0030361551 -0.37728682 0.1410401
-0.056643043 -0.15662639 -0.27708948 0.04499206 0.29074946 0.3145549 -0.3306793 0.07666646
0.12176452 0.07877838 -0.09297045 0.043270662 0.07754423 -0.1359573 -0.008999506 -0.055788565
-0.1414244 0.10046308 0.060110167 -0.017270483 0.18660332 0.21111977 -0.15586509 -0.12771076
0.13095781 -0.245546 -0.04626335 0.16296515 -0.028876845 -0.00935921 0.045112576 0.17085075
-0.19150713 -0.1217881 0.036733314 0.18543425 -0.2745545 0.087949276 0.36552933 -0.011259073
0.08053451 -0.1214166 0.043969773 0.08951175 0.05991312 0.1827463 -0.21853606 0.13930449
0.10372164 0.009639012 0.07676588 -0.19870247 0.102162756 0.09083085 0.044177484 -0.34149083
0.24180073 0.15835905 -0.26040038 0.09757748 0.050756007 0.02672421 0.14915235 0.24474148
0.08683903 -0.13511771 -0.29909337 -0.17278408 0.22117585 -0.110279486 0.28170606 -0.11204102
-0.001342042 -0.35607088 -0.089062594 -0.48146385 -0.09641601 -0.21553707 0.11845553 -0.18340725
-0.13918951 0.050842755 0.21473658 -0.119900055 -0.0042859297 0.14484955 -0.3004999 0.17192414
0.025829857 0.026459016 0.12933213 -0.33475992 -0.23406793 0.38977897 -0.026470473 -0.36926493
0.10896133 0.34912384 0.03545624 0.115030795 0.050574902 -0.012164491 -0.05297221 0.06056794
-0.04547407 0.06257008 -0.38852566 0.31981337 0.07561834 0.33691984 0.09221126 -0.21004838
0.16343015 -0.16213614 0.10064127 0.07840075 0.037177756 -0.03215609 -0.09448801 -0.30285963
0.20160297 0.071824856 0.19661768 0.06553785 0.07019368 0.012915157 0.14231297 0.030127583
-0.08632727 0.4861107 0.10406836 0.023042874 -0.2280726 0.023457568 -0.10388046 0.079871476
-0.010995537 0.080355994 0.008560605 0.0825452 0.054390818 0.19919062 0.03363387 0.038170576
0.2740751 -0.006998992 0.10389171 -0.2688957 -0.026751047 0.09118564 0.18787548 0.08980104
-0.08369442 0.10907868 0.032900535 0.030970782 -0.18350516 -0.15941228 0.3227622 0.09344408
0.074730806 0.33301616 0.30183455 0.06865365 0.099229574 0.08523244 -0.23349254 -0.1810751
0.072496116 0.065755345 0.081571534 -0.01948705 0.20751202 -0.31369138 0.06922683 0.13109323
0.053028006 0.26700008 0.06031925 0.14828375 0.08661255 -0.2143997 0.24354246 0.07902681
-0.38880226 0.10040941 0.080105335 0.06853912 0.102386266 0.10020406 0.027910555 -0.33575252
-0.07965463 0.50182736 0.3809331 0.1392207 0.20008248 -0.008240537 -0.1834602 0.053085245
0.091102116 0.07654552 0.1131536 -0.03455573 0.08166541 0.10371572 0.08751712 0.22437118
0.2643033 -0.0061363466 -0.44736457 0.18169346 0.005699304 0.06574227 -0.051665444 0.02451298
-0.19629002 0.16222225 0.002483779 -0.004456457 0.12842117 -0.2028356 0.33173698 0.055118576
-0.061572745 -0.3061144 0.022895541 -0.08149742 0.09520347 -0.18174447 0.04592354 -0.19900712

ds.fc2_conv.bias f4 [64]
00000000: 611e 1e3e 79de 86bb 49c3 2ebd 6c8e b6bb
00000010: 9432 253c 529d 4cbd ed5b bc3b 9233 a63d
00000020: 0dc2 59bd 66b9 283e 2ccd 62bc c569 3a3e
00000030: 6199 bebc 3f39 a83c 6c2f 153e 8da3 c63c
00000040: a33c 98bb 6af8 59bd 5b63 fe3d c948 f33c
00000050: a402 fa3c 8891 4dbd 6492 b0bc f822 c83c
00000060: 3cc9 3fbb a953 333b ccea c13d 191f 523d
00000070: 4f0d b9bd 4d96 f4bb 2309 16bd b684 8ebb
00000080: b6ba bb3b b5e8 753c f322 9f3d ffd1 34bd
00000090: 9f38 e83c 2c88 293e 4819 743d 7274 043e
000000a0: 9130 c0bc e8b9 403d 7892 11bd 79af f13d
000000b0: 0733 74bd 76e3 cc3d 96f9 3dbd 6f6a 113e
000000c0: f2d4 1e3e 254d 603e 18e6 2abc 9bdf bdbd
000000d0: 2872 93bc 1889 d73c 3ced c03d 08e0 d73d
000000e0: 3661 1abd bf30 c03d b822 9fbd 60d1 483d
000000f0: 6b45 fcbc 24d4 533d 5c86 9a3b 8dd5 363d
0.15441276 -0.0041158763 -0.042666707 -0.005571177 0.01008286 -0.04995472 0.005748263 0.08115305
-0.053163577 0.16476974 -0.013842862 0.1820441 -0.023266496 0.02053511 0.14568871 0.024247909
-0.0046459003 -0.05321542 0.12421294 0.029697793 0.030518837 -0.050187618 -0.02155418 0.024430737
-0.0029264232 0.0027363098 0.09468612 0.05129919 -0.090357415 -0.0074642063 -0.036629807 -0.0043493165
0.005729045 0.015009095 0.07770338 -0.04414558 0.028347312 0.16555852 0.059594423 0.12935045
-0.023460658 0.047052294 -0.035540074 0.11801047 -0.059618976 0.10004322 -0.0463806 0.14200757
0.1551092 0.21904428 -0.010430835 -0.09271165 -0.01799877 0.026310489 0.09420249 0.105407774
-0.037690364 0.093842976 -0.07770294 0.0490278 -0.03079482 0.051715985 0.004715724 0.04463725

head.weight f4 [15, 64]
00000000: 744e 503e 712b 4abe 58c7 38bf 138e a8be
00000010: 78dc 88be 5610 42bf 92bf 0fbe b884 94be
00000020: 8820 923e 44fc 1a3e deb5 35be 3021 243e
00000030: 3ce4 e8be e9d0 8fbe aca0 763e b989 1ebf
00000040: 0200 adbe fc8b 393e b7a4 bd3e 53d3 20bf
00000050: 28cc e63e 426b 1bbe 14a5 30bf d83e 3b3e
00000060: 4d37 6fbe 0853 d93e 81dc 7a3e 9b68 b13e
00000070: bd49 8ebd aa8e a9be 1ab3 9dbe 21d0 10be
00000080: 0380 06bf fc41 f4be 92cb 1ebf bcda a5be
00000090: a744 55be d985 a6be b48c 29be 6a30 48bf
000000a0: c1ba 23be 03ce e0be 0853 c6be 591d d23d
000000b0: 0c26 27bf 5e6d 753e de35 20be 8c28 513e
000000c0: 7f68 273e 8feb 403e 3857 b2be 1def 903e
000000d0: 07ed 16be d7e3 b93e 76fa 5abf acf1 383e
000000e0: 8fc7 20be dff7 f5be d621 aabe 655e 3ebf
000000f0: 4a73 b6be 8923 dcbe ef55 e6be 6ea4 033f
00000100: d55f 30bf 0312 c13e 16d4 033e 9027 e8bd
00000110: 491e bd3e 6a18 c13d d3b4 01bf 54c3 d9be
00000120: a497 703d 49f7 25bf 3b2a 2dbe 075d 20bf
00000130: b8e8 753e 08ce b33e 9b13 fa3c d9b3 1b3e
00000140: a82d 2fbe 184c e5be 254e da3c a8ee 0b3f
00000150: d55e fc3e 26ec 4dbe b9cb 753e d6ee 48bf
00000160: 0225 c33e ca71 b83d 5335 b8be 44c2 4a3d
00000170: 31ab 2ebf 0036 0cbe 94ac e3be 3c1e 06bf
00000180: 56f1 413e b132 29be b17e 163e eba4 1bbe
00000190: 79da f4be 9253 4d3e 578c 8a3d 849c 363e
000001a0: 4d16 05be b636 e03d 3da8 1fbe 0ffb 7bbf
000001b0: 76f7 07be 1579 cbbe 106a fabe 3260 23bf
000001c0: 2619 5dbf 01e5 e63e 7fc0 22be 5aad 24bf
000001d0: 5bb0 debe 3e43 ff3d deb0 ae3e abed 34bf
000001e0: 41f9 4abf 7835 a3be 1980 66bf e5a3 553e
000001f0: c0a2 e5be 23e5 3ebe ede1 15be c265 883d
00000200: c17b 17bf ed13 873e d380 db3d b19d 4cbe
00000210: 8467 6b3e 39b3 433d 54a7 31bf 43b0 20bf
00000220: 9aa8 453e 606c 01bf 513d 84be a6ae 32bf
00000230: c7ba 2d3e e24c 7b3e 16c3 cf3c 6b9d b93d
00000240: 1c5e 63be 9ad5 0b3f e8c2 be3c 89c1 82bf
00000250: 0b00 17bf 37d8 67be 5f45 883e b964 17bf
00000260: 34f9 6f3e a5e7 a03d cb84 b6be a4d2 703d
00000270: bc5b 8dbe c503 43be 77b7 09bf 0860 32bf
00000280: c005 323e a55e 92be 5206 a23d d8cd 54be
00000290: 1287 36bf 4cfe 373e fe82 233c 2c9b c93d
000002a0: 2a06 80be 7a87 443d d1d9 33be 2236 313f
000002b0: aa90 a83e 1058 cebe 1e92 1bbf 8c6d 32bf
000002c0: b646 20bf 5e5c bfbf 307d 6bbe d5c0 fabe
000002d0: 6132 0fbf 65bc 203e 8323 423e 1c6a 21bf
000002e0: 8529 2d3f 750e c6be 083c 3d3f 3b07 703e
000002f0: 91a8 1dbf 893a 82be 4093 3cbe 9096 6a3b
00000300: 9f58 b6be 6343 ce3d 6ef3 c0be 28cc 4e3e
00000310: 5830 403e c3e9 203e 1786 333e da3d e43d
00000320: bd77 80be 1219 47bf a170 183e c1e6 cfbe
00000330: cd67 03bf f3e2 133e 3ac5 3bbf 8ef9 903d
00000340: d6da 243e fc18 d9bc d7db d4be eb18 c3be
00000350: 733f 91be 68b8 193e 416c 82be 5671 d73d
00000360: 78b6 3a3e 12e1 bfbe caaf 2ebf cc11 073f
00000370: 7882 be3e 8fed 2e3e 8569 ec3d 89b8 403e
00000380: 58ac 78bf 7b14 4c3e f567 63bf c560 333e
00000390: 7877 163e a03c ea3d 7128 243e 5627 1bbf
000003a0: 64a2 4a3e b651 00bf 0e1d 2cbf 5753 883e
000003b0: 0dec 103f 72d1 c4be c0a2 113e e381 bcbe
000003c0: 408e 9ebe 47b9 e1be 0b4f 2e3e 8030 5ebe
000003d0: a0ed 0a3e 6d3a 99be f1e7 80bf 7718 9abe
000003e0: a68c 583e f3b8 35bf 8d3e 983d 11c3 fcbe
000003f0: c39a e03d f511 2c3e b020 c2be a0cc d8be
0.20342427 -0.19743134 -0.72179174 -0.32920894 -0.26730704 -0.75806177 -0.14037922 -0.29007506
0.28540444 0.15135294 -0.17745158 0.16028285 -0.4548663 -0.28089073 0.24084729 -0.619289
-0.33789068 0.18119806 0.3703973 -0.62822455 0.45077634 -0.15177634 -0.6900189 0.18285692
-0.2336094 0.4244616 0.24498178 0.3465012 -0.06947658 -0.33116657 -0.30800706 -0.14141895
-0.5253908 -0.47706592 -0.62029374 -0.32393444 -0.2082697 -0.32523993 -0.1655758 -0.78198874
-0.1598921 -0.43907174 -0.38735223 0.10259504 -0.6529243 0.23967502 -0.15645549 0.20425624
0.16348456 0.18839858 -0.34832168 0.2830743 -0.14738856 0.3630664 -0.85538423 0.1806094
-0.15701126 -0.48040673 -0.3322894 -0.74362785 -0.35634834 -0.4299586 -0.44987437 0.51422775
-0.6889623 0.37709054 0.12873873 -0.11335671 0.36937168 0.09428485 -0.5066654 -0.42531836
0.058738366 -0.6483045 -0.16910641 -0.6264195 0.24014556 0.35118127 0.030526927 0.15205325
-0.1710726 -0.44784617 0.02664859 0.54661036 0.492911 -0.20109615 0.24003495 -0.78489435
0.38114172 0.090060785 -0.35978183 0.049501672 -0.6822997 -0.13692474 -0.44467604 -0.52389884
0.18939719 -0.16523243 0.14696766 -0.1519963 -0.4782293 0.20051411 0.06765049 0.17833143
-0.12996788 0.10947935 -0.15591522 -0.9842996 -0.13277993 -0.39740816 -0.48909044 -0.6381866
-0.863665 0.4509659 -0.15893744 -0.64327013 -0.43493924 0.12463997 0.34119314 -0.7067515
-0.7928658 -0.3187673 -0.9003921 0.20863302 -0.4485073 -0.18642096 -0.14636965 0.06660034
-0.5917321 0.2638239 0.10717931 -0.1998203 0.22988707 0.047778342 -0.6939595 -0.62768954
0.19302598 -0.5055599 -0.2582803 -0.6979774 0.16965781 0.24541047 0.025361579 0.09063228
-0.22203869 0.54622805 0.023286298 -1.0215312 -0.5898444 -0.22641073 0.26615426 -0.59138066
0.23434907 0.07856683 -0.35648188 0.058794633 -0.2760905 -0.19044407 -0.5379557 -0.6967778
0.17385006 -0.28587833 0.07911362 -0.20781648 -0.7129985 0.179681 0.009979961 0.0984405
-0.25004703 0.047980763 -0.17563559 0.69223225 0.3292287 -0.4030156 -0.6076983 -0.69698405
-0.62607896 -1.4950063 -0.22996974 -0.48975244 -0.5593625 0.15696867 0.18958859 -0.63052535
0.6764148 -0.38682905 0.73919725 0.23440258 -0.61585337 -0.25435284 -0.18415546 0.0035795309
-0.35614488 0.10071447 -0.37685722 0.20195067 0.18768442 0.15714173 0.1753162 0.1114461
-0.25091353 -0.7777263 0.14886715 -0.4060574 -0.5133026 0.14442043 -0.7334782 0.07078849
0.16099104 -0.026501171 -0.41573974 -0.38104948 -0.2836872 0.15011752 -0.25473216 0.10519664
0.18233669 -0.37476403 -0.6823698 0.5276153 0.37208915 0.17082809 0.11543564 0.18820395
-0.97137976 0.19929688 -0.888305 0.17517383 0.14694011 0.114373446 0.16031052 -0.60606897
0.1978851 -0.5012468 -0.67231834 0.26626083 0.56610185 -0.38441044 0.1422224 -0.36817846
-0.30967903 -0.44086668 0.1702234 -0.21698189 0.13567209 -0.29927388 -1.0070783 -0.3009679
0.21147403 -0.70985335 0.074338056 -0.49367574 0.109670185 0.16803725 -0.37915564 -0.42343616

head.bias f4 [15]
00000000: eab3 d53d 94cb 3dbd 1b59 57bd 12e1 e1bc
00000010: 084b 1bbe a32a 663c 1156 b23d 174a 413e
00000020: 55d6 03be aa72 c0bd 575b 043e 685e eebd
00000030: 19f2 e3bd 6f75 8e3d f84a 3ebd
0.104347065 -0.046336725 -0.052575212 -0.027573142 -0.15165341 0.014048251 0.08707822 0.1887592
-0.1287473 -0.093968704 0.12925468 -0.116391 -0.11130161 0.069559924 -0.046458215
