surrogate/trained_model/model_rate100_fold0.pth (torch, 179121 bytes, 18 tensors)

ds.proj_conv.weight f4 [16, 2, 7]
0	0x3cb6b229	0.02230175
1	0x3d635869	0.055504236
2	0x3d98d9b8	0.074634016
3	0x3d7099e6	0.05874052
4	0x3d6adb95	0.057338316
5	0x3d830804	0.06398013
6	0x3d38fc1f	0.045162316
7	0x3dd32a30	0.10310781
8	0x3e1726e4	0.1476093
9	0x3e07ac20	0.13249254
10	0x3e142b7d	0.14469714
11	0x3e07de74	0.13268453
12	0x3de9c658	0.11414784
13	0x3dafd332	0.08585204
14	0xbd9f4694	-0.077771336
15	0xbc30d0bc	-0.010791954
16	0xbb565e4f	-0.003271002
17	0x3e05ba0a	0.1305925
18	0x3e0c37fd	0.13693233
19	0x3e6d0233	0.2314537
20	0x3d3a85ce	0.045537762
21	0xbd0352f0	-0.032061517
22	0xbdac2f2f	-0.08407437
23	0xbbd8e860	-0.006619498
24	0x3d75773d	0.059928168
25	0x3d718ed6	0.05897411
26	0x3cad50b1	0.02115664
27	0xbcb1acfc	-0.02168893
28	0x3b8fc93b	0.004388002
29	0x3d85e1aa	0.06537183
30	0x3da3911a	0.0798666
31	0x3dddd318	0.108312786
32	0x3db40fdd	0.08792088
33	0x3de96e8f	0.113980405
34	0x3d19a3db	0.03750978
35	0xbd393870	-0.04521984
36	0xbd578211	-0.052614275
37	0xbd04f13f	-0.032456633
38	0x3a57c7e3	0.00082313846
39	0xbc9685ba	-0.018374313
40	0xbde9c4a0	-0.11414456
41	0xbdffa1f6	-0.124820635
42	0x3d133ca5	0.035946507
43	0x3d870232	0.065922156
44	0x3df693f9	0.12039942
45	0x3e0015fa	0.12508383
46	0x3d710c0d	0.058849383
47	0x3da3c641	0.07996798
48	0xbb81b8e9	-0.0039588106
49	0xbdef5792	-0.116866246
50	0xbde43583	-0.11143019
51	0xbdd1cdd5	-0.102443375
52	0xbd8dcb36	-0.06923525
53	0xbd169c33	-0.036770057
54	0xbdf88d55	-0.12136332
55	0xbd87c368	-0.06629068
56	0xbd607f83	-0.054809105
57	0xbd91d435	-0.071205534
58	0xbcb1636d	-0.021653855
59	0x3bb06fa7	0.0053844037
60	0xbc027bfe	-0.007964132
61	0xba8d040c	-0.0010758652
62	0xbd6ef6fd	-0.058341015
63	0xbe28ed7f	-0.16496848
64	0xbe8e3622	-0.27775675
65	0xbe4ca358	-0.19984186
66	0xbe8e9a0c	-0.27851903
67	0xbe46cb89	-0.1941358
68	0x3b9f63dd	0.0048641996
69	0x3c31b0b8	0.010845356
70	0x3ccf463f	0.02530205
71	0x3db64112	0.0889913
72	0x3e1a5a6a	0.15073553
73	0x3e0e547e	0.13899419
74	0x3d8f087a	0.06984039
75	0x3d6936ff	0.056937214
76	0xbd7ee925	-0.062234063
77	0xbdf03ed5	-0.11730734
78	0xbde4cdff	-0.11172103
79	0xbdd4ebbe	-0.10396527
80	0xbc925374	-0.01786206
81	0xbccf1cf3	-0.025282359
82	0xbdd5b29d	-0.104344584
83	0xbd75ceed	-0.060011793
84	0x3d0a69cd	0.033792306
85	0x3d02bcb3	0.03191824
86	0xbd197093	-0.037460875
87	0x3c18d4ba	0.009328062
88	0xbc5bf783	-0.013425711
89	0xbb66f1c2	-0.0035239314
90	0x3c898100	0.016785145
91	0xbd8f060e	-0.06983577
92	0xbd545479	-0.051838372
93	0x3d3f2616	0.04666718
94	0x3e50bbb2	0.203841
95	0x3eb9ad09	0.36264828
96	0x3e1b3bb0	0.15159488
97	0x3d8fb010	0.07016003
98	0xbdd62b56	-0.104574844
99	0xbe031b3d	-0.1280336
100	0xbe247ffe	-0.1606445
101	0xbde845c5	-0.113414325
102	0xbe2f7c4a	-0.17137256
103	0xbe3f4d82	-0.1868191
104	0xbc1728cf	-0.009226038
105	0x38b8ee83	8.81823e-05
106	0x3cf89fbc	0.030349605
107	0x3d86ee38	0.06588405
108	0x3d9ac02e	0.075561866
109	0x3d329459	0.043598507
110	0xbbdc03fa	-0.006714341
111	0xbc743895	-0.014906068
112	0xbe53d879	-0.20688047
113	0xbdd932f0	-0.10605419
114	0x3c0d4b93	0.008623975
115	0x3d474120	0.048646092
116	0x3de2375c	0.11045715
117	0x3df397d1	0.11894191
118	0x3c905251	0.017617377
119	0x3d8ba64b	0.06818827
120	0xbd87525f	-0.06607508
121	0xbe0302db	-0.12794058
122	0xbdd2da3f	-0.102955334
123	0xbe1cc07c	-0.15307802
124	0xbd8ae56b	-0.06782039
125	0xbe209d7f	-0.1568508
126	0x3ca6a8de	0.020344194
127	0x3d390d20	0.045178533
128	0x3d5450e3	0.051834952
129	0x3d26c698	0.040716738
130	0xbcb25ae5	-0.021771858
131	0x39cfe13e	0.00039649935
132	0xbd755aa0	-0.05990088
133	0xbd0dd8b4	-0.034630492
134	0xbe6e7136	-0.23285374
135	0xbe2cd28b	-0.16877191
136	0xbe8e9421	-0.27847388
137	0xbea30b51	-0.3184457
138	0xbea128af	-0.31476352
139	0xbe9b8721	-0.30376533
140	0xbded5654	-0.115887314
141	0xbe99f0df	-0.30066583
142	0xbeb1f2f2	-0.34755665
143	0xbe84361d	-0.25822535
144	0xbe9ab63b	-0.30217156
145	0xbe8318bb	-0.25604805
146	0xbb436285	-0.002981336
147	0x3bb78e37	0.00560167
148	0x3bc0ef0f	0.005887873
149	0x3c392548	0.011300392
150	0x3c7e2461	0.015511603
151	0xbcd7931f	-0.02631527
152	0xbd0b0f6c	-0.033950254
153	0xbd139021	-0.036026124
154	0xbc82f0b0	-0.01598391
155	0x3c3cac46	0.011515683
156	0x3d12406d	0.035705972
157	0x3cff2c3a	0.031149019
158	0x3d98a7e2	0.07453896
159	0x3cd505a9	0.026003676
160	0x3da5d572	0.08097352
161	0x3dcc3eb0	0.09972894
162	0x3e8fe0b9	0.28101137
163	0x3e43242e	0.1905677
164	0x3e4773fa	0.19477835
165	0x3e358a75	0.17728598
166	0x3c2890cc	0.0102884285
167	0xbd368f7d	-0.044570435
168	0x3d1ddcc6	0.038540624
169	0x3e066f09	0.13128294
170	0x3d430ce6	0.047619723
171	0x3de4e723	0.11176898
172	0x3e080a8f	0.13285278
173	0x3dcd473b	0.10023352
174	0x3cd1c31c	0.02560573
175	0xbcb1c8e7	-0.021702243
176	0x3b8f43d2	0.0043720985
177	0x3d43cf69	0.047805224
178	0x3d886c52	0.066612855
179	0x3bf77e8c	0.0075529274
180	0xbdab5c9f	-0.083672754
181	0xbdfc066d	-0.12305913
182	0x3db2a0e9	0.087220974
183	0x3dd257d3	0.102706574
184	0x3de90c67	0.11379319
185	0x3d072a68	0.032999426
186	0xbd89b0c9	-0.06723172
187	0xbe24584c	-0.16049308
188	0xbe191138	-0.14947975
189	0x3ca253ea	0.019815404
190	0xbd9df692	-0.07713045
191	0xbe45164d	-0.19246788
192	0xbe5b4caa	-0.21415964
193	0xbe463a6c	-0.19358224
194	0x3b38ea54	0.0028215842
195	0xbc15db6f	-0.009146555
196	0x3d147e2e	0.036253147
197	0x3d79a637	0.06094953
198	0x3dfbbe32	0.12292136
199	0x3db6868e	0.08912383
200	0x3da63620	0.08115792
201	0x3d3ceb7a	0.046123005
202	0xbc6c740a	-0.014431963
203	0xbe11e2ab	-0.14246623
204	0xbe50b308	-0.20380795
205	0xbe219497	-0.15779339
206	0xbdeed348	-0.116613925
207	0xbdba83e9	-0.09107191
208	0xbe1109e0	-0.14163923
209	0xbd576c5a	-0.052593566
210	0x3d3ad0fa	0.04560945
211	0x3daa5646	0.083172366
212	0x3d04e239	0.032442305
213	0x3c28c414	0.010300655
214	0x3d035747	0.032065656
215	0x3d88ac69	0.0667351
216	0x3ded6727	0.115919404
217	0x3e57042c	0.20997685
218	0x3e280843	0.16409402
219	0x3de49700	0.111616135
220	0x3d643f63	0.055724513
221	0xbc71d9ff	-0.014761447
222	0xbd979b45	-0.07402662
223	0xbe125e24	-0.14293724

ds.proj_conv.bias f4 [16]
0	0xbe930480	-0.2871437
1	0x3e47802e	0.1948249
2	0x3e6bb4c5	0.23018177
3	0x3dd6e300	0.104925156
4	0xbe6ad7b8	-0.22933853
5	0xbe4ebcb8	-0.20189178
6	0xbe2f68f0	-0.17129874
7	0x3e2a51d3	0.16632776
8	0x3e30daae	0.1727092
9	0x3eed0e8e	0.46300167
10	0x3e12193e	0.14267442
11	0x3e25db4c	0.16196936
12	0xbcd838a1	-0.02639419
13	0xbe59f2b5	-0.21283992
14	0x3d5e5b46	0.054286264
15	0xbe4e3f05	-0.20141228

ds.proj_bn.weight f4 [16]
0	0x3f7c5f22	0.9858266
1	0x3f82a6a7	1.0207108
2	0x3f954c1f	1.1663855
3	0x3f9d7511	1.2301351
4	0x3f974885	1.1819006
5	0x3f980bd9	1.1878616
6	0x3f92b5c5	1.1461722
7	0x3fa8e30e	1.3194292
8	0x3f8855f8	1.0651236
9	0x3f92884a	1.1447842
10	0x3f97ea74	1.1868424
11	0x3f890cf6	1.070708
12	0x3f8f1c86	1.118058
13	0x3f9248dd	1.1428486
14	0x3f9d7a48	1.2302942
15	0x3f811a2f	1.0086116

ds.proj_bn.bias f4 [16]
0	0xbe6823e3	-0.2266994
1	0xbe60b826	-0.21945247
2	0xbdcfb68c	-0.1014224
3	0xbdd29b3c	-0.10283515
4	0x3d9fcebc	0.07803103
5	0xbde424f9	-0.111398645
6	0xbd2afdfe	-0.041746132
7	0xbd92dfdb	-0.07171603
8	0xbe832006	-0.2561037
9	0xbe18ddd5	-0.14928372
10	0xbe726891	-0.23672701
11	0xbe12c037	-0.14331137
12	0xbd296d25	-0.041363854
13	0xbe3264f3	-0.17421322
14	0xbde2786f	-0.11058127
15	0xbdb1247d	-0.08649538

ds.proj_bn.running_mean f4 [16]
0	0x3db70a7d	0.08937547
1	0x3eaa5cb8	0.33273864
2	0x3e88b6e2	0.2670203
3	0x3d8cb073	0.068695925
4	0xbf20288c	-0.6256187
5	0xbe60613f	-0.21912096
6	0x3d627fe4	0.055297747
7	0xbd570c7b	-0.052502137
8	0xbc646c66	-0.01394186
9	0xbc1cd4df	-0.009572237
10	0xbebf7b5a	-0.37398797
11	0x3f027cc2	0.50971615
12	0x3e0277ce	0.12741014
13	0xbeda0542	-0.42582136
14	0xbdab3cf6	-0.08361237
15	0x3c4ca3b5	0.012490203

ds.proj_bn.running_var f4 [16]
0	0x3d95ceeb	0.07314857
1	0x3d21fbba	0.039546706
2	0x3dc2fa31	0.095203765
3	0x3e180691	0.14846255
4	0x3e20c53e	0.15700242
5	0x3e01e494	0.12684852
6	0x3db14b2a	0.086569145
7	0x3e1b08ef	0.15140127
8	0x3d8ae2e5	0.06781558
9	0x3edfda23	0.43721113
10	0x3eb99f7e	0.36254495
11	0x3dd1118d	0.10208426
12	0x3d86e25c	0.065861434
13	0x3da3cd70	0.079981685
14	0x3e61e91d	0.22061582
15	0x3ce4482c	0.027866445

ds.proj_conv1.weight f4 [8, 16, 5]
0	0x3d215304	0.03938581
1	0x3d580b14	0.05274494
2	0x3db0fc45	0.086418666
3	0x3d9d96f5	0.076948084
4	0x3d3d8b25	0.046275277
5	0x3e6b0721	0.22951938
6	0x3e5bba06	0.21457681
7	0x3d1c4d44	0.038159624
8	0xbd34f7fa	-0.0441818
9	0xbe4f7207	-0.20258342
10	0x3e1af23b	0.15131466
11	0x3e5256e6	0.20540962
12	0x3d349232	0.044084735
13	0xbdb031c1	-0.0860324
14	0xbe28ecdd	-0.16496606
15	0x3b8d3094	0.0043087695
16	0x3e3d3e30	0.18480754
17	0x3dc488f6	0.09596436
18	0xbbeb6dc2	-0.007184715
19	0xbe03dad2	-0.12876442
20	0xba37c91a	-0.00070108625
21	0xbce6f1f8	-0.028191552
22	0xbd878417	-0.06616991
23	0xbc83339d	-0.016015822
24	0x3c02546d	0.007954699
25	0x3861d334	5.384088e-05
26	0x3e8c12f5	0.27358213
27	0x3dfa9e27	0.122371964
28	0x3cfdf85e	0.03100222
29	0xbded4c6f	-0.11586844
30	0xbd39b910	-0.045342505
31	0xbd49fc73	-0.04931302
32	0xbd58aa2a	-0.052896656
33	0xbd4e4ebe	-0.050368063
34	0xbcf48d2b	-0.02985247
35	0x3d0e7dd7	0.03478798
36	0xbb698ec5	-0.0035638076
37	0xbd5afc93	-0.05346353
38	0xbdadc8c0	-0.08485556
39	0xbd03b0b0	-0.032150924
40	0x3d8b0a42	0.06789066
41	0x3ca83c31	0.020536514
42	0xbdcddb31	-0.10051573
43	0xbd0e6931	-0.034768287
44	0xbe329d5d	-0.17442842
45	0x3c87e33a	0.016587842
46	0x3c77d2dd	0.015125957
47	0x3b90ad55	0.004415194
48	0xbd343118	-0.043992132
49	0xbd4293d0	-0.047504246
50	0x3d9a33c4	0.07529405
51	0x3c89e26c	0.0168316
52	0xbdf68dd9	-0.12038774
53	0xbd4959ce	-0.04915791
54	0x3b8c4146	0.004280242
55	0xbd5cd1ea	-0.053911127
56	0xbd2d75d7	-0.04234871
57	0xbcc6ee29	-0.024283485
58	0xbd7cb960	-0.061700225
59	0x3c02c3e3	0.007981273
60	0x3d9317f4	0.07182303
61	0x3e24c0a1	0.16089107
62	0x3d636fe5	0.055526633
63	0xbd5f25c2	-0.054479368
64	0xbe2a1010	-0.1660769
65	0xbdafd654	-0.08585802
66	0xbd85d043	-0.065338634
67	0x3d18865c	0.03723751
68	0x3c2e8f60	0.0106543
69	0x3d5093c1	0.05092216
70	0x3d1e270d	0.03861146
71	0x3e5c457e	0.21510884
72	0x3dfe2d27	0.12410956
73	0x3ca2b1b1	0.01986012
74	0xbda09674	-0.07841197
75	0x3dce07e1	0.100600965
76	0x3da63a01	0.08116532
77	0x3e2d4831	0.1692207
78	0xbc3e461a	-0.011613393
79	0xbc2ef833	-0.0106792925
80	0xbcee31fb	-0.029076567
81	0xbd349d90	-0.044095576
82	0xbe672b4c	-0.2257511
83	0xbe53a0e9	-0.20666851
84	0xbe18c732	-0.14919737
85	0x3d3496b4	0.044089034
86	0x3dbe64e6	0.092965886
87	0x3d87cb7a	0.06630607
88	0x3d3f79de	0.04674708
89	0xbd0db476	-0.03459593
90	0xbcac5207	-0.021035207
91	0xbbf2d9fe	-0.0074112406
92	0x3ac8a9ab	0.0015309354
93	0xbd5128b6	-0.051064216
94	0xbd6b7bd5	-0.057491142
95	0xbda2012e	-0.07910381
96	0xbda76548	-0.08173615
97	0xbd49b388	-0.04924348
98	0xbd4f6a22	-0.050638326
99	0xbd7d9df1	-0.061918203
100	0xbd77e870	-0.060524404
101	0xbd84b8d8	-0.06480569
102	0xbdaf9192	-0.08572687
103	0xbd91a5a8	-0.071116745
104	0xbdf95f2d	-0.121763565
105	0xbd9fa1b6	-0.07794516
106	0xbd6beff5	-0.057601888
107	0xbbdda895	-0.0067644813
108	0xbd16d10f	-0.036820468
109	0xbc683d27	-0.014174736
110	0x3d973255	0.07382647
111	0xbdafa3f2	-0.08576192
112	0xbe3e5589	-0.18587317
113	0xbe0d746a	-0.1381394
114	0x3d098906	0.03357794
115	0x3e3dbf7c	0.18530077
116	0x3ded5713	0.11588874
117	0x3d55a29b	0.052157026
118	0xbd3d87d8	-0.04627213
119	0x3d447287	0.047960784
120	0xbd825c87	-0.063653044
121	0x3c78fadb	0.015196527
122	0xbad70454	-0.0016404488
123	0xbc86a829	-0.016437607
124	0xbe05466e	-0.13015148
125	0xbdb87d8c	-0.09008321
126	0xbdb7dea5	-0.08978013
127	0xbdd7cca1	-0.10537077
128	0xbe06777e	-0.1313152
129	0xbd8ef151	-0.06979621
130	0x3e596fc5	0.21234043
131	0x3e225434	0.15852433
132	0x3df911f7	0.1216163
133	0x3ac081cd	0.0014687121
134	0x3cf896da	0.03034537
135	0x3bfd27ea	0.0077257054
136	0x3be0a614	0.0068557356
137	0xbe119912	-0.14218548
138	0xbe9d5572	-0.30729252
139	0xbe1b6c96	-0.15178141
140	0x3d23e201	0.040010456
141	0x3d3e65a2	0.046483643
142	0x3cca385e	0.024685081
143	0xbcb6d89f	-0.02232009
144	0xba7af832	-0.0009573727
145	0xbd9a3d66	-0.07531242
146	0xbd3b127d	-0.04567193
147	0xbd47729f	-0.048693296
148	0xbcec19f1	-0.028820964
149	0x3cd41f2e	0.025893774
150	0xbe07898b	-0.13236062
151	0xbd9fd888	-0.07804972
152	0xbdb53fb1	-0.08850039
153	0xbd584561	-0.05280054
154	0xbd6f815d	-0.05847298
155	0xbc475c5c	-0.012168016
156	0x3dc8d95e	0.098070845
157	0x3d6a8e1e	0.05726444
158	0xbe40e3d4	-0.1883691
159	0xbe063655	-0.13106664
160	0x3d427b00	0.047480583
161	0x3dbb043d	0.09131668
162	0x3b24551a	0.0025075139
163	0xbd060947	-0.03272369
164	0xbde4a2ea	-0.11163886
165	0xbd9305f6	-0.07178871
166	0xbda9c649	-0.08289773
167	0xbdc2bcc5	-0.09508661
168	0xbe0034dc	-0.12520164
169	0xbc4b2f4c	-0.012401413
170	0xbc3f04ba	-0.011658842
171	0xbd8c23ac	-0.06842741
172	0xbd140311	-0.036135737
173	0xbdf3ce7d	-0.11904619
174	0xbcb8e7fd	-0.022571558
175	0xbbd8333d	-0.006597905
176	0xbcb0a6f1	-0.021563979
177	0xbc8bb988	-0.017056242
178	0xbda4c2b4	-0.08044949
179	0xbd01e2ff	-0.03171062
180	0xbdb859ba	-0.09001489
181	0x3e630847	0.22171126
182	0x3e96cf36	0.29454964
183	0x3ea6c21a	0.32569963
184	0xbd6ae23e	-0.057344668
185	0xbcbe9396	-0.023263734
186	0xbccfc92a	-0.025364477
187	0xbd4ad912	-0.04952342
188	0xbdc851bb	-0.09781214
189	0xbd48e30f	-0.049044665
190	0xbd127097	-0.035751905
191	0x3d00481d	0.031318773
192	0x3d4b9a63	0.04970778
193	0xbdd1b4ff	-0.102396004
194	0x3d983674	0.07432261
195	0x3d7032b7	0.058642115
196	0xbe3f64b7	-0.18690763
197	0xbe6b8822	-0.2300115
198	0xbe60371a	-0.2189602
199	0xbc540232	-0.0129399765
200	0xbd05ec05	-0.03269579
201	0x3c9813e5	0.018564174
202	0x3e18d875	0.14926322
203	0x3d8bb740	0.068220615
204	0xbd3c28b8	-0.04593727
205	0x3d3c7beb	0.046016615
206	0x3dae33d4	0.08505979
207	0x3e86ec1e	0.26352018
208	0x3d97091a	0.07374783
209	0xbddeebc1	-0.1088481
210	0x3db45439	0.08805127
211	0xbd2c821e	-0.042116277
212	0xbde102e6	-0.10986881
213	0xbe14da29	-0.14536346
214	0xbd083e02	-0.03326226
215	0x3d0262a2	0.031832345
216	0x3d1127de	0.03543841
217	0x3e05ca1c	0.1306538
218	0x3d330f67	0.04371586
219	0x3d0d6f0c	0.03452973
220	0x3c9a6cec	0.018850766
221	0xbd86c90a	-0.06581314
222	0xbdbe301d	-0.09286521
223	0xbe3be833	-0.18350296
224	0xbd023a57	-0.03179392
225	0xbd31e51e	-0.043431394
226	0x3e1bd054	0.1521619
227	0x3e32e27b	0.17469208
228	0x3e0ea4e6	0.13930091
229	0xbe38e1ea	-0.1805493
230	0xbc7ba868	-0.015359975
231	0x3ce8b56c	0.028406821
232	0x3db842f6	0.08997147
233	0x3b66b8b7	0.0035205313
234	0xbcef5edb	-0.029220035
235	0x3e041076	0.12896904
236	0xbc69fe9a	-0.014281893
237	0x3c371405	0.011174207
238	0xbdf45785	-0.119307555
239	0xbca2e24c	-0.019883297
240	0xbbb316c9	-0.0054653627
241	0x3d8221fb	0.063541375
242	0x3d8dad63	0.069178365
243	0x3d44e56f	0.048070367
244	0x3d7e6d8c	0.06211619
245	0x3c7e4c10	0.015521064
246	0x3e839979	0.25703028
247	0x3de4bc69	0.11168749
248	0xbc9b9b30	-0.018994898
249	0xbdd9169c	-0.106000155
250	0xbc8b95ea	-0.017039258
251	0x3e04c026	0.12963924
252	0x3e1c5634	0.15267259
253	0xbd805b2d	-0.062673904
254	0xbdd150f2	-0.10220517
255	0xbda3645b	-0.07978126

ds.proj_conv1.bias f4 [8]
0	0x3ba0df4f	0.004909433
1	0xbe19c941	-0.15018179
2	0x3ca6c7e8	0.020358995
3	0x3de3aaa0	0.111165285
4	0xbc1b2d35	-0.009471227
5	0x3ddc61a1	0.10760809
6	0xbd83e5c3	-0.06440308
7	0x3d304105	0.043030757

ds.proj_bn1.weight f4 [8]
0	0x3fb9423d	1.4473339
1	0x3fbc89e1	1.4729577
2	0x3fb91d2b	1.4462026
3	0x3fb79c42	1.4344561
4	0x3fc57705	1.5426947
5	0x3fab0f74	1.3364091
6	0x3fac22a0	1.3448067
7	0x3fbfff6b	1.4999822

ds.proj_bn1.bias f4 [8]
0	0x3c9388af	0.018009512
1	0x3e0c48ae	0.136996
2	0xbb70d54b	-0.0036748226
3	0x3dc594e4	0.09647539
4	0x3e03e23c	0.1287927
5	0x3d96f778	0.0737142
6	0x3e46ef02	0.19427112
7	0x3ddc7759	0.10764951

ds.proj_bn1.running_mean f4 [8]
0	0x3e5cd8d2	0.21567085
1	0xbf518af5	-0.81852657
2	0xbde78721	-0.11305071
3	0x3e826858	0.25470233
4	0x3f491c1d	0.7855852
5	0xbeeb1cb8	-0.45920348
6	0xbf1cfbe3	-0.6132185
7	0x3d03d124	0.032181874

ds.proj_bn1.running_var f4 [8]
0	0x3f431101	0.7619782
1	0x3eac19d5	0.33613458
2	0x3ec3b40e	0.38223308
3	0x3f66f197	0.90212387
4	0x3f5a1185	0.8518298
5	0x3e9d3daf	0.30711123
6	0x3eee0240	0.46486092
7	0x3f2c1552	0.6722003

ds.fc1_conv.weight f4 [128, 256]
0	0x3c831c3b	0.016004672
1	0x3aa92e6c	0.0012907512
2	0x3dadc6a6	0.08485155
3	0xbce8ae05	-0.028403291
4	0x3e0aedbd	0.13567252
5	0x3d197057	0.03746065
6	0x3e404dec	0.18779725
7	0x3e17aabc	0.14811224
8	0x3cdf3c32	0.027250383
9	0xbc590d17	-0.01324775
10	0xbdc7ea3f	-0.09761476
11	0x3d0215fa	0.03175924
12	0xbea90fca	-0.3301986
13	0xbed7966d	-0.42106953
14	0xbed9702c	-0.42468393
15	0xbccdce75	-0.02512286
16	0x3cf0863a	0.02936088
17	0xbde356b2	-0.1110052
18	0xbe24166f	-0.16024183
19	0xbe84b5bf	-0.2591991
20	0xbeb5b6ee	-0.35491127
21	0xbe68fb05	-0.22752006
22	0x3dab2ac0	0.08357763
23	0xbd95326d	-0.072850086
24	0xbce539a2	-0.027981583
25	0xbcd02759	-0.025409387
26	0x3d868fcb	0.06570395
27	0x3d970380	0.073737144
28	0x3e8dd948	0.27704835
29	0x3e97306e	0.29529136
30	0x3e78a892	0.24283054
31	0x3d7c19ad	0.061547924
32	0xbc4bf673	-0.012448895
33	0xbcd28cdb	-0.02570193
34	0x3d3c94a0	0.046040177
35	0xbd96a961	-0.07356525
36	0xbe80c6b0	-0.25151587
37	0xbeb7f0a6	-0.35925788
38	0xbe3ea1e7	-0.18616448
39	0xbe97fc82	-0.29684836
40	0xbda3d28e	-0.079991445
41	0x3dd9712d	0.1061729
42	0x3e716be4	0.23576313
43	0x3e800895	0.25006548
44	0xbde0ef9a	-0.109832
45	0xbd339b81	-0.043849472
46	0xbdc3ee95	-0.0956699
47	0xbe215315	-0.1575435
48	0xbd60a2fb	-0.05484293
49	0xbd76daf2	-0.060267396
50	0x3d8bcb02	0.0682583
51	0xbcad8288	-0.021180406
52	0x3de3ab3a	0.11116643
53	0x3d0e04a4	0.034672394
54	0x3d59406b	0.05303995
55	0x3e449e45	0.19201
56	0x3d26d37f	0.040729042
57	0xbcbd8b80	-0.023137808
58	0xbd466eed	-0.04844563
59	0xbe9b520c	-0.30336034
60	0xbe41c476	-0.189226
61	0xbd5457af	-0.051841434
62	0xbd2307dc	-0.039802417
63	0x3c7855b7	0.015157155
64	0x3c7204f0	0.014771685
65	0xbe33f251	-0.17572905
66	0xbc83f2cd	-0.016106987
67	0x3e60732b	0.21918933
68	0xbc7b0635	-0.015321304
69	0x3db3f5b3	0.08787098
70	0x3d36aabb	0.044596415
71	0x3dd285ef	0.10279452
72	0x3d75eaa9	0.060038242
73	0x3da2796d	0.079333164
74	0xbd7dd986	-0.061975025
75	0x3e385859	0.18002452
76	0xbe85fdbf	-0.26170155
77	0xbd2ddfc9	-0.042449746
78	0x3e38e42b	0.18055789
79	0xbdf2edb5	-0.11861745
80	0xbede393d	-0.43403044
81	0xbded0c34	-0.11574593
82	0x3d1c935e	0.038226478
83	0xbe216b40	-0.15763569
84	0xbe871a6e	-0.26387352
85	0x3e039971	0.12851502
86	0x3d2bb5c3	0.04192139
87	0x3a6cee71	0.0009038216
88	0x3d03bcfa	0.032162644
89	0xbd8386e5	-0.064222135
90	0x3d9db05b	0.07699653
91	0x3d4a69f0	0.049417436
92	0x3e34d524	0.17659432
93	0x3db6a62e	0.08918415
94	0x3e8ac39d	0.27102366
95	0xbe1382db	-0.14405386
96	0x3dc15ad8	0.09441155
97	0x3c0f8fae	0.008762283
98	0xbbe30cea	-0.0069290297
99	0x3dbc2dee	0.09188448
100	0x3dfdd280	0.12393665
101	0x3e9b7aee	0.30367225
102	0x3dc295f3	0.09501257
103	0x3e3e4db8	0.18584335
104	0x3c1e1b24	0.0096500255
105	0xbd8f8b11	-0.07008947
106	0xbda72b7f	-0.08162593
107	0x38c679f0	9.464088e-05
108	0xbed60946	-0.4180395
109	0xbee12d50	-0.43979883
110	0xbeb0874a	-0.34478217
111	0xbdff6609	-0.124706335
112	0x3d824d9c	0.06362459
113	0xbececa14	-0.40388548
114	0xbd983b43	-0.07433178
115	0xbeacba7e	-0.33736032
116	0xbeab6e73	-0.33482704
117	0xbe3c8aca	-0.18412319
118	0xbdb0ad97	-0.0862686
119	0xb9aac699	-0.00032572894
120	0xba82a1cc	-0.0009966432
121	0x3bb51e79	0.0055273143
122	0x3dccef31	0.1000656
123	0x3de607cf	0.11231958
124	0x3e87c7b2	0.26519543
125	0x3e1c308b	0.15252893
126	0x3e55b042	0.20868018
127	0xbdaaa57a	-0.083323434
128	0xbe5cb76d	-0.21554346
129	0x3a9d2ad4	0.0011990913
130	0xbda3dee0	-0.080014944
131	0xbea7ef1e	-0.3279962
132	0xbefdc56c	-0.49564683
133	0xbe1f070d	-0.15530033
134	0xbd80976d	-0.06278882
135	0xbe52fefc	-0.20605081
136	0xbe96d1ba	-0.29456884
137	0xbe5fbfdf	-0.21850537
138	0xbe973539	-0.29532793
139	0x3d69154a	0.05690507
140	0x3dded875	0.1088113
141	0x3e056fbd	0.13030906
142	0x3dcb5073	0.09927454
143	0x3e9085b3	0.28227004
144	0x3eb30d9c	0.3497132
145	0x3e6cca39	0.23124017
146	0xbe4a46b9	-0.19753541
147	0xbd22ce46	-0.0397475
148	0x3dbaccc4	0.09121087
149	0xbdf5849d	-0.119881846
150	0xbe23dd07	-0.16002284
151	0xbd9ef7ef	-0.07762133
152	0xbe0e8e61	-0.139215
153	0xbe96d707	-0.29460928
154	0xbe4819d3	-0.19541101
155	0xbe504ee3	-0.20342593
156	0xbe8d0f3e	-0.2755069
157	0xbefb6aa4	-0.49104798
158	0xbe0a3c0d	-0.1349947
159	0xbe37641d	-0.17909284
160	0xbcee349d	-0.029077822
161	0xbdebbcba	-0.11510606
162	0xbb2aca2f	-0.0026060452
163	0x3de46059	0.11151189
164	0x3dbb2e84	0.091397315
165	0x3e4685eb	0.19387023
166	0xbd9a319f	-0.07528996
167	0x3dd08d39	0.10183186
168	0xbd0b04b8	-0.033940047
169	0xbce0155d	-0.027353937
170	0x3c52a47f	0.012856602
171	0x3d78c372	0.060733266
172	0xbe684769	-0.22683491
173	0xbe831a83	-0.25606164
174	0x3dd2e600	0.10297775
175	0xbe3a1d8a	-0.18175331
176	0xbe84a754	-0.2590891
177	0xbe505b70	-0.2034738
178	0xbc56b774	-0.013105262
179	0xbe81cb87	-0.25350592
180	0xbe248bce	-0.16068956
181	0xbd32547d	-0.043537606
182	0xbd70ae1b	-0.05875979
183	0xbd5b2f43	-0.05351187
184	0x3bb49dd0	0.005511977
185	0xbe1cc2fe	-0.15308759
186	0x3d67e36c	0.05661337
187	0x3d303d24	0.04302706
188	0x3e32f1aa	0.17475
189	0x3dfb054e	0.12256871
190	0x3e0aefd9	0.13568057
191	0xbe344746	-0.17605314
192	0xbc285784	-0.010274772
193	0xbdddde7f	-0.108334534
194	0x3d2aaf61	0.04167116
195	0x3cc98380	0.024598837
196	0xbd866691	-0.06562532
197	0xbdbec038	-0.093140066
198	0x3cc7c16f	0.024384229
199	0x3d65b377	0.056079354
200	0x3e0a49d2	0.13504723
201	0x3e8cc9e7	0.2749779
202	0x3e7d8575	0.24757941
203	0x3e89b0a6	0.26892585
204	0xbe72c50f	-0.23707984
205	0x3df8935a	0.1213748
206	0xbce32835	-0.027729133
207	0xbe43680b	-0.19082658
208	0xbe0e232a	-0.13880602
209	0xbd0a36cc	-0.033743665
210	0x3e2540a5	0.16137941
211	0xbdafa9fd	-0.085773446
212	0x3e05bffe	0.1306152
213	0x3d887b7a	0.06664176
214	0x3d98ab02	0.07454492
215	0x3e04508f	0.12921356
216	0x3dfa2c87	0.12215524
217	0xbcd017d8	-0.025401995
218	0xbd7404e2	-0.05957497
219	0xbe25a44b	-0.16175954
220	0xbdaf8d35	-0.08571855
221	0xbb124410	-0.00223184
222	0x3d6600f0	0.056153238
223	0x3c8b3d50	0.01699701
224	0x3ca4dabe	0.020123836
225	0x3cc07afb	0.023496142
226	0xbce5559b	-0.027994921
227	0x3e0107eb	0.12600677
228	0x3e12c59a	0.14333192
229	0x3e2ffc94	0.17186195
230	0x3b9684f9	0.0045934883
231	0x3db8c8be	0.090226635
232	0xbdc84c3a	-0.09780164
233	0xbd9fb2a4	-0.07797745
234	0x3d3becca	0.045880117
235	0xbe749d5e	-0.23888156
236	0xbe8709aa	-0.2637456
237	0xbee97a7a	-0.45601255
238	0x3d810be4	0.06301096
239	0xbdfa7809	-0.12229926
240	0xbdfa2e12	-0.122158185
241	0xbe6353e0	-0.22199965
242	0xbe97c206	-0.29640216
243	0xbe8d84da	-0.2764042
244	0xbe8d6ad4	-0.27620566
245	0x3d8599af	0.065234534
246	0xbd1ef8ee	-0.038811617
247	0x3c854497	0.016268058
248	0x3d942e91	0.07235444
249	0x3da332e6	0.079686925
250	0x3e19851f	0.14992188
251	0x3d9f5b1d	0.0778105
252	0x3eae388d	0.3402752
253	0x3e209012	0.15679958
254	0x3ce48a78	0.027898058
255	0xbe9a4bce	-0.3013596

ds.fc1_conv.bias f4 [128]
0	0xbcd4a29c	-0.025956444
1	0x3c1ccc9c	0.009570267
2	0x3daa9fde	0.083312735
3	0x3d1e48d0	0.03864366
4	0x3d30e041	0.043182615
5	0x3c92b75f	0.017909704
6	0x3d824c2b	0.06362184
7	0xbc1eabbb	-0.009684498
8	0x3cff627e	0.031174894
9	0x3da77b6c	0.08177838
10	0x3cbcfe45	0.023070464
11	0x3cd4b717	0.02596621
12	0x3b5f7e82	0.0034102504
13	0x3bf94cbb	0.007608024
14	0x3cb16f34	0.021659471
15	0x3d9eeff9	0.07760615
16	0x3cdb7878	0.026790842
17	0x3cd5d837	0.026104076
18	0x3d698263	0.057009112
19	0x3ccdf029	0.025138931
20	0x3da6ddc8	0.0814777
21	0x3d5b80d6	0.053589664
22	0x3b4844da	0.0030558617
23	0x3d4e12f3	0.05031104
24	0x3b73d6c5	0.003720687
25	0x3d4b0411	0.049564425
26	0x3cfdc0b6	0.03097568
27	0xbd29152b	-0.041279953
28	0xbc115966	-0.008871412
29	0x3d83ec59	0.06441564
30	0x3da553b0	0.08072603
31	0xbb8d92f0	-0.004320495
32	0x3c376346	0.011193102
33	0x3c507f2a	0.012725631
34	0xbc8f542d	-0.017496193
35	0xbc06230e	-0.008187069
36	0x3cbe70ff	0.02324724
37	0xbbfe0ddc	-0.007753117
38	0x3d23c0d4	0.039978817
39	0x3d26a967	0.0406889
40	0x3da19e4b	0.0789152
41	0x3d597be1	0.053096656
42	0x3bb350b3	0.0054722666
43	0x3ca6dfc7	0.020370377
44	0x3ca97473	0.02068541
45	0xba13648f	-0.00056225894
46	0x3d163d9c	0.03667985
47	0x3d287e47	0.041136052
48	0x3d847664	0.06467894
49	0x3d0aa04c	0.033844277
50	0x3d5a9d68	0.05337277
51	0x3cd8aa7e	0.026448485
52	0xbc83d3c8	-0.016092196
53	0x3c7f2d5f	0.015574782
54	0x3c6945d4	0.01423784
55	0x3c407f7e	0.0117491465
56	0x3cc52ca4	0.024069138
57	0x3d6ed34c	0.058306977
58	0xbb7f00c8	-0.0038910378
59	0x3d0f6d47	0.035016324
60	0x3c87f686	0.016597044
61	0x3d6c5836	0.057701312
62	0x3d607320	0.05479729
63	0x3d7e0aae	0.062021904
64	0xbb3dabba	-0.0028941468
65	0x3d0ea151	0.034821812
66	0x3b4627e2	0.0030236174
67	0x3d0b029a	0.033938028
68	0x3cc99447	0.024606837
69	0xbc04f521	-0.008115084
70	0x3d51858c	0.05115275
71	0x3bad1aeb	0.00528275
72	0x3d3515fd	0.044210423
73	0x3d8981eb	0.06714233
74	0xbc4cad04	-0.012492422
75	0x3d0a0ab2	0.033701606
76	0x3c2f10f9	0.010685199
77	0x3c79bab2	0.015242266
78	0x3d440c09	0.04786304
79	0x3cf98134	0.030457117
80	0x3a574bcb	0.0008212893
81	0x3d48cdf3	0.049024533
82	0x3d1b8fa1	0.037978772
83	0x3d00a684	0.0314088
84	0x3a22a26d	0.0006204013
85	0xbbb27a92	-0.0054467404
86	0x3d934bab	0.07192167
87	0x3d52c16e	0.051454
88	0xbcf57fc4	-0.02996815
89	0x3ccf2e87	0.02529074
90	0x3c8bd843	0.017070895
91	0x3ce3da9f	0.027814208
92	0x3cd2b133	0.02571926
93	0x3cbf8d19	0.02338271
94	0x3a6ebbfd	0.0009106992
95	0x3d120789	0.035651717
96	0x3cc6c6d6	0.024264734
97	0x3d53e1bb	0.051728945
98	0x3cbd3526	0.023096632
99	0x3dc2ce27	0.09511977
100	0x3af1969b	0.0018431725
101	0x3d467bbe	0.048457853
102	0x3ccbda8e	0.024884488
103	0x3d2ad149	0.041703496
104	0x3d531723	0.051535737
105	0x3be00287	0.006836239
106	0x3d1053f1	0.035236303
107	0x3d5acda8	0.053418785
108	0x3cd1be95	0.025603572
109	0x3d3c58d2	0.045983143
110	0x3d693a43	0.05694033
111	0x3d6d8c2b	0.057995003
112	0x3a7247f9	0.0009242292
113	0xb9968aa8	-0.00028713536
114	0x3b24f0bd	0.0025167905
115	0xbbc9ae12	-0.006154784
116	0x3cf4dc7a	0.029890288
117	0x3c25b0f9	0.010112994
118	0x3d598b3e	0.053111307
119	0x3cd23c2b	0.025663456
120	0x3d125db4	0.035733894
121	0x3d50d8aa	0.050987877
122	0x3d1133bf	0.03544974
123	0x3d8c66c5	0.06855539
124	0x3d4e43c1	0.050357584
125	0x3cc1f19c	0.023674779
126	0x3d65379e	0.055961244
127	0x3d9249de	0.07142995

ds.fc2_conv.weight f4 [64, 128]
0	0x3d187205	0.037218112
1	0xbec79ad7	-0.3898532
2	0x3cde86d5	0.027163902
3	0x3e4606fc	0.19338602
4	0x3c0f40b4	0.008743454
5	0x3d31e251	0.043428723
6	0xbdd413f9	-0.10355372
7	0x3d4071dd	0.04698359
8	0xbed886c6	-0.42290324
9	0x3dcf34af	0.101174705
10	0x3d031ba4	0.032008782
11	0x3e78f02e	0.24310371
12	0x3d93cd99	0.07216949
13	0x3db45762	0.088057294
14	0xbde1e269	-0.110295124
15	0xbd14b65c	-0.036306724
16	0x3e01b7e8	0.12667811
17	0xbd595d84	-0.0530677
18	0x3bc5a664	0.006031798
19	0xbe70e29a	-0.23523942
20	0x3c73f9c7	0.0148910945
21	0x3d8ca510	0.06867421
22	0x3e801be9	0.25021294
23	0xbeaef7d5	-0.34173456
24	0x3da9315f	0.0826137
25	0x3e1de148	0.15417969
26	0x3dab7ab1	0.08373011
27	0x3e025d78	0.12730968
28	0x3e5df91c	0.21677059
29	0x3d462a41	0.04838014
30	0xbccc555c	-0.024943046
31	0x3b3a1200	0.0028392076
32	0xbd4e70a2	-0.050400384
33	0x3d4e34c6	0.050343297
34	0x3e050595	0.1299041
35	0x3deb30d2	0.11483921
36	0xbf24b724	-0.6434195
37	0xbe0e6ab8	-0.13907897
38	0x3d9c3837	0.0762791
39	0x3c884c89	0.016638057
40	0x3e106c95	0.14103921
41	0x3da10381	0.078619964
42	0x3bd6b5b8	0.0065524243
43	0xbe51fd81	-0.2050686
44	0xbc268ba1	-0.010165126
45	0x3e4f804c	0.20263785
46	0xbe851171	-0.2598987
47	0xbeb1fd7d	-0.3476371
48	0xbbc8f16e	-0.0061322963
49	0x3e4d1016	0.20025668
50	0xbf13f4e4	-0.5779555
51	0xbdaccd63	-0.08437612
52	0x3ddfd6d6	0.109296486
53	0x3de59a80	0.11211109
54	0x3e5ce937	0.2157334
55	0x3ccee51a	0.025255729
56	0x3e578505	0.21046837
57	0xbc3d1cb3	-0.011542487
58	0x3c4c7427	0.012478865
59	0x3e10322d	0.1408164
60	0xbd66407e	-0.05621385
61	0x3da275be	0.07932614
62	0x3e7b209a	0.24524155
63	0x3c8c79f2	0.017147992
64	0xbd0484e5	-0.0323533
65	0xbc60245d	-0.013680545
66	0xbdbe2c99	-0.0928585
67	0xbefce22a	-0.493913
68	0x3e240c15	0.16020234
69	0xbf09d77f	-0.53844446
70	0x3e8f7f7b	0.28026947
71	0xbd1d7dec	-0.038450167
72	0x3ca2e808	0.019886032
73	0xbb97750b	-0.004622107
74	0x3d0ad34c	0.033892915
75	0x3d3897cc	0.04506664
76	0x3d84c0a8	0.06482059
77	0x3d974431	0.07386053
78	0x3dac0d40	0.08400965
79	0x3b7990f4	0.0038080784
80	0x3c82e4af	0.015978185
81	0x3db3f0e6	0.08786182
82	0xbe036f57	-0.12835442
83	0x3d0537ce	0.032523923
84	0x3e85358e	0.2601742
85	0x3d844b4e	0.06459676
86	0x3d83fdbe	0.06444882
87	0xbea0defe	-0.3142013
88	0x3e266c59	0.16252269
89	0x3e74d992	0.23911121
90	0xbd1d0d7c	-0.038342938
91	0x3dfcf28e	0.12350951
92	0x3de7c2d8	0.1131646
93	0x3dd8adf1	0.10580052
94	0x3d3d643a	0.04623816
95	0x3df4c527	0.11951666
96	0x3e53c938	0.20682228
97	0xbd94e837	-0.07270854
98	0x3dec6994	0.11543575
99	0x3da281fa	0.07934947
100	0xbd8ae576	-0.067820475
101	0x3ea3342c	0.3187574
102	0xbed27b1f	-0.4110956
103	0x3d12a8d6	0.035805546
104	0xbe0cfb04	-0.1376763
105	0x3c815f7b	0.015792599
106	0x3e2129d7	0.15738617
107	0x3e95b45a	0.2923916
108	0xbe419117	-0.18903004
109	0xbb9cf1e4	-0.004789578
110	0x3e750922	0.23929265
111	0xbdf82429	-0.12116272
112	0x3c995030	0.018714994
113	0xbc9d7ef6	-0.019225579
114	0xbe92398f	-0.2855954
115	0xba6aaaed	-0.00089518615
116	0x3bdf5ace	0.0068162447
117	0x3d41a9d8	0.047281116
118	0xbdcd8960	-0.10035968
119	0xbe224f73	-0.1585062
120	0xbd3fd305	-0.046832103
121	0x3c88c472	0.016695235
122	0xbeead020	-0.45861912
123	0xbd005824	-0.031334057
124	0x3e516ca9	0.20451607
125	0x3db041bf	0.0860629
126	0x3c796d00	0.0152237415
127	0x3a2d5bb9	0.0006613094
128	0x3e1bf008	0.15228283
129	0x3d072a28	0.032999188
130	0x3daa4d20	0.08315492
131	0x3e600b3c	0.21879286
132	0x3dad3a8b	0.08458432
133	0xbe05ecf3	-0.1307867
134	0xbeecbaf5	-0.46236387
135	0x3e97a931	0.2962127
136	0xbd7c6d85	-0.061627883
137	0xbe0cb32f	-0.13740228
138	0x3bfa3290	0.007635422
139	0x3ea6a76b	0.32549605
140	0x3ee6de42	0.45091444
141	0x3ec5d39b	0.38638005
142	0x3cdadcf5	0.026716689
143	0xbecf5e1c	-0.40501487
144	0xbda93e7c	-0.08263871
145	0x3c9aaa4d	0.018880034
146	0x3d80b4dc	0.06284496
147	0xbdecd46c	-0.11563954
148	0xbe1c5d7b	-0.15270035
149	0xbe1de815	-0.15420564
150	0x3ea1d70e	0.31609386
151	0xbe1df2ca	-0.15424648
152	0x3ec01954	0.37519324
153	0xbd542560	-0.051793456
154	0xbd72d3c8	-0.059284
155	0x3cdcb865	0.026943395
156	0x3ea41ac9	0.32051685
157	0xbe3bf33a	-0.18354502
158	0x3dfbf88f	0.12303268
159	0x3e5c9e6f	0.21544813
160	0xba4c0a75	-0.00077835406
161	0x3e9afb90	0.30270052
162	0x3e4d9b88	0.20078862
163	0x3ec31b15	0.381066
164	0xbd106f60	-0.035262465
165	0xba8d469b	-0.0010778488
166	0x3dc84632	0.09779014
167	0x3db22050	0.08697569
168	0xbd527217	-0.051378336
169	0x3dc3647e	0.09540652
170	0x3efa80fd	0.48926535
171	0x3cc080e0	0.023498952
172	0x3d4dc1f2	0.05023379
173	0x3e9940a6	0.29932135
174	0xbebaaddc	-0.3646077
175	0xbee08ba3	-0.43856534
176	0x3e239b9e	0.15977332
177	0xbe214895	-0.15750344
178	0xbd1b6ddb	-0.037946563
179	0x3cb44e06	0.02200986
180	0xbd49b255	-0.049242336
181	0x3efb2174	0.4904896
182	0x3c540d8f	0.012942686
183	0x3d70d528	0.05879703
184	0x3dcdfa89	0.100575514
185	0xbded0737	-0.11573642
186	0x3df68fb5	0.12039129
187	0x3e0ee1da	0.13953343
188	0xbe89de62	-0.26927477
189	0x3e1a95f5	0.15096267
190	0x3de481b4	0.111575514
191	0x3e033c23	0.12815909
192	0xbe3bd8d5	-0.18344434
193	0x3cf6fc3b	0.03014957
194	0xbcd98b11	-0.02655557
195	0xbedb270c	-0.42803228
196	0xbd92c5c3	-0.07166626
197	0xbb373d41	-0.0027960094
198	0x3d809756	0.06278865
199	0x3ea1bd75	0.31589857
200	0x3db29da0	0.08721471
201	0xbd69092e	-0.05689352
202	0x3e2b81ce	0.16748735
203	0x3cf65686	0.030070554
204	0x3eae064e	0.33989185
205	0x3e180596	0.14845881
206	0xbec2a71f	-0.38018128
207	0x3d651083	0.05592395
208	0x3e1da131	0.15393521
209	0xbe40f25b	-0.18842451
210	0x3d63b7b5	0.05559512
211	0xbb931779	-0.004488882
212	0xbead83e0	-0.33889675
213	0x3eb5354e	0.3539223
214	0x3de7a11e	0.113100275
215	0xbdd8e2c7	-0.10590129
216	0x3e81b55e	0.25333685
217	0x3d465e1f	0.048429605
218	0xbbb6c4e5	-0.005577671
219	0xbe15e7c3	-0.14639191
220	0x3d0392c2	0.03212238
221	0x3deb4de7	0.11489468
222	0x3e4b748b	0.19868676
223	0x3c4068f9	0.011743777
224	0x3e9efa60	0.31050396
225	0xbcb528ec	-0.02211424
226	0x3d2ec0a9	0.042664204
227	0xbe3752cb	-0.17902677
228	0x3df5bb10	0.1199857
229	0x3db65c6a	0.08904345
230	0xbcd182ca	-0.02557506
231	0x3da4508f	0.08023178
232	0x3ce02208	0.027359977
233	0x3c28f9df	0.01031348
234	0x3cfb68ae	0.030689564
235	0x3d8b5a1c	0.068042964
236	0x3c0c49d4	0.008562524
237	0x3d1a7693	0.037710737
238	0x3d913e45	0.07091955
239	0xbe8d598c	-0.2760738
240	0x3e11e8b7	0.1424893
241	0xbb3d6fd3	-0.0028905764
242	0xbd9c7d15	-0.07641045
243	0x3df10210	0.117679715
244	0x3e551084	0.20807081
245	0x3bb5cf84	0.0055484194
246	0x3ce2b9b5	0.027676443
247	0xbd9a327f	-0.075291626
248	0xbe616070	-0.22009444
249	0x3da02de9	0.07821257
250	0xbebcc6a0	-0.3687029
251	0x3d864770	0.06556594
252	0x3e02f537	0.12788855
253	0x3ca2507e	0.019813772
254	0x3d90bc50	0.07067168
255	0xbe09a4c5	-0.13441761

ds.fc2_conv.bias f4 [64]
0	0x3d88269b	0.066479884
1	0x3d2559d0	0.040368855
2	0x3b05b4a9	0.0020401871
3	0x3cc9a98a	0.024616975
4	0x3c324975	0.010881771
5	0x39f72a1a	0.0004714288
6	0x3cc0cd08	0.023535267
7	0xbccca525	-0.02498109
8	0x3d12caec	0.035838053
9	0x3d763055	0.060104687
10	0xbb289c48	-0.0025727917
11	0x3ca1ccbf	0.01975095
12	0x3d972321	0.07379747
13	0x3c406162	0.011741968
14	0x3d1a762f	0.037710365
15	0x3cce691a	0.0251966
16	0xbc0442d4	-0.008072574
17	0x3d038544	0.032109514
18	0x3d49d045	0.049270887
19	0x3d232eb8	0.039839476
20	0x3ccf64b3	0.025316572
21	0x3da1a5dd	0.07892964
22	0x3daec5b0	0.085338
23	0x3d288a6f	0.041147646
24	0x3d8d8887	0.06910806
25	0x3ceb037d	0.028688187
26	0x3d44df26	0.048064373
27	0x3d4800cb	0.04882888
28	0x3cd43e53	0.025908625
29	0x3d977be1	0.07396675
30	0x3d262925	0.040566582
31	0x3d44bce7	0.048031714
32	0x3cd43057	0.025901956
33	0x3dc0b083	0.09408667
34	0x3d575277	0.05256888
35	0x3ae1162b	0.0017172744
36	0x3d9c8515	0.07642571
37	0x3d8f7788	0.07005221
38	0x3bedcd48	0.0072571374
39	0x3d08aff1	0.033370916
40	0x3d4f2412	0.05057151
41	0x3d0e8543	0.034795057
42	0x3d207b96	0.03918036
43	0x3d11daa7	0.035608914
44	0x3cf9dc32	0.030500505
45	0x3d8b8bff	0.068138115
46	0x3d7a5dde	0.061124675
47	0x3d49691c	0.049172506
48	0x3d18f34d	0.037341405
49	0x3d1f064f	0.038824376
50	0x3d725fec	0.05917351
51	0x3cc8910e	0.02448323
52	0x3d841020	0.06448388
53	0x3d7952a2	0.06086982
54	0x3d849d62	0.06475331
55	0x3da8110a	0.08206375
56	0x3da138eb	0.07872184
57	0x3c24ef28	0.010066785
58	0x3d66b086	0.05632069
59	0xbd0f12dd	-0.0349301
60	0x3d1d9345	0.038470525
61	0x3d850366	0.06494789
62	0xbce7d2a8	-0.02829869
63	0x3c65e202	0.014030935

head.weight f4 [15, 64]
0	0x39e20ad5	0.0004311415
1	0xbc3229f8	-0.010874264
2	0x3ec1b9b5	0.37836996
3	0xbef13878	-0.47113395
4	0xbca16058	-0.01969926
5	0x3e236625	0.15956934
6	0x3e00ed86	0.12590608
7	0xbe29e17d	-0.16589923
8	0x3da822b0	0.08209741
9	0xbf2d8360	-0.6777859
10	0xbe0c8020	-0.13720751
11	0x3edad236	0.42738503
12	0x3e62d447	0.2215129
13	0xbe8a281a	-0.2698372
14	0xbbc17a5b	-0.0059044785
15	0x3ce6afd9	0.028160023
16	0x3db899c2	0.09013702
17	0xbf387427	-0.72052234
18	0x3f17c099	0.59278256
19	0xbcc26cc8	-0.023733512
20	0xbc2d48f9	-0.01057648
21	0xbee4b2d8	-0.44667697
22	0x3d23ac40	0.039959192
23	0x3f037762	0.5135404
24	0x3ea42519	0.32059553
25	0x3e8629a6	0.2620365
26	0x3dc83f7d	0.097777344
27	0x3e20d5d3	0.15706567
28	0x3eb3fe43	0.35154924
29	0xbf2c8464	-0.6738951
30	0xbf567cc5	-0.83784133
31	0x3e20d2da	0.15705433
32	0xbe6cb1f4	-0.23114759
33	0xbf4fb669	-0.8113771
34	0x3ef7a7ff	0.48370358
35	0xbed614b1	-0.4181266
36	0x3d9fa3c5	0.077949084
37	0xbf0a0c37	-0.5392489
38	0x3ea1a64a	0.3157218
39	0xbe4e1e16	-0.20128664
40	0xbf07c77a	-0.5303875
41	0x3de9965b	0.11405631
42	0xbe591d99	-0.21202697
43	0xb9c141d9	-0.0003686089
44	0xbf594b08	-0.84880114
45	0xbf4b7575	-0.794761
46	0xbf4bd083	-0.7961504
47	0x3e2c8661	0.16848136
48	0x3ca056eb	0.019572696
49	0x3d72a6b9	0.05924103
50	0x3d6a42fc	0.057192788
51	0x3dabec85	0.08394722
52	0xbf3784b7	-0.7168688
53	0xbd8ae5db	-0.06782123
54	0xbe898356	-0.26858014
55	0xbf4ea52c	-0.8072078
56	0xbf2cf326	-0.67558515
57	0xbf43cbce	-0.76482856
58	0xbf088bb2	-0.5333816
59	0xbed4e9a7	-0.41584513
60	0x3e045967	0.1292473
61	0xbbd82bf7	-0.006597038
62	0x3e6bb47f	0.23018073
63	0x3cd3e21c	0.025864653
64	0x3dfd352e	0.12363659
65	0xbf46de1f	-0.7768268
66	0xbecabe40	-0.39598274
67	0x3e24e82e	0.16104195
68	0xbf2d6df6	-0.6774591
69	0xbf1e587f	-0.61853784
70	0xbec15460	-0.37759686
71	0xbeafb0af	-0.34314486
72	0xbeafcf51	-0.34337857
73	0x3dc58191	0.096438535
74	0xbed6c750	-0.41948938
75	0x3e0b623f	0.13611697
76	0x3e01cf7c	0.12676805
77	0xbeb2ce31	-0.34922937
78	0x3d58c3e1	0.05292118
79	0xbf5c0930	-0.8595152
80	0xbeb12656	-0.3459956
81	0x3dd00d1f	0.10158753
82	0x3dffe673	0.124951266
83	0x3e995e20	0.29954624
84	0xbf425b7e	-0.75920856
85	0x3e96b3a3	0.29433927
86	0x3dde81e5	0.10864619
87	0x3dc1b6fd	0.0945873
88	0x3de27c03	0.110588096
89	0xbea82855	-0.3284327
90	0x3f2c2757	0.6724753
91	0x3f267345	0.6501964
92	0x3e370952	0.17874649
93	0x3e219967	0.15781175
94	0xbf8b475c	-1.0881152
95	0x3f1e47ae	0.61828125
96	0xbf5222d0	-0.8208437
97	0x3d98576f	0.07438552
98	0x3e06a4b2	0.13148764
99	0xbe910a1b	-0.28328022
100	0x3de90d1d	0.11379454
101	0x3db72212	0.08942045
102	0xbe891da8	-0.26780438
103	0xbebdc409	-0.37063625
104	0x3e5ebf0e	0.21752569
105	0x3f2671a3	0.65017146
106	0xbed385bc	-0.4131297
107	0xbf4b5e28	-0.79440546
108	0xbf1629b0	-0.5865736
109	0xbea59a4b	-0.3234428
110	0xbf305c75	-0.6889108
111	0xbf0b71e7	-0.54470676
112	0xbf47bb9c	-0.78020644
113	0xbec2af91	-0.38024572
114	0x3e58994e	0.21152231
115	0xbebd4f7b	-0.369747
116	0x3e607463	0.21919398
117	0x3d9f633f	0.077826016
118	0x3dcc76b8	0.09983581
119	0xbeecf1c2	-0.46278197
120	0x3e1aea3c	0.15128416
121	0xbe7ae8e5	-0.24502905
122	0x3e3efd2b	0.18651263
123	0xbe99bc9f	-0.3002672
124	0xbecdf532	-0.40226132
125	0x3e18acae	0.14909622
126	0xbec218fa	-0.3790968
127	0xbf43cc31	-0.76483446
128	0x3e4e8509	0.20167936
129	0xbec332a5	-0.38124576
130	0xbe8c75a8	-0.27433515
131	0x3e3b6aec	0.18302506
132	0xbef94d61	-0.48691848
133	0xbed96565	-0.4246017
134	0xbe4b3bf2	-0.19847086
135	0xbf0a8dca	-0.541226
136	0xbe553f18	-0.2082485
137	0x3e416bf5	0.18888839
138	0xbf0d6ea1	-0.5524693
139	0x3e654940	0.22391224
140	0x3e5f6d24	0.21818978
141	0xbeb048eb	-0.34430632
142	0x3e50dc43	0.20396523
143	0xbee42a74	-0.4456364
144	0xbe6a3d90	-0.22875047
145	0x3e670e39	0.2256402
146	0x3e7a66f7	0.2445334
147	0xbf968030	-1.175787
148	0xbef0d299	-0.47035673
149	0x3e9fc207	0.3120272
150	0x3ec18541	0.37796977
151	0x3e592195	0.21204217
152	0x3e6d9992	0.23203114
153	0xbe568afd	-0.20951457
154	0xbf90229d	-1.1260563
155	0xbf9824d1	-1.1886235
156	0x3e73ac93	0.237963
157	0x3e2d6e07	0.16936503
158	0xbdb16c36	-0.08663218
159	0xbf928d6b	-1.1449407
160	0x3f53f762	0.8279935
161	0x3e408f98	0.18804777
162	0x3e7764d4	0.24159557
163	0xbe95f057	-0.29284927
164	0x3e4feb01	0.2030449
165	0x3e27dbc1	0.16392423
166	0xbe6aaefd	-0.22918315
167	0xbed7bf93	-0.42138347
168	0x3e70b0cd	0.23504944
169	0xbf83bd22	-1.0292094
170	0xbf072b6a	-0.5280062
171	0xbef32a2a	-0.47493106
172	0xbf0e8cb4	-0.55683446
173	0xbec7029e	-0.38869184
174	0x3e240608	0.16017926
175	0xbef321c4	-0.474867
176	0xbee38363	-0.44436178
177	0xbe86aac5	-0.26302162
178	0x3e99bed5	0.30028406
179	0xbe99fab5	-0.30074087
180	0x3e8d77b3	0.27630386
181	0x3e6b9cad	0.23008986
182	0x3e4b7b63	0.19871287
183	0xbef14a96	-0.47127217
184	0x3e524ce4	0.20537144
185	0xbe955501	-0.29166415
186	0x3e382ed2	0.1798661
187	0xbea493dd	-0.3214406
188	0xbe8bc56f	-0.27299067
189	0x3e60e619	0.21962775
190	0xbe75ec6f	-0.24015974
191	0xbeda24b8	-0.4260614
192	0xbe93b381	-0.28847888
193	0xbe54f6e1	-0.20797302
194	0xbe2f50d3	-0.17120676
195	0x3e4fc6db	0.20290701
196	0xbe5c7dcc	-0.21532363
197	0xbe8c5940	-0.27411842
198	0xbe92c077	-0.28662464
199	0x3e8c8789	0.27447155
200	0xbe98ac86	-0.29819125
201	0x3e6b7c42	0.2299662
202	0x3e90f57a	0.28312284
203	0xbe94e188	-0.29078317
204	0xbe973a8f	-0.29536864
205	0x3e543a22	0.20725301
206	0xbe8eaa37	-0.2786424
207	0xbe854319	-0.26027754
208	0xbea38dba	-0.31944066
209	0x3e78c27b	0.24292938
210	0xbeafce07	-0.34336874
211	0x3f0583c2	0.5215417
212	0xbe6fe4a2	-0.2342706
213	0xbf724f4d	-0.94652253
214	0xbed5f65d	-0.41789523
215	0xbeb97b69	-0.36226967
216	0xbeba9916	-0.3644492
217	0xbe597263	-0.21235041
218	0xbecfbd54	-0.40574133
219	0xbf8b90e2	-1.090359
220	0xbe8c414f	-0.27393577
221	0x3e5fed16	0.21867785
222	0x3e918815	0.28424135
223	0xbed7cc95	-0.4214827
224	0x3e76e578	0.24110973
225	0x3e53d410	0.20686364
226	0xbe940fb7	-0.2891824
227	0xbf981c3c	-1.1883616
228	0xbf61f81b	-0.88269204
229	0x3e6649e6	0.22489128
230	0xbe968f71	-0.29406312
231	0x3e5bfaca	0.21482387
232	0x3e6525a4	0.2237764
233	0xbf0b6f73	-0.54466933
234	0x3e8c9675	0.2745854
235	0xbe6b1266	-0.22956237
236	0x3ecb9c20	0.3976755
237	0x3e4ffe89	0.20311941
238	0x3e59dc29	0.2127539
239	0xbec22894	-0.37921584
240	0xbe47c160	-0.1950736
241	0xbf9d7f4d	-1.2304474
242	0xbf6de407	-0.9292607
243	0xbfaebaf8	-1.3650808
244	0x3e29a23e	0.16565797
245	0xbe8c9174	-0.27454722
246	0x3e7af230	0.2450645
247	0x3e9085c3	0.28227052
248	0x3e4f9e7f	0.20275305
249	0x3ee6c64e	0.4507317
250	0x3e42853c	0.18996137
251	0x3ee5c0dc	0.44873703
252	0xbfa518b2	-1.2898161
253	0xbe85aad2	-0.26106888
254	0xbe10818d	-0.1411192
255	0xbe7a7734	-0.24459535

head.bias f4 [15]
0	0xbdab7935	-0.08372728
1	0x3c04e101	0.008110286
2	0x3dededed	0.11617646
3	0x3da52280	0.08063221
4	0xbd95a8b1	-0.07307566
5	0x3c7dcf04	0.015491251
6	0x3c203742	0.0097787995
7	0xbb9e34cf	-0.0048280726
8	0x3df20def	0.11819064
9	0x3d349db3	0.044095706
10	0xbcdeeb67	-0.027211858
11	0x3c5807cf	0.013185455
12	0xbd9f81bc	-0.07788417
13	0x3cf6dad0	0.030133635
14	0xbddbcdc0	-0.10732603
