surrogate/trained_model/model_rate100_fold3.pth (torch, 179121 bytes, 18 tensors)

ds.proj_conv.weight f4 [16, 2, 7]
00000000: 15e7 13bd 1a95 733c 09a9 603d 5abe cf3d
00000010: c238 f83d ba7d cf3d 7b6d 023e 693a 8e3c
00000020: 2cba 8a3d 5d65 233e c693 533e e925 383e
00000030: 4f65 a13d b878 cbbc 3466 1cbd 324e f1bb
00000040: 75e6 3f3d 80de 133d 1b95 8f3c 14cf 4bbb
00000050: 6e8a bf3d 2ff2 9c3d a77c 213e 72f6 2e3e
00000060: 598f 3e3e 826a ef3d 8deb 433d 93dc 28bd
00000070: bef6 bfbd ee2e 5bbd 3b4d 1f3c bd34 3a3c
00000080: 81c8 abbc bb48 51bc 4014 65bd 5c17 0f3e
00000090: 192b 84bd 4dec 38be b918 99be 8898 01bf
000000a0: 85e8 1bbe 40df a6bc e6c7 a5bd ee56 89bd
000000b0: 764b 803c b57c ff3a dd11 b23d 8f61 d53c
000000c0: 10aa a1bd bc26 02be 7f14 9cbd f6fc b53c
000000d0: 6114 db3d 9fb1 243e d145 5a3d c873 cbbb
000000e0: 23ee 17be 65fa 2fbe d390 3bbd 8396 46bd
000000f0: 348b 9d3c c686 fbbc 1c11 c2bd b475 babd
00000100: 34ac 09bc 31a2 9c3b ab31 013d 9cdc e63d
00000110: 5234 f03d fab2 433d 0f39 77be b07e 74be
00000120: 625a 82be 3f48 4dbe 10db 82be fea2 58be
00000130: 0bc8 68bd 1f8c 5d3c c4ed 873c bd71 053d
00000140: 590c 6b3d 8679 8f3a 5fa6 ebbc 33c1 77bd
00000150: d948 773b 82af 93bc 2cb8 87bd 3ea7 44bd
00000160: 94e1 58bd 40e8 e2bd 0fdb 93bd 1cd6 efbd
00000170: 2b9d 25be 2a46 25be c794 6ebe a8d1 09be
00000180: e3f7 fc3c 496f 743d 9d3c 2a3e 2cda 053e
00000190: d7ad 1a3e e0d7 163d 336c 32bd ebef 4ebc
000001a0: a590 32bc 69d6 cabd dd60 6ebd 25e2 d4bd
000001b0: 29cf 7bbd 7563 4abd 0ee0 a0bd 6117 803a
000001c0: e09e dbbb dcae 7d3d 1971 263e a04c ff3d
000001d0: a3d9 573d 9772 723d 2387 263d 58a7 2f3d
000001e0: 74d2 283d 0309 d0bd 219f d7bd c366 d6bd
000001f0: f477 3dbe f795 c2bd e2d4 ba3d 7e89 96bc
00000200: 4acc 08be 92b8 d0bd bd31 88bd a918 efbd
00000210: 805c cfbd 4192 30be afaa 1fbe fe81 82bd
00000220: 04d7 95bc 2b6d 963d 365f 123e f014 103e
00000230: e3b7 2f3d 878f ef3c af03 103d 4978 b53d
00000240: dcb1 cc3d 1497 cf3d 05d1 cc3d 4d68 a73d
00000250: 5d61 103e 5a7a 1d3e ddd4 003e af94 d53d
00000260: b2b1 aa3d ca58 733c b894 54be 2420 b6bd
00000270: 8fef 34bd ba58 40bd bb21 babd 960e 3bbe
00000280: 772c 97bd 13ac b13c 3580 843d adde a13d
00000290: a9f1 c33d df93 5d3d 7723 163c 7a4c 86bd
000002a0: 8a8c 2bbe d9cb 04be e3b2 86bd cffa e33b
000002b0: 6d57 8b3d 3973 f33d b058 db3d ca25 f63b
000002c0: 6a74 59bc eee6 c33b 2ba2 73bd c62c 1cbe
000002d0: 557e f4bd f23c 10be 8191 733b cc4b 00bd
000002e0: 21ff 5f3d 41b2 793d d3df e53d fda9 f23d
000002f0: 06ed 2c3e 658a 9fbd 616c 113d ba08 043e
00000300: 61fc 5a3e 9f73 183e 9131 ca3d c6aa 20bd
00000310: e644 893d 87b0 683e cf16 403e 5a7a 6e3c
00000320: 3708 d8bd a919 d5bd 8667 80bd 2925 96bd
00000330: 6ccd 21bd 9708 9fbd e38e f0bc 4509 b7bb
00000340: 7093 1dbc df95 283d 570f c7bd d2e3 89be
00000350: 530f ddbe 4982 8bbe f552 b2be b4d7 74be
00000360: 0ef6 84bd 67c1 b73d c8b1 1b3d 9b90 123c
00000370: 24a0 ccbc f55a 44bd 3de4 c1bd 14f7 91bd
-0.03610905 0.014867092 0.054848704 0.101437286 0.12120201 0.10131402 0.12737076 0.017361837
0.06773791 0.15956636 0.2066184 0.17983212 0.07880651 -0.024837837 -0.038183406 -0.007364058
0.04685064 0.036100864 0.017527154 -0.003109877 0.09352575 0.0766338 0.15770207 0.17086199
0.1860937 0.11690237 0.04783206 -0.04122598 -0.09373234 -0.053511553 0.009723003 0.011365113
-0.020969631 -0.012773688 -0.055927515 0.13973755 -0.06453533 -0.18058892 -0.29901674 -0.5062337
-0.15225418 -0.020370126 -0.08094768 -0.06706034 0.015660983 0.0019492122 0.086948134 0.026047496
-0.07893765 -0.12710088 -0.07621097 0.022215348 0.10697246 0.16083382 0.05328924 -0.0062088706
-0.14836936 -0.17185362 -0.045792412 -0.048483383 0.019231416 -0.030703913 -0.094759196 -0.09104481
-0.008402873 0.004780077 0.031541508 0.11272547 0.11728729 0.047778107 -0.2414286 -0.23876452
-0.25459582 -0.20047091 -0.25557756 -0.21155927 -0.0568314 0.013522177 0.016592868 0.032579172
0.057384823 0.0010946251 -0.028765855 -0.060486984 0.003773263 -0.018028025 -0.06626925 -0.048011057
-0.052949503 -0.110794544 -0.072195165 -0.1171076 -0.16173236 -0.16140047 -0.23298942 -0.13458884
0.03087992 0.059676442 0.16624685 0.13071507 0.15105377 0.03682697 -0.043560218 -0.012630443
-0.010898744 -0.09904177 -0.058197845 -0.10394696 -0.06147686 -0.049411256 -0.07855235 0.0009772592
-0.006702289 0.061934337 0.16254081 0.12465787 0.05269779 0.059191313 0.04065622 0.0428842
0.04121633 -0.10157969 -0.10528398 -0.10468819 -0.1850279 -0.0950126 0.091226354 -0.018376108
-0.1335918 -0.10191454 -0.06650112 -0.116746254 -0.10125065 -0.17243291 -0.15592454 -0.0637245
-0.018291004 0.07345041 0.14294133 0.14070487 0.042899977 0.029243244 0.035159763 0.08860833
0.099948615 0.10136238 0.10000805 0.08174191 0.14099641 0.15378705 0.12581201 0.1042875
0.08334674 0.014852712 -0.20759857 -0.08892849 -0.044173773 -0.046959616 -0.09088465 -0.18267283
-0.07381528 0.021688497 0.06469766 0.079038 0.095675774 0.0540961 0.009163729 -0.065575555
-0.1675283 -0.12968387 -0.06577089 0.006957389 0.068037845 0.11887211 0.10710275 0.007511829
-0.013272384 0.0059784567 -0.059480827 -0.15251455 -0.119381584 -0.14085749 0.0037165585 -0.031322286
0.05468667 0.06096101 0.11224332 0.11848829 0.16887292 -0.077900685 0.03550375 0.12893954
0.21385337 0.14887856 0.09872735 -0.039225362 0.067025945 0.2272359 0.18758701 0.014555538
-0.10548442 -0.10405285 -0.062697455 -0.073313065 -0.039502546 -0.0776531 -0.029365009 -0.005585822
-0.009617671 0.041158553 -0.09719723 -0.26931626 -0.43175754 -0.27247837 -0.34828916 -0.23910409
-0.06492244 0.089724354 0.038011342 0.008945609 -0.024978705 -0.047938306 -0.09467361 -0.071272045

ds.proj_conv.bias f4 [16]
00000000: 84a8 663e b5b4 f63c be83 92bd deee 6d3e
00000010: 0396 a83c c00c bb3e e2a6 823e cb61 ff3d
00000020: e4aa d83d 9a3e bf3e bc3c 573e 247d cbbd
00000030: 2b20 bc3d 77ca 223e 113b 863e 10d4 593d
0.22525221 0.030115465 -0.07154034 0.23235652 0.020579344 0.36533165 0.25517946 0.124698244
0.1057947 0.3735245 0.21019262 -0.09935978 0.09185823 0.15897547 0.2621694 0.053180754

ds.proj_bn.weight f4 [16]
00000000: fd5f 863f 6977 7f3f 5a18 9f3f 7a6e 843f
00000010: 4c10 8e3f 7823 943f 38f0 8b3f 8c50 993f
00000020: 2a4b a23f 7981 a13f 09cd 893f 227a 843f
00000030: 547d 953f 8e62 7b3f 8656 a73f 188a 9d3f
1.0498043 0.9979158 1.2429307 1.0346215 1.1098723 1.1573324 1.0932684 1.1977706
1.2679188 1.2617637 1.0765697 1.0349772 1.1678872 0.9819726 1.307328 1.2307768

ds.proj_bn.bias f4 [16]
00000000: d9fc fdbd 3402 30be aaa8 08bd 4071 83be
00000010: 517d 4bbe 501d 8dbe d55f 3cbe 17be e1bc
00000020: 6047 d2bc 0013 d4bd aebe 45be caca 94be
00000030: 3f62 ffbd c054 24be db34 17bd 1551 8bbe
-0.124017425 -0.1718834 -0.033363976 -0.2567234 -0.19872023 -0.27561426 -0.18395932 -0.027556462
-0.0256688 -0.103551865 -0.1931102 -0.29060966 -0.12469911 -0.16047955 -0.03691564 -0.27210298

ds.proj_bn.running_mean f4 [16]
00000000: b628 143f f8aa 943e 25b5 edbe 024f 7a3e
00000010: 623f 90bd 9569 81bd 85b5 92bd 4967 e63d
00000020: 169e cc3d 5189 623e 53aa 123f 1922 76be
00000030: 2a8a 91bd 5a7e eb3e abcf 8a3e 39e3 fdbe
0.5787462 0.2903669 -0.46427265 0.24444202 -0.07043339 -0.06318966 -0.07163528 0.11250169
0.0999109 0.22122695 0.57291144 -0.24036445 -0.07106431 0.45994836 0.27111563 -0.4958742

ds.proj_bn.running_var f4 [16]
00000000: 55ab 5c3d 7c56 8b3d 5d94 2e3e f723 663c
00000010: 8081 8c3d a264 9f3e c832 773d 8e22 c03d
00000020: e030 fd3d 7fae 323d 45da 513d f671 f83d
00000030: f775 3a3d 4f69 1c3d 8b9b 123d 1c0a cf3e
0.053874332 0.06803605 0.17048784 0.014046661 0.06860638 0.31131464 0.060351163 0.09381591
0.12362838 0.043623444 0.05123355 0.12131111 0.045522656 0.038186368 0.03579287 0.404374

ds.proj_conv1.weight f4 [8, 16, 5]
00000000: eccb 45bd bd0b 6cbb 2428 5cbd b785 11bd
00000010: 8f4a f9bd 5833 82bd 7824 7abd 200b 89bd
00000020: 6981 88bd ddbc d9bd b495 d93c 37d8 33bd
00000030: c6a5 3ebe 5859 cabe ed09 2bbe c8a1 57bd
00000040: eab6 5cbc deb8 0c3d 11ad dd3d eae6 81bd
00000050: e3c4 cebc ae84 95bd 0946 973d c9b2 e13d
00000060: fbe5 44bb cafb f2bc f071 fcbc 5cae 0c3c
00000070: 8b66 bf3d e6e2 c83d c054 ce3b e5ad 5b3d
00000080: 9ddb e2bd 0bd4 86be ee68 c0bd 8e97 84bd
00000090: 8a82 28bc 4737 77be 3b22 ea3c 4c57 aaba
000000a0: 970c d23c 8706 0dbe 55f3 85bd 3a6c cbbc
000000b0: bb9a 8bbd fee5 3fbd 089a a53d 2740 e13d
000000c0: 39cd bebd c403 47bd c6fa 76bd 12ae a6bd
000000d0: b572 53bd 3f95 d2bd 72b5 19be cb89 6ebc
000000e0: 9993 aebc fb93 76bc 7ed5 6f3d e8a3 ccbb
000000f0: 82bd 27bd cf56 44bd 87ed 26be a180 89be
00000100: 5768 5dbe 2a0e 6cbd a291 88bd 5068 60bd
00000110: d4de d4bc 662e fabd a87b 5bbd a4be a33d
00000120: 7eff 98be c529 4b3d 03e1 703d 2daa 093d
00000130: 59d8 8c3d 4eb9 bb3d 33dc 0b3e 62ec 5b3e
00000140: a6e3 1c3c dcc8 7b3c 2b6c c7bd f8a8 47be
00000150: 83ce bfbd 198b 783d e86c c33c db8f 21bb
00000160: e41a d0bd 4488 c0bd daaa a9bd f057 aebb
00000170: 882e 013d a243 413d 4eee b03d 3c6e 813d
00000180: ae66 e8ba 9fa0 b83c 5196 f4bd a112 a23d
00000190: 541c 803d 5db2 f1bc 92e8 c23b cb3f c7bd
000001a0: fb9e e33c db0c bb3d 60d6 033d 8ae1 6f3d
000001b0: b222 07bd f998 b4bc 0d02 0abe 7965 45bd
000001c0: 6f09 8cbd 27f1 f53d 40fc 663d e22e 1abe
000001d0: a083 97bd 31a9 b3bd f22e e3bd b732 46be
000001e0: 83f8 d8bd d7cd 3dbe f7c8 00bd af80 8cbe
000001f0: 76d0 3abd db54 883b c788 ac3c 0227 69bd
00000200: 169c 223e edf0 2a3e 7a07 d1bd 0b38 d3bc
00000210: 7d66 06be 0cac 11be 66eb 51be 7fc4 453d
00000220: e446 42bb 3c11 473d e22b dcbd f662 a5bd
00000230: f672 ce3c 5a98 6a3d 8242 a3bd 76eb bd3d
00000240: ca57 fa3d 6a8d d4bc e5d4 a03c a39b 9bbd
00000250: c15c fdbd 70fc 81bd 64ef 28be acb2 efbc
00000260: b767 033d b2e4 73bb f818 71be f989 553e
00000270: a27c 183e e185 343e 6abc 1a3e 40f8 793d
00000280: afcf babc 0621 ea3d 772c 913d 195e 9ebd
00000290: febb eebd f572 803d 537e 8a3d d2bd 873d
000002a0: b7ff 88bd 5ad6 5bbd 8931 3fbe d77c 56be
000002b0: 5840 453d a180 933d 5697 823d e626 293e
000002c0: 28e2 753d fd4e 42bd a541 a0bd fe36 c4bd
000002d0: 6e56 633e 773d 2c3d 5def 11bd 7e51 92bd
000002e0: 69db 8abd 6984 063e c3af 213e 666a 0e3e
000002f0: 10df 02bb a160 08be 4152 37be 2c55 c0bd
00000300: f238 643d 71c4 603d 9600 64bd 2ab5 b0bb
00000310: 9149 883d 5310 b6bd 6e31 1ebd 10a6 16bd
00000320: 90de 4b3d 9402 6cbd 19bd 25bd 1e91 adbd
00000330: cd43 953d 9a93 3ebd 25db 18be eeb7 78bd
00000340: 2a71 b73d 9b62 80bd 28c3 5ebc 1500 ba3c
00000350: 4a79 b73d e49d 14bc 1ffe 0bbe eecf 163e
00000360: 0004 e43d 883a 503d 6845 74bd 9bbb cfbd
00000370: c825 f3bd 69bb 72bd 274a 423c 31db 9e3d
00000380: 3dab ed3d 8de8 333d ee82 c93d 3de4 8a3c
00000390: 0433 a3bd ef84 bdbd f80e 51be 79ba 663d
000003a0: 29d4 0bbd 4436 25bd 7b19 f0bc 3e3f 193e
000003b0: 32b3 703e 977d 963e e733 3b3e 5c72 2ebd
000003c0: d06c b13d a749 b23d 3efa daba db33 e63d
000003d0: 09ad 5d3c ace9 1bbd cc5c 35bd f695 90bd
000003e0: ee7b 51bb 0bf4 1c3d d160 403e 2ada d03d
000003f0: a58a 95bd 56f5 5abe 7acf 09be a5ea 86bd
-0.04829018 -0.0036017739 -0.05374922 -0.03552791 -0.12172424 -0.06357449 -0.061069936 -0.06691575
-0.06665308 -0.10631726 0.026560642 -0.04390737 -0.18617925 -0.3952129 -0.16703005 -0.05264452
-0.0134713445 0.03435599 0.108240254 -0.063428715 -0.025240367 -0.07300697 0.07386405 0.11020429
-0.0030044306 -0.029661078 -0.030816048 0.008586492 0.093457304 0.098089024 0.006296724 0.053632636
-0.11077044 -0.2633365 -0.09395014 -0.06474219 -0.010285029 -0.2414218 0.028580775 -0.0012995987
0.025640769 -0.13772021 -0.065405525 -0.02483188 -0.06816622 -0.046850197 0.0808602 0.10998564
-0.09316487 -0.048587576 -0.06029775 -0.0813867 -0.051623065 -0.10282373 -0.15010622 -0.01455922
-0.021310614 -0.01504993 0.05855321 -0.006245125 -0.040952213 -0.04793435 -0.16301547 -0.2685595
-0.21621834 -0.057630695 -0.06668402 -0.05478698 -0.025985159 -0.12215881 -0.053584725 0.07995346
-0.29882425 0.04960038 0.058808338 0.033609558 0.068772025 0.091662034 0.13658218 0.21476892
0.00957576 0.015367713 -0.09737428 -0.1949805 -0.09365561 0.06067953 0.023855641 -0.0024652395
-0.10161379 -0.094009906 -0.082845405 -0.0053205416 0.031538516 0.04718364 0.08639203 0.06319854
-0.0017730796 0.022537528 -0.11942733 0.079137094 0.06255403 -0.029503996 0.0059481347 -0.097289644
0.027785769 0.09133311 0.032186866 0.0585647 -0.032992072 -0.0220456 -0.13477345 -0.048192475
-0.06837737 0.12008887 0.056392908 -0.15056947 -0.07398152 -0.08772505 -0.110929385 -0.19355284
-0.10594275 -0.18535553 -0.031441655 -0.27441928 -0.04560896 0.004160506 0.021061314 -0.056921966
0.15879855 0.16693468 -0.10206504 -0.02578356 -0.13125034 -0.14225787 -0.20499954 0.048283096
-0.0029644305 0.04860042 -0.107505575 -0.08075516 0.025201302 0.0572742 -0.0797167 0.09273426
0.12223776 -0.025946338 0.019632766 -0.07598045 -0.12371207 -0.06346977 -0.1649757 -0.029260002
0.032081332 -0.003721517 -0.23544681 0.20853414 0.14891294 0.17629196 0.15110937 0.061027765
-0.02280411 0.1143208 0.07088559 -0.077327915 -0.116569504 0.06271926 0.06762376 0.06628002
-0.06689399 -0.05367122 -0.1867124 -0.2094606 0.048157066 0.072022684 0.06376521 0.16518745
0.060030133 -0.04743861 -0.07825021 -0.095808014 0.22200939 0.042050805 -0.035628665 -0.0714445
-0.067801304 0.13136448 0.15789704 0.13907775 -0.0019969381 -0.13318111 -0.17902471 -0.09391245
0.05571837 0.05487484 -0.05566462 -0.00539269 0.06654657 -0.08889832 -0.03862136 -0.036779463
0.0497728 -0.057619646 -0.04046354 -0.084749445 0.072883226 -0.046527483 -0.14927347 -0.060722284
0.08957131 -0.062688075 -0.013596334 0.022705117 0.08958681 -0.009070847 -0.13671158 0.14727756
0.111335754 0.05083707 -0.059636503 -0.10143205 -0.118724406 -0.05926076 0.0118585 0.07756651
0.11604927 0.04392295 0.09839426 0.016954536 -0.07968715 -0.09253871 -0.20415866 0.056330178
-0.03413788 -0.040334955 -0.029309025 0.14965531 0.23505858 0.29392692 0.18281518 -0.04258953
0.086633325 0.08705454 -0.0016706658 0.112403594 0.013530024 -0.038064644 -0.04427795 -0.07059853
-0.0031964737 0.038318675 0.18786933 0.101978615 -0.07301835 -0.2138265 -0.13458052 -0.06587724

ds.proj_conv1.bias f4 [8]
00000000: 6601 04be a900 d5be 3a13 e9bd 2a7f 1abe
00000010: 8e35 fcbc 8a85 d2bc b87f 033d cdc4 1d3d
-0.12891158 -0.41602066 -0.1138062 -0.15087572 -0.030787256 -0.025698442 0.032104224 0.038517762

ds.proj_bn1.weight f4 [8]
00000000: 0e27 dc3f fca1 b23f 98f1 c83f 8764 d93f
00000010: 30fa d13f 3aac b33f cf07 bb3f 3e02 b83f
1.7199419 1.3955684 1.5698729 1.6983804 1.6404476 1.4036934 1.4611758 1.4375684

ds.proj_bn1.bias f4 [8]
00000000: 062b 1d3e af9d 713e 4a1d c43d 3914 333d
00000010: 7198 bf3d 1975 f3bc b357 42bc 17b1 fb3c
0.15348443 0.23595308 0.09575899 0.043720458 0.09355248 -0.029718922 -0.011861729 0.030724091

ds.proj_bn1.running_mean f4 [8]
00000000: ebbd 67bf 3cac 67bf 5a0f 01be 4103 243b
00000010: 34aa 723d 005e 8d3d e152 143f f0cf cc3e
-0.90524167 -0.90497184 -0.12603512 0.0025026354 0.05924435 0.06902695 0.57938963 0.40002394

ds.proj_bn1.running_var f4 [8]
00000000: 4f86 a43e 1466 1d3f dca6 fa3e 6dbb c43e
00000010: 0686 c93e 9242 2d3f 1c19 223f 8448 e03e
0.3213372 0.61483884 0.4895543 0.38424245 0.39360064 0.67679703 0.63319564 0.43805325

ds.fc1_conv.weight f4 [128, 256]
00000000: d5c8 42bd 3268 97bd 8057 0b3e 731d edbd
00000010: 390e 513d 30ad a03d ec67 e33c 7fb5 803b
00000020: b35c 1cbe 8d1a fcbd b2f2 84bd 5a8f 13bd
00000030: 7e94 dcbd 43aa a2bc b088 c33d c34a 933e
00000040: 8c47 273e ef8d 233a d03a 1fbd 8181 20be
00000050: 0bb8 b1bd b204 be3d 2857 5eba 6e17 173e
00000060: 5594 65bd 46d6 043e f89c c43c 6ce5 303d
00000070: 9092 3c3e a5c6 2a3e 0322 cfba ec4d 23bd
00000080: 3dc3 da3d de11 a23d 36ec 1c3e bcd6 173e
00000090: 4b55 5e3e 7534 d03d ba42 c43c 2fd4 583a
000000a0: b44f afbc 1681 edbd f10f 8f3e 23fb cf3e
000000b0: a39a d63e 0b04 4b3e 78ec 2d3c 2fc7 0e3d
000000c0: 956b ea3d dacb a53d 50e2 353e 43cc 9a3e
000000d0: 4959 433e 5c5f 1c3e 7dd8 dc3c 1944 78bd
000000e0: 0123 36bd d8a6 5bbd bcd6 0c3d 20d9 c23d
000000f0: 6d10 163e caae 19bd ee38 f5bd a800 48bd
00000100: 610e 22bd 4732 003e 7979 06bd 9b16 b83c
00000110: 75f7 5fbd 9cb0 be3d a212 62be 495b f93c
00000120: 7a6a 9a3d 56db c03c f461 073c a131 4cbb
00000130: ba80 17bd c343 acbe 3299 1dbe 07af 8b3c
00000140: 3687 fd3d a15f 383e bc75 943d 6d84 883d
00000150: 091a 94bd f3b7 85be 737b d1bd d45a 15be
00000160: 6009 d63c 29f8 5dbd 494a 0a3e adcd 6f3e
00000170: 2cea c93c e31e fbbb 7d59 2a3e 6de6 e53d
00000180: 7f08 25bd c109 8bbd 043f 673d 82c7 92bd
00000190: de9a 893e fe83 db3d 94bc 8a3d 24b0 383d
000001a0: c12c 1dbe 4c90 d8bd ef24 bfbc be79 1abe
000001b0: af19 f8bd a51f 073e 05a9 fe3d 13fa 453e
000001c0: 51d4 643d 53e2 3dbd 6b70 45be d373 77be
000001d0: ee43 36bc 86b4 94be e78f 8fbc 865f 1a3e
000001e0: 687a 8c3d 2d11 363e d916 6dbe 8ff8 a33c
000001f0: d962 ea3d 060f 9f3d 6745 dbb9 97a4 f2be
00000200: c13a aa3d b22f 42bd 6749 a43d 821f 5fbd
00000210: e797 74be f948 7dbe c7e0 c0bd 5884 0e3e
00000220: 1c4c 1dbe ac85 0cbc a71b 433c 475c c53d
00000230: 05db 51bd d6c4 013e efc0 ad3d a0bc c33e
00000240: 5417 12bc ef52 5cbf c907 9dbe 6514 3a3e
00000250: f7c5 063e 26b0 0fbd e0e8 183e 77cd f9bb
00000260: 6409 b13d c203 0a3e 0aa0 433e 8d9f c5bd
00000270: 149e 00be 00dd bcbd bdf6 96bd dc82 75be
00000280: 772d b23d 1a0f 44bb adde 153d a652 3abd
00000290: 97b2 c03d 49ed 91bd 48c5 ef3d f247 de3a
000002a0: fca1 65bc c983 563c 2735 23be cde4 28be
000002b0: d004 c8be 0c65 94bd 45cd 7ebd 4fa5 d03d
000002c0: cbc0 cd3d a6ca 063d 2beb b1bc 116b 83be
000002d0: 0394 79be 3f91 16be d4d3 31be 6226 cbbd
000002e0: ecdd e93b 825a 1e3e 34ae e43d 8020 6abd
000002f0: c626 a53d 059e 7b3e a5f8 133e 01ea f93d
00000300: 44eb a13a 3ee9 12be cc8e 5dbd 3139 00be
00000310: 870a 69be 885b 45be 3853 53bb babe 1c3d
00000320: 6568 48be 7d9e 6f3d 8b0c cebc 6c57 6c3b
00000330: cc02 97bd 9f7b 03bd fdd0 8b3d 818a 483e
00000340: 2398 5bbe 891b 35bf 2435 4cbe 31cc ed3c
00000350: 2013 ac3c c68a 28bd 0240 833d 6c38 603d
00000360: 7d17 113e 3369 873d db49 063d cbc8 07be
00000370: 2c7b 40be 2b71 10be 325d b4bd f29c 3ebe
00000380: 566a 813e 3915 edbb 8525 d1bd 6a23 e7bd
00000390: 3db0 0f3b 7b69 2abe 4cce b63c cba1 16bd
000003a0: 533a 98ba 08f5 53bd b4c2 bfbd fd40 f5bc
000003b0: 1a9d c0be dddf 18be 054d cdbd c727 b0bb
000003c0: f807 5c3d 9c91 97bd 06b6 013d bdcd 5fbe
000003d0: 97d7 81be 9bba 48bd df80 0cbe c211 453d
000003e0: 5aae a33d 8841 813d b82c 5bbe 1466 e4be
000003f0: a0a9 11bc d7a4 283c b2a0 543d 0734 473e
-0.04755481 -0.073929206 0.13607597 -0.115778826 0.051038954 0.07845533 0.027759515 0.003927886
-0.15269737 -0.12309752 -0.06491603 -0.036025383 -0.1077051 -0.019856578 0.095475554 0.28767976
0.16335887 0.00062391063 -0.038874447 -0.15674402 -0.086776815 0.09278239 -0.0008481615 0.14755031
-0.056049664 0.12972364 0.02400063 0.043187544 0.18415284 0.1667734 -0.0015802983 -0.039869234
0.1068177 0.07913564 0.15324482 0.14828008 0.21712224 0.101662554 0.023957599 0.0008271364
-0.02140031 -0.11596887 0.2794185 0.4062129 0.41914853 0.19825761 0.010615461 0.034857925
0.11446301 0.08095522 0.17762113 0.30233964 0.19077028 0.15270752 0.026958698 -0.060611818
-0.044466976 -0.05362591 0.034384474 0.095140696 0.14654703 -0.037520207 -0.11973749 -0.04882875
-0.039564494 0.1251918 -0.03283069 0.022471717 -0.054679353 0.09311029 -0.2207742 0.030439036
0.0753984 0.023542088 0.0082631 -0.003115751 -0.036987998 -0.33645448 -0.1539047 0.017051233
0.12379305 0.1800523 0.072490185 0.06665883 -0.07231528 -0.26116905 -0.10228624 -0.1458543
0.026127517 -0.054191742 0.135049 0.23418303 0.024647795 -0.007663594 0.166357 0.11225591
-0.040291306 -0.0678897 0.05645658 -0.07166959 0.26875967 0.10718535 0.0677425 0.045089856
-0.15349104 -0.105743974 -0.023333041 -0.15085503 -0.12114274 0.13195665 0.12434582 0.19333677
0.055866543 -0.046358418 -0.19281165 -0.24165277 -0.011124594 -0.29043978 -0.017524673 0.15075502
0.06859285 0.1777999 -0.23153247 0.020015983 0.11444635 0.07766537 -0.00041822644 -0.47391197
0.08311988 -0.047408767 0.08021813 -0.054473408 -0.23886071 -0.24734868 -0.09417873 0.13917673
-0.15361065 -0.008576792 0.011908448 0.09636741 -0.051234264 0.12672743 0.08484065 0.38229847
-0.008916695 -0.86064047 -0.30670002 0.18171842 0.13161455 -0.035080098 0.14932585 -0.0076233703
0.08644369 0.13477996 0.19104019 -0.096495725 -0.12560302 -0.0922184 -0.0737128 -0.239757
0.08700078 -0.0029916228 0.036589313 -0.045488976 0.09409063 -0.07125337 0.1170755 0.0016958697
-0.014015671 0.0130929435 -0.15938245 -0.1649353 -0.39066172 -0.07245836 -0.06220748 0.1018778
0.10046538 0.032908104 -0.021718582 -0.25667623 -0.24372868 -0.14703844 -0.17365962 -0.0991943
0.007137051 0.15464213 0.11166039 -0.0571599 0.08064036 0.24571998 0.14450319 0.12202836
0.001235344 -0.14346787 -0.05409126 -0.12521817 -0.22757922 -0.19273198 -0.0032245647 0.03826783
-0.19571073 0.058500756 -0.025152465 0.003606285 -0.0737358 -0.032100316 0.06826971 0.19584085
-0.21444754 -0.7074514 -0.19942147 0.02902803 0.021005213 -0.04114797 0.06408693 0.054741308
0.14169116 0.06611862 0.032785278 -0.1326019 -0.18796986 -0.1410567 -0.08806838 -0.18614557
0.2527644 -0.007235196 -0.102122344 -0.112860516 0.0021925115 -0.166418 0.022315167 -0.03677539
-0.0011614062 -0.051747352 -0.093633085 -0.029938215 -0.3761986 -0.14929147 -0.10024456 -0.0053758356
0.053718537 -0.0740082 0.03166773 -0.21855827 -0.25359794 -0.049006086 -0.13721035 0.04811264
0.07992239 0.06311327 -0.21403778 -0.4460913 -0.008890539 0.010293207 0.051911063 0.1945344

ds.fc1_conv.bias f4 [128]
00000000: 48b4 d93d b8fc 05bd 9a23 d63c 2d18 3b3d
00000010: c899 683d 030c 9d3d c9a3 2e3c 7adb 793d
00000020: 4bae 5d3d 005f cb3d e82d 3fbd 8912 babc
00000030: 7aa3 24bd e02f 88bd dad6 a63a 9f73 18bb
00000040: c5e4 92bd 770c c83d 7797 183c bdb8 5e3d
00000050: 053d dcbb e97b 8e3d acff fcbc 2fc2 103d
00000060: 6ee6 48bd 46fd 1e3c d198 d7bb 0887 85bc
00000070: 6fa4 a0bd 0cf7 403d 338d 83bd 1a36 823d
00000080: 8689 c23d b1f1 833d 9762 84bd 49ed f23d
00000090: 2792 c4bc 7ccc b03d 0453 06bd c901 8ebd
000000a0: 8509 6d3d b8f6 11bb a3e9 563d 17a7 23bd
000000b0: 33bf 59bd d917 4c3d 942d 3cbd 96b3 47bc
000000c0: 96db 05bc 89fa a93d 145c e1bc 5bc8 3abd
000000d0: cc3d 133e fdf0 623d d369 8d3d e688 a6bc
000000e0: c7dd 303d 54a1 b93d 9845 873d 5841 8ebc
000000f0: b7f7 1c3e cb79 f7bc c8c6 b53d 52f1 6ebd
00000100: b327 5a3d fa0e 25bd 3db4 96bb 7be4 fe3b
00000110: 302d 5f3c e2cc b83d 85e4 703c 989b ff3c
00000120: ff8f 7cbd 54a5 9bbc a52d b0bd 442b f03c
00000130: 11de c6bc 420f a2b9 d762 8dbd ff2c 6c3c
00000140: 83cd e43b 88e3 fe3c 45d4 653c e37f efbc
00000150: 12b6 eabc 1e9b 1a3e 3153 db3c bb2a 453d
00000160: c9ca 813d 29b2 343b 1b2b fd3b 31e5 bfbb
00000170: 0168 833b 5176 fe3c f77e a73c 55cb 8fbc
00000180: ba86 d33c 9a2f 52bd 09a5 a33b 308f 063e
00000190: 460e c53c b57f c23d c37d 133d 90f4 143e
000001a0: b992 163d 753b 48bd 97fd f93c 187d 343d
000001b0: 884c e23d b9d2 883d 08f4 6d3d e99a 233d
000001c0: 6d25 00bd aa8e 5cbd 5025 f7bc a70a 07bd
000001d0: a2f8 7bbd 1640 83bc ac61 853d 74a0 a63d
000001e0: fbb0 bd3d fe68 ddbb e61e 283d b4eb a5bc
000001f0: 84e5 df3c 752a 98bd 78b7 e53c e457 373d
0.10630089 -0.032711715 0.026140023 0.045677353 0.056787282 0.07668307 0.010659167 0.061000325
0.054121297 0.09930229 -0.04667464 -0.022713916 -0.040194966 -0.066497564 0.0012728826 -0.0023262275
-0.071725406 0.097680025 0.009313456 0.0543754 -0.0067211413 0.06957228 -0.030883633 0.035341438
-0.04904788 0.00970394 -0.0065794964 -0.01629974 -0.07843863 0.047110602 -0.06423416 0.06357975
0.09498887 0.06442583 -0.06464117 0.11861665 -0.023995472 0.08632752 -0.032794014 -0.06933934
0.057870407 -0.00222723 0.052468907 -0.03995427 -0.053160857 0.04982743 -0.045941904 -0.012188813
-0.008170029 0.08299739 -0.027509727 -0.04560123 0.14379042 0.055405606 0.0690495 -0.02032895
0.043180253 0.09063974 0.06605071 -0.017365143 0.1532887 -0.030209443 0.08875805 -0.05833561
0.053260516 -0.040297486 -0.004599123 0.007778702 0.013621613 0.09023453 0.014702921 0.031202123
-0.061660763 -0.018999733 -0.08602456 0.029317506 -0.024275811 -0.00030910416 -0.06903618 0.014415025
0.0069825067 0.031114355 0.01402766 -0.029235786 -0.028651271 0.15098235 0.026773067 0.048136454
0.06337506 0.0027572012 0.007726086 -0.005856179 0.004010201 0.031062277 0.020446284 -0.017553011
0.025821079 -0.051314928 0.004994039 0.13140559 0.024054658 0.094970144 0.036008608 0.14546418
0.03676102 -0.048884828 0.030516429 0.04406461 0.110497534 0.06680817 0.058094054 0.039942656
-0.031285692 -0.053846993 -0.03016916 -0.032969143 -0.06151641 -0.01602177 0.0651277 0.08136073
0.09262272 -0.006756901 0.041045092 -0.020253994 0.027331121 -0.07429973 0.028041586 0.044761553

ds.fc2_conv.weight f4 [64, 128]
00000000: eaec 6bbe 6850 5f3d 46e7 eb3e 81de 80bd
00000010: 9681 1b3f 80ea 363e 15a4 1ebd a012 263c
00000020: b923 c0bd 4def 673d cf48 b8be 69fb f43d
00000030: 74af 863d 9b70 86be 3fa4 22be b856 d8bd
00000040: a057 e63d 1a86 cf3d 1340 843e 209a 6d3c
00000050: 0ea3 edbd 5109 c03d da6e 05be 142b 9abd
00000060: 561d 753e 701b da3d 66ba ab3d 362a 57be
00000070: da0e 413e be1f 18be 47fc 423e 7df4 babd
00000080: ac50 443d fdb8 0a3f a33f 3b3e 6afc 763d
00000090: e543 78be 2697 213d 2ae9 373e cb95 143d
000000a0: 9865 a03d cfd3 55be 6fab 0cbf 0e44 9e3d
000000b0: c9b0 4a3e 88e9 3ebe 81e2 953e cd54 473e
000000c0: 4dec 803e fbcf 1ebd ab4c 243e 0f82 023e
000000d0: 2b6f cdbd f233 b8be bdbe 04bc 070f 41bf
000000e0: 05a6 1cbd bc41 693d 9a94 15bd ad6c cb3d
000000f0: a38a 883d d9dd cb3e 81c4 733d 81e8 083e
00000100: f8fe ccbb f6e3 363e 6357 4dbe 88bf 3cbe
00000110: 984f a2bc a8d9 f53c a08c 4b3d e643 283f
00000120: fa27 a7be 64c8 893e 05e5 a43d acbb 80bf
00000130: b45d 573e ecfe 803d 3cf1 99bd 31ff 4c3c
00000140: 816e de3e 0f7c 7d3d 366f 753e ad3b a23e
00000150: becd 413e 6a59 fe3d ed7f 32be 8beb 80bc
00000160: b8de d53c a57c 38be bd11 6fbe 89fd 3fbe
00000170: cb72 ea3e 7677 b03e 7625 71bd e5bd 54bd
00000180: a5c6 9c3d df9c 27ba 63d2 6cbe 07af 54bc
00000190: fed3 8a3e 8e15 8c3d afff debe 853d 983d
000001a0: ef66 0b3f fe63 393e 69dd 2b3d 1023 f63d
000001b0: 6af4 1f3e bf35 d0be eb28 063f 7ac2 463d
000001c0: 4085 313e 8009 82be 5378 9cbd bb59 9fbe
000001d0: db2a d93d fd17 33be 2a5e 9d3d c9ec d13c
000001e0: aaa0 c7bd 6176 d93d f667 c63e 9235 0ebd
000001f0: 0c1c f53e 3f09 ddbd e083 8c3d 888c 2cbf
00000200: 73de d1bb b3d0 d8bd a065 1b3f 4ad1 bebe
00000210: abf6 323d 5a6f 963d 3a24 bebd 3232 95bc
00000220: b786 8ebe dfbc 5c3d e00d ec3e fbb8 04be
00000230: abc6 37be a60d a63e 3dcd 1dbf 30da 20bf
00000240: 0aa8 a1bc 38b4 1a3e 9672 fa3e 8569 07bd
00000250: 9150 11be fcbe 42be 087a 453f 47dd 6ebd
00000260: afd9 b43d 7362 eabe de40 0f3e 2690 99bd
00000270: fcb5 c33d dcf0 4bbe 6fda 23be 01e3 7ebe
00000280: dc50 83bd 9972 a83e 6037 033d 10ff 163e
00000290: 7223 65bd a0cb 453e be39 613e eaf4 013e
000002a0: 4b3d 2a3e 15ae a4bd 8f43 4abe d0f8 86bd
000002b0: 7275 55bd 2de7 85be f4a6 573e bf97 5f3e
000002c0: c940 fa3d 3f88 903d 8823 f1be 70d7 91bd
000002d0: 182c 28be 6d2d 173f ea23 0dbd 8a66 483e
000002e0: 9e0e 86be 9fef 2e3d 19f7 823e fd4c 91bd
000002f0: 3d58 04be 9f36 903d ad60 523d 3197 803b
00000300: c373 b6bc 7b29 d6bb fc9f 1abe b115 ecbe
00000310: 050e 6b3a 13eb cf3d 51e4 1cbe 237e a03d
00000320: db95 d33e fb31 023e 33fa 453d b7d7 f5be
00000330: 05f1 353e 8f3f f2bd d9dd 07bd 8ecd e7bb
00000340: a5b5 df3e e7d3 15bf 4c4b 953e ac4d e53e
00000350: 44d6 c53d f154 03be c200 82be b883 bbbe
00000360: 0b1c 7e3c 997b 63be 344f 083f 79b1 c4bd
00000370: 5633 0e3f ac0a c03e 6259 aebe 27a9 cbbe
00000380: eafb 1c3d e49d 28be 2139 11bf ca31 59bd
00000390: 51c2 13bf 5757 88bd a3e2 f83e de41 18be
000003a0: 45e7 a03e ea15 b53d 424d b0bc b384 813e
000003b0: 69d6 8fbe 18b6 2dbd 0baa a93e 6b80 68bd
000003c0: 7629 0abf 5bc1 113f 354e ff3e 24b5 ea3e
000003d0: 0f08 d9bc 3cbb 15bf 0343 2b3e 430a d63c
000003e0: 17f6 3ebe 5330 0d3e be86 f53e c713 a0be
000003f0: b1e4 bdbc 75fc 40bd 01a8 47bc 3d99 a23e
-0.23039594 0.05452004 0.46074885 -0.06292439 0.6074461 0.17862892 -0.0387307 0.0101362765
-0.093818136 0.0566247 -0.3599305 0.11962015 0.06576434 -0.26257786 -0.15882967 -0.10563415
0.11247182 0.10133 0.25830135 0.014502078 -0.11603366 0.09376777 -0.13030568 -0.07527748
0.23936972 0.106497645 0.08385162 -0.21012196 0.18853322 -0.14855859 0.19041549 -0.09128664
0.047928497 0.5418852 0.18285994 0.060299315 -0.2424465 0.039450787 0.17960039 0.036275666
0.078318775 -0.2088158 -0.54949087 0.07727824 0.19794 -0.18643773 0.2927437 0.19465943
0.25180283 -0.038772564 0.16044872 0.12744926 -0.10030969 -0.3597713 -0.008102116 -0.75413555
-0.038244266 0.056947455 -0.03651867 0.09932838 0.06667068 0.39817694 0.059513573 0.13369943
-0.0062559806 0.17860398 -0.20052867 -0.18432438 -0.019813344 0.030011013 0.049694657 0.65728605
-0.32647687 0.26910698 0.080514945 -1.0057273 0.21031839 0.062986225 -0.07516715 0.012512014
0.43443683 0.06188589 0.23968205 0.31686154 0.1892614 0.12419398 -0.17431612 -0.015737316
0.026107177 -0.18016298 -0.2334661 -0.1874906 0.45790705 0.3446614 -0.058873616 -0.05193891
0.07655076 -0.000639392 -0.23127131 -0.012981183 0.27114862 0.06840049 -0.43554446 0.07433609
0.5445394 0.1810455 0.0419592 0.120184064 0.1562058 -0.40666005 0.52406186 0.04852531
0.17335987 -0.25397873 -0.076401375 -0.31123146 0.10603877 -0.1748962 0.07683976 0.025625603
-0.09747441 0.10618282 0.3875119 -0.034719057 0.4787296 -0.10792779 0.06861091 -0.67401934
-0.006404692 -0.10586681 0.6070194 -0.3726905 0.043692272 0.073454574 -0.092842534 -0.018212412
-0.27837154 0.05389106 0.46104336 -0.1296119 -0.1794688 0.32432288 -0.61641294 -0.6283293
-0.019733448 0.1510781 0.48915547 -0.033059616 -0.1419089 -0.19018167 0.7713933 -0.058316495
0.08830582 -0.45778236 0.13989589 -0.07498197 0.09556195 -0.199161 -0.16001295 -0.24891283
-0.06411907 0.3289993 0.03203523 0.14745736 -0.055942006 0.19315958 0.21994683 0.12691084
0.16624944 -0.08041016 -0.19752334 -0.06590426 -0.052113958 -0.26152936 0.21059781 0.2183523
0.12219388 0.07057237 -0.4709742 -0.071211696 -0.1642307 0.5905369 -0.03445808 0.19570366
-0.26183027 0.04270899 0.25579146 -0.070947625 -0.12924285 0.07041668 0.05136173 0.0039242734
-0.022271996 -0.0065357066 -0.15100092 -0.461103 0.00089666276 0.10152259 -0.15321471 0.07836559
0.41325268 0.12714379 0.04833431 -0.4801614 0.17767723 -0.11828529 -0.033170555 -0.0070740646
0.4369327 -0.5852646 0.2915901 0.4478582 0.096600085 -0.12825371 -0.25391203 -0.3662393
0.015509616 -0.22215118 0.53245854 -0.09604163 0.5554708 0.37508142 -0.3405257 -0.3977749
0.03832618 -0.1646648 -0.56727797 -0.053026 -0.5771838 -0.06657284 0.4861041 -0.14868876
0.31426445 0.088420704 -0.021521214 0.25296554 -0.2809327 -0.042409986 0.33137545 -0.056763094
-0.53969514 0.5693566 0.49864355 0.45841324 -0.0264931 -0.5848882 0.16724782 0.02612794
-0.18648563 0.13787965 0.47954363 -0.3126509 -0.023180338 -0.04711576 -0.012186051 0.31757537

ds.fc2_conv.bias f4 [64]
00000000: 5797 813d 5c6a ac3c ca05 ea3d 0feb 9e3c
00000010: b883 fdbc 1bbc 2e3c a016 bfba bab0 a23d
00000020: f9d8 a8bd f82d 3e3d 6e12 863b a58e 6a3d
00000030: 2dab 873d cb44 f43d 1bca 073e 83fe a23d
00000040: 902d a73d f57f c33c 25a2 903b 5993 c53d
00000050: 92c6 313c 87a7 423d eba8 8e3d 327b 323d
00000060: 67a6 013e b4b9 eb3c 6e4c 083d cf1d 6d3d
00000070: bbdb 8e3d 3f3c fb3d 6775 4c3d 27a6 813d
00000080: 1281 583d 95a5 3c3c 6586 173d 1dd3 c73c
00000090: 800b 243d 1f4c e03c e145 99bb 2224 be3d
000000a0: 7617 b5bc ea7a f43c 889d 8f3d be35 f73c
000000b0: f655 153b 1b11 5e3a da58 a13d 33c0 6f3d
000000c0: 6941 a53b 626e 6f3d 5f5d 913d 66af 433b
000000d0: accf ca3d a803 fd3c 7cd2 773c a3f9 c83d
000000e0: b7a3 50bd c3c2 5e3d 0c1e 4e3d 8c01 c33d
000000f0: 886b 1b3d e939 99bc 30d9 b0bc 4faf 6e3d
0.06327694 0.02104681 0.114268854 0.019399194 -0.030946597 0.010664965 -0.0014578886 0.07943864
-0.08244509 0.046430558 0.0040915525 0.057264943 0.06624446 0.11927184 0.13260691 0.079587005
0.08162987 0.023864726 0.0044138604 0.09647245 0.0108505655 0.047523048 0.06965812 0.04357452
0.12661134 0.028775074 0.033276014 0.057889756 0.06975504 0.122673504 0.04991665 0.06330519
0.052857466 0.011514087 0.036993403 0.024392659 0.04005003 0.027380047 -0.0046775197 0.092842355
-0.022105914 0.029843766 0.070124686 0.030176993 0.0022786832 0.0008471177 0.07878275 0.058532905
0.005043198 0.05845488 0.07097887 0.0029859184 0.099028915 0.030885532 0.015125867 0.098132394
-0.05093738 0.054384958 0.050321624 0.095217794 0.037944347 -0.018704372 -0.021587938 0.058272656

head.weight f4 [15, 64]
00000000: 42c6 ab3e 9bc5 103f 628b ac3c 57e0 0fbe
00000010: 5d74 893e 59ff 19be f274 6fbf 3123 6dbc
00000020: 3c15 21be 909c 0ebf 0952 0cbf 0f1b 283f
00000030: f654 e6be c5a4 dc3d d520 c0bf 6a67 36bd
00000040: 80b9 523d fb52 55be de0b 19bf d875 783d
00000050: d54a 61be d1ca 213f 3750 943e bf00 4cbe
00000060: e1f5 683d a552 22be e294 27be 0008 37be
00000070: 8eb7 97bf d88f 133c a690 413e 89d5 353d
00000080: bc63 463d 9280 29be 7a5f d0be a7e2 57be
00000090: c5e5 b7be a694 02bf e3be b5be eb82 0abd
000000a0: 1d7e 44bf 2fdf d8be 4fc6 2b3e b4b5 9dbe
000000b0: 1e4f 40be c355 20bf 41cc 57bf b1c4 833e
000000c0: bb7f 8ebf 3cc1 1f3f ec4d 52bf b5c1 d1be
000000d0: 7819 053d a545 af3e 6aa6 80bf c7d1 29be
000000e0: 54ea f7be 1f02 32be b47c babe 39a0 fc3c
000000f0: 66fb 283f da32 bb3e fc3a 8a3e acc6 45be
00000100: 640b 073d 90fe 053e 239a 9e3d 5c04 c2be
00000110: ec48 b8be 6ad1 6ebe 5cfa 00bf 83b6 193f
00000120: d0f4 5ebe 8252 513e 19b7 823f 17e5 723c
00000130: 06c7 1dbf d93d 4bbf accb df3d 2461 13bd
00000140: 881d 23bf 64f7 9cbe 494a 39be 16a7 153f
00000150: 83b0 aabe 1041 82bf f456 c3be b21d 20bf
00000160: f9b9 96bf 45a9 2dbf ed2d 5bbe be70 1abf
00000170: 0aef b4be 2a40 1b3e 1bae dbbe 8ba2 42bf
00000180: 0c5c cebe 3178 07bf b266 263e ca64 15bf
00000190: 8920 8c3e 92bd 543e 6e16 f93d 4d6b 09bd
000001a0: 51db 89bb eb81 4f3e 57df e63d 1e82 a13e
000001b0: 44e5 32be e86e 2ebe b7b2 0ebf 589e d9be
000001c0: 903d 083e 524a 573d bf94 c83d fb2e 4d3e
000001d0: 7942 d23d 81d7 c4be ad58 b6be 4cbf 5c3f
000001e0: c5d2 29bf ceff 08bf 8652 5b3e b13d 49bf
000001f0: 2930 063d 2196 99be 4506 3dbf e9a3 30bf
00000200: 95cf 313e 154a b03e 4fbc 1b3e 95a8 a6be
00000210: 456d 95be 2787 94be 0417 223f 1d1a a6bf
00000220: 7624 76be 617f 7f3e ef96 e1bf 3321 183e
00000230: 25bd 05bf d3f1 94be 9082 693e 7ed5 0f3e
00000240: 9bac 28bf b0e4 b6be 0014 25be 39fd adbf
00000250: 328a dcbe b16b 6fbf 5415 56be e193 10bf
00000260: 8faa bfbe 2d29 2abf a850 90be 5af4 0cbf
00000270: 6c70 73be 9258 b63e cd76 5cbe 3cd6 45bf
00000280: 1691 8fbe b731 10bf c3ea 6f3e 9835 29bf
00000290: 88a9 dc3e 998b 863e fdb6 6f3e 0aed c33d
000002a0: e011 ae3e 349a 643e fc2e 8d3e 42e0 c53e
000002b0: 9c40 9abe 9227 47be 44d8 99be e225 50be
000002c0: 9e63 483e b29a 253e 244f 4d3e 772e 673e
000002d0: 6a33 7e3e 965c 5ebe baf7 cebe 71ac bbbf
000002e0: 1ca4 4f3f 7c86 0bbf 3a8a e53e 9b5e 3ebf
000002f0: 7e85 163e 0d94 83be baad 43bf d1c2 30bf
00000300: 002e 0abf 53ee d5be 120d c9be a2af 633e
00000310: d291 6dbe f992 6f3e c96b 333e 5ca0 a1be
00000320: 1ee7 943e d90b f53e da8f 683e f3a8 1bbf
00000330: 3178 f03d 86c7 a6be e5f8 b7be ba3d e8be
00000340: e9b3 8fbe b4d6 8ebf 1001 e1be 44de dcbe
00000350: f32a 89bf 12c7 b03d ce48 b2be 8261 343e
00000360: 4b7b d8be 2767 253e 29a1 433e b379 123e
00000370: ebb0 523e c32c c6be 144d a7be 5eb3 a9be
00000380: b9f1 74bf 4c9a 1f3e 4b19 a43d 160c 253e
00000390: ee0e 283e 9c43 fe3e c840 e43d 3129 d6be
000003a0: 7ef7 0f3f 6325 a83d 26ab e9be 6847 103e
000003b0: 7d4a 653e 8d09 d6be 1d86 373e 107e abbe
000003c0: 1d7a 703e 1ac3 e13e 9314 20bf 9dc2 353e
000003d0: cbee babe 936f 68be d1da 87bf e9df 4ebf
000003e0: 29a3 483e 719e 0e3e 11cd e83d 2ad3 86be
000003f0: 61e0 1bbf cd8b 9dbe a922 87be 22f5 373e
0.33549696 0.5655152 0.021062557 -0.14050423 0.2684659 -0.15038814 -0.9353782 -0.014473722
-0.15730757 -0.55707645 -0.54812676 0.6566629 -0.44986695 0.10773615 -1.501002 -0.044532217
0.051446438 -0.20832436 -0.5978373 0.06065926 -0.22001202 0.632001 0.2896745 -0.1992216
0.056875113 -0.15851839 -0.16365388 -0.17874146 -1.1852891 0.009006463 0.18902835 0.044393096
0.048434958 -0.16552952 -0.40697843 -0.21082555 -0.35917488 -0.5100807 -0.35497198 -0.03381626
-0.76754934 -0.42357776 0.16774867 -0.3080269 -0.18780181 -0.6263086 -0.8429604 0.25736
-1.113273 0.6240423 -0.8215015 -0.409681 0.032494992 0.34232822 -1.0050786 -0.1658393
-0.48420966 -0.17383622 -0.36423266 0.030838119 0.66008604 0.36562234 0.26998127 -0.19314069
0.032969847 0.13085389 0.07744243 -0.3789395 -0.35993135 -0.23322073 -0.5038202 0.60044116
-0.21773076 0.2044163 1.0212127 0.014825127 -0.6163181 -0.7939125 0.10927519 -0.035981312
-0.63716936 -0.30657494 -0.18094744 0.5845808 -0.33337793 -1.0176105 -0.38152277 -0.6254531
-1.1775504 -0.6783641 -0.21404238 -0.6032828 -0.35338622 0.15161195 -0.4290627 -0.7602927
-0.403046 -0.5291777 0.16250113 -0.58356917 0.27368572 0.2077544 0.12162481 -0.033549596
-0.0042070528 0.20264404 0.112730674 0.31544584 -0.1747027 -0.17034495 -0.5574145 -0.4250362
0.13304734 0.05256111 0.09793996 0.20037453 0.10266585 -0.38445666 -0.3561453 0.86229396
-0.66337234 -0.53515327 0.21418199 -0.7860976 0.032760773 -0.29997352 -0.7383769 -0.6900011
0.17364343 0.3443152 0.15208553 -0.32550493 -0.2918493 -0.29009363 0.6331637 -1.2976719
-0.24037346 0.24950935 -1.7624186 0.14856414 -0.52241737 -0.29090747 0.22803712 0.14046285
-0.65888375 -0.3572135 -0.1612091 -1.3592902 -0.43074185 -0.935237 -0.20906574 -0.56475645
-0.37434813 -0.6646908 -0.28186536 -0.5506035 -0.23773354 0.3561445 -0.21529694 -0.7728002
-0.2804038 -0.5632586 0.23429398 -0.660974 0.43098092 0.2627838 0.23409648 0.09566696
0.33998013 0.22324449 0.2757491 0.38647658 -0.30127418 -0.19448689 -0.3004781 -0.20326951
0.19569251 0.16172293 0.20049721 0.22576319 0.248243 -0.21715006 -0.40423375 -1.4662
0.81109786 -0.5450208 0.4483202 -0.74363106 0.1469936 -0.2569889 -0.7643696 -0.69047266
-0.5397644 -0.4178339 -0.39267784 0.22234967 -0.23200157 0.2339591 0.17521586 -0.31567657
0.29082578 0.47860602 0.22711125 -0.6080467 0.11741675 -0.325741 -0.3593208 -0.45359594
-0.28066948 -1.1159272 -0.43946123 -0.43138325 -1.0716232 0.0863172 -0.3482117 0.17615321
-0.42281565 0.16152631 0.19104446 0.14304237 0.20575301 -0.38706025 -0.32675993 -0.3314466
-0.9568134 0.15586203 0.08012637 0.16117892 0.16411945 0.49660957 0.111451685 -0.41828302
0.5623702 0.08210256 -0.45638388 0.1408974 0.22391696 -0.41804162 0.17922254 -0.33494616
0.23484083 0.44094163 -0.62531394 0.1775002 -0.3651031 -0.22698812 -1.0613652 -0.8081041
0.1959349 0.13927628 0.11367238 -0.2633298 -0.6088925 -0.30770722 -0.2639363 0.17964604

head.bias f4 [15]
00000000: eac2 54bd 5b8f a8bd 87a3 783d f4f1 b6bb
00000010: c193 05be 250d f73d cc18 4e3d fb0e a83d
00000020: 84fa f4bd 90f7 0cbc 4473 933d 768f f93c
00000030: 9d84 3dbd 7c8d af3d fe7d adbd
-0.051943697 -0.08230468 0.060702827 -0.0055830423 -0.13044645 0.12063054 0.050316617 0.08205982
-0.119618446 -0.008603945 0.071997195 0.030463915 -0.046269048 0.08571908 -0.08471297
