surrogate/trained_model/model_rate10_fold3.pth (torch, 179099 bytes, 18 tensors)

ds.proj_conv.weight f4 [16, 2, 7]
0	0x3d85e665	0.06538085
1	0x3d0e042e	0.034671955
2	0x3dece7a4	0.115676194
3	0x3e0fdf21	0.1404996
4	0x3de23590	0.110453725
5	0x3e0cc656	0.13747534
6	0x3d84c4d1	0.06482852
7	0xbccb7a4e	-0.024838593
8	0x3cf14c4c	0.029455326
9	0xbd89a453	-0.067207955
10	0xbe077a95	-0.13230355
11	0xbdb8e37c	-0.09027764
12	0xbe22304f	-0.15838741
13	0xbe10cf0b	-0.1414148
14	0x3dbcd1be	0.09219693
15	0x3dcb5e15	0.09930054
16	0x3d846339	0.06464238
17	0x3e1e21f0	0.15442634
18	0x3e81697c	0.2527579
19	0x3e5d7f0e	0.21630499
20	0x3e1d6322	0.15369847
21	0x3d0365fb	0.032079678
22	0x3cec54d4	0.028849043
23	0x3d764bca	0.06013087
24	0x3d693ccd	0.05694275
25	0x3d188741	0.037238363
26	0xbca5e2f6	-0.020249825
27	0x3d0806ec	0.033209726
28	0xbb85f49f	-0.004087999
29	0xbd9c42b5	-0.07629911
30	0x3d1f80ae	0.038941078
31	0xbd5bb07f	-0.053635117
32	0xbc3551af	-0.011066838
33	0xbc0f1767	-0.008733607
34	0xbdc31b37	-0.09526675
35	0x3e48b565	0.19600447
36	0x3dd1bd1f	0.1024115
37	0xbe17881f	-0.1479802
38	0xbeaf4d55	-0.34238687
39	0xbf184ed7	-0.594953
40	0xbeb13bd3	-0.34615955
41	0xbd9b9cfb	-0.07598301
42	0xbd8af9db	-0.067859374
43	0xbe12a1b1	-0.14319493
44	0xbd3489cb	-0.044076722
45	0xbd13d0d6	-0.036087833
46	0xbd1077ff	-0.035270687
47	0xbc868467	-0.016420556
48	0xbbd83b5f	-0.0065988745
49	0x3da02067	0.0781868
50	0x3d01116f	0.031510767
51	0xbd82be00	-0.06383896
52	0xbe21128b	-0.1572973
53	0xbe90c535	-0.28275457
54	0xbe566696	-0.20937571
55	0xbe6542c8	-0.22388756
56	0xbd159862	-0.036522277
57	0x3c911c51	0.017713698
58	0xbba2b6e6	-0.004965651
59	0x3d0a7f6b	0.03381292
60	0xbc810598	-0.015749738
61	0xbd95f0c0	-0.0732131
62	0xbe16012c	-0.14648885
63	0x3dd16d03	0.102258705
64	0xbe0d3b43	-0.13792138
65	0xbe2370bd	-0.15960975
66	0xbea24e1d	-0.3170022
67	0xbf0651cb	-0.52468556
68	0xbc39a344	-0.011330429
69	0x3e0b1ccb	0.13585202
70	0x3d99b60c	0.07505426
71	0x3d4cf82b	0.05004136
72	0x3d9bddd1	0.076106675
73	0x3d823af3	0.063589
74	0x3d4cbb7d	0.04998349
75	0x3da1ef62	0.07906987
76	0x3d87a4f7	0.066232614
77	0x3e1007aa	0.14065424
78	0x3def9580	0.11698437
79	0x3e0cdbc2	0.13755706
80	0x3db629f0	0.08894718
81	0x3cb61701	0.022227766
82	0x3d10ab6a	0.035319723
83	0x3cbd4386	0.023103487
84	0x3ca9aedc	0.020713262
85	0x3be0b4d4	0.006857494
86	0xbbdb0a91	-0.006684609
87	0x3b08d000	0.002087593
88	0xbd01c6fc	-0.031683907
89	0xbd27cba5	-0.040965695
90	0xbd51ee91	-0.051252905
91	0xbcb41768	-0.021983817
92	0xbe0579de	-0.1303477
93	0xbdfe8765	-0.12428168
94	0xbe7eb662	-0.24874261
95	0xbec601e7	-0.38673326
96	0xbe0167e2	-0.12637284
97	0xbd44652a	-0.04794804
98	0x3d8fe2f1	0.070257075
99	0x3d6cb7cc	0.05779247
100	0x3d860245	0.06543402
101	0x3dc5281f	0.09626793
102	0x3d200017	0.039062586
103	0x3dba3240	0.09091616
104	0x3d06511d	0.0327922
105	0x3d0503dd	0.032474387
106	0x3d8bd180	0.06827068
107	0x3e03e6e4	0.12881047
108	0x3e0c2c30	0.13688731
109	0x3e0d3633	0.13790207
110	0x3e164662	0.14675286
111	0x3dafbab2	0.08580531
112	0xbd859919	-0.06523342
113	0xbd83ac57	-0.064293556
114	0xbd9e2f9f	-0.07723927
115	0xbd6267d5	-0.055274803
116	0xbe1a7b74	-0.15086156
117	0xbe0fb75f	-0.14034794
118	0xbdbed387	-0.093176894
119	0xbd22d1ff	-0.03975105
120	0x3c717386	0.014737016
121	0x3d940375	0.07227222
122	0x3ddd2d77	0.10799687
123	0x3e2fc57e	0.17165181
124	0x3db46d7c	0.08809945
125	0x3d7217be	0.059104674
126	0xbd17c64a	-0.037054338
127	0xbcd34243	-0.025788432
128	0x3d436ce5	0.04771127
129	0x3d1ddf95	0.038543303
130	0xbc728bb2	-0.014803814
131	0xbd1de96f	-0.038552698
132	0x3aa85efc	0.001284569
133	0x3b90c22f	0.0044176797
134	0x3dee55d2	0.11637463
135	0x3e1585e2	0.14601853
136	0x3e13e97e	0.14444539
137	0x3e3fea79	0.18741788
138	0x3dc492ad	0.09598289
139	0x3bbefc55	0.00582842
140	0x3cc66fb2	0.024223182
141	0x3cf916bf	0.030406354
142	0x3e1ad614	0.15120727
143	0x3da8a5e6	0.082347676
144	0x3df73f75	0.1207265
145	0x3ccf85cb	0.025332352
146	0xbcca0e9e	-0.024665173
147	0xbe4abbcf	-0.19798206
148	0x3b4692b7	0.0030299851
149	0xbda831df	-0.08212637
150	0xbdeca850	-0.115555406
151	0xbe493cf8	-0.19652164
152	0xbe815225	-0.25257984
153	0xbe2d9f37	-0.16955267
154	0x3d82815e	0.06372331
155	0xbc95b4f8	-0.01827477
156	0x3ca50484	0.020143755
157	0x3cecda05	0.028912554
158	0xbe33ed03	-0.17570882
159	0xbd320bd5	-0.043468315
160	0x3d8a2205	0.0674477
161	0x3e76b3b5	0.2409199
162	0x3e0db7b9	0.13839616
163	0x3dbb1b7f	0.09136104
164	0x3cdb6d43	0.026785498
165	0xbd1e4708	-0.03864196
166	0xbd9ce9c6	-0.07661776
167	0xbe278f73	-0.16363315
168	0xbd45622e	-0.048189335
169	0xbe0d9c72	-0.1382921
170	0xbd3e9320	-0.046527028
171	0x3d82ea37	0.06392329
172	0x3dc598b8	0.096482694
173	0x3dd7df60	0.10540652
174	0x3da2523b	0.079258405
175	0xbe0af91b	-0.13571589
176	0xbd2930e5	-0.041306395
177	0x3b2762b7	0.0025541016
178	0x3c9f8132	0.019470785
179	0x3df2cacf	0.11855089
180	0x3e4b1230	0.19831157
181	0x3e2d7574	0.16939336
182	0x3d31b05d	0.043381084
183	0x3d8f71dc	0.07004139
184	0x3e06b1b2	0.13153723
185	0x3deb0713	0.11475959
186	0x3df3eb19	0.11910076
187	0x3de2e9f1	0.11079777
188	0x3d87bd89	0.06627948
189	0xbd8752be	-0.06607579
190	0x3d0f48df	0.034981605
191	0xbd743987	-0.059625175
192	0xbdf4153d	-0.119181134
193	0xbdbd0aa4	-0.09230545
194	0xbe29ff84	-0.16601378
195	0xbe05ba10	-0.13059258
196	0xbe6ac0d9	-0.22925128
197	0xbe824890	-0.25445986
198	0xbea220d0	-0.3166566
199	0xbe23591d	-0.15951963
200	0xbeb8d6e3	-0.36101446
201	0xbe69a018	-0.22814977
202	0xbd401de8	-0.04690352
203	0xbcbc6fa5	-0.023002455
204	0xbcd774ca	-0.026300807
205	0xbc2c0492	-0.0104991365
206	0x3c848eab	0.01618131
207	0x3b898207	0.0041964087
208	0x3c3a281f	0.011362105
209	0x3c555040	0.013019621
210	0x3de91499	0.11380882
211	0x3e1a0400	0.15040588
212	0x3e43c5be	0.19118401
213	0x3e550d0a	0.20805755
214	0x3dfbe597	0.1229965
215	0x3db61b13	0.08891883
216	0x3d8308a3	0.06398132
217	0x3d170df8	0.036878556
218	0x3d75d5ce	0.060018353
219	0x3dac8bf5	0.08425132
220	0x3d801a53	0.06255021
221	0x3ce2aaae	0.027669277
222	0xbc457921	-0.012052805
223	0x3affcbd0	0.0019515697

ds.proj_conv.bias f4 [16]
0	0xbe9267da	-0.28594857
1	0x3e19c92c	0.15018147
2	0x3dc6cad0	0.09706652
3	0x3d5ac300	0.053408623
4	0x3e51510b	0.20441072
5	0x3e102d06	0.14079675
6	0xbd4cd1c3	-0.050004732
7	0xbcda1797	-0.026622577
8	0x3e45cf71	0.19317414
9	0x3e842728	0.25811124
10	0xbe277184	-0.16351897
11	0x3e2672d7	0.16254745
12	0x3dc523d0	0.09625971
13	0x3dd4fd6d	0.103999
14	0xbdb7b3eb	-0.089698635
15	0xbe3452d2	-0.17609718

ds.proj_bn.weight f4 [16]
0	0x3fb142a7	1.3848466
1	0x3f864b7a	1.0491784
2	0x3f705cd3	0.9389164
3	0x3f9330dc	1.1499286
4	0x3f84669b	1.0343813
5	0x3f78c6ac	0.9717815
6	0x3f9c30ff	1.2202452
7	0x3f845efd	1.0341488
8	0x3f9aab57	1.2083539
9	0x3f834767	1.0256165
10	0x3f901d40	1.1258926
11	0x3f80d12e	1.0063837
12	0x3f8a6b7f	1.0814055
13	0x3fadc974	1.3577104
14	0x3fba55e1	1.4557458
15	0x3f85a748	1.0441675

ds.proj_bn.bias f4 [16]
0	0xbc1d8848	-0.0096150115
1	0xbe530cac	-0.20610303
2	0xbe5caf59	-0.21551265
3	0xbdf4a68a	-0.11945827
4	0xbe379ea6	-0.17931613
5	0xbe9d8ba1	-0.3077059
6	0x3cb93157	0.022606535
7	0xbe969587	-0.29410955
8	0xbe0a006e	-0.13476726
9	0xbe643e50	-0.22289395
10	0xbe5ce754	-0.2157262
11	0xbe61f9e3	-0.2206798
12	0xbe4debc4	-0.20109469
13	0xbd6a0b8d	-0.057139922
14	0xbdb71fa0	-0.08941579
15	0xbe774857	-0.24148689

ds.proj_bn.running_mean f4 [16]
0	0xbe83fade	-0.25777334
1	0x3f075b38	0.52873564
2	0xbea5e025	-0.3239757
3	0xbe97e90a	-0.29669982
4	0xbe09bdde	-0.13451335
5	0x3ee41618	0.44548106
6	0xbecd8e32	-0.4014755
7	0x3ea77d85	0.3271295
8	0x3e0ce3d1	0.1375878
9	0x3ee8ffd4	0.4550768
10	0xbeae6586	-0.3406183
11	0x3e54f303	0.20795827
12	0x3e69bda6	0.22826251
13	0x3dfc3927	0.123155884
14	0xbf1324e9	-0.57478195
15	0x3e3c4bcb	0.18388288

ds.proj_bn.running_var f4 [16]
0	0x3e3c2205	0.18372352
1	0x3df664ca	0.12030943
2	0x3e68056a	0.22658315
3	0x3dab28f6	0.08357422
4	0x3dfddf8f	0.12396156
5	0x3d0a77c1	0.033805612
6	0x3e27c4a2	0.16383603
7	0x3d5a009a	0.05322323
8	0x3e1700e2	0.1474643
9	0x3da1fb3f	0.079092495
10	0x3e7d1fd3	0.24719171
11	0x3cd8c5c7	0.026461495
12	0x3cd9cf6e	0.026588168
13	0x3e3afc43	0.18260293
14	0x3eb77e9a	0.35838777
15	0x3dc26ea0	0.09493756

ds.proj_conv1.weight f4 [8, 16, 5]
0	0xbb844609	-0.004036669
1	0xbe4bd2ea	-0.19904676
2	0xbd924bef	-0.071433894
3	0xbdc62f31	-0.0967697
4	0xbdfce025	-0.1234744
5	0xbda4f7b4	-0.08055058
6	0xbdb1c5ee	-0.0868033
7	0x3e592852	0.21206787
8	0x3e855225	0.26039234
9	0x3cc12630	0.02357778
10	0x3d90f3bc	0.07077739
11	0x3d23c1ed	0.039979864
12	0x3b11b5f6	0.0022233701
13	0x3d315d58	0.04330191
14	0x3d331b75	0.043727357
15	0xbb7fb798	-0.0039019343
16	0xbca0e2ec	-0.019639455
17	0xbdc595ff	-0.0964775
18	0xbdb696d9	-0.08915491
19	0x3c9b27a8	0.018939808
20	0xbb973085	-0.0046139383
21	0x3d83ba74	0.064320475
22	0xbc42cb42	-0.011889281
23	0x3d02262e	0.031774692
24	0xbcaf32f9	-0.02138661
25	0xbd800e4b	-0.06252726
26	0xbe768bab	-0.24076717
27	0xbdba094b	-0.09083804
28	0xbdd1f2a1	-0.10251356
29	0xbd20b41b	-0.039234262
30	0x3d23ab5a	0.039958335
31	0x3d28d3a6	0.04121747
32	0xbd04f5a6	-0.03246083
33	0xbda0b354	-0.07846704
34	0xbd51152e	-0.05104559
35	0xbe2ed048	-0.1707164
36	0xbe7d4891	-0.24734713
37	0xbe0502b3	-0.12989311
38	0xbdb23308	-0.0870114
39	0xbdaaaff3	-0.08334341
40	0x3ba4d9c7	0.005030844
41	0xbd28a3b0	-0.04117173
42	0x3d3a3193	0.045457434
43	0x3ca1d8a2	0.019756619
44	0x3c2ce48b	0.010552536
45	0xbc9cb049	-0.019127028
46	0xbd0841a1	-0.033265714
47	0x3c255fe5	0.010093664
48	0xbc0653b3	-0.008198666
49	0xbd1a5b09	-0.037684474
50	0x3d4d8eaa	0.050184883
51	0xbd00ff2b	-0.031493347
52	0xbd355f5d	-0.0442804
53	0xbd155944	-0.036462083
54	0xbda3df32	-0.080015555
55	0xbb2aa65d	-0.0026039102
56	0xbd2a186e	-0.041527204
57	0xbdcd05a6	-0.10010843
58	0xbcbd8f33	-0.023139572
59	0x3cc87809	0.0244713
60	0xbe15e0ec	-0.14636582
61	0xbd5e13bf	-0.05421805
62	0x3c09a1c6	0.008400386
63	0x3d154741	0.036444906
64	0xbd87d8dd	-0.0663316
65	0x3d5819a9	0.052758846
66	0xbe233517	-0.15938221
67	0xbd6ec314	-0.05829151
68	0xbd69570b	-0.056967776
69	0xbe2b2334	-0.16712648
70	0xbb55206b	-0.0032520543
71	0x3ddd0531	0.10792006
72	0x3ea31509	0.31851986
73	0x3eb39203	0.35072336
74	0x3e2e9fda	0.17053166
75	0xbdb75f52	-0.08953728
76	0xbdc4f0d3	-0.09616246
77	0x3e10e4cf	0.14149784
78	0x3e825b27	0.2546017
79	0x3e297871	0.16549851
80	0xbd336b16	-0.043803297
81	0x3d01528d	0.031572867
82	0x3d84a4fb	0.0647678
83	0xbcf0c279	-0.029389607
84	0x3d034df7	0.032056775
85	0xbdaed83f	-0.085373394
86	0xbd3f8531	-0.04675788
87	0xbb28a18f	-0.0025731062
88	0xbcc7cd45	-0.024389872
89	0x3d7e2a81	0.062052254
90	0xbda66d86	-0.08126359
91	0xbe24ae40	-0.16082096
92	0xbe6181a3	-0.22022109
93	0x3b030309	0.0019990823
94	0x3d8829cc	0.06648597
95	0xbd8f652b	-0.07001718
96	0xbd8dec1c	-0.069298
97	0xbe23a4c2	-0.15980819
98	0x3df60e8f	0.120144956
99	0x3e622fea	0.2208859
100	0x3d5b30cd	0.053513337
101	0xbe8ed7b0	-0.27898932
102	0xbd6370e0	-0.055527568
103	0xbc853b21	-0.016263546
104	0x3c83f4ad	0.016107881
105	0x3d9114f2	0.07084073
106	0x3da2acf8	0.079431474
107	0x3e36fd36	0.1787003
108	0x3ddea1c6	0.108706996
109	0xbd0f33ac	-0.034961388
110	0x3d01d41b	0.03169642
111	0xbdf16400	-0.117866516
112	0xbd5037a9	-0.05083433
113	0xbd557180	-0.052110195
114	0x3ddcc0e7	0.10778981
115	0x3dbd4653	0.09241929
116	0x3e16e8e5	0.1473728
117	0x3dbd568e	0.092450246
118	0x3d41f644	0.047353998
119	0xbdbbb512	-0.09165396
120	0xbd97709f	-0.07394528
121	0x3e481781	0.19540216
122	0x3e162179	0.14661206
123	0xbd899eb2	-0.06719722
124	0xbdce62fa	-0.10077472
125	0x3c99e92d	0.018787945
126	0x3e43d84a	0.19125476
127	0x3e83701f	0.2567148
128	0xbd978e0a	-0.07400139
129	0xbdf97ee7	-0.12182408
130	0xbc8d3d1a	-0.01724105
131	0x3b8a3030	0.00421717
132	0x3c83c3a6	0.016084503
133	0xbd8f0b18	-0.06984538
134	0xbc9b5e9b	-0.01896601
135	0xbd9c5f1f	-0.076353304
136	0xbd8593a9	-0.065223046
137	0x3e88d647	0.2672598
138	0x3e515c26	0.20445308
139	0xbdd11cf8	-0.102106035
140	0x3e1a0374	0.1504038
141	0x3e4c95cc	0.19979018
142	0x3cbeb288	0.02327849
143	0xbe05662c	-0.13027257
144	0xbdf4f73a	-0.11961217
145	0xbcfa7d42	-0.030577306
146	0x3d061200	0.03273201
147	0x3d54adce	0.051923566
148	0xbc89534d	-0.016763354
149	0x3d2b4438	0.041813105
150	0xbe1c2ae2	-0.15250733
151	0x3cd18b81	0.025579216
152	0x3ddd804d	0.10815487
153	0x3d24cc05	0.04023363
154	0x3de66084	0.11248878
155	0xbc96570e	-0.018352058
156	0xbd167874	-0.036735967
157	0xbc8c4813	-0.017124211
158	0xbd47e0d3	-0.048798393
159	0x3c991076	0.018684607
160	0x3da4186f	0.08012473
161	0xbd9aaf67	-0.075529866
162	0x3d01f174	0.03172441
163	0x3c97c19b	0.018524935
164	0x3d329f1f	0.04360878
165	0xbe0dd00c	-0.13848895
166	0xbe946e60	-0.2899046
167	0xbe35c2c5	-0.1775008
168	0xbda070e2	-0.07834031
169	0x3c81b124	0.015831538
170	0x3dae47b2	0.085097685
171	0xbd2f3caa	-0.042782463
172	0x3e5b17b6	0.21395764
173	0xbdf47f63	-0.119383596
174	0xbdc1ad12	-0.09456839
175	0x3cd316a3	0.02576763
176	0x3d6c8f00	0.057753563
177	0x3e473d0b	0.1945688
178	0xbd3f718c	-0.046739146
179	0xbd9c9c8c	-0.076470464
180	0xbc092d05	-0.00837255
181	0x3da903da	0.08252688
182	0x3d99b988	0.075060904
183	0x3d503aa2	0.050837167
184	0xbd5fc773	-0.05463357
185	0xbe0ddb78	-0.13853252
186	0xbcd2cf06	-0.025733482
187	0xbbfb6b43	-0.0076726987
188	0xbc351a11	-0.011053578
189	0x3b99ce48	0.00469378
190	0x3c92d059	0.017921614
191	0x3dc16b17	0.09444254
192	0x3daeb8b0	0.0853132
193	0x3d847315	0.06467263
194	0xbdd9a51a	-0.10627194
195	0xbd4ef54b	-0.0505269
196	0x3dc9fa7c	0.09862229
197	0x3e02b0da	0.12762776
198	0x3daed6d3	0.08537068
199	0x3c77777b	0.01510417
200	0x3d27a94d	0.040932942
201	0xbdae3018	-0.08505267
202	0xbda9c3ad	-0.08289275
203	0xbd5e773c	-0.05431293
204	0x3c868881	0.016422512
205	0x3cd85916	0.026409667
206	0x3cadb4e4	0.02120442
207	0xbd91e62e	-0.071239814
208	0x3d5057da	0.05086503
209	0x3c653bc5	0.013991301
210	0x3c82003d	0.015869254
211	0xbd6d47a7	-0.05792966
212	0xbb22b3e5	-0.0024826464
213	0xbb1086f7	-0.0022053102
214	0xbcffd140	-0.031227708
215	0xbb224990	-0.0024763085
216	0x3d1e3297	0.038622465
217	0xbd57535c	-0.052569732
218	0xbc8bb7f3	-0.017055487
219	0x3d816f44	0.0632005
220	0xbc62988d	-0.013830316
221	0x3c1539ff	0.009108066
222	0x3d0d8401	0.034549717
223	0xbcc4db34	-0.024030305
224	0xbc95f898	-0.018307015
225	0x3d709e35	0.058744628
226	0xbd948d5d	-0.072535254
227	0x3d05f779	0.03270671
228	0x3b681345	0.0035411876
229	0x3d498663	0.049200427
230	0xbd9943d6	-0.07483642
231	0xbe47dcec	-0.19517869
232	0xbe8dca6f	-0.27693507
233	0xbe69ca37	-0.22831045
234	0xbe20bebc	-0.1569776
235	0xbd726cae	-0.059185676
236	0xbea4f54a	-0.3221839
237	0xbe6761b5	-0.22595866
238	0xbdd944c8	-0.10608822
239	0xbd223c6d	-0.039608408
240	0xbd243e91	-0.04009873
241	0xbdf35ab0	-0.11882532
242	0x3daea770	0.0852803
243	0x3ca961ea	0.020676572
244	0xbe00ba9c	-0.12571186
245	0xbdd16814	-0.102249295
246	0xbd86b4dd	-0.06577466
247	0xbdad5964	-0.084643155
248	0x3d4d6992	0.050149508
249	0x3d34f391	0.044177596
250	0x3c1142d1	0.008866028
251	0xbdcc4bc1	-0.099753864
252	0x3c8c968b	0.017161628
253	0xbd8596cb	-0.06522902
254	0x3d88b00f	0.066742055
255	0xbdd03a9b	-0.10167428

ds.proj_conv1.bias f4 [8]
0	0xbdf067b1	-0.117385276
1	0xbdda2e4e	-0.10653363
2	0xbdf51276	-0.11966412
3	0x3d7c2913	0.06156261
4	0xbeab9d35	-0.33518377
5	0x3da64e22	0.081203714
6	0xbb4eda9c	-0.0031563407
7	0xbd7f92ae	-0.062395744

ds.proj_bn1.weight f4 [8]
0	0x3fd5446b	1.6661505
1	0x3faebf5b	1.3652147
2	0x3fc2972a	1.5202382
3	0x3fb33ca1	1.4002877
4	0x3fafe7d7	1.3742627
5	0x3fb0b261	1.3804437
6	0x3fcef6c5	1.6169058
7	0x3fb84251	1.4395238

ds.proj_bn1.bias f4 [8]
0	0x3e19d6b8	0.15023315
1	0xbbdf591f	-0.006816044
2	0x3e41ac0f	0.18913291
3	0x3e01de2f	0.12682413
4	0x3df000d1	0.11718906
5	0xbdb2de0a	-0.08733757
6	0x3d44ad13	0.04801662
7	0x3e09f749	0.13473238

ds.proj_bn1.running_mean f4 [8]
0	0xbe33f5b7	-0.17574202
1	0x3ddadf41	0.106871136
2	0xbf2ffce0	-0.6874523
3	0xbea261a5	-0.31715122
4	0xbf6bf0ad	-0.9216412
5	0x3ec61ccb	0.38693842
6	0x3f018656	0.50595605
7	0xbf1a55e9	-0.6028734

ds.proj_bn1.running_var f4 [8]
0	0x3e9e3d00	0.30905914
1	0x3f082601	0.5318299
2	0x3e817999	0.25288084
3	0x3ec06994	0.3758055
4	0x3ee4944c	0.44644392
5	0x3f057bb7	0.521419
6	0x3f2c28d2	0.67249787
7	0x3ec4f85a	0.38470727

ds.fc1_conv.weight f4 [128, 256]
0	0x3d8a1701	0.06742669
1	0x3d033edc	0.03204237
2	0x3da1a615	0.07893006
3	0x3e063a5d	0.13108201
4	0x3e8c1038	0.27356124
5	0x3e88bacc	0.26705015
6	0x3de33ade	0.110952124
7	0x3e282dd6	0.16423735
8	0x3ebc197d	0.36738196
9	0x3eb6899c	0.35651863
10	0x3ee104d5	0.43949
11	0x3e854ff4	0.26037562
12	0xbd728505	-0.05920889
13	0x3d6e0225	0.058107514
14	0x3d3f5f7c	0.04672192
15	0xbd69f825	-0.057121415
16	0x3e03e67c	0.12880892
17	0x3df4910a	0.119417265
18	0xbc666c88	-0.014063962
19	0x3da11a97	0.078664
20	0x3e81ada7	0.253278
21	0x3f066cdf	0.52509874
22	0x3eb85be7	0.36007616
23	0x3e8ce2c7	0.27516767
24	0x3e4131fd	0.18866725
25	0x3e2d821c	0.16944164
26	0x3eee2202	0.4651032
27	0x3e905775	0.28191724
28	0x3dbfe73d	0.09370277
29	0x3c725369	0.014790394
30	0xbe100cf9	-0.14067449
31	0xbdbdb846	-0.09263663
32	0x3d83da3a	0.06438108
33	0x3d2a1934	0.04152794
34	0x3da1f8d5	0.07908789
35	0xbc52ad93	-0.012858766
36	0xbcc02189	-0.02345349
37	0x3da7cdea	0.08193572
38	0xbd73f277	-0.059557404
39	0xbcd33d1a	-0.025785971
40	0xbdb11522	-0.08646609
41	0xbdb3bb6d	-0.08775983
42	0xbdebd9f6	-0.11516182
43	0xbb87b199	-0.0041410443
44	0xbdc8bd59	-0.0980174
45	0xbe842418	-0.25808787
46	0xbd939d0a	-0.07207687
47	0x3c04866b	0.008088688
48	0xbdc9986f	-0.098435275
49	0xbe014446	-0.126237
50	0xbd28557a	-0.04109714
51	0xbe8402bd	-0.2578334
52	0xbdd70062	-0.1049812
53	0x3e1f65a9	0.15566124
54	0xbe91bdac	-0.2846502
55	0xbdc9bbb6	-0.09850256
56	0xbe04b433	-0.12959366
57	0x3cb4a6a6	0.02205212
58	0x3d036bb3	0.03208513
59	0x3e02736b	0.12739341
60	0xbbcc1041	-0.0062275236
61	0xbc9c8804	-0.019107826
62	0x3e104c4f	0.1409161
63	0x3e2429b4	0.16031533
64	0xbde4303b	-0.11142012
65	0xbd95cd4e	-0.073145494
66	0x3d3e3e06	0.04644587
67	0xbda9d0c2	-0.082917705
68	0xbce0073f	-0.027347205
69	0xbe020821	-0.12698413
70	0xbe524bca	-0.20536724
71	0xbd08b070	-0.03337139
72	0x3d8caa44	0.06868413
73	0x3e10527a	0.14093962
74	0xbcff9737	-0.031200035
75	0x3e2598cd	0.1617157
76	0x3e7f16be	0.24911019
77	0x3efec451	0.49759153
78	0x3ec5cf54	0.3863474
79	0xbddde919	-0.108354755
80	0xbd3da695	-0.046301443
81	0xbc8e6db7	-0.0173863
82	0x3e1edf86	0.15514955
83	0x3e4293d6	0.19001707
84	0x3ebc461a	0.36772233
85	0x3df6235f	0.12018465
86	0x3e1255f1	0.14290597
87	0xbc24252e	-0.01001863
88	0xbc70ba73	-0.01469289
89	0xbd5913b9	-0.052997325
90	0x3d91d43e	0.0712056
91	0x3d4d9812	0.050193854
92	0x3d8e139a	0.069373325
93	0xbd2b362f	-0.04179972
94	0xbd733def	-0.059385236
95	0x3d05d02d	0.032669235
96	0x3e213716	0.1574367
97	0x3d9afa22	0.0756724
98	0xbbab8761	-0.0052346443
99	0xbd4f89c1	-0.05066848
100	0xbc0a8b6c	-0.008456092
101	0x3dd49ec3	0.10381844
102	0x3836f266	4.3617933e-05
103	0x3c250011	0.010070817
104	0xbbe5fafb	-0.0070184446
105	0xbd40d7aa	-0.047080673
106	0xbe18b47e	-0.14912602
107	0x3e447b93	0.19187765
108	0xbd663443	-0.056202184
109	0xbe4ec41e	-0.20192
110	0xbc0037b0	-0.007825777
111	0xbd786441	-0.060642485
112	0xbe5334cd	-0.2062561
113	0xbcfb35ba	-0.030665267
114	0xbddab4b0	-0.10678995
115	0xbe3265d8	-0.17421663
116	0x3d6b5803	0.05745698
117	0x3f01b7b5	0.5067094
118	0xbd9a452c	-0.07532725
119	0x3d795f28	0.060881764
120	0x3d50e74c	0.051001832
121	0x3e0e3a60	0.13889456
122	0x3db3beb0	0.08776605
123	0x3e2e85f8	0.17043293
124	0x3d1213c9	0.0356634
125	0x3d6944e4	0.056950465
126	0x3c6b0f35	0.014346887
127	0x3d97c76f	0.07411086
128	0xbd800ebe	-0.06252812
129	0xbd81f276	-0.06345074
130	0xbd8df2ca	-0.06931074
131	0x3ddb1772	0.10697831
132	0x3c8bdd7e	0.01707339
133	0xbd9c2ccf	-0.07625734
134	0xbdca322b	-0.0987285
135	0x3e060a9a	0.13089982
136	0x3e692853	0.22769289
137	0x3e1c73f0	0.15278602
138	0x3d8693d3	0.06571164
139	0x3e928e35	0.2862412
140	0x3e83b204	0.25721753
141	0x3ed2535c	0.41079223
142	0x3e37ea03	0.17960362
143	0x3d527ee2	0.051390536
144	0x3e0eba2b	0.13938205
145	0xbe152cec	-0.14567918
146	0x3d7d87ce	0.06189709
147	0x3f22c73b	0.6358525
148	0x3efbf317	0.492089
149	0x3e8cd624	0.27507126
150	0x3dd437b7	0.10362189
151	0x3d7c9761	0.061667804
152	0x3d790302	0.060793884
153	0x3e1b1996	0.15146479
154	0x3e20ea8b	0.15714471
155	0x3e27a4ec	0.16371506
156	0xbba5b1a5	-0.0050565773
157	0xbe51bd83	-0.20482449
158	0xbe3b1ba0	-0.18272257
159	0xbd652752	-0.055945702
160	0x3c8ba8f3	0.017048335
161	0x3d5942e1	0.053042296
162	0x3c51fd83	0.01281679
163	0xbbd8a731	-0.0066117276
164	0xbe12ff48	-0.14355195
165	0x3cd84419	0.026399659
166	0xbd9f47c1	-0.07777358
167	0xbd83d4ae	-0.0643705
168	0xbdcc7646	-0.09983496
169	0xbe3e4f8e	-0.18585035
170	0xbeafead2	-0.3435884
171	0x3da03a0e	0.07823573
172	0xbeaeb8ef	-0.34125468
173	0xbe812f34	-0.25231326
174	0x3a97af58	0.0011572642
175	0x3b234564	0.0024913186
176	0xbe164960	-0.14676428
177	0xbe1f7f27	-0.15575849
178	0xbe127ee5	-0.14306219
179	0xbeb9d984	-0.36298764
180	0xbe55ab0b	-0.20866029
181	0x3e41d7cf	0.1892998
182	0xbe405f75	-0.18786414
183	0xbe354e49	-0.17705645
184	0xbdbc8281	-0.09204579
185	0xbcdb203f	-0.026748775
186	0xbcac6855	-0.021045843
187	0x3d1f1672	0.038839765
188	0x3bdad117	0.0066777575
189	0xbc669973	-0.014074671
190	0x3de0328a	0.109471396
191	0x3e305c07	0.17222606
192	0xbc576e49	-0.013148853
193	0xbd0cf548	-0.034413606
194	0xbd37cd07	-0.044873264
195	0xbd9a53f6	-0.075355455
196	0xbd38ff1d	-0.04516517
197	0x3d024fe5	0.031814475
198	0xbde3a303	-0.111150764
199	0xbe0fccbd	-0.14042945
200	0xbe57dc52	-0.2108014
201	0xbe1148af	-0.14187883
202	0xbe0c885d	-0.13723893
203	0x3c9cf6a0	0.019160569
204	0x3d2c2d32	0.04203529
205	0x3e4bc288	0.19898427
206	0x3e175340	0.14777851
207	0xbd61f745	-0.055167455
208	0xbe970f3b	-0.29503807
209	0x3e362dd2	0.17790917
210	0x3e1ab796	0.15109095
211	0x3d5b55ac	0.0535485
212	0x3d455bc5	0.04818322
213	0xbd4ec6c7	-0.050482538
214	0xbe170fc4	-0.14752108
215	0x3c0ddf96	0.008659264
216	0xbcd98ec7	-0.02655734
217	0xbe52155d	-0.20515962
218	0xbe9fbc97	-0.3119857
219	0xbd484908	-0.048897773
220	0x3bdd98d6	0.006762604
221	0x3e00e610	0.12587762
222	0x3c793771	0.015210972
223	0xbd5b6cf3	-0.0535707
224	0x3dfa5ea2	0.12225081
225	0xb9d8e3d2	-0.0004136847
226	0xbd5def4c	-0.05418329
227	0xbd1083d0	-0.035281956
228	0x3d871668	0.065960705
229	0x3d1973b6	0.037463866
230	0x3d0ba9df	0.03409755
231	0xbc931a68	-0.017956927
232	0x3c9fa654	0.019488491
233	0xbda15f67	-0.07879525
234	0xbdbbdd24	-0.091730386
235	0x3de30b44	0.11086133
236	0xbe21f761	-0.15817024
237	0xbddfa56d	-0.10920224
238	0x3c9c05ae	0.019045677
239	0xbe47967a	-0.19490996
240	0xbdd5de5b	-0.104428016
241	0xbd20ce25	-0.039259095
242	0xbe3f9f0f	-0.1871302
243	0xbdfadb00	-0.12248802
244	0x3e058fd1	0.13043143
245	0x3e976024	0.29565537
246	0xbd11fa5a	-0.035639144
247	0xbc1c62d0	-0.009545043
248	0x3d7bdb64	0.061488524
249	0x3e1c2d22	0.15251592
250	0x3d5164da	0.05112157
251	0x3e243461	0.16035606
252	0x3d9b1524	0.07572392
253	0x3d8cbadc	0.06871578
254	0x3c1536af	0.009107276
255	0x3e193c6b	0.14964454

ds.fc1_conv.bias f4 [128]
0	0x3d7b0a36	0.061289035
1	0x3d231746	0.039817117
2	0x3d7b377a	0.061332203
3	0x3d97f5de	0.07419942
4	0x3d1d04b7	0.038334575
5	0x3d68583d	0.056724776
6	0xbd55fb44	-0.05224158
7	0x3d7cbafa	0.061701752
8	0xbc8a8d9d	-0.01691323
9	0x3d8c2ca5	0.06844453
10	0x3d225998	0.039636225
11	0x3cf6d6ea	0.030131776
12	0x3d984962	0.07435872
13	0x3cf9b8c3	0.030483609
14	0xbc3f786c	-0.011686426
15	0xbc1127c5	-0.008859579
16	0x3b600fce	0.0034189108
17	0x3d8d5696	0.069012806
18	0x3d3d6f48	0.046248704
19	0x3c60f5b8	0.013730459
20	0x3d5c95ad	0.05385368
21	0x3d756a40	0.05991578
22	0x3ccf52b3	0.025307989
23	0x3cf99219	0.030465173
24	0x3d2e938e	0.042621188
25	0x3da2303b	0.079193555
26	0x3c4ab7a9	0.01237289
27	0x3d69fa8e	0.057123713
28	0x3c685da9	0.014182487
29	0xbc3b39a0	-0.011427313
30	0x3d4214d3	0.04738314
31	0x3d1b26cb	0.037878793
32	0x3d87e0c1	0.06634665
33	0x3d8d56a4	0.06901291
34	0x3d088cf9	0.033337567
35	0x3cc7b0dc	0.024376325
36	0x3ce33ef1	0.027739974
37	0x3da499de	0.0803716
38	0x3e16874c	0.14700049
39	0x3d214e09	0.03938106
40	0x3d4550e0	0.04817283
41	0x3d287f06	0.041136764
42	0x3ce0b2a6	0.027428936
43	0x3d35f5ee	0.04442399
44	0x3db3dabb	0.08781954
45	0x3c2a5171	0.010395394
46	0x3c2137dc	0.009839978
47	0xbd11420b	-0.035463374
48	0x3d87fa85	0.0663958
49	0xbd3c8ed1	-0.046034638
50	0x3cca1f63	0.02467317
51	0x3c9dc250	0.019257694
52	0x3dcb5da7	0.09929972
53	0x3d3374b6	0.043812476
54	0x3ce31995	0.02772216
55	0x3d3c0baa	0.04590956
56	0x3d71dfa6	0.05905118
57	0x3c7be88e	0.01537527
58	0x3d285a9b	0.041102033
59	0x3bf4da03	0.007472278
60	0x3d96645f	0.07343363
61	0x3d430dfe	0.047620766
62	0xbb273226	-0.0025512069
63	0x3d99ec1b	0.07515737
64	0x3b2d19b8	0.0026413035
65	0x3cbc51e9	0.022988277
66	0x3d68adb6	0.05680629
67	0x3cd11991	0.025524886
68	0x3d5a04c9	0.05322722
69	0x3c84aa00	0.016194344
70	0x3df6fb2c	0.12059626
71	0x3d1582a4	0.03650154
72	0x3d88e0a9	0.066834755
73	0x3d8e8e54	0.06960741
74	0x3cf147ad	0.029453123
75	0x3d13c43b	0.03607581
76	0x3d04e638	0.032446116
77	0x3cb0a890	0.021564752
78	0x3c12db15	0.008963366
79	0x3c4857aa	0.012227932
80	0x3cbc8967	0.023014737
81	0x3d956b8c	0.072959036
82	0x3d163557	0.036671963
83	0x3cf165c6	0.029467475
84	0x3c686dfa	0.014186377
85	0x3d0679d1	0.032831017
86	0xbb7473e9	-0.0037300533
87	0x3be7efc4	0.007078143
88	0x3d28e45a	0.041233398
89	0x3d1ee534	0.038792804
90	0x3cd457eb	0.025920829
91	0x3d43cc7e	0.04780244
92	0x3d68cae4	0.056834117
93	0x3939db38	0.0001772464
94	0x3da48e96	0.080350086
95	0x3ce73919	0.028225468
96	0x3d61edd3	0.055158447
97	0x3d8e2113	0.06939902
98	0x3c42328d	0.011852873
99	0x3d0f7bf2	0.035030313
100	0xbc3759cd	-0.011190844
101	0x3d3dca4a	0.046335496
102	0x3b47ebc2	0.0030505513
103	0x3bb27f52	0.0054473067
104	0x3b5c247a	0.0033591078
105	0x3cff58e2	0.031170312
106	0x3c7fbeaa	0.015609423
107	0x3d4e701c	0.050399885
108	0x3da85b03	0.08220484
109	0x3cecd28d	0.028908992
110	0x3c51324b	0.012768338
111	0xbc23cd3e	-0.009997664
112	0x3d6048f2	0.054757066
113	0xbc22fe13	-0.009948271
114	0x3d5b8c69	0.053600702
115	0x3d08bb6f	0.033381876
116	0x3da0bf1b	0.078489505
117	0x3d45ce8c	0.04829268
118	0x3d1c7e26	0.038206242
119	0x3c7f2e62	0.015575023
120	0x3bafe047	0.005367312
121	0x3d0d56e9	0.034506712
122	0x3d2f5381	0.042804245
123	0xbc523787	-0.012830622
124	0x3c1a388e	0.009412898
125	0x3dadee8d	0.084927656
126	0x3d4e15a0	0.050313592
127	0x3cb1f3ab	0.021722635

ds.fc2_conv.weight f4 [64, 128]
0	0x3e14a5ef	0.14516424
1	0x3e4e0d44	0.20122248
2	0xbd48307d	-0.048874367
3	0xbd624a56	-0.055246674
4	0x3df80426	0.12110166
5	0x3d4e3459	0.05034289
6	0xbf98590c	-1.1902175
7	0x3dca4f95	0.0987846
8	0xbd5f34a4	-0.05449356
9	0xbcbca0f1	-0.023025962
10	0x3e845f58	0.25853992
11	0xbd6d60e9	-0.05795375
12	0x3df9c697	0.12196081
13	0xbd4f09ab	-0.05054633
14	0x3e022e06	0.12712869
15	0x3d69d27b	0.057085495
16	0x3ea152c5	0.3150846
17	0xbdaefdc0	-0.08544493
18	0xbe29b1a1	-0.16571666
19	0x3e8bdac1	0.27315333
20	0xbdb8fb66	-0.090323254
21	0xbe2afd20	-0.16698122
22	0xbd6a97b6	-0.05727359
23	0xbe5b643d	-0.21424957
24	0x3e339817	0.17538486
25	0xbcc7c8e0	-0.024387777
26	0x3d827a6b	0.063710056
27	0xbca3e707	-0.020007623
28	0xbd589847	-0.052879598
29	0xbf005fc5	-0.5014613
30	0x3c91cd49	0.017798083
31	0x3ec13dc1	0.37742427
32	0x3db167d7	0.08662384
33	0x3e4f7676	0.20260033
34	0xbe607cb0	-0.21922565
35	0x3de96c82	0.11397649
36	0x3da020a6	0.07818727
37	0x3e7c2df4	0.24626905
38	0x3d81d6a9	0.06339771
39	0x3ede6432	0.43435818
40	0x3d01ce4c	0.03169088
41	0x3ecda79d	0.4016694
42	0xbce4d6ef	-0.02793452
43	0x3e776042	0.24157813
44	0x3d920aa8	0.07130939
45	0x3d82ced9	0.06387109
46	0xbc741e36	-0.014899781
47	0x3d43a147	0.047761228
48	0xbe7e5e41	-0.24840643
49	0xbf484604	-0.78231835
50	0x3e84739b	0.2586945
51	0xbf106d6c	-0.56416965
52	0xbcf551da	-0.029946256
53	0xbe1c326a	-0.15253606
54	0x3d15c366	0.0365633
55	0x3d94e7e8	0.07270795
56	0x3d541fb5	0.05178805
57	0xbda287ec	-0.07936081
58	0x3de0c15a	0.10974379
59	0xbe0a6748	-0.13515961
60	0x3ee45416	0.44595402
61	0xbdad699f	-0.08467411
62	0xbe9581db	-0.29200634
63	0x3d795f33	0.060881805
64	0xbca99921	-0.0207029
65	0xbd1ae27b	-0.037813645
66	0x3f1e422f	0.6181974
67	0xbe1e32d6	-0.1544908
68	0xbe9ec252	-0.3100763
69	0x3df999bd	0.121875264
70	0x3d40b04d	0.047043134
71	0x3ebc0f57	0.36730453
72	0x3c8301b9	0.015992032
73	0xbd6411fc	-0.055681214
74	0xbebe0d42	-0.3711949
75	0x3da75cae	0.08171974
76	0xbd2a73ca	-0.04161433
77	0xbcad2bb9	-0.021139013
78	0x3d986978	0.074419916
79	0x3e04335a	0.12910214
80	0xbdeb4830	-0.11488378
81	0xbd036c0e	-0.03208547
82	0x3e0f7eaf	0.1401317
83	0x3e43f17a	0.19135085
84	0x3d687bc2	0.05675865
85	0x3e885e03	0.26634225
86	0x3e46f637	0.19429861
87	0x3c79a8ee	0.01523803
88	0xbd7cc254	-0.061708763
89	0xbd194e8a	-0.037428416
90	0x3cc4d3a2	0.024026696
91	0x3e3f83b2	0.18702582
92	0xbde19a63	-0.11015775
93	0xbc50e3b5	-0.012749602
94	0x3f1169a1	0.568018
95	0x3cbe1bb5	0.023206571
96	0x3d622128	0.0552074
97	0x3f417010	0.7556162
98	0x3e011c0f	0.1260836
99	0xbde0e357	-0.10980862
100	0xbf1c875a	-0.6114403
101	0x3d1f4f2d	0.038893867
102	0x3e40316a	0.1876885
103	0x3dfe2c7f	0.12410831
104	0x3d1f84b8	0.03894493
105	0x3d5b8349	0.053592
106	0x3f1c4941	0.61049277
107	0x3ea57c25	0.32321277
108	0x3eec4513	0.4614645
109	0xbe7e10a8	-0.24811041
110	0x3ed17276	0.4090764
111	0xbd9daf0a	-0.07699402
112	0x3ead3fff	0.33837888
113	0xbdca6e22	-0.098842874
114	0x3cb638fe	0.022243973
115	0x3db50714	0.08839241
116	0x3dbad127	0.09121924
117	0xbd58ae91	-0.052900854
118	0x3debc72f	0.11512601
119	0x3ba782d9	0.005112034
120	0x3d85c418	0.065315425
121	0xbee2e348	-0.44314027
122	0xbd6d7ce9	-0.05798045
123	0xbe7ca8fa	-0.24673834
124	0x3e53c3e9	0.20680203
125	0x3e09e029	0.13464417
126	0x3d415ee7	0.047209647
127	0xbd65217a	-0.05594013
128	0x3d799d51	0.060941044
129	0xbe1058de	-0.140964
130	0x3df011f2	0.11722173
131	0xbdd0b552	-0.10190834
132	0x3c76a209	0.015053281
133	0x3c69ee98	0.014278077
134	0x3e386e9d	0.18010946
135	0x3e13768f	0.14400695
136	0x3d741b2b	0.059596222
137	0x3dd094ab	0.10184606
138	0xbecaeb7f	-0.39632794
139	0x3d48b6d8	0.0490025
140	0xbd3291ca	-0.043596067
141	0x3d1d02bf	0.038332697
142	0xbe9eb5c0	-0.3099804
143	0xbec6f078	-0.38855338
144	0xbd280657	-0.04102167
145	0x3e047d86	0.12938508
146	0x3ddbe649	0.10737283
147	0xbd2b48fe	-0.041817658
148	0x3e0c84f1	0.13722588
149	0x3e60d26e	0.21955273
150	0xbca06f48	-0.019584313
151	0x3f2605be	0.6485251
152	0x3d68ee84	0.05686809
153	0xbcfe5b5e	-0.031049427
154	0xbf236119	-0.63820034
155	0x3e10ac69	0.1412827
156	0x3f05b8c3	0.5223505
157	0x3d02b36e	0.0319094
158	0x3d6dc13c	0.05804561
159	0xbe195954	-0.14975482
160	0xbdbdeadd	-0.09273312
161	0x3d7907c0	0.060798407
162	0x3e26f292	0.1630347
163	0xbdbb3432	-0.09140815
164	0x3bff050f	0.0077825855
165	0x3c931216	0.01795296
166	0x3e0161fc	0.12635034
167	0xbce7b75d	-0.028285677
168	0x3ddb2ef0	0.10702312
169	0xbe734ac6	-0.23758993
170	0x3c04cc81	0.008105398
171	0xbb89a7bb	-0.0042009032
172	0x3dd63f1d	0.10461257
173	0x3d9601c6	0.07324557
174	0x3eb48f95	0.35265794
175	0xbead0431	-0.3379226
176	0x3ce34147	0.027741088
177	0x3dc6dede	0.09710477
178	0xbea02e16	-0.3128516
179	0x3d9f95b6	0.07792227
180	0x3dd5443b	0.104134046
181	0xbe57cf5f	-0.210752
182	0xbed99093	-0.42493114
183	0x3cc95684	0.024577387
184	0x3d11d306	0.03560164
185	0xbd4c0085	-0.049805183
186	0x3b9b8d2b	0.004747053
187	0x3e7b9021	0.245667
188	0x3d56f2ca	0.052477635
189	0x3dc92dfd	0.09823225
190	0xbe1187ec	-0.14212006
191	0x3c9c9eb8	0.019118652
192	0x3ef3c69e	0.4761247
193	0xbece2c33	-0.40268096
194	0xbe8e63b4	-0.27810442
195	0x3db59f9f	0.08868336
196	0xbdf84ab2	-0.12123622
197	0xbe821420	-0.2540598
198	0x3e1242ab	0.14283244
199	0xbe73fc8a	-0.23826805
200	0x3dc45671	0.095868
201	0x3e134cc7	0.14384757
202	0x3d19eee0	0.037581325
203	0xbe56c224	-0.20972496
204	0xbbc21963	-0.0059234365
205	0x3d7dd85b	0.06197391
206	0x3db68871	0.08912743
207	0xbe37692d	-0.17911215
208	0x3e86a7a8	0.26299787
209	0x3e296cee	0.1654546
210	0xbe8e7877	-0.27826282
211	0xbe4d9b7a	-0.20078841
212	0xbec7aa48	-0.38997102
213	0xbea0e874	-0.31427348
214	0xbe6521f6	-0.22376236
215	0x3f1e488b	0.6182944
216	0x3de0f85c	0.10984871
217	0x3d505adf	0.05086791
218	0xbdc7f8b7	-0.097642355
219	0xbe9a4589	-0.30131176
220	0x3e15cc3e	0.14628693
221	0xbe2743bd	-0.16334434
222	0xbe49eab8	-0.19718444
223	0x3b63db6b	0.0034768234
224	0xba94cd43	-0.0011352677
225	0x3e07a7cd	0.13247605
226	0xbea20aad	-0.3164877
227	0x3d399ca2	0.045315392
228	0x3edbc08f	0.42920348
229	0x3d0ace55	0.03388818
230	0x3c7d86c5	0.015474026
231	0xbc45d55a	-0.012074793
232	0xbea65163	-0.32483968
233	0x3d9bc9b2	0.0760683
234	0xbe8c7d19	-0.27439192
235	0xbe4e2eda	-0.2013506
236	0xbe59ee80	-0.21282387
237	0x3e4a254d	0.19740792
238	0xbe5695bf	-0.20955561
239	0xbe8a233f	-0.26980016
240	0x3b8c154b	0.0042749993
241	0xbe5e8530	-0.21730494
242	0x3d1ad540	0.037801027
243	0x3d1b944f	0.037983235
244	0x3e72c8c6	0.23709401
245	0x3c268901	0.0101645
246	0x3d92ca40	0.071674824
247	0x3f1ad907	0.6048741
248	0x3de7122d	0.11282764
249	0xbd24958d	-0.040181685
250	0xbbda8b56	-0.006669442
251	0x3f049f90	0.51805973
252	0x3d73aa6e	0.059488706
253	0x3db16cf6	0.08663361
254	0x3a9204b9	0.0011140323
255	0x3ec91524	0.39273942

ds.fc2_conv.bias f4 [64]
0	0x3cb84d6a	0.022497851
1	0x3d106a7e	0.03525781
2	0x3d558a44	0.052133814
3	0x3d4472d1	0.04796106
4	0x3d135680	0.035971165
5	0xbbdea3b4	-0.0067944173
6	0x3d8e7136	0.06955187
7	0x3d1b9b03	0.037989628
8	0x3ceb186a	0.028698165
9	0x3c3c3bf0	0.0114889
10	0x3d1f56c4	0.038901106
11	0x3ca01c2d	0.019544685
12	0x3cf8a1d3	0.030350601
13	0x3c6859f1	0.0141816
14	0x3b4ad225	0.003094801
15	0x3cd1f1e9	0.025628047
16	0x3d8743dc	0.0660474
17	0x3c8fd1a3	0.017556017
18	0xbb962bb0	-0.0045828447
19	0x3c9aeb08	0.0189109
20	0x3cae190b	0.021252176
21	0x3cc458f3	0.023968196
22	0x3d44520b	0.047929805
23	0x3d27a4e8	0.04092875
24	0x3d19265c	0.037390098
25	0x3d883275	0.06650249
26	0x3d2c6084	0.042084232
27	0x3d745e43	0.059660207
28	0x3d110b70	0.0354113
29	0x3d2ffeae	0.04296749
30	0x3d1b9735	0.037986
31	0x3c7c3caf	0.0153953275
32	0x3d723913	0.05913646
33	0x3d20c0a4	0.039246216
34	0x3d4b4d92	0.049634524
35	0x3d4899ea	0.04897491
36	0x3d7c32a1	0.06157172
37	0x3cb5e627	0.022204472
38	0x3d66d811	0.0563584
39	0xbc473e35	-0.012160827
40	0x3d80850f	0.06275379
41	0x3d10b996	0.03533324
42	0x3cab6804	0.020923622
43	0x3d551c1c	0.05202876
44	0x3d78284d	0.06058531
45	0x3d1dee1e	0.038557164
46	0x3d83fe58	0.064449966
47	0x3d017901	0.03160954
48	0xbbb1294d	-0.0054065348
49	0xbbcd8c98	-0.0062728636
50	0x3d60d682	0.05489207
51	0x3cc9e22a	0.024643976
52	0x3d13e966	0.036111258
53	0x3d6d4548	0.0579274
54	0x3c16b263	0.009197804
55	0x3d869669	0.06571657
56	0x3d6edec9	0.058317933
57	0x3d382904	0.04496099
58	0x3d782344	0.060580507
59	0x3d01969f	0.031637784
60	0x3d07d563	0.033162486
61	0x3ce4d28b	0.027932426
62	0x3d19b67e	0.037527554
63	0x3d146ab6	0.03623458

head.weight f4 [15, 64]
0	0x3f0da098	0.5532317
1	0x3e6187d7	0.22024475
2	0x3d2aeb34	0.041728213
3	0x3c948df2	0.018134091
4	0xbef0011f	-0.46875855
5	0xbf7deb2f	-0.99186987
6	0x3efa6b5f	0.48910043
7	0xbf8ae948	-1.0852442
8	0xbecd2ec6	-0.40074748
9	0xbf2f1e4d	-0.6840561
10	0x3c9a366f	0.018824784
11	0xbe3b2000	-0.18273926
12	0x3f191993	0.5980465
13	0xbef249ad	-0.47321835
14	0xbf293dd9	-0.6611
15	0x3d91113b	0.070833646
16	0x3b933a67	0.004493046
17	0xbe1028dd	-0.14078088
18	0xbf499817	-0.78747696
19	0xbf34ff6c	-0.7070224
20	0xbf02cc3d	-0.5109289
21	0xbe9e4706	-0.30913562
22	0x3f311879	0.6917797
23	0x3c85dd94	0.016341008
24	0xbe58af3f	-0.21160601
25	0x3ba35f96	0.00498576
26	0xbf3c3bc1	-0.7352868
27	0xbfae11e5	-1.3599211
28	0xbe30049d	-0.1718926
29	0x3e918def	0.284286
30	0x3efaac84	0.48959744
31	0x3f220b2d	0.632983
32	0xbc87c754	-0.01657454
33	0xbe7cf28e	-0.24701902
34	0x3d03a332	0.032138057
35	0x3d088214	0.033327177
36	0x3f191a30	0.59805584
37	0xbf1a326c	-0.6023319
38	0x3d03d292	0.032183237
39	0xbf64b1e3	-0.89333934
40	0xbd0c0aa2	-0.034189828
41	0xbe70c126	-0.2351118
42	0x3eb004d5	0.34378687
43	0xbf02b94a	-0.5106398
44	0xbe90b93e	-0.2826633
45	0xbf50c84d	-0.81555635
46	0x3d0bb8c5	0.034111757
47	0xbe4e724c	-0.20160788
48	0xbe1644df	-0.1467471
49	0xbe2476c3	-0.16060929
50	0x3e53abeb	0.2067105
51	0xbe50d49f	-0.20393609
52	0xbeb47eb4	-0.35252917
53	0xbfaab362	-1.3335993
54	0x3e9e0234	0.30861056
55	0x3dfea135	0.124330916
56	0x3d06cfee	0.03291314
57	0xbe87f16a	-0.26551372
58	0x3e25a33b	0.16175549
59	0xbebe4d6a	-0.37168437
60	0xbf8a0fdd	-1.0786091
61	0xbcd5f500	-0.026117802
62	0x3e60c578	0.21950328
63	0xbe453d88	-0.19261754
64	0x3d27a4e8	0.04092875
65	0xbeb02f55	-0.3441111
66	0xbf4affb8	-0.79296446
67	0xbf2eb261	-0.68240935
68	0xbf564ad2	-0.83707917
69	0x3df898d4	0.12138525
70	0x3d42e3bc	0.047580466
71	0x3dcd0a3c	0.10011718
72	0x3e28f8b5	0.16501124
73	0xbed7e92b	-0.4217008
74	0xbf3149a9	-0.6925302
75	0xbf408b1a	-0.7521225
76	0x3e353098	0.17694318
77	0xbe4bb430	-0.19892955
78	0xbe525fd2	-0.20544365
79	0x3ef60b6c	0.4805559
80	0x3de5a79b	0.11213609
81	0xbe685a0d	-0.22690602
82	0x3e0aeb87	0.13566409
83	0xbfb13e77	-1.3847188
84	0xbe64d741	-0.22347738
85	0x3e8956ec	0.2682413
86	0x3d76cc39	0.060253356
87	0x3f2486b7	0.6426806
88	0xbf56d91c	-0.8392503
89	0xbf4a1829	-0.78943115
90	0xbf1de1ac	-0.6167247
91	0x3dd024a7	0.10163241
92	0xbe5d1b21	-0.2159238
93	0xbf206499	-0.626535
94	0x3d80c0f5	0.06286804
95	0x3e4c9809	0.19979872
96	0xbf49247a	-0.78571284
97	0x3e77c168	0.24194872
98	0xbf657f47	-0.89647335
99	0x3f347d30	0.7050352
100	0x3ddf8741	0.109144695
101	0xbf2e3589	-0.6805044
102	0xbf50de76	-0.8158945
103	0x3e249b83	0.16074948
104	0x3e02d5fd	0.12776943
105	0x3e6ce2fb	0.23133461
106	0xbece8ea4	-0.403432
107	0xbe5fe317	-0.21863972
108	0x3e3ce33f	0.18446063
109	0x3e8a6a39	0.27034166
110	0xbf43d45d	-0.76495916
111	0xbf9443a9	-1.1583148
112	0xbf3f8305	-0.74809295
113	0xbe330ec9	-0.17486109
114	0xbf1e4782	-0.6182786
115	0xbe577930	-0.21042323
116	0x3e2f04a5	0.17091615
117	0x3daf1678	0.085492074
118	0x3e832da2	0.25620753
119	0x3ca9fc35	0.020750144
120	0x3f03cd7c	0.5148542
121	0x3e38d2c7	0.18049155
122	0x3dc9ce00	0.098537445
123	0x3e649ee8	0.22326243
124	0xbfe41140	-1.7817764
125	0x3c969618	0.018382117
126	0xbec5d462	-0.38638598
127	0xbe80e3ee	-0.25173897
128	0x3de00375	0.109381594
129	0xbe262b9d	-0.16227575
130	0xbeae7931	-0.34076837
131	0xbf607c95	-0.876901
132	0xbf48161e	-0.7815875
133	0x3de127a4	0.10993889
134	0x3d9ba17e	0.075991616
135	0x3df336a4	0.11875656
136	0x3e46e86e	0.19424602
137	0xbf01a8fb	-0.5064847
138	0xbecc3ecf	-0.3989167
139	0xbf30a1e1	-0.6899701
140	0x3e85017e	0.259777
141	0xbec8217c	-0.39088047
142	0xbe2ec1ed	-0.17066164
143	0xbf87aee7	-1.0600251
144	0x3e581b8c	0.21104258
145	0xbeb38b57	-0.35067245
146	0x3e1db9a8	0.15402853
147	0x3f2b0130	0.66798687
148	0xbec78b38	-0.38973403
149	0x3e87e6f9	0.26543406
150	0x3de95ca3	0.11394622
151	0xbf840820	-1.031498
152	0xbf51c10f	-0.8193521
153	0xbf5f20da	-0.871595
154	0xbfaf9fe9	-1.3720676
155	0x3d964986	0.07338242
156	0xbeb76a80	-0.3582344
157	0xbe703961	-0.23459388
158	0x3dd50dae	0.10403
159	0x3e87d305	0.26528183
160	0xbf58c7ef	-0.84680074
161	0x3e9b7b83	0.3036767
162	0xbf5d4f22	-0.8644887
163	0xbf921b8d	-1.1414658
164	0x3d9e6122	0.0773337
165	0x3f268d64	0.65059495
166	0xbea13ecf	-0.31493232
167	0x3e2b3c70	0.16722274
168	0x3e5f77d3	0.21823053
169	0x3eaf9399	0.34292296
170	0xbe97ce6b	-0.29649672
171	0xbebc8745	-0.36821952
172	0x3e967154	0.29383337
173	0x3e9bc61e	0.3042459
174	0xbec28b23	-0.37996778
175	0x3f5e86d9	0.8692451
176	0xbf2a1b31	-0.6644774
177	0xbeb7f31c	-0.35927665
178	0xbe52f761	-0.2060218
179	0xbedac8a9	-0.42731217
180	0x3dda444e	0.10657559
181	0x3dc2e022	0.09515406
182	0x3e910bbf	0.28329274
183	0x3d853a83	0.06505301
184	0xbf9119d2	-1.1336005
185	0x3e122e81	0.14275552
186	0x3da97852	0.082749024
187	0x3de62e27	0.112392716
188	0xbfbd0e72	-1.4770033
189	0x3cad7b4f	0.021176962
190	0xbe37727b	-0.17914765
191	0xbecee463	-0.4040862
192	0xbf821b29	-1.0164539
193	0xbec182fc	-0.37795246
194	0xbea86196	-0.32886952
195	0xbdfc1e83	-0.12310507
196	0x3e7a521c	0.24445385
197	0xbedb9e6a	-0.42894298
198	0xbee69562	-0.45035845
199	0xbeeefdeb	-0.466781
200	0x3f64864c	0.8926742
201	0xbf9b2b21	-1.2122537
202	0xbece2988	-0.4026606
203	0x3e7b0969	0.24515308
204	0xbe689f96	-0.22717127
205	0x3e7468ce	0.23868105
206	0xbf0fdf74	-0.5620034
207	0xbf98e739	-1.1945564
208	0xbe656d44	-0.22404963
209	0x3e9f9b01	0.31172946
210	0xbed68c84	-0.4190408
211	0x3e838eb7	0.2569482
212	0x3e9ea261	0.3098326
213	0x3e747836	0.23873982
214	0xbed5c340	-0.41750526
215	0xbe4118b5	-0.18857081
216	0x3e7858e5	0.2425266
217	0xbe9b56b8	-0.303396
218	0xbf9aedf6	-1.210387
219	0x3e6266e4	0.22109562
220	0x3e99f63d	0.30070677
221	0xbeb3a866	-0.35089415
222	0xbf70e8b6	-0.9410509
223	0xbe81aeae	-0.25328583
224	0xbea12000	-0.31469727
225	0x3e8b4536	0.2720124
226	0xbe25162f	-0.16121744
227	0xbe3bee18	-0.18352544
228	0xbeea728e	-0.45790523
229	0x3ea7b706	0.32756823
230	0xbeb16d05	-0.34653488
231	0xbed66f33	-0.41881713
232	0xbe885634	-0.26628268
233	0x3e9fe2e8	0.31227803
234	0xbe8c21c0	-0.273695
235	0x3e970189	0.2949336
236	0x3e63476a	0.22195211
237	0x3e84595f	0.25849435
238	0xbecf2fcc	-0.40466154
239	0x3e62f862	0.22165063
240	0x3e8bd16d	0.27308217
241	0x3ea08184	0.31348813
242	0xbefc269d	-0.4924821
243	0x3ea00f05	0.3126146
244	0x3eb1f55e	0.34757513
245	0x3e65f70e	0.22457525
246	0xbec9fbf2	-0.39450032
247	0xbf9b43d0	-1.213007
248	0xbed530fa	-0.4163893
249	0x3e83efe7	0.25768968
250	0xbecf350c	-0.4047016
251	0x3ea8ce3a	0.32969838
252	0xbf9dfa97	-1.2342099
253	0xbea1d487	-0.31607458
254	0xbec8895a	-0.3916729
255	0x3e771d10	0.2413218

head.bias f4 [15]
0	0xbd7178fa	-0.058953263
1	0xbd2c1df6	-0.04202076
2	0xbd2140e3	-0.03936852
3	0x3e00a9d5	0.12564786
4	0xbdbdb6fa	-0.09263416
5	0x3dc3b8ae	0.09556709
6	0x3cf5901b	0.029975941
7	0x3ca11986	0.01966549
8	0xbd800cfa	-0.06252475
9	0xbd925a8c	-0.07146177
10	0x3e60a8bd	0.21939369
11	0xbd6c17c4	-0.057639852
12	0xbdab0cc8	-0.08352047
13	0xbd053cad	-0.032528568
14	0xbd412577	-0.04715487
