surrogate/trained_model/model_rate100_fold4.pth (torch, 179121 bytes, 18 tensors)

ds.proj_conv.weight f4 [16, 2, 7]
00000000: d576 843c 5900 813d a1c2 413d 2ba1 b73d
00000010: 45c1 f43d c6f2 e03d 172d c23d 40db 343d
00000020: af41 d53d 989f a03d 8b2f cb3d cfac d23d
00000030: bce7 ca3d 67a7 ca3d 220b 00be c15f 72be
00000040: d7bc 85be 6d09 54be a234 86be 7c9e 78be
00000050: 4767 37be 314d 3bbd 3335 1ebd 1543 f93b
00000060: a038 f23b 8d98 f23c cb9c 593d 2769 ae3d
00000070: 6eeb bc3c 106d 543d 5d43 353d 2d9f 3f3d
00000080: 2658 883d e0e6 173c 9622 5f3d 75f3 50bd
00000090: f537 433d aed3 e93d 6aa2 793e 91b0 9f3e
000000a0: 0221 f93d a72e c4bb a2e7 77be cb7b 90be
000000b0: d203 6cbe 36f1 91be 6622 96be 8441 7abe
000000c0: 3a8c 22be f870 d13c 9cd4 e33c f72b b23c
000000d0: 05ac bd3c 2b21 5bbc 9f56 8ebc dd4e 62bc
000000e0: 4e5c b23d 1437 ec3d ecbd cb3d bb0e a13d
000000f0: f13b 8f3d 58bf 413d 9a7f 933c 4f81 f3bc
00000100: bbba a7bd 68da a2bd 5645 a0bd 9c1c cebd
00000110: 1193 d8bd 69ea 87bd 850d b6bd 5522 f3bd
00000120: 9c63 8cbd 7c99 8cbd 5bd7 11bd b273 f6bc
00000130: 64bc 68bc 84eb f83c 4e2a 06bc 8164 87bd
00000140: 1cae 03be 4bcd 3bbe 8433 54bd 8e62 00be
00000150: 25e1 803d e651 4f3d 4058 b03d f177 ce3d
00000160: e9c3 cb3d 3b3d cb3d e527 133d 98d4 b3bd
00000170: 66a1 90bd 9a19 fabc eb67 8cbc 83ec 26bc
00000180: 3695 9bbd 67f6 8fbd 8ca0 18be 86b8 b1bd
00000190: b262 f3bc 56c7 11bd b44c 3bbd 03cb 0fbd
000001a0: c28c adbc a9db 643d 8277 463c f02d 20bd
000001b0: 83ec 84bd 4e1f 54be e1f4 0cbe 8864 f4bd
000001c0: a410 3a3d 055a 653d 7235 053d 2e6f f73c
000001d0: f231 623c 657e 723c 5283 503d 5e3a c2bd
000001e0: 00b2 1bbd f8a6 8f3c fe32 153e b1c5 8a3e
000001f0: 2c01 063e 6f26 093e 1894 c93b 96a2 5ebc
00000200: 8258 833d 79d2 583d f4bd 8c3c b239 b73c
00000210: bca0 e6bc 04fd 76bd a41b 65be efe6 62be
00000220: 7f66 86be ed11 67be be43 803a 2b53 0a3d
00000230: 3428 5cbe 8628 3bbe 478e 19be 1843 12be
00000240: 7a1d 41be 5214 3ebe 92b7 bbbd d750 2c3c
00000250: 5d4a 2c3d 7c78 833d 2f7d 633d e488 5d3d
00000260: 9ab4 4e3c 7859 c8bc 78c0 e73d 71c7 2f3e
00000270: 4189 1f3e 2950 033e 19af 813d d52d b63c
00000280: f00e e03b 2975 933c f51c 7b3c 4254 553d
00000290: e622 9f3d bd77 493d bf48 54bd 8dad 85bd
000002a0: 2a26 943c 1358 543c afbc 4fbc 7495 67bd
000002b0: 3ed6 87bd 980d febd 254f d9bd 20cf 14be
000002c0: 2be2 94be a122 01be 3012 a3bd 2392 58bd
000002d0: 16c8 7c3d f243 6b3d 564e 003e 063e 0a3e
000002e0: cb98 f33d 8797 853d 3e95 8b3c c857 61bb
000002f0: 6ee0 77bc 6d04 6dbd 735b 4fbd 3bcc a1bd
00000300: 0f5e 63bd f66c 7ebd 0577 a4bd 10ff 7dbd
00000310: 6e14 163d 1fb8 093e 90b8 1a3e c7b1 f93d
00000320: ac76 023c ba45 c4bb 4a1d 39bd 543b afbc
00000330: c849 c0bc ed3d 3dbd f85d 72bc b05c 7abc
00000340: 854f c8bd c40c acbd af81 2a3d 1467 a2bc
00000350: 203b 21bb 75ef 1e3b 6c8a 06ba d5f4 37bc
00000360: 131c dabc a80a 81bc 308b 99be 2173 abbe
00000370: 8422 a3be 8bbe 17be ee06 993d 242d 993d
0.016169945 0.062988944 0.047304753 0.08966287 0.11950926 0.10983805 0.094812565 0.044154406
0.10412919 0.0784294 0.099211775 0.10286867 0.09907481 0.09895211 -0.12504247 -0.2366934
-0.26120636 -0.2070672 -0.2621203 -0.24279207 -0.17910491 -0.045727912 -0.038624953 0.0076068738
0.007392004 0.029613758 0.053128045 0.0851615 0.02306148 0.051861823 0.044253696 0.04678266
0.06657438 0.0092713535 0.054476343 -0.05101343 0.047660787 0.11417328 0.24378362 0.31189397
0.12164499 -0.0059870067 -0.24209455 -0.28219447 -0.23048332 -0.28504342 -0.2932312 -0.24439055
-0.15873805 0.025566563 0.027811341 0.02174948 0.023153314 -0.013374607 -0.017375289 -0.013812748
0.08709012 0.11533943 0.09948334 0.07864138 0.06993855 0.04730162 0.018005181 -0.029724745
-0.08189913 -0.07951814 -0.07825725 -0.100640506 -0.10574926 -0.06636507 -0.088892974 -0.11871783
-0.068549365 -0.06865212 -0.03560577 -0.030084465 -0.014205072 0.03038574 -0.008188797 -0.066109665
-0.12859386 -0.18340032 -0.05180694 -0.12537596 0.06292943 0.050615214 0.08610582 0.10081471
0.09949476 0.09923788 0.03592672 -0.087807834 -0.07062034 -0.030529786 -0.017139396 -0.010188225
-0.07596819 -0.070294194 -0.14904994 -0.08677773 -0.029710148 -0.035590492 -0.045727447 -0.035105716
-0.021185283 0.055873547 0.012113454 -0.03910631 -0.064904235 -0.20715067 -0.13765289 -0.11933237
0.045426026 0.055994052 0.032521673 0.030204382 0.013805853 0.014800643 0.050906487 -0.09483789
-0.03801155 0.017535672 0.14570233 0.27103952 0.13086385 0.13393568 0.0061516874 -0.013588568
0.06413366 0.052935097 0.01718042 0.022366378 -0.028152816 -0.06029989 -0.22373825 -0.22158407
-0.26250073 -0.22565432 0.0009785814 0.03377072 -0.21499711 -0.18277177 -0.14995681 -0.14283407
-0.188589 -0.18562439 -0.09165873 0.010517321 0.042063106 0.06419465 0.055539306 0.054085627
0.012616301 -0.024456725 0.113160074 0.17165925 0.15579702 0.12823547 0.06332225 0.022238651
0.006837718 0.018000202 0.015326728 0.052082308 0.07770328 0.049186457 -0.05182719 -0.06527243
0.018084604 0.012960452 -0.012679263 -0.056539014 -0.0663266 -0.124049366 -0.10610799 -0.14532137
-0.29078802 -0.12610866 -0.07962453 -0.05287374 0.061714254 0.057437845 0.12529883 0.13500223
0.11894377 0.06523042 0.017038938 -0.0034384597 -0.015129192 -0.05786555 -0.050624322 -0.07900282
-0.055509623 -0.062115632 -0.08030514 -0.062010825 0.036640577 0.13449143 0.15109468 0.121921115
0.007962864 -0.0059897574 -0.045193948 -0.021390595 -0.023472682 -0.046201635 -0.014792912 -0.0152808875
-0.09780792 -0.08400872 0.041627582 -0.019824542 -0.0024601892 0.0024251614 -0.0005132321 -0.011227806
-0.026624715 -0.015752152 -0.29989004 -0.33486274 -0.3186227 -0.1481878 0.07472025 0.07479313

ds.proj_conv.bias f4 [16]
00000000: 62b0 b93d f4c7 5bbe 3b76 98be 4307 82bd
00000010: 19c2 aa3d 93f7 463d bccb 9a3d 78d5 02be
00000020: c50e 2dbe 23ef d13d 27ba 6f3e 55c4 ec3d
00000030: 2369 cbbc 93d5 473c 0801 1cbe b0de ae3d
0.090668455 -0.21462995 -0.29777703 -0.06349041 0.083378024 0.04857595 0.075583905 -0.12776744
-0.16900165 0.1025069 0.23410855 0.11560885 -0.024830407 0.012196916 -0.15234768 0.08538568

ds.proj_bn.weight f4 [16]
00000000: 056a 893f 1957 a23f b8c8 823f aea8 a23f
00000010: 248b 9b3f d9ef 803f 875e 903f db88 753f
00000020: 508c 813f 0e75 8f3f d129 a93f a47a 8a3f
00000030: 0bac 933f da26 a63f 31e0 903f e831 8c3f
1.073548 1.268283 1.0217505 1.2707727 1.2151837 1.0073196 1.1278847 0.9591195
1.0120945 1.1207597 1.3215886 1.0818677 1.1536878 1.2980607 1.1318418 1.095273

ds.proj_bn.bias f4 [16]
00000000: 6c03 bbbd ee61 1abe 84b0 0cbe 6711 77be
00000010: 6ddf f53b 3be6 07be eadb 92bd 9757 5fbe
00000020: f414 4abe ceda 13bd e46e d3bd cf5c 25be
00000030: f9c0 833c cff9 013d d089 7bbd fbf1 0bbd
-0.09131512 -0.1507642 -0.1373921 -0.24127732 0.007503441 -0.1327142 -0.071708515 -0.21810757
-0.19734555 -0.03609734 -0.10323885 -0.16148685 0.016083227 0.031732377 -0.061410725 -0.034166317

ds.proj_bn.running_mean f4 [16]
00000000: 571b e73e 6402 25bf 2459 043d d0f3 15bf
00000010: bd7b 963d b29d 7cbe e407 0d3e dd7f cebe
00000020: 26f2 a23d 93ad 21be 2256 50bd 1dcf b43e
00000030: 6fba 9ebe 1069 303b c08f f7bd d61e 5ebe
0.45138046 -0.6445677 0.032311574 -0.58575153 0.0734782 -0.24669531 0.13772541 -0.40331927
0.079563424 -0.1578887 -0.050863393 0.35314265 -0.31001613 0.002691809 -0.12087965 -0.2169145

ds.proj_bn.running_var f4 [16]
00000000: c603 283d 9337 b93e 7a37 943d 14ed ea3e
00000010: a60f 0a3e e5a8 023d 5aa9 c43d c36f 043d
00000020: ec4a 2e3d 0fce 323e 180d 7b3e c0b3 683d
00000030: beb4 3e3d 1415 c63d 172b 7e3d 5180 223e
0.041019224 0.36175212 0.07237144 0.45884 0.13482532 0.03189935 0.09602614 0.032333147
0.04255192 0.17461418 0.24516714 0.056812048 0.046559088 0.09671989 0.062052812 0.15869261

ds.proj_conv1.weight f4 [8, 16, 5]
00000000: 7d6f 95bd 2f57 45bd 28f2 973c b547 ca3d
00000010: a6a2 be3d 855f d43a 241b 143c 9d1e 0c3d
00000020: b042 f13c 115f 47bd 1473 a5bd d5bc b7bd
00000030: 78dc a1bd 0dc7 fb3d 7bc2 663e 91ae 21bd
00000040: 8991 013a c38c 153d 5696 bebc 7745 69bc
00000050: 6ca8 b73c 3c3f 893c 0329 f9bc fd83 77bd
00000060: 5af0 8ebd 6f6b c73d 1271 003d 2755 13be
00000070: e935 20be 7e63 b9bc b670 a4bc 116e 6fbd
00000080: 5e5d a1bc 46ce 7dbd 46b8 8bbd 6f91 ab3d
00000090: 2ff7 683d 4129 3ebe 881e efbd cc34 46bd
000000a0: c452 c2bd 97b1 9abd cc89 4f3c 92ed 863e
000000b0: e3bf 023e f545 943d f692 553c 1025 93bd
000000c0: 551e 57be 2c00 86bd bc13 aebd eae5 53bd
000000d0: 9996 42bd b25e 05bd 26b0 873d 85fb 90bd
000000e0: 0720 57bd 2e39 1fbd 72c8 9abc 231b b1bb
000000f0: d752 cd3d f553 143e 3872 083d a8ed e7bd
00000100: 08a8 31be f540 ca3c 182d 2dbc 15ab 36bd
00000110: 65c9 71bc 4aee 8fbd f9da 06bd d1a7 3bbd
00000120: 6720 2bbd 5b61 d63c 3d68 f3bc 5327 d03d
00000130: 45ca 643d 07f8 44b8 a4d7 a3be 3002 c9bd
00000140: b86c a1bd 18e4 fbbc cd83 8a3c 1b6d 063d
00000150: 5413 f23d ef03 dd3d e0ec 243e 9624 d13d
00000160: 0a63 b73d 6d98 82bc 3fa1 b9bd 3dd1 16bd
00000170: e396 5f3d 6aaa 7d3d 8869 8b3d 42dc 2c3d
00000180: 93c2 713d bd53 a93d ceeb f1bc df9c 67bd
00000190: 4514 cfbd 72df b93c 96dd 8f3d 1276 42bd
000001a0: e2ea 8d3b b774 60bd f69b a5bd 253b 92bd
000001b0: 47c6 c13d 5aa4 f23d 321d cdbc 28d2 903d
000001c0: c892 a73d 9f56 21bc 3360 973c 4a53 d5bd
000001d0: d12f 97bd 8196 a8bd ad0a d23d 79dd 1b3e
000001e0: 8894 c7bd 58d0 a23c 48d1 943a 2443 ce3d
000001f0: 12aa e83c 906d 9ebd ee87 13be 5331 113d
00000200: ced1 03be 7292 013e 9d20 cf3d 78cc 923e
00000210: aef2 833e b690 d23d dd40 af3d d5ab 89bd
00000220: aa2a aa3d 5a9a df3d 8b8d 0d3d 8073 173d
00000230: 1219 a2bd 7d16 68be 9ae0 38be e966 103b
00000240: 166a 483c 9af4 1cbe b1f3 053d 61ea 753d
00000250: 6591 15bd df88 9ebc a832 c8bd 3cfd 4b3d
00000260: 5937 9e3d 81c3 dbbc a7b3 0bbc 69a7 04bd
00000270: 3a7d 92be dccc 52bd b966 f4bc 4027 d13d
00000280: b709 fdbd c914 93bd 6e3e 3fbd 687d 2fbd
00000290: 6e52 b5bc a99d 5c3e ed27 7b3e 8783 6e3e
000002a0: 5419 1a3e d0f8 ccbc aa63 18be 1f5b 00be
000002b0: 0078 c8bd cf2d 08bd 7f1d 29bd 3d61 b53d
000002c0: 7c31 273e 24ee 4a3e fb5d 693c f80e 16be
000002d0: 936d a9bd 5c15 c8bc 81d1 89bb 1ae0 b9bd
000002e0: 68d6 65bd 75e3 b2bc 42af c3bd f834 debc
000002f0: e8a1 4b3d 0eb8 b33d 9d04 a53c 9935 dc3d
00000300: 3ec0 f63d b0f4 083c 20da 3fbd 3eb5 b7bc
00000310: dc8c 7dbd 7c71 a7bb 0bd9 5a3d 0474 bc3d
00000320: 6c15 28be b87e 9ebd d242 11be 7dbe 8bbd
00000330: fa48 46bd 56e1 523d dce6 00be de92 bb3c
00000340: 892b b2bd a31b 383d 6690 8f3d 290c 573e
00000350: eabc 683e 4055 a23d b131 033d a745 703c
00000360: 006d 073e a270 073e 29ae c63d bdd9 393c
00000370: 547b 81bc 179d c8bd 2e5a febd 6990 bbbb
00000380: 24a8 86bd 6c78 39be b805 0fbc b9b0 dfbc
00000390: b893 e2bd 9f75 95bd 7c7e 8cbd bc4c 813d
000003a0: fb07 373d 4a2a 243c d2f7 2cbd f936 0a3d
000003b0: 6e2d dabd 2f3f 8cbd f8ae 8bbd b90d 6dbc
000003c0: c92d 503d 34f8 513d 861c 1e3e 4316 103e
000003d0: 956f 563e a520 8cbc 05dc 1c3c b370 883b
000003e0: 87d1 0dbd f410 973c 7684 1a3c 75dc c0bc
000003f0: e74d 0d3d 02fa a0bc ff50 b23c 5dd5 053d
-0.07296655 -0.048178848 0.018548086 0.09876958 0.093083665 0.0016202783 0.009039674 0.034208883
0.029450744 -0.048674647 -0.0807859 -0.08971564 -0.07903379 0.12293825 0.22535126 -0.03947312
0.0004942646 0.036511194 -0.023265045 -0.014237753 0.022419177 0.016753785 -0.030415064 -0.06042861
-0.06979437 0.09737288 0.031357832 -0.14387952 -0.15645565 -0.02263045 -0.020073276 -0.058454577
-0.019697841 -0.061964296 -0.06822257 0.08377349 0.056876358 -0.18570425 -0.11675745 -0.048390195
-0.094884425 -0.07553404 0.012667131 0.26353127 0.12768511 0.07239906 0.0130355265 -0.071848035
-0.21007665 -0.065430015 -0.08499858 -0.051732935 -0.047506902 -0.03256101 0.066253945 -0.070792235
-0.052520778 -0.03887289 -0.018894408 -0.0054048463 0.10025566 0.14485152 0.033312052 -0.11324626
-0.17349255 0.024689177 -0.010569833 -0.04459675 -0.014757489 -0.07027872 -0.032923672 -0.04581434
-0.04177895 0.02616947 -0.02971279 0.101637505 0.05585696 -4.6961035e-05 -0.32000458 -0.0981487
-0.078820646 -0.030748412 0.01690855 0.032818895 0.11820093 0.10791766 0.16105986 0.10212056
0.08954437 -0.015941823 -0.090639584 -0.03682064 0.054587256 0.061930098 0.06807238 0.04220224
0.05902345 0.08267925 -0.029531386 -0.05654609 -0.10111288 0.022689555 0.07024686 -0.047475882
0.0043309787 -0.054798808 -0.08086388 -0.07140187 0.094616465 0.11847754 -0.025038335 0.07071334
0.08182293 -0.009847312 0.018478489 -0.10416277 -0.07382167 -0.08231831 0.102559425 0.15221204
-0.09745127 0.019874737 0.0011353875 0.100714 0.028401408 -0.07735741 -0.14407322 0.03544743
-0.12873003 0.1265352 0.10113642 0.28671622 0.25771087 0.10281508 0.085572936 -0.067222275
0.08308919 0.10918112 0.034558814 0.036975384 -0.07914938 -0.22664829 -0.18054429 0.0022033995
0.012232324 -0.15327683 0.032703105 0.060037974 -0.036515612 -0.019352375 -0.09775287 0.04980205
0.077254005 -0.026826622 -0.008526719 -0.032386217 -0.28611165 -0.0514649 -0.029834138 0.102125645
-0.123553686 -0.07181699 -0.046690397 -0.042844206 -0.022134032 0.21544518 0.24526949 0.23292361
0.15048724 -0.025020987 -0.14881769 -0.1253476 -0.09788513 -0.03324681 -0.041287895 0.08856437
0.1632747 0.19817406 0.014243598 -0.14654148 -0.08272853 -0.024424247 -0.004205883 -0.09075947
-0.056112677 -0.021836976 -0.09554912 -0.027124867 0.049714953 0.0877534 0.020143801 0.107524104
0.12048386 0.008359119 -0.04683888 -0.02242529 -0.061901912 -0.005109964 0.053429645 0.09201816
-0.16414422 -0.077390134 -0.14185646 -0.06823442 -0.04840944 0.05148443 -0.12588066 0.02289718
-0.0869971 0.04494823 0.07009964 0.21000732 0.22728315 0.079264164 0.03202981 0.014665044
0.13225174 0.1322656 0.09701187 0.011343417 -0.015805878 -0.097955875 -0.12419544 -0.005724002
-0.06575039 -0.18112344 -0.008729391 -0.027305948 -0.11063331 -0.07297825 -0.068600625 0.06313464
0.044685345 0.010019848 -0.042228527 0.033743832 -0.10653196 -0.06847989 -0.06820482 -0.014468604
0.050824914 0.051262096 0.15440568 0.14070992 0.20941003 -0.01710541 0.009573941 0.0041638254
-0.03462365 0.018440701 0.009430995 -0.023542622 0.03449812 -0.019650463 0.021767138 0.032674182

ds.proj_conv1.bias f4 [8]
00000000: 343c ac3d a829 ecbd 08f9 04be 94d2 a2bc
00000010: 2cba a6be 13bc 04be bd4f 05be 2821 c13d
0.0840992 -0.11531383 -0.12985623 -0.019875802 -0.32563913 -0.1296237 -0.13018699 0.09430152

ds.proj_bn1.weight f4 [8]
00000000: 9555 b63f ddf8 ba3f eee1 cc3f 525d b83f
00000010: a052 b13f b318 ad3f 6b0d aa3f f8f9 b53f
1.4244868 1.4607197 1.6006448 1.4403479 1.385334 1.3523163 1.3285345 1.421691

ds.proj_bn1.bias f4 [8]
00000000: 7b3d 513d 15a1 193e ac54 983d 489a d03d
00000010: 0164 173e 7d92 2d3d e61f 353e 7f97 073e
0.051084023 0.15002854 0.07438025 0.10185677 0.14784242 0.04237603 0.1768795 0.13241385

ds.proj_bn1.running_mean f4 [8]
00000000: 5d7d 9cbe b566 183e f87e 94bd 2046 0f3f
00000010: 8f37 67bf f191 833e 4f58 42bf 9b8a 913e
-0.30564395 0.1488293 -0.0725078 0.5596638 -0.9031915 0.25697282 -0.75916 0.2842606

ds.proj_bn1.running_var f4 [8]
00000000: d8fc de3e a917 0c3f d9d8 a53e a883 063f
00000010: 7e5f 873e b9a3 113f 4322 5a3f a0e4 003f
0.4355228 0.547236 0.32392004 0.5254464 0.26440042 0.56890446 0.8520853 0.50348854

ds.fc1_conv.weight f4 [128, 256]
00000000: 891e 5d3e 8d91 33be ff7a 12bf 009f bfbe
00000010: 2c1b 563d a9c9 24bf ce49 a4be be0e 5ebe
00000020: 7212 403e a4f7 16be 2e51 31bd 4a8f 9b3d
00000030: 091e 553e c5b0 083c aee4 01bc dcf6 4cbe
00000040: 4b08 1a3e 5a12 6cbb daa0 863d cbc4 323e
00000050: 9bd1 603d e974 38be 2b82 5fbd 86d2 a8bd
00000060: 9ad9 9ebe 72a6 92be d49b acbe 94ec a0be
00000070: fce7 53be 97cb 23be 1ee6 5d3e 78d0 543e
00000080: 674f fc3d 8387 003e 164d 723d 5893 83be
00000090: 5c40 edbd 3ccc 803d 67e5 63be 6497 75be
000000a0: c1ac 5fbe 292c a93c 10e2 46be 6822 023c
000000b0: ea88 4abc 919e 0f3e 7a36 403d 1379 7ebd
000000c0: aac7 05be 04ce a4bd f581 363c 3424 b63d
000000d0: bae8 e23d 138d 343d 5329 85bd 770b e0bd
000000e0: 6ece c93b 7169 0abd aa5b a9be 1f7a f0bd
000000f0: 22b6 adbe 3dfe eabd dde5 b1be 68dd 99bc
00000100: 8e83 a5bb 0219 063e 730e 73bd 02ce 85be
00000110: ba1c ff3c 475d 163e 7e64 a3be 0e47 9dbe
00000120: 13a4 8cbd 5320 1e3e f15e 2bbe db10 c43d
00000130: d896 60bc feff 893d da2f 5d3b d379 80bd
00000140: 0b63 0ebe 94a7 dcbd 007c 0f3d fbc5 9d3d
00000150: b798 af3d db1d 4d3d 1a5a 143c aabf 54bd
00000160: 1d73 0fbc f5f5 a6bd 2ae9 43be b177 0abe
00000170: 397c 65be 00f2 84bd 7d32 a3be e1f3 9dbd
00000180: 58dd 6e3e 7117 033e 5456 443e f7d8 0f3e
00000190: c70d fabd f77e d13d 5ba3 66bd 0ac5 62bc
000001a0: e8bf 6ebe 4909 f3bd f1f5 663d 59ae cbbe
000001b0: fd04 a6be 2fb1 87be 0cc0 913e dbed b63e
000001c0: 1969 cebb a93f 09be 8968 8cbe 5003 50be
000001d0: 19c3 a7bd 17a8 08bd 3949 d4bd 45b5 b73b
000001e0: d373 793c 3512 863d 3f6a 5a3c 705a 873e
000001f0: 7cd4 d83d 2aff b73d cdd3 02bd 8596 2cbd
00000200: 46eb d2bb eb1e 9abd 3efb cdbc 508d c9bd
00000210: 015d 1dbe fe40 933d 7c85 f03d 82b9 12bd
00000220: 08c8 8a3d b6c1 8d3e 4ee0 0d3e b326 2fbd
00000230: 5675 5bbe 00cf dc3c 34df 2c3b 52b1 b63c
00000240: 075e 05bd 9fd0 eebd d6ec 17be 6e89 79bd
00000250: 50f5 ca3d a626 df3d e98e 8e3d 8a0d ee3d
00000260: c1ea 7f3d 04ca 7738 42a3 0a3e d99d eabd
00000270: dc86 f33b 6e68 ab3b 4f79 e9bd b0e3 31be
00000280: 0e4c 813d 52b0 1b3d d5b0 84be 6ed6 babe
00000290: 5d09 9fbe 9573 58be f3fa 65be 1f08 79be
000002a0: 2a95 11be 6b58 31be 4f94 11be 3666 9d3e
000002b0: 3450 9e3e d79a 233e 7ee1 c63d e46b cebc
000002c0: fc31 2ebd 5ff8 b93d f38f 153d 644e fa3d
000002d0: 2d2e 32bc fd07 58bd f559 b1bd e17f ebbc
000002e0: 5aca 37be d1e8 a6be 5cf8 06be 76e2 1abe
000002f0: cddb 94be 20d8 c5be 97d1 7cbd ab81 60bc
00000300: 6cd9 71bd 4700 28be b6a5 a6bd 411f 8fbc
00000310: 3f5a dd3a 6c06 e53d 5ad5 e83d c7f4 fb3d
00000320: 3bcf cd3d ae74 393e 5802 473e a355 11be
00000330: 9d53 21be ba37 e0bd f87e c33d bba5 cb3d
00000340: c99b cd3d 50c0 5dbd f686 49bc e3d5 96bd
00000350: e73a 64bc 0933 81bc 2530 043e 6651 843d
00000360: 40d9 8a3d f9af eeba ac5f 77bb fea3 b13c
00000370: 96ee fe3b 3a02 ee3c 1259 aebc 747b 0abe
00000380: 7933 14be 7bbd d63d 6b61 173e 39bf 8a3e
00000390: 6c2b 273e 3e44 2abd 9720 d03d 585c 64bd
000003a0: 4c62 64bd 76d5 07be 8ceb 16be 09fc 1e3d
000003b0: c637 07be d21d 97be a2a7 b2be 5a78 943e
000003c0: b09a 9c3e 85a1 243e 2599 efbe 12e4 95be
000003d0: d69c 51be e568 5abe 7705 9f3d d643 78bd
000003e0: 82f6 07bd f63b 99bd 62a4 a13d 408d 7b3d
000003f0: 168d ebbc 8eeb a93e ae75 373e 4ba6 463d
0.2159368 -0.17535992 -0.5721893 -0.37425995 0.052272007 -0.6437021 -0.32087559 -0.21685311
0.18757036 -0.14742905 -0.04329031 0.075956896 0.20812239 0.008342926 -0.007928057 -0.20016044
0.15042226 -0.003602168 0.06573649 0.17457883 0.054887395 -0.18013348 -0.054567497 -0.08243279
-0.31025392 -0.28642613 -0.33712637 -0.31430495 -0.20693964 -0.15995632 0.21669814 0.2078265
0.12319832 0.12551694 0.059155546 -0.25698352 -0.11584541 0.062889546 -0.22255479 -0.23983532
-0.21843244 0.02065094 -0.19422174 0.007942773 -0.012361744 0.14025332 0.046926953 -0.062127184
-0.13064447 -0.08047107 0.011139383 0.08893624 0.11079545 0.04407985 -0.065020226 -0.10939687
0.0061586415 -0.033791963 -0.33077747 -0.11742043 -0.3392802 -0.11474273 -0.34745684 -0.018782333
-0.005051083 0.13095477 -0.05933995 -0.26133734 0.031141628 0.1468402 -0.31912607 -0.30718273
-0.06867232 0.15442018 -0.16735436 0.095735274 -0.013707839 0.0673828 0.0033750446 -0.06273236
-0.1390497 -0.107741505 0.035030365 0.077037774 0.0857405 0.0500773 0.009054685 -0.051940598
-0.0087554725 -0.08152381 -0.19131914 -0.13522221 -0.22410668 -0.0649147 -0.31874457 -0.07712532
0.23326623 0.12801911 0.19173557 0.1404761 -0.12209659 0.10229295 -0.05630813 -0.013840923
-0.23315394 -0.118670054 0.05638689 -0.39781454 -0.3242568 -0.26502368 0.28466833 0.35728344
-0.0062991497 -0.1340319 -0.27423504 -0.20313764 -0.08191509 -0.033363428 -0.103655286 0.005606326
0.015225369 0.065464415 0.013330995 0.26436186 0.10587403 0.089842156 -0.03194027 -0.042135734
-0.006436738 -0.075254284 -0.025144216 -0.09841406 -0.1536751 0.07190131 0.1174421 -0.035821445
0.06776434 0.27686852 0.13855097 -0.042761516 -0.21431479 0.026954174 0.0026378157 0.02230135
-0.032560375 -0.11660885 -0.1483644 -0.06092208 0.09910071 0.108960435 0.06960852 0.11623676
0.06247974 5.907753e-05 0.1353884 -0.11455888 0.007431848 0.005230955 -0.11400091 -0.17372012
0.063133344 0.03800995 -0.25916162 -0.36491722 -0.3106183 -0.21137841 -0.22459011 -0.24319504
-0.14217058 -0.17318885 -0.14216731 0.30742043 0.30920565 0.15977035 0.09710978 -0.02519793
-0.042528138 0.09080576 0.036514234 0.12221983 -0.010875267 -0.052741993 -0.08659736 -0.0287475
-0.17948285 -0.325995 -0.13180679 -0.1512545 -0.29073945 -0.38641453 -0.061723318 -0.01370279
-0.05904524 -0.16406356 -0.081370756 -0.017470958 0.0016887857 0.111828655 0.113688186 0.12302547
0.10049292 0.18110916 0.19434488 -0.14192824 -0.15754552 -0.10948129 0.09545702 0.0994372
0.10039479 -0.05413848 -0.012300244 -0.073650144 -0.013930059 -0.015771406 0.1290899 0.06460838
0.067797184 -0.0018210403 -0.0037746234 0.021684643 0.0077799065 0.029053796 -0.021282706 -0.13523656
-0.1447276 0.10485359 0.14783256 0.27099016 0.16325158 -0.041568987 0.10162466 -0.05575213
-0.055757806 -0.13265023 -0.14738292 0.03881458 -0.1320487 -0.2951494 -0.3489352 0.2899807
0.30586767 0.1607724 -0.46796528 -0.29275566 -0.20469984 -0.21329077 0.07764714 -0.06061157
-0.033194073 -0.0748214 0.07892682 0.061414003 -0.028753798 0.33187526 0.17915985 0.048498433

ds.fc1_conv.bias f4 [128]
00000000: 0009 813c efd7 dabc 27c7 aa3b cfec 6aba
00000010: 91fc 513d 5e74 583d 56b0 11bd b82c 3e3d
00000020: da65 993c 9f7c 5cbd 6b43 553d 63da 9ebd
00000030: c96d 583b 99f0 acbc 7cd8 853c d1ee 0fbc
00000040: b943 5f3d 8edf 043d 54f1 0b3e 7fd3 6ebb
00000050: 77f9 5d3d df1a 273d 71c6 803b 83fc 163d
00000060: 4926 553c f46f 583c 1b53 dd3b 82b8 463d
00000070: 5d43 6a3d e5e6 c83c 5590 77bd df34 f3bc
00000080: db17 db3c 9fa5 d03c 5bbc 973b 884a 873c
00000090: 6934 2f3d de0c 683d 751b 543d 5e48 883d
000000a0: 7eac 6bbd e15d 683c 0214 0b3d 3e07 ba3c
000000b0: f510 c13c d192 4d3d 4861 7f3c dad3 d93c
000000c0: 6db0 0e3d aa77 b23d dc9e fc3c 1dda ed3b
000000d0: e265 19bd 84b7 d23b bc97 55bb 1f4a 933d
000000e0: 36da da3c ff67 623d bc24 703b ed4d 283c
000000f0: dd16 cbbb 459f 483d 2c6b d53c a328 063d
00000100: c157 c1bd 5693 323c 069e b5ba 0bff ca3b
00000110: 6aa6 033d 2e23 9a3a 2d53 fcbb 2d44 963c
00000120: b305 b33c f61a fc3c b36e ab3d 061c 693c
00000130: 4b51 2abd 47a5 81bc 9f76 2d3d 650a ab3c
00000140: ad24 403c da37 753d e3b0 293c 78e3 913d
00000150: c22d b03c 0ca1 363d 1209 543b 31f0 2e3d
00000160: 3d74 26bd d12c 273d 0284 803d 3d5e 75bc
00000170: 3952 2abc ee09 34bb 8adb 2e3d b395 2f3c
00000180: 407a a13c ae4e 6e3d ce0b c63c 5406 a23d
00000190: 78f6 66bc dc4f b53d ed66 4c3d 31fa 0b3d
000001a0: 6124 f9ba e133 0cbc 9f32 343d 07c0 293b
000001b0: d67e debc b9db 4c3b c361 203d 53fe 703d
000001c0: 39ac bc3d f7de 483d cdd0 243d 63d7 0e3d
000001d0: a2ec 643d 122d 8a3c d745 a73d 24e6 c83c
000001e0: 6f1b dd3d 6693 ad3d a13c 523d b944 403d
000001f0: 3597 dd3b 2a0c 963d 9712 793b d292 a53b
0.015751362 -0.026714293 0.005211729 -0.0008961679 0.051266257 0.05284535 -0.035568558 0.046429366
0.018725324 -0.053829785 0.052066248 -0.07756498 0.0033024421 -0.02111082 0.01633858 -0.008784966
0.054507945 0.03243976 0.13666278 -0.003644198 0.054192986 0.04079711 0.003929906 0.036861908
0.013009616 0.013210285 0.0067542917 0.048515804 0.05719315 0.024524162 -0.06044038 -0.029688297
0.026744774 0.0254696 0.004630608 0.016515031 0.04277459 0.056652896 0.051783998 0.06654428
-0.05753755 0.014182539 0.033954628 0.022708531 0.023567656 0.050188843 0.0155871585 0.026590277
0.03483622 0.0871423 0.030837469 0.007258667 -0.03745068 0.006430568 -0.0032591661 0.07191872
0.02671538 0.05527496 0.003664299 0.010272485 -0.006197794 0.048980016 0.02605208 0.032753598
-0.09440566 0.010899385 -0.0013856299 0.0061949543 0.032141127 0.0011759752 -0.007700345 0.018343056
0.021853304 0.030774575 0.083707236 0.014227873 -0.041581433 -0.01582588 0.042349454 0.02087898
0.011727494 0.059867717 0.0103571145 0.07123464 0.021506194 0.04458718 0.003235404 0.042709533
-0.040638197 0.040814225 0.062751785 -0.014976081 -0.01039558 -0.002747174 0.042689838 0.010716843
0.019711614 0.058180504 0.02417555 0.07911363 -0.014096849 0.088531226 0.049902845 0.034174148
-0.0019008034 -0.008557291 0.04399359 0.002590181 -0.02716009 0.0031258895 0.039155733 0.058836292
0.09212536 0.04904076 0.04023819 0.034873378 0.055889733 0.016867194 0.08167618 0.024523802
0.10796248 0.0847538 0.05132735 0.04694054 0.00676241 0.07326539 0.0038005465 0.0050529027

ds.fc2_conv.weight f4 [64, 128]
00000000: 1ea9 90bd 0c75 303e 9bcb 8ebd 0180 03bd
00000010: 9c85 423d 3704 a4bb 389b 1a3e 9b8b b13d
00000020: 891e 1dbc 20dc d1bd 78d8 aabc c019 46bd
00000030: 5541 75bd 1522 86be b055 8cbc 1fb2 093d
00000040: 9a7a 17be 89a3 013d 168c 4e3d c0a3 073e
00000050: 37ed 543c 166e 2fbd 622e 843b 430f a63d
00000060: 70e5 05bd 8fb5 45bd 2480 75be 0cc8 91be
00000070: 5a91 de3e 0c28 9dbd 4970 a43e 865d 80be
00000080: e7d4 ff3d fd75 51bd 3808 6dbd 8078 753e
00000090: c010 953e 9707 9bbd 2467 64be adf1 83bd
000000a0: e905 7d3e b96e 063e 8833 e03d 732f 94bc
000000b0: 942e 02bf d6cf 84bd 1b1f 8dbe a85e d4be
000000c0: 2f6e aebd 8daf 16be cf02 8bbe 06ff 8abe
000000d0: 9cd2 923e 9d94 533d d874 22bf 729d b9bd
000000e0: d14c 84be d463 c4bd 1076 edbd de7f 443d
000000f0: a3b9 f33d 2434 51be dc8a 233c 79d0 f83d
00000100: c726 a1bd c914 593d 20b1 06be 5c9f d03d
00000110: 679e 8ebe 5365 373e 2ce1 13be c3fb 93be
00000120: 2b43 85be 30d2 7ebd b771 8a3d dd02 9ebc
00000130: 713f 9c3d 7aee 623e 1518 78ba d58b 51be
00000140: dfa3 3d3d 238a af3c 5427 5c3e bc5a b33d
00000150: ebc0 70be 22e2 a6be 74e0 923e 4884 923d
00000160: 7a0d fbbc 15b2 92be 9482 30be cb96 4e3e
00000170: 3e0f 653d ebd9 8ebe 8601 863d c215 c13e
00000180: a53c 56bc df5f f1bd 9948 593e 207e 553d
00000190: a04b 16bf b368 bb3d 55ec 1cbf c914 bebe
000001a0: a9e2 b23e 5882 f1bc d3f3 c8bd e895 84be
000001b0: 6d99 d8bd 9eda 013e 6fb7 b4bd fc2a e13d
000001c0: 0b9c 09bd 7b69 b7be f3c8 3dbe 395f 7cbe
000001d0: 0a66 f83d 13e6 1b3d bc55 ffbb b4c5 133c
000001e0: e733 423d eeed d93d 80ed bc3e 5ae3 57be
000001f0: bb00 aa3e c45c ae3d b90f 95bd e3ff f4bd
00000200: dbcd 1a3e 2c40 923e 5576 e03b 4710 89be
00000210: 3340 a63d 6625 aa3a cd51 253d 3300 25bd
00000220: f6d7 563e 4c65 01bd 4779 e1bd 45c9 17be
00000230: 9b38 2c3e 8bb2 7d3d a190 ef3d d0be a33e
00000240: 5c00 52bc 18c5 9b3e b5c0 af3d a9cb 113c
00000250: 10eb bd3d c16f d1bd eeb0 0abe 6212 00bd
00000260: dc7d 4bbe 2ec4 e83d e377 8ebd c2bf b5be
00000270: 4fa8 e9bc 682d 59be a824 983e 742f 3bbd
00000280: 8035 71ba ffef 8f3e 4a60 2abd 90dc 663d
00000290: 3066 dbb9 da3d 273e 546b 14bd 0ce2 433e
000002a0: 751c a23e 06e5 383d fd86 893d 4833 f9bd
000002b0: cfbe 163b d07a 95be acc0 55bd de9b b13d
000002c0: 1422 a6be cb57 1b3e 4675 18be 1c4f dabd
000002d0: 8eda 143d bddd 8a3e f887 a73d 7445 123e
000002e0: 2a54 5ebe 4b8c ea3d 3c49 15ba 8940 5bbc
000002f0: 3a07 273d 8c1e a4bd 788d 913e d494 6d3d
00000300: cb73 22be 99f6 abbc 756e a23d c522 52bd
00000310: a81a 2fbe 263b 143d d30f 1ebe d8cf 36be
00000320: f4a9 303d d182 b0be 4dfd 083e d817 373c
00000330: b365 653e 9cc6 4b3c bdd2 783e 0f72 79bc
00000340: ac81 873e c2f3 033e 720a cb3c f873 923a
00000350: b496 bbbd d4af 5abe fb37 283d e6ab 8c3d
00000360: c26b 2fbe d147 40be 7165 acbc 35fd 05bd
00000370: 818a 723e 902f b6bd d826 72bd 7673 f9bb
00000380: 2eb6 8e3c 66cc 9bbe e1cb 1cbd 1bc4 b53d
00000390: 41d6 093e e0a5 cc3d 3612 a33d 2d59 2ebd
000003a0: c1a9 e63d 2bf5 f03d f561 47be a5b1 56bd
000003b0: 333d f1bd 256d be3d 2984 bcbe 9dc1 3f3d
000003c0: 1e74 89bd 179c 193c 7da2 403d 3cb7 5abe
000003d0: 8ccc 13bc bb89 2abd bd5b da3d 3975 963e
000003e0: 6099 c93d 1d16 d33c 8975 40bd e2a5 393d
000003f0: fdb7 903d cdf8 913d aa4c 80bd 5e18 25bd
-0.070635065 0.1723215 -0.069724284 -0.032104496 0.0474907 -0.0050053853 0.15098274 0.08669206
-0.0095898 -0.10247064 -0.020855173 -0.0483644 -0.05987676 -0.26197878 -0.017130703 0.033617135
-0.14792863 0.0316501 0.050426565 0.1324606 0.01299601 -0.042829596 0.0040338496 0.0810838
-0.03268951 -0.04826885 -0.23974663 -0.28472936 0.4347027 -0.07673654 0.32116917 -0.25071353
0.1249178 -0.051137913 -0.057869166 0.23971748 0.29114342 -0.07569807 -0.2230497 -0.0644258
0.24709286 0.13128175 0.10947329 -0.018089032 -0.5085232 -0.06484954 -0.27562794 -0.41478467
-0.085171096 -0.14715405 -0.2715058 -0.27147692 0.28676307 0.0516554 -0.6345954 -0.090632334
-0.25839856 -0.09589353 -0.11594784 0.047973506 0.11900642 -0.20430046 0.009981837 0.12149138
-0.07868724 0.052998338 -0.13153505 0.101866454 -0.27855226 0.17909746 -0.14441365 -0.28903016
-0.26027808 -0.06221217 0.06759971 -0.019288475 0.07629288 0.22161284 -0.0009464038 -0.20463498
0.046298858 0.021428173 0.21499377 0.087575406 -0.23511092 -0.325944 0.2868687 0.07154137
-0.030646075 -0.2865149 -0.17237312 0.2017471 0.05592274 -0.27900633 0.06543259 0.37711912
-0.013075982 -0.11785864 0.212191 0.052122235 -0.58709145 0.09150829 -0.61298114 -0.37125233
0.34938553 -0.029481098 -0.09812131 -0.2589562 -0.10576139 0.12681052 -0.0882405 0.10994527
-0.03359608 -0.35822663 -0.18533687 -0.246457 0.121288374 0.038061213 -0.0077922028 0.009019304
0.04741278 0.106410846 0.36899948 -0.21082821 0.33203682 0.085137874 -0.072783895 -0.11962869
0.1511759 0.28564584 0.006850044 -0.2677023 0.08117714 0.0012981116 0.040361214 -0.040283393
0.2098082 -0.031590745 -0.1100946 -0.14822872 0.16818468 0.06193785 0.11697508 0.31981516
-0.0128174685 0.30423808 0.08581678 0.008898654 0.0927335 -0.102263935 -0.13544056 -0.03126753
-0.1987223 0.11365543 -0.0695646 -0.35497862 -0.028522639 -0.21208727 0.29715466 -0.04569955
-0.00092013925 0.2811279 -0.041595735 0.05636269 -0.0004184707 0.16332188 -0.03623517 0.19129199
0.31662336 0.04514029 0.067152 -0.12167984 0.0023001914 -0.2919526 -0.0521857 0.086723074
-0.32447875 0.15170209 -0.14888486 -0.1065962 0.036341242 0.27122298 0.08180231 0.14284307
-0.21711794 0.1145254 -0.00056948117 -0.013382086 0.040778376 -0.08013639 0.28428245 0.05800326
-0.15864484 -0.02099161 0.07931224 -0.05130269 -0.17100012 0.03618922 -0.15435724 -0.17852724
0.04313083 -0.34474805 0.13377877 0.011175118 0.22402076 0.012437489 0.2429914 -0.015224948
0.2646612 0.12885955 0.024785254 0.0011173477 -0.09159604 -0.21356136 0.041069012 0.068687245
-0.1713095 -0.18777396 -0.021044465 -0.03271218 0.23685648 -0.088957906 -0.059119076 -0.007612641
0.017420854 -0.3042938 -0.03828037 0.08875295 0.13460638 0.09992576 0.07962458 -0.042565513
0.11262847 0.11765512 -0.19470961 -0.05241551 -0.11779251 0.092981614 -0.3681958 0.046815503
-0.06711601 0.009375594 0.04702996 -0.21358961 -0.009020936 -0.041635256 0.10662029 0.2938631
0.09843707 0.02576738 -0.04698709 0.045324214 0.07066343 0.07127533 -0.062646225 -0.04030644

ds.fc2_conv.bias f4 [64]
00000000: 4c4e 823c 159a 4f3d 1871 9d3c f32c eebb
00000010: 8c6d e03c 6578 e03c 0c83 9b3c 52f8 603d
00000020: 7b69 e83c af1e 473d 9984 b13b 1eb3 ee3c
00000030: 6243 083d 6342 2d3d 81ea 1c3d 6e95 3f3d
00000040: 3ab4 783d 165d 613d 2856 093d 9ada 233d
00000050: 32c8 b83c 3d77 323d 8aba 353d 9c01 823d
00000060: 1d89 2c3d f8c5 9e3d 7282 883d 8ec2 0abd
00000070: 81e6 1a3d ba22 523d 2704 983d 1d54 d43b
00000080: 969b 343d ac65 223d 175e 123d 85dd 01bd
00000090: 29ea 293d 87f3 803d 2a46 4bbc d1f3 ed3c
000000a0: f699 203d f93b fcba 87c6 e63c ced8 8c3d
000000b0: 58a8 d13b 5bce dc3b 7792 083d a9da 313d
000000c0: f7a8 803d 87d2 173d 8566 283d c0be 003d
000000d0: f727 633d 71bb c73d 06eb 963c f228 343d
000000e0: dfd1 ab3c 6bb5 4a3c c737 b13d 926a 86bc
000000f0: 7f6d 233d 212f 853d ef4c 003d 0bf7 8d3d
0.015906475 0.050684053 0.019218966 -0.007268542 0.027395986 0.027401159 0.018983386 0.054924317
0.02837061 0.048613247 0.005417418 0.029138144 0.033267386 0.04229964 0.038309578 0.046773367
0.060718752 0.055020414 0.03352943 0.040003397 0.022556398 0.043570746 0.04436735 0.06347963
0.04212295 0.07752603 0.066655055 -0.033876948 0.037817482 0.05130265 0.07422667 0.0064797536
0.04409369 0.039647743 0.035734262 -0.031705398 0.04148308 0.06296449 -0.012406865 0.029046925
0.03920933 -0.0019243947 0.028170837 0.0687729 0.006398242 0.0067384667 0.033342805 0.04342142
0.062822275 0.03706601 0.041113395 0.031431913 0.055458035 0.097525485 0.018422615 0.04398436
0.020974098 0.012372355 0.08653217 -0.016408239 0.039899345 0.0650313 0.03132337 0.06931885

head.weight f4 [15, 64]
00000000: d965 ee3e 222f 073d ace8 47bf 1702 4fbf
00000010: a059 e33e a94a 90be 28b1 f4be aa08 8ebe
00000020: 4728 16be 3119 aebe b2f8 b23e e8b6 6ebf
00000030: 935f 313e ca90 533d 0ef5 b63d 9c3f 4a3e
00000040: a123 86be 029e bdbe b707 3ebf 671a 1a3e
00000050: c9b9 84bf daa7 46bf f124 11bf 1f33 2f3e
00000060: d06e 02be f772 3b3d c9ee 88be bd99 9abe
00000070: 224e 4b3e 3b84 7b3d c3eb 74be 4c7c 00be
00000080: 7bac c73d 93dc 143e 9a2f 0ebf d118 67bd
00000090: 5dc7 2e3e 3d77 3a3d ab7d fcbd 9152 58be
000000a0: 50eb 213e 18e3 06be b6dd a23e 35e1 6f3d
000000b0: 8b00 0ebf a675 44be 61ef 9dbe 4311 e93d
000000c0: ff3b a43d 3ffd f13d 6bfd 14bd c969 2c3e
000000d0: 6175 4b3e 6c6b 3bbf 5e3c 903d 45bb 30bf
000000e0: af24 8cbe 72fc 523e 95f6 083d d235 2fbe
000000f0: 9202 373d fd24 13be ab9f ccbe 0a8b 623d
00000100: 169f 3f3e 3dec 13bf 963f 103e 664c ddbe
00000110: 7192 d93d 9643 963e ab18 423e ca17 723e
00000120: 30f3 68bf 2744 88bf 07fd e33d b06a 86bd
00000130: 9392 4e3e e893 003e a0b2 0abf d5dd 85be
00000140: f45f 813e 4471 883e 9ed7 d6be 0d85 9e3d
00000150: ad29 6fbe 6358 523e 0832 ffbe b720 333f
00000160: 964b 67be db7e 20bf f82c 823e 6b5c 1ebf
00000170: 1447 b8be 29ed 05bf 3500 0abf 7812 24be
00000180: f466 02bf 13f1 10bf 9989 413e ab0e c4be
00000190: b0a0 8abe b655 023f b510 9cbe ef4c f8be
000001a0: 8310 17bf 45ea 2bbe ae71 183e 2a3a adbe
000001b0: 5d72 7dbe 95bd e8be f130 3fbe 8324 c6be
000001c0: 25e0 d63d 3622 ba3d 615c c33d d87f bebe
000001d0: 9b10 0abf 0fca 823e 05c5 0e3f 10c4 d2be
000001e0: d50b 953e 8db6 17bf 2068 8f3d 1bdc 5cbe
000001f0: 8e32 12bf 93bb e0be aee0 49be 86aa 323e
00000200: ff88 883e 78fd c7be 2a6b fb3d f9a7 2cbf
00000210: e7c5 143e fe42 6e3e 3e6c 303e bc55 693e
00000220: bc1d 243f 9e4d 103f 839b 0f3e 3527 dabe
00000230: 5de3 383e cc24 e43d ed67 9bbe 7ba6 31be
00000240: 7d2c 7c3e b46f 333e 76a8 19bf 2ab5 de3d
00000250: a3ab 5bbf 33d1 213e 105f 163f 1465 68bf
00000260: 4110 83be 0f88 d1be 92cc 7b3e 897b 0ebf
00000270: edaf 95be 1c60 93be 0fef 1fbf 91f5 7bbe
00000280: 2916 a7be ad2d aabe ef36 733e a0da a5be
00000290: 3723 48be 1d49 52bf 427c fdbe 407f 0d3f
000002a0: bae8 84be 9413 77be a7a4 073e 47dd 38be
000002b0: 09a7 cabe bb2a 09bf a5f6 8dbe 70dd 17bf
000002c0: 04ba d43d d8fd b43d 5fc1 bc3d 6c20 93be
000002d0: e570 5ebe e2ec 543e 8755 51bf 3e92 0abf
000002e0: 56a6 543e 1196 32bf 6f33 223e b46e 8ebe
000002f0: 6248 d1be 9ae2 05bf a20c 86be be6e db3d
00000300: 053d 4fbe f17f 2abe 8dbd 98be ba62 0abf
00000310: 0bdf 9cbe 4d7a 793e 0be6 7a3e 6971 173e
00000320: b6f2 883e 3b68 8d3e ec6a 91be 37df 223e
00000330: 1aec 50be 7854 68bf 1190 95be 4dcb cbbe
00000340: 0d46 ce3d 70a9 d03d 4999 1c3e 4426 8fbe
00000350: 9c78 053e cd63 4cbf 3b85 8a3e d2fb 8cbf
00000360: ca2d 1d3e a947 40be 2f49 373e 05d3 4dbf
00000370: 76d6 8d3e f3ca d0be fcca 973e 09ab 4f3e
00000380: 7a32 aebe 1938 38be 2976 873e 5dc2 36bf
00000390: a000 ccbe bc77 85be 2766 1e3e d100 0d3e
000003a0: 9568 32be be1f 703e 1f12 9bbe b078 d4be
000003b0: 07ad d73e 1db2 d13d b01a 373e 6bc1 f2be
000003c0: f10e 96be f0fa 87be ff35 62bf ea9b e6be
000003d0: b711 2ebe 10d5 043e 5537 0cbe 8f16 213e
000003e0: e12e 7b3e 14b5 983e e256 6dbe ef03 553e
000003f0: 1db8 4abe 7abd 3b3e 815b 513e bd24 86bf
0.4656208 0.033003934 -0.78089404 -0.80862564 0.44404316 -0.2818196 -0.4779141 -0.27740985
-0.14663802 -0.34003595 0.34955364 -0.9324784 0.17321615 0.051651753 0.08933459 0.19750828
-0.26199058 -0.37034613 -0.7423052 0.15049134 -1.0369197 -0.7759987 -0.56696993 0.17109345
-0.12737584 0.045763936 -0.2674468 -0.30195418 0.19854024 0.0614054 -0.23918061 -0.12547415
0.09749695 0.14537267 -0.55541384 -0.05642015 0.17068239 0.04552387 -0.12328657 -0.21125247
0.15812421 -0.13172567 0.31809777 0.058564384 -0.5546958 -0.19185504 -0.30846694 0.113802455
0.08019256 0.11815881 -0.03637449 0.16837229 0.19868995 -0.7321079 0.07042764 -0.6903575
-0.27371737 0.20604113 0.033438284 -0.17110375 0.044680186 -0.14369579 -0.39965567 0.05530838
0.1871303 -0.57782346 0.14086756 -0.4322235 0.106236346 0.2934844 0.18954723 0.23641887
-0.90996075 -1.0645798 0.111322455 -0.06563318 0.20173101 0.12556422 -0.5417881 -0.26145807
0.2526852 0.26648915 -0.41961378 0.07740221 -0.23355742 0.2054153 -0.49842858 0.69971794
-0.22587427 -0.62693566 0.25424933 -0.6185977 -0.35991728 -0.52315 -0.53906566 -0.1602267
-0.50938344 -0.5661785 0.18900146 -0.3829244 -0.2707572 0.50912035 -0.30481496 -0.48496196
-0.5900957 -0.16788585 0.14887115 -0.33833438 -0.24750657 -0.4545714 -0.18671013 -0.3869973
0.10491971 0.090885565 0.09539104 -0.37206912 -0.5393159 0.25544783 0.5576938 -0.4116521
0.2911059 -0.59262925 0.07002282 -0.21568339 -0.5710839 -0.43893108 -0.19714615 0.17447862
0.2666702 -0.3906057 0.12276299 -0.67443806 0.14528619 0.23267743 0.17228791 0.22786611
0.6410787 0.56368434 0.14024167 -0.42608038 0.18055482 0.11139831 -0.30352727 -0.17348664
0.24626346 0.1752308 -0.60022676 0.10874398 -0.8580877 0.1580246 0.58738804 -0.9077923
-0.25598338 -0.40924117 0.24589756 -0.5565725 -0.29235783 -0.28784263 -0.6247415 -0.24605395
-0.32634094 -0.33237973 0.23751424 -0.3239336 -0.19544683 -0.8214281 -0.49508864 0.55272293
-0.25958806 -0.24128562 0.13246404 -0.1805316 -0.39580563 -0.53580827 -0.27727237 -0.5932226
0.10387042 0.08837479 0.0921657 -0.28735673 -0.21722753 0.20793489 -0.8177113 -0.541294
0.20766577 -0.69760233 0.15839933 -0.27818835 -0.40875536 -0.5229889 -0.26181513 0.10714482
-0.20238121 -0.16650368 -0.29832116 -0.54056895 -0.30638918 0.2436306 0.24501817 0.14789356
0.26747674 0.27618584 -0.28401887 0.15905462 -0.20402566 -0.9075389 -0.29211476 -0.39803544
0.10071955 0.10188568 0.15292849 -0.27958882 0.1303429 -0.79839784 0.27054772 -1.101435
0.15349498 -0.18777336 0.17899011 -0.80400115 0.27702683 -0.40779838 0.29647052 0.20280088
-0.34022886 -0.1799015 0.26457337 -0.71390325 -0.39844227 -0.26067913 0.15468656 0.13769843
-0.17422707 0.23449609 -0.30287263 -0.41498327 0.42124197 0.102390505 0.17881274 -0.4741319
-0.29308274 -0.26558638 -0.8836364 -0.45040828 -0.16998945 0.12971902 -0.13692982 0.15731262
0.24529602 0.29825652 -0.23177674 0.20802282 -0.19796796 0.18333998 0.20445062 -1.0479962

head.bias f4 [15]
00000000: e90c 31bd 7051 043d f3ff ff3c 7b40 833d
00000010: ea2f 9cbd 6ef8 5c3d 118d 68bd 60c6 6dbd
00000020: 08f2 a73d 1f90 20be 1346 c13d b458 fe3c
00000030: c4bd 90bd 9908 fdbc d8d6 3b3d
-0.043225203 0.032304227 0.031249976 0.06408783 -0.076263264 0.05394786 -0.056775156 -0.058050513
0.08200461 -0.15679978 0.09437194 0.031048156 -0.07067445 -0.030887889 0.045859188
