surrogate/trained_model/model_rate10_fold4.pth (torch, 179099 bytes, 18 tensors)

ds.proj_conv.weight f4 [16, 2, 7]
-0.03398681 -0.09960895 -0.14823994 -0.18650833 -0.22151355 -0.13687491 -0.067701496 -0.095025554
-0.050838172 0.005480688 0.08017361 0.095849015 0.10673118 0.11313557 -0.124785595 -0.022397362
0.009685947 0.09148297 0.15117028 0.1317526 -0.018444633 -0.12226539 -0.12764192 -0.090684876
-0.010656127 -0.03952712 -0.2096799 -0.20411067 0.040049933 -0.009515203 0.11325667 0.17278865
0.12365183 0.10679716 0.0897506 -0.08431764 -0.11094038 -0.10699758 -0.0039695115 -0.017418358
-0.18582644 -0.17370339 -0.17130218 -0.23706767 -0.14408177 -0.219805 -0.33259162 -0.22357121
-0.07072203 0.033021063 0.0037427887 0.05425286 -0.0006650277 -0.031267133 -0.03531318 -0.10546714
-0.0274694 -0.055170063 -0.052953348 0.0077833384 0.016444486 0.107159115 0.10706247 0.10367867
0.28807828 0.13058124 0.077858426 0.025953315 -0.010000162 -0.031843558 0.046100307 0.05254933
0.07545346 0.0627958 0.050152916 -0.0005574494 0.07447429 -0.06239502 0.03451489 0.23810792
0.19346698 0.13833964 0.09330609 -0.0141280545 -0.14116715 -0.11838959 -0.072934784 0.0029142108
0.039361283 0.055010755 0.063779585 -0.016607258 -0.06617505 -0.16405319 -0.09177846 -0.21942501
-0.28352058 -0.3981872 0.03370191 0.10260472 0.15385176 0.16580336 0.05580875 0.075496495
-0.030344997 -0.0406336 -0.06416998 -0.114663936 -0.058533046 -0.049310245 -0.1318319 -0.11166962
0.060260393 0.07694652 0.07590566 0.06947953 0.09750394 0.10511669 0.10538354 0.14972173
0.2180523 0.17375003 0.17507252 0.086425155 0.052552167 0.013462856 -0.09468821 -0.07592228
-0.036940057 -0.032817796 -0.096379645 -0.090115 -0.08898657 -0.026316945 -0.13465215 -0.1657086
-0.15827142 -0.20643516 -0.06699996 -0.008357207 0.08680551 0.13785866 0.12222034 0.09571395
0.09801095 0.0976387 0.077975936 0.011799732 0.10494071 0.12137383 0.12192185 0.08529042
0.0860053 0.042615492 -0.07106869 -0.11421858 -0.09978726 -0.08086933 -0.045114186 0.02806844
0.02527132 0.1730597 0.10833401 0.05870716 -0.0034304978 -0.121462986 -0.15445116 -0.16611886
0.14229235 0.14939795 0.15656593 0.05576434 0.0056486824 0.017136583 -0.026535513 -0.0788519
-0.06608931 -0.11609006 -0.041186623 -0.08663586 -0.11434621 -0.076204434 0.12155575 0.11243597
0.051228765 0.15225454 0.22511601 0.20943855 0.16175532 0.027327295 0.03242918 0.039447334
0.024386764 0.009199328 -0.005688902 0.005278879 0.027422464 0.011551387 0.05497451 0.034557603
-0.066325754 -0.0758922 -0.11586719 0.15668231 -0.20360053 -0.35390314 -0.33354193 -0.31481966
0.02370783 -0.028189322 0.00066662516 0.011370247 0.0007110813 -0.02663004 -0.077463895 -0.0773614
-0.09316425 -0.29125375 -0.36573645 -0.22378325 -0.095923714 -0.004733813 0.065336525 0.1279166
00000000: c135 0bbd c7ff cbbd 36cc 17be 0afc 3ebe
00000010: 73d4 62be f028 0cbe 15a7 8abd c29c c2bd
00000020: b03b 50bd 5897 b33b 1032 a43d 7d4c c43d
00000030: e095 da3d 9fb3 e73d 978f ffbd ac7a b7bc
00000040: ceb1 1e3c 6c5b bb3d 62cc 1a3e 27ea 063e
00000050: 3319 97bc 4766 fabd 90b4 02be feb8 b9bd
00000060: 0997 2ebc 30e7 21bd 54b6 56be 6302 51be
00000070: 660b 243d a7e5 1bbc 1df3 e73d 82ef 303e
00000080: 2c3d fd3d 78b8 da3d 2acf b73d baae acbd
00000090: b634 e3bd 8c21 dbbd ad12 82bb f2b0 8ebc
000000a0: 4949 3ebe 4ddf 31be d769 2fbe dec1 72be
000000b0: 2c8a 13be 9014 61be 7349 aabe daef 64be
000000c0: b6d6 90bd 1841 073d 9349 753b 3f38 5e3d
000000d0: 4155 2eba f711 00bd 8ea4 10bd 28ff d7bd
000000e0: 8207 e1bc 01fa 61bd 9ce5 58bd 600b ff3b
000000f0: 96b6 863c 3d76 db3d 9143 db3d 7c55 d43d
00000100: ff7e 933e 17b7 053e 3d74 9f3d 0c9c d43c
00000110: b8d7 23bc 646e 02bd add3 3c3d f73d 573d
00000120: 5887 9a3d 169b 803d 256d 4d3d cc21 12ba
00000130: fa85 983d ec91 7fbd 7c5f 0d3d 90d2 733e
00000140: 351c 463e e8a8 0d3e 4317 bf3d 5b79 67bc
00000150: 1f8e 10be 3e76 f2bd d55e 95bd 58fc 3e3b
00000160: 4c39 213d f552 613d df9e 823d f20b 88bc
00000170: c986 87bd 8ffd 27be 58f6 bbbd f3b0 60be
00000180: 9c29 91be 31df cbbe 040b 0a3d 6c22 d23d
00000190: 518b 1d3e 5bc8 293e b797 643d e89d 9a3d
000001a0: 1296 f8bc 6b6f 26bd 8d6b 83bd edd4 eabd
000001b0: 59c0 6fbd 8af9 49bd f1fe 06be 0bb3 e4bd
000001c0: 9ad3 763d 2396 9d3d 6d74 9b3d 494b 8e3d
000001d0: 25b0 c73d 6b47 d73d 53d3 d73d a750 193e
000001e0: 1a49 5f3e 87eb 313e 3646 333e acff b03d
000001f0: f140 573d 5093 5c3c e4eb c1bd 247d 9bbd
00000200: 754e 17bd f46b 06bd b162 c5bd 378e b8bd
00000210: 973e b6bd a296 d7bc 41e2 09be 84af 29be
00000220: e711 22be bd63 53be 4637 89bd abec 08bc
00000230: 16c7 b13d d22a 0d3e a84e fa3d ad05 c43d
00000240: f7b9 c83d ccf6 c73d d9b1 9f3d aa53 413c
00000250: 28eb d63d d892 f83d 2ab2 f93d beac ae3d
00000260: 8c23 b03d 958d 2e3d 768c 91bd 6eeb e9bd
00000270: 435d ccbd d29e a5bd a7c9 38bd c9ef e53c
00000280: cd05 cf3c 9036 313e 39de dd3d eb76 703d
00000290: 34d2 60bb 96c1 f8bd 7228 1ebe 101b 2abe
000002a0: 16b5 113e c7fb 183e d252 203e 2669 643d
000002b0: 9518 b93b 0562 8c3c 0161 d9bc 1b7d a1bd
000002c0: d559 87bd a0c0 edbd 4eb3 28bd 246e b1bd
000002d0: 592e eabd 1211 9cbd 39f2 f83d d444 e63d
000002e0: 41d5 513d 9de8 1b3e d084 663e 0f77 563e
000002f0: 30a3 253e 7edd df3c 76d4 043d 8793 213d
00000300: c0c6 c73c c7b8 163c f869 babb 72fa ac3b
00000310: 13a5 e03c 0742 3d3c f42c 613d 468c 0d3d
00000320: ccd5 87bd 5f6d 9bbd c74b edbd 5471 203e
00000330: a87c 50be cb32 b5be 02c6 aabe 0b30 a1be
00000340: ec36 c23c 4bed e6bc 75c0 2e3a 464a 3a3c
00000350: dc67 3a3a 3e27 dabc 64a5 9ebd a76f 9ebd
00000360: e6cc bebd 361f 95be cf41 bbbe 7027 65be
00000370: a773 c4bd 1a1e 9bbb 28cf 853d 92fc 023e

ds.proj_conv.bias f4 [16]
-0.0105258245 0.039957453 0.089765094 -0.1787924 -0.056941174 0.14545558 -0.08798404 0.13347322
0.024295276 -0.23316243 0.3414246 0.2545982 -0.028741864 0.017681932 -0.21835941 -0.23526749
00000000: 8274 2cbc 6daa 233d c3d6 b73d 5b15 37be
00000010: 263b 69bd 4ff2 143e fa30 b4bd 34ad 083e
00000020: e306 c73c 22c2 6ebe 35cf ae3e b25a 823e
00000030: 0f74 ebbc b3d9 903c 9c99 5fbe f6e9 70be

ds.proj_bn.weight f4 [16]
1.4196601 1.1870285 1.2742319 1.3699586 1.1124363 1.0718043 1.2201021 1.2126878
1.1063496 1.1153514 1.1623051 1.1717262 1.2646371 1.1087193 1.2461679 1.2058272
00000000: 6cb7 b53f 8df0 973f 081a a33f ce5a af3f
00000010: 5064 8e3f e230 893f 4e2c 9c3f 5b39 9b3f
00000020: dd9c 8d3f d6c3 8e3f 6ac6 943f 20fb 953f
00000030: a1df a13f 84ea 8d3f 6e82 9f3f 8c58 9a3f

ds.proj_bn.bias f4 [16]
-0.06924941 -0.22251332 -0.15140328 -0.0713116 -0.12013114 -0.14829148 -0.22739014 -0.12981756
-0.20398068 -0.06860576 -0.28441238 -0.10162854 -0.104760885 -0.10522653 -0.21779127 -0.015833188
00000000: a2d2 8dbd 88da 63be 7609 1bbe d10b 92bd
00000010: 5107 f6bd b9d9 17be f6d8 68be e5ee 04be
00000020: 50e0 50be 2d81 8cbd 809e 91be a022 d0bd
00000030: e08c d6bd 0281 d7bd ad04 5fbe 9ab4 81bc

ds.proj_bn.running_mean f4 [16]
-0.21190311 -0.14094959 0.07807379 -0.64361364 0.15700784 0.452801 -0.526991 0.13127701
0.48025644 -0.6337613 0.74510443 0.10927202 -0.05177289 0.38359097 -0.587599 -0.56243455
00000000: 21fd 58be 1755 10be 27e5 9f3d ddc3 24bf
00000010: aac6 203e 88d5 e73e e2e8 06bf 7b6d 063e
00000020: 2ce4 f53e 2e3e 22bf 2abf 3e3f 02ca df3d
00000030: cf0f 54bd 0966 c43e e36c 16bf b6fb 0fbf

ds.proj_bn.running_var f4 [16]
0.18104565 0.14591299 0.21511407 0.2744854 0.055213314 0.042905673 0.21786274 0.15909393
0.075013146 0.05855973 0.049831484 0.031956464 0.14651681 0.13615459 0.17306046 0.09630704
00000000: 0864 393e 376a 153e dd46 5c3e 5a89 8c3e
00000010: 5b27 623d dcbd 2f3d 6917 5f3e 85e9 223e
00000020: 7ea0 993d 54dc 6f3d 191c 4c3d c8e4 023d
00000030: 8108 163e 1c6c 0b3e c336 313e a03c c53d

ds.proj_conv1.weight f4 [8, 16, 5]
0.04886351 0.025956662 0.115839936 0.0751466 -0.041967932 0.06794927 -0.04215433 -0.02487904
0.05233637 -0.022603938 0.04020634 0.015834836 -0.04945122 0.03404299 0.04141377 -0.014304436
-0.07193433 -0.050997477 0.06026721 0.0031336737 -0.08085392 -0.050995942 0.032932986 0.193251
0.11414926 -0.08095427 -0.019858979 0.11672746 0.25390202 0.07168976 0.035859462 -0.10049243
-0.036127646 0.04486248 -0.051935356 0.07347091 0.061449416 -0.03168275 0.011758984 0.035031755
-0.101043046 -0.031936344 0.1299917 0.43835068 0.29523894 0.10441897 0.062239747 0.05814595
0.109356046 -0.08210359 -0.11716687 0.03325826 0.26831576 0.32523265 0.19778554 -0.026371479
-0.023965558 -0.23334897 0.12268166 0.023619361 0.089388035 0.01748622 -0.023454607 -0.045943405
-0.0040126555 0.13503851 0.077568375 0.05429858 0.078816794 0.12892199 0.028914033 -0.036088865
-0.06614358 -0.018278794 -0.045398828 0.041058194 0.0900518 -0.06982631 -0.04832983 0.0011770895
0.06458035 -0.017267652 -0.09307912 -0.0078894645 0.09351001 -0.10884301 -0.029000144 0.0049733305
0.013540016 -0.1004452 -0.14269325 -0.095595405 -0.027401282 -0.08179325 -0.090088256 0.14064117
0.10464652 0.059562534 -0.013491785 0.08421774 0.10981436 0.02640349 -0.102186605 -0.26977846
-0.06523587 0.12960672 -0.06516907 -0.22153951 -0.101834595 -0.0819603 -0.088627964 0.0034778141
0.03876979 0.0103160255 -0.15324987 -0.16295633 -0.11083972 -0.016141096 -0.09386009 -0.06939934
0.05898758 -0.03988029 -0.28408158 -0.20802969 -0.10789934 -0.05837306 0.06470183 0.09088078
0.118641995 0.009312299 -0.056805726 -0.0140641695 -0.11891036 -0.0038517367 -0.03187758 0.10576125
0.29490814 0.096975856 -0.08459205 -0.07698897 -0.19123015 -0.15730041 -0.029374616 -0.08197862
-0.09138213 -0.07820154 0.049791966 -0.04422616 -0.08244053 -0.10169041 -0.12270357 -0.105602644
0.03750269 0.032002725 -0.025242047 -0.16037013 -0.12459046 -0.06657314 0.06710798 0.091618724
0.13865101 0.14791651 0.23000632 0.08262626 0.16783755 -0.12721096 -0.09210849 0.022287548
0.009932998 -0.012640953 -0.1395599 -0.12329728 0.015478575 0.03961721 0.06251439 0.12719227
0.027125541 -0.022103863 0.0063870936 0.15383628 -0.033354502 -0.04639793 0.050818715 0.058134258
0.0017995696 -0.10044876 0.00035131813 0.074117824 -0.0034048117 0.0083275465 -0.2573866 -0.06857005
-0.055096544 -0.17838778 -0.09464745 -0.04568913 -0.13456196 -0.027213184 0.025046252 0.1025465
-0.09102632 -0.12912677 -0.042764824 -0.029155029 -0.041961268 0.074558295 -0.025254482 -0.14753509
-0.39785254 -0.039041687 -0.009466095 -0.084493175 -0.15078425 -0.12849599 0.10059321 0.09271373
0.20002735 -0.09453131 0.08014967 0.09085113 -0.08057173 -0.11356913 -0.080813654 0.011236081
0.083260834 0.0056388187 -0.0922547 -0.01754397 0.13995393 0.15874775 -0.037205655 -0.25489947
0.010801028 -0.22113562 0.031111723 0.05057578 -0.10025167 -0.30649382 -0.16649 -0.15943159
0.024455883 -0.018961838 0.030669738 0.032678723 -0.018558137 -0.07477559 0.093843445 0.17707111
0.025239497 -0.17121525 -0.0898354 0.0995194 0.41408494 0.14390282 -0.05739599 0.04581722
00000000: 1b25 483d 11a3 d43c 7d3d ed3d 76e6 993d
00000010: 91e6 2bbd fd28 8b3d 05aa 2cbd 21cf cbbc
00000020: a95e 563d e52b b9bc 67af 243d 0fb8 813c
00000030: 5d8d 4abd aa70 0b3d 7ca1 293d 275d 6abc
00000040: 4e52 93bd bbe2 50bd c0da 763d 525e 4d3b
00000050: bd96 a5bd 1fe1 50bd bde4 063d 97e3 453e
00000060: 16c7 e93d 5acb a5bd 4caf a2bc ce0e ef3d
00000070: 72ff 813e 15d2 923d 5fe1 123d face cdbd
00000080: 95fa 13bd b8c1 373d 2bba 54bd eb77 963d
00000090: 62b2 7b3d c5c5 01bd c1a8 403c 757d 0f3d
000000a0: a8ef cebd afcf 02bd 8b1c 053e 806f e03e
000000b0: 8f29 973e 9dd9 d53d 1bef 7e3d 732a 6e3d
000000c0: 10f6 df3d ed25 a8bd 2ff5 efbd d039 083d
000000d0: af60 893e e584 a63e 4b88 4a3e 0009 d8bc
000000e0: 6b53 c4bc 08f3 6ebe 8640 fb3d 647d c13c
000000f0: 1311 b73d 433f 8f3c e023 c0bc 272f 3cbd
00000100: 987c 83bb 8947 0a3e 2bdc 9e3d 3068 5e3d
00000110: b36a a13d 2004 043e 1fdd ec3c ebd1 13bd
00000120: 4976 87bd 69bd 95bc 1ff4 39bd a32c 283d
00000130: 146d b83d 1901 8fbd 80f5 45bd 9248 9a3a
00000140: b442 843d e474 8dbc 44a0 bebd d042 01bc
00000150: 2d82 bf3d 16e9 debd b691 edbc 52f7 a23b
00000160: f1d6 5d3c 37b6 cdbd 2e1e 12be 86c7 c3bd
00000170: a778 e0bc 3883 a7bd 3180 b8bd 3d04 103e
00000180: ea50 d63d d8f7 733d a60c 5dbc 5a7a ac3d
00000190: 5ae6 e03d 224c d83c 3647 d1bd 6720 8abe
000001a0: 629a 85bd a0b7 043e 5d77 85bd 41db 62be
000001b0: a88e d0bd cdda a7bd 9482 b5bd 0aec 633b
000001c0: 12cd 1e3d 8c04 293c 89ed 1cbe 06de 26be
000001d0: efff e2bd 553a 84bc b839 c0bd 3e21 8ebd
000001e0: f69c 713d 8459 23bd 2473 91be bc05 55be
000001f0: 54fa dcbd 9718 6fbd 6582 843d b41f ba3d
00000200: 93fa f23d 9d92 183c 1fad 68bd 676d 66bc
00000210: 4687 f3bd 6b6d 7cbb 1192 02bd 5b99 d83d
00000220: 33fe 963e 479b c63d 993e adbd 65ac 9dbd
00000230: d6d1 43be 5c13 21be 09a3 f0bc 68e4 a7bd
00000240: 8e26 bbbd 2128 a0bd a9f2 4b3d 7d26 35bd
00000250: 95d6 a8bd 1043 d0bd 024c fbbd 3346 d8bd
00000260: 6c9c 193d 4a15 033d 69c8 cebc 1138 24be
00000270: 4829 ffbd 8057 88bd e96f 893d 99a2 bb3d
00000280: 88fa 0d3e 6d77 173e c786 6b3e f537 a93d
00000290: 9bdd 2b3e 9743 02be 60a3 bcbd 6094 b63c
000002a0: 03be 223c 001c 4fbc cae8 0ebe 4983 fcbd
000002b0: d999 7d3c a845 223d 8b07 803d b13e 023e
000002c0: 6236 de3c 2913 b5bc d34a d13b 4287 1d3e
000002d0: bb9e 08bd c10b 3ebd 4927 503d 301e 6e3d
000002e0: 89df eb3a 14b8 cdbd 1f31 b839 16cb 973d
000002f0: 4323 5fbb 4370 083c 2dc8 83be 746e 8cbd
00000300: eaac 61bd 49ab 36be 86d6 c1bd 8624 3bbd
00000310: 9cca 09be 2fee debc cc2d cd3c e603 d23d
00000320: 026c babd cf39 04be 2b2a 2fbd 87d6 eebc
00000330: 94df 2bbd 05b2 983d 7de2 cebc 7013 17be
00000340: 54b3 cbbe 2dea 1fbd ae17 1bbc c20a adbd
00000350: 3067 1abe 7494 03be d003 ce3d b2e0 bd3d
00000360: f8d3 4c3e a299 c1bd 8325 a43d 2810 ba3d
00000370: cb02 a5bd ef96 e8bd a181 a5bd 8a17 383c
00000380: a884 aa3d d7c5 b83b 08f0 bcbd 5fb8 8fbc
00000390: 1550 0f3e c58e 223e f564 18bd 2f82 82be
000003a0: ccf6 303c 6071 62be 03de fe3c 8d28 4f3d
000003b0: bf50 cdbd c2ec 9cbe 5b7c 2abe 0942 23be
000003c0: b457 c83c db55 9bbc 1a3f fb3c 20da 053d
000003d0: 3c07 98bc f223 99bd fe30 c03d 2152 353e
000003e0: 10c3 ce3c 0d53 2fbe 9ffb b7bd d4d0 cb3d
000003f0: f102 d43e 435b 133e 0f18 6bbd d6aa 3b3d

ds.proj_conv1.bias f4 [8]
0.11308199 0.0248276 0.02651539 0.119711906 -0.1634032 0.10279868 0.048189435 -0.072078705
00000000: 8897 e73d 4063 cb3c ce36 d93c 842b f53d
00000010: 2b53 27be 1d88 d23d 4962 453d 009e 93bd

ds.proj_bn1.weight f4 [8]
1.6062605 1.4689506 1.6042709 1.5113513 1.4427316 1.4988651 1.5593626 1.652965
00000000: f299 cd3f 9306 bc3f c058 cd3f f673 c13f
00000010: 6eab b83f d0da bf3f 3299 c73f 5b94 d33f

ds.proj_bn1.bias f4 [8]
0.05477059 0.22067063 0.16864206 -0.003027725 0.12871137 0.11531744 0.065861255 0.08209498
00000000: 2057 603d 7bf7 613e 81b0 2c3e cc6c 46bb
00000010: eacc 033e 8d2b ec3d 44e2 863d 6a21 a83d

ds.proj_bn1.running_mean f4 [8]
0.76122266 -0.6670591 -0.27927798 0.8518092 -0.38432047 0.17140277 0.095705286 -0.41169593
00000000: 7ddf 423f 63c4 2abf 86fd 8ebe 2b10 5a3f
00000010: a7c5 c4be 3584 2f3e 2201 c43d cfc9 d2be

ds.proj_bn1.running_var f4 [8]
0.50138825 0.73752177 0.8496529 0.90914255 0.46052977 0.50477535 0.7404721 0.53774476
00000000: fb5a 003f 3ace 3c3f da82 593f 91bd 683f
00000010: 8fca eb3e f538 013f 948f 3d3f a4a9 093f

ds.fc1_conv.weight f4 [128, 256]
0.079059616 -0.11857999 -0.24685 0.030405292 0.2062017 -0.05390146 0.07143944 -0.18921325
-0.25036606 -0.25338888 -0.079655156 -0.03690025 -0.11626867 0.018079242 -0.1776046 -0.02506138
-0.026025444 -0.12853098 -0.03117388 -0.13466913 -0.06543181 -0.06306271 -0.24284868 -0.3035986
-0.22670078 -0.10617129 -0.109068096 -0.18341695 -0.13575906 -0.06187059 -0.08692601 -0.28397393
0.050086487 -0.04222245 0.017992388 -0.03642582 -0.0809934 0.056135602 0.11635174 0.032933123
-0.029108357 0.31549582 0.4040627 0.3009212 0.3538645 0.2778426 0.0627232 0.11546571
0.05863211 0.08402073 0.19417913 0.25054517 0.3129053 0.14344133 0.43303713 0.37402216
0.19516473 0.031230701 -0.013571307 0.08935227 0.21318522 0.17295806 0.15346728 0.13428265
0.09774182 0.00822827 -0.25007144 -0.37280205 -0.29562825 -0.15404254 0.026097942 -0.040917967
-0.040526114 -0.025934359 -0.05059725 -0.1041239 0.00637187 0.04311698 0.009594482 -0.06423792
-0.028901063 -0.09400863 -0.05586308 -0.023592068 0.0047675334 -0.028198762 -0.038041335 -0.007315563
-0.037847724 -0.01473505 -0.04795787 0.018743025 -0.05111618 -0.18195769 -0.22341794 -0.1276291
0.014648648 0.069112435 0.2057941 0.045842674 0.1520122 -0.071117535 -0.07015672 -0.020093376
-0.13157971 -0.14052828 -0.10494775 -0.0013943571 -0.18806033 -0.07501191 -0.1400223 -0.14357299
-0.16394332 -0.08889925 0.035731602 -0.008076763 -0.22183388 0.023325428 -0.05329236 0.042586274
0.013382709 -0.11119678 -0.122251965 -0.05032947 0.0184504 -0.00994437 -0.002594575 -0.11171499
0.07088566 0.1171571 0.26938444 0.03734497 -0.08615283 -0.018267633 0.012398535 -0.0057504736
0.1788635 0.3301628 0.13150193 0.0108892005 0.07584247 0.14625011 -0.004718779 0.08198516
0.022123542 0.055280074 0.046902627 0.1046344 0.10002981 0.09337115 0.022285653 0.08669294
0.084005155 0.050533768 0.03814882 0.031003522 0.17857891 0.37715414 0.37212712 -0.016845684
0.18833151 -0.04982779 -0.3119196 -0.36852056 -0.22992729 -0.04871647 0.023219481 -0.012300944
-0.06422362 -0.09477007 -0.068995014 0.031865332 -0.027601905 -0.0028814108 0.12373928 0.03523216
0.08047537 0.009517832 -0.1909845 7.178555e-05 -0.10882001 0.2584331 0.00078107783 -0.1485882
-0.18769933 -0.044760745 0.008011595 0.09405555 -0.12199034 -0.06732322 -0.11685555 -0.19165626
0.120173484 0.012622831 0.1292977 0.15792552 0.16182794 0.22711834 -0.06587271 0.019896574
-0.032526627 0.0118849445 -0.0777089 -0.056068756 -0.25097075 -0.039426904 -0.06764215 -0.08737897
-0.29526347 -0.22285841 -0.1982712 0.0812786 -0.061253086 -0.36935666 -0.10485814 -0.038220778
-0.045966607 0.059127264 -0.045392945 -0.06083218 0.04897599 0.038262047 0.1362247 0.016678974
-0.10837114 -0.014309788 0.04365493 0.12729672 0.21763597 0.31629398 -0.07323772 0.025323626
0.013559432 0.08643112 -0.01297238 -0.067569144 -0.096195646 -0.041022938 -0.02151106 -0.008307367
-0.26871008 -0.13127054 -0.27044407 0.056723412 0.03497284 -0.33501294 -0.072466604 -0.0458836
-0.0034597325 0.054732192 0.037642978 0.018889742 -0.0017985182 0.07908282 0.17331906 0.055306144
00000000: 02ea a13d 11da f2bd 3fc6 7cbe 8514 f93c
00000010: 8a26 533e c7c7 5cbd d74e 923d 1ec1 41be
00000020: fb2f 80be 30bc 81be 3e22 a3bd b724 17bd
00000030: 451e eebd eb1a 943c fbdd 35be 864d cdbc
00000040: 5033 d5bc a09d 03be 5d60 ffbc b4e6 09be
00000050: 1d01 86bd 0627 81bd 53ad 78be 4771 9bbe
00000060: 4024 68be 5570 d9bd 185f dfbd a7d1 3bbe
00000070: 6c04 0bbe 046c 7dbd 4406 b2bd 0865 91be
00000080: 7d27 4d3d 73f1 2cbd c664 933c 3e33 15bd
00000090: dedf a5bd 72ee 653d d249 ee3d e2e4 063d
000000a0: a674 eebc ab88 a13e 4ee1 ce3e 5812 9a3e
000000b0: ba2d b53e 6341 8e3e 0575 803d 4979 ec3d
000000c0: 3928 703d 0f13 ac3d e5d6 463e 7547 803e
000000d0: 2035 a03e 49e2 123e 0bb7 dd3e d57f bf3e
000000e0: 43d9 473e 87d7 ff3c 305a 5ebc 53fe b63d
000000f0: 3a4d 5a3e eb1b 313e 8726 1d3e 6481 093e
00000100: dd2c c83d decf 063c 5d09 80be e9df bebe
00000110: 965c 97be 54bd 1dbe 5acb d53c 9999 27bd
00000120: b6fe 25bd 4b74 d4bc 103f 4fbd e93e d5bd
00000130: 1fcb d03b 6e9b 303d 2d32 1d3c 2c8f 83bd
00000140: ecc1 ecbc 9987 c0bd afd0 64bd 2744 c1bc
00000150: f838 9c3b 1701 e7bc 3bd1 1bbd 64b7 efbb
00000160: 3706 1bbd 476b 71bc 796f 44bd f98a 993c
00000170: 335f 51bd 1e53 3abe acc7 64be 34b1 02be
00000180: e200 703c d28a 8d3d b0bb 523e 87c5 3b3d
00000190: 16a9 1b3e 12a6 91bd 54ae 8fbd dd9a a4bc
000001a0: d5bc 06be a5e6 0fbe d9ee d6bd dcc2 b6ba
000001b0: e392 40be d89f 99bd 0162 0fbe cc04 13be
000001c0: c2e0 27be cf10 b6bd 4d5b 123d 6654 04bc
000001d0: 6c28 63be f814 bf3c 1749 5abd f26e 2e3d
000001e0: 2643 5b3c 23bb e3bd 3d5f fabd 4626 4ebd
000001f0: 4b25 973c b6ed 22bc bf09 2abb d4ca e4bd
00000200: 802c 913d 10f0 ef3d c2ec 893e 0af7 183d
00000210: e570 b0bd 01a6 95bc 3a23 4b3c 786e bcbb
00000220: fe27 373e 190b a93e 71a8 063e 9e68 323c
00000230: 4c53 9b3d 97c2 153e fd9f 9abb d6e7 a73d
00000240: 6e3c b53c 5c6d 623d f81c 403d 8f4a d63d
00000250: 6edc cc3d 6039 bf3d 6790 b63c 118c b13d
00000260: e50a ac3d 7ffc 4e3d f041 1c3d 19fb fd3c
00000270: 64dd 363e 591a c13e 7287 be3e f6ff 89bc
00000280: fad9 403e 3a18 4cbd edb3 9fbe baae bcbe
00000290: 0f72 6bbe ec8a 47bd c836 be3c e689 49bc
000002a0: ac87 83bd cf16 c2bd 424d 8dbd 3985 023d
000002b0: 641d e2bc 0dd6 3cbb 056b fd3d 994f 103d
000002c0: 45d0 a43d aef0 1b3c 7191 43be 938b 9638
000002d0: 07dd debd 5851 843e 3fc1 4c3a 8127 18be
000002e0: 4134 40be 0b57 37bd 1143 033c 32a0 c03d
000002f0: 12d6 f9bd c2e0 89bd f651 efbd 8a41 44be
00000300: 841d f63d fecf 4e3c 9e66 043e 3ab7 213e
00000310: 39b6 253e b691 683e 45e8 86bd 24fe a23c
00000320: a43a 05bd 12b9 423c d825 9fbd 5aa8 65bd
00000330: 3d7f 80be 1b7e 21bd f887 8abd bff3 b2bd
00000340: c62c 97be ff34 64be 9b07 4bbe 6575 a63d
00000350: 84e4 7abd 511c bdbe ddbf d6bd 648d 1cbd
00000360: 7b47 3cbd 6e2f 723d f4ed 39bd 2a2b 79bd
00000370: 0c9b 483d aab8 1c3d 7d7e 0b3e 58a2 883c
00000380: b0f1 ddbd 9a73 6abc 83cf 323d 125a 023e
00000390: f7db 5e3e 49f1 a13e a8fd 95bd 7e73 cf3c
000003a0: 6128 5e3c cd02 b13d 1b8a 54bc b161 8abd
000003b0: 3902 c5bd ab07 28bd f637 b0bc 9f1b 08bc
000003c0: 5e94 89be c96b 06be a577 8abe cf56 683d
000003d0: ae3f 0f3d d186 abbe 5f69 94bd 71f0 3bbd
000003e0: aebc 62bb dd2e 603d 862f 1a3d a9be 9a3c
000003f0: 42bc ebba 2cf6 a13d 8d7a 313e b288 623d

ds.fc1_conv.bias f4 [128]
0.091605775 -0.00081417867 0.03037426 0.12614894 0.06480736 0.053420432 0.08759201 -0.006259051
-0.040814135 -0.01481014 0.059568457 -0.012777246 0.1340936 0.14777672 0.033087034 0.03606832
0.04775543 0.036114782 -0.081666745 0.0003127973 0.03260238 -0.059720505 0.080129445 0.10818396
-0.035358246 0.112359874 -0.018463396 0.031177085 -0.038818814 0.038758017 0.007743876 0.009509727
0.019352224 -0.005452102 -0.0024656556 -0.013651841 0.032442722 0.10485964 -0.00023766502 -0.030780885
-0.029843844 -0.022495039 0.0027422812 0.08105075 0.063452095 0.031440448 -0.014492317 0.064796
0.05540505 0.04716384 -0.04186768 0.05001919 -0.040528636 0.04176143 -0.030286163 0.15859462
-0.0040151128 0.037760034 0.013217346 -0.045641236 0.036276624 0.06294057 0.022400443 -0.006446869
0.07009074 0.02828426 0.082128465 0.0050144265 -0.097259685 0.064977445 -0.054206174 0.05105487
0.043500125 0.07197808 -0.004149405 0.09148913 0.064119376 -0.08712176 -0.013353673 -0.011190303
0.005149505 -0.06462417 -0.031726405 -0.027664062 -0.09364457 -0.055142842 0.008167103 0.07654628
-0.020643659 0.045787666 0.036494214 0.041131884 0.12440539 -0.050086968 0.021240566 0.052053045
0.032106962 -0.047799654 0.062810525 0.06800178 0.039640445 0.0325357 -0.009013424 0.081474066
0.061162107 -0.019785518 0.034009065 0.0009765752 -0.01737332 0.048869323 -0.019867575 0.04169476
0.02894287 -0.0050838203 0.055494644 0.11705264 0.052709103 -0.055909567 0.11101981 -0.015759721
0.020382559 -0.0069132415 0.0154812895 0.10058832 0.015604573 0.00045025296 0.08173794 -0.029129481
00000000: cf9b bb3d 9b6e 55ba 71d3 f83c 302d 013e
00000010: b9b9 843d 62cf 5a3d 7163 b33d ba18 cdbb
00000020: b92c 27bd 3ba6 72bc 0efe 733d a757 51bc
00000030: d54f 093e c852 173e 4586 073d 60bc 133d
00000040: 339b 433d 18ed 133d e540 a7bd f1fe a339
00000050: 138a 053d 7d9d 74bd e81a a43d 8d8f dd3d
00000060: cfd3 10bd ef1c e63d 8c40 97bc 1667 ff3c
00000070: 7a00 1fbd bac0 1e3d 57c0 fd3b b0ce 1b3c
00000080: 8e88 9e3c 8ca7 b2bb d696 21bb f9ab 5fbc
00000090: a9e2 043d a7c0 d63d b835 79b9 3228 fcbc
000000a0: 147b f4bc 8447 b8bc d8b7 333b f0fd a53d
000000b0: 2cf3 813d b3c7 003d 2f71 6dbc c4b3 843d
000000c0: 68f0 623d df2e 413d 727d 2bbd ece0 4c3d
000000d0: 5b01 26bd 090e 2b3d b01a f8bc a166 223e
000000e0: 3591 83bb 44aa 1a3d 918d 583c 4ef2 3abd
000000f0: cc96 143d fce6 803d 2281 b73c 4240 d3bb
00000100: bc8b 8f3d 64b4 e73c f832 a83d 0f50 a43b
00000110: 1630 c7bd e512 853d 4b07 5ebd e91e 513d
00000120: 302d 323d 3e69 933d bbf7 87bb a75e bb3d
00000130: 0551 833d e56c b2bd 5dc9 5abc 8857 37bc
00000140: 2ebd a83b ad59 84bd 8cf3 01bd be9f e2bc
00000150: b9c8 bfbd 76dd 61bd 50cf 053c 4cc4 9c3d
00000160: e41c a9bc d98b 3b3d f57a 153d e879 283d
00000170: 41c8 fe3d fe27 4dbd b200 ae3c 9335 553d
00000180: 9782 033d 92c9 43bd cea2 803d 8444 8b3d
00000190: 055e 223d 2744 053d 0aad 13bc e0db a63d
000001a0: 1e85 7a3d 3d15 a2bc 174d 0b3d 6d00 803a
000001b0: 7e52 8ebc 332b 483d 53c1 a2bc 20c8 2a3d
000001c0: 9919 ed3c 2d96 a6bb 5a4e 633d 4bb9 ef3d
000001d0: 80e5 573d 6e01 65bd 5b5e e33d 881a 81bc
000001e0: 53f9 a63c 7988 e2bb 3ca5 7d3c 4001 ce3d
000001f0: 53aa 7f3c ee0f ec39 3966 a73d f3a0 eebc

ds.fc2_conv.weight f4 [64, 128]
0.29344863 0.15661642 -0.055497404 0.34427765 0.10141655 -0.0089884745 0.30422297 0.0023518181
0.020934874 0.0141262775 0.10455888 -0.076914184 0.6551546 -0.07552135 0.0977631 0.020540962
-0.21376005 0.024234224 -0.550312 0.28982207 -0.19072151 -0.2956493 0.005211401 0.3227769
-0.665946 0.30109373 -0.52761155 -0.22569722 -0.4197363 0.14444979 0.28522575 0.24764997
0.096547574 0.07245101 -0.49746752 -0.5054047 0.19627263 -0.041677292 0.04689949 0.21097752
0.089892164 0.06501523 -0.03135805 -0.12677893 -0.07105692 0.24595377 -0.093580544 0.1963896
0.015297708 0.24321352 -0.19228798 0.11581053 -0.094979316 0.123561844 -0.2518689 0.093256
0.10574901 0.14526492 -0.043671068 -0.21613288 -0.47214004 0.2007787 0.18515104 -0.01792719
0.15479513 -0.016145762 -0.016339276 0.008315313 -0.1711213 -0.04499207 -0.6757111 0.11696996
0.22866808 -0.04045532 0.07553954 -0.07044527 -0.045798346 -0.18729599 -0.19667561 0.026531404
0.13130958 -0.00048883184 -0.37255448 0.23840551 0.02121622 0.06243315 0.0835534 0.37240115
0.16122292 -0.43141994 0.20209742 0.25509444 0.09258746 -0.035659626 -0.12231971 -0.13970259
0.073673956 -0.73200804 0.27005938 0.28122658 -0.18009588 -0.20080501 -0.23660618 0.26859903
0.08170186 -0.12557757 -0.24563393 -0.10179256 -0.35804126 0.19842632 0.07499447 0.13643037
0.23476522 -0.35395667 -0.27882296 0.27006176 0.042200387 -0.6339542 0.4246628 -0.06159991
0.022908207 0.13333847 -0.07369376 0.3115658 0.0857428 0.15288809 0.09702644 0.06947859
0.0037030098 -0.1064566 -0.018792357 -0.046201203 0.11384564 0.019301986 -0.09728838 -0.24164742
-0.64211327 0.44761196 0.13801208 -0.27962214 0.060125932 -0.1033272 -0.25294596 -0.18197232
0.10090356 -0.4292627 -0.3758407 -0.057423487 0.35526034 -0.7640585 0.14644118 -0.07137831
-0.23637272 -0.07082415 0.30131358 0.17030376 -0.0075558233 -0.6450649 0.43836215 -0.43352145
-0.33227652 -0.33324242 0.22343832 0.18566418 0.059598945 -0.045931797 -0.26173076 0.107914835
-0.07166363 -0.017688764 -0.1623707 -0.0728553 -0.05450425 -0.12099809 -0.17055263 0.0373301
0.22822203 0.053216968 -0.23878868 0.010851705 0.011650001 -0.011367579 0.1664893 -0.015014084
-0.22946048 -0.26722148 0.065824166 -0.07497796 0.38594007 -0.019506196 -0.12382286 -0.18739362
0.23159973 0.019223992 -0.0032652605 -0.5887295 0.48776054 -0.0049738167 0.21471108 0.17129984
-0.40738678 0.054682158 -0.014466054 -0.094416015 -0.058633447 0.43469906 0.074608296 -0.02041953
-0.30319965 -0.49234992 -0.10687898 0.11783329 -0.4113153 0.20148276 0.5368348 -0.0063156867
0.18117128 0.3499451 0.38283083 -0.6179413 0.112125434 0.09568814 0.08200179 0.27939323
0.053909004 -0.61966485 0.09727243 -0.20526107 0.22729722 0.265201 -0.30083787 0.09195216
0.12468192 -0.09814247 0.25267228 -0.70482737 0.034575947 0.011321323 0.010306648 0.03217975
-0.40101796 0.14258555 0.2618336 -0.014740665 -0.20246235 0.20716682 0.036843795 -0.027830089
0.013944141 -0.086323924 0.19864261 -0.13407744 0.023463449 -0.2040925 0.13219577 0.30545405
00000000: e63e 963e 0e60 203e 3f51 63bd 2945 b03e
00000010: 7bb3 cf3d 6544 13bc 1dc3 9b3e f620 1a3b
00000020: 9d7f ab3c e771 673c f722 d63d 2f85 9dbd
00000030: 36b8 273f f0aa 9abd 0538 c83d 8545 a83c
00000040: eae3 5abe da86 c63c 3fe1 0cbf 8f63 943e
00000050: 804c 43be 585f 97be 66c4 aa3b 0443 a53e
00000060: 707b 2abf f528 9a3e 8d11 07bf 2c1d 67be
00000070: ade7 d6be a5ea 133e 1c09 923e f497 7d3e
00000080: bcba c53d 3261 943d 10b4 febe 3462 01bf
00000090: b1fb 483e cfb5 2abd ae19 403d 7e0a 583e
000000a0: 6219 b83d b426 853d 4c71 00bd 56d2 01be
000000b0: 4a86 91bd 4edb 7b3e 28a7 bfbd 5b1a 493e
000000c0: 3da3 7a3c f70c 793e 24e7 44be 122e ed3d
000000d0: 8484 c2bd fe0d fd3d f6f4 80be 00fd be3d
000000e0: f092 d83d 54c0 143e 6fe0 32bd f051 5dbe
000000f0: 57bc f1be ee98 4d3e 3c98 3d3e 0bdc 92bc
00000100: 9d82 1e3e 1e44 84bc f2d9 85bc f33c 083c
00000110: 6c3a 2fbe 9b49 38bd 67fb 2cbf f28d ef3d
00000120: f727 6a3e 7ab4 25bd 79b4 9a3d 9c45 90bd
00000130: 0c97 3bbd 85ca 3fbe 5565 49be 6358 d93c
00000140: 0576 063e f324 00ba 76bf bebe 9320 743e
00000150: a3cd ad3c e7b9 7f3d 0c1e ab3d 5dab be3e
00000160: 9f17 253e 13e3 dcbe a0f2 4e3e bd9b 823e
00000170: 7f9e bd3d d40f 12bd c282 fabd 320e 0fbe
00000180: 5fe2 963d e164 3bbf 3945 8a3e eefc 8f3e
00000190: 0e6b 38be d49f 4dbe e448 72be d085 893e
000001a0: 4e53 a73d 6897 00be 7687 7bbe 9e78 d0bd
000001b0: 2f51 b7be 4530 4b3e b396 993d 67b4 0b3e
000001c0: 4b66 703e cf39 b5be e2c1 8ebe 8945 8a3e
000001d0: 50da 2c3d d34a 22bf 676d d93e 3050 7cbd
000001e0: fea9 bb3c e189 083e c1ec 96bd 8d85 9f3e
000001f0: ec99 af3d b28e 1c3e ccb5 c63d ca4a 8e3d
00000200: 32ae 723b eb05 dabd 6ef2 99bc 793d 3dbd
00000210: e727 e93d 331f 9e3c 213f c7bd 6c72 77be
00000220: 8961 24bf 652d e53e 0a53 0d3e a22a 8fbe
00000230: 9c46 763d 369d d3bd 2282 81be f456 3abe
00000240: 87a6 ce3d 52c8 dbbe 316e c0be e434 6bbd
00000250: afe4 b53e 5699 43bf adf4 153e cb2e 92bd
00000260: b10b 72be 410c 91bd c645 9a3e 1c64 2e3e
00000270: d796 f7bb f922 25bf 0171 e03e 86f6 ddbe
00000280: 2620 aabe c09e aabe 04cd 643e c01e 3e3e
00000290: 061e 743d fb22 3cbd 9301 86be 7402 dd3d
000002a0: 62c4 92bd 07e8 90bc 8144 26be 2935 95bd
000002b0: d93f 5fbd d9cd f7bd 59a5 2ebe 72e7 183d
000002c0: 09b3 693e 09fa 593d 0585 74be 5acb 313c
000002d0: a5df 3e3c 153f 3abc 2c7c 2a3e a2fd 75bc
000002e0: b0f7 6abe 41d1 88be d2ce 863d 0b8e 99bd
000002f0: f099 c53e 75cb 9fbc d796 fdbd 1de4 3fbe
00000300: 7b28 6d3e a27b 9d3c fbfd 55bb fab6 16bf
00000310: c0bb f93e 66fb a2bb 39dd 5b3e 3a69 2f3e
00000320: 0095 d0be 66fa 5f3d 0703 6dbc 2f5d c1bd
00000330: a029 70bd e090 de3e 3ccc 983d dc46 a7bc
00000340: fc3c 9bbe 4a15 fcbe 5ee3 dabd 9452 f13d
00000350: eb97 d2be 7f51 4e3e 016e 093f d2f3 cebb
00000360: f784 393e 012c b33e 6702 c43e 6731 1ebf
00000370: 05a2 e53d 25f8 c33d 8ef0 a73d a10c 8f3e
00000380: b0cf 5c3d 5ba2 1ebf c536 c73d f52f 52be
00000390: 9ac0 683e 6dc8 873e 6c07 9abe 6a51 bc3d
000003a0: 3c59 ff3d ebfe c8bd 435e 813e 916f 34bf
000003b0: 829f 0d3d 127d 393c 37dd 283c eace 033d
000003c0: 3a52 cdbe f201 123e 0e0f 863e d582 71bc
000003d0: 4a52 4fbe 8a23 543e 85e9 163d edfb e3bc
000003e0: f775 643c 99ca b0bd f868 4b3e 994b 09be
000003f0: 6b36 c03c a0fd 50be 545e 073e 7964 9c3e

ds.fc2_conv.bias f4 [64]
0.070600726 0.0196673 0.014329239 0.08382973 0.03667696 0.08426103 0.015102937 0.056603655
0.010443969 -0.03213547 0.078926586 0.027272321 0.07817325 0.05790589 0.057044037 0.073863916
0.052423567 0.07210193 0.027285857 0.011179068 0.051343933 0.021412503 0.046896823 0.024979396
0.06261226 0.040420946 0.060577627 0.04565669 0.030436745 0.04243817 0.07044758 0.05342735
-0.019285819 0.07821127 0.047758363 -0.010277604 0.044197 0.093459055 0.07572035 0.011307233
-0.028043993 0.05045153 0.042026684 0.05382701 0.052169476 0.04210449 0.0918002 -0.021733912
0.045222815 0.03300622 0.06355048 -0.009861996 0.07577855 0.055730354 0.0690711 0.0205121
0.059192583 -0.012363799 -0.03273417 0.053341866 0.017825326 0.01175964 0.026679028 0.05071537
00000000: 1d97 903d 511d a13c 2fc5 6a3c ecae ab3d
00000010: 943a 163d 0c91 ac3d 4f72 773c 3cd9 673d
00000020: 2e1d 2b3c 7ca0 03bd 43a4 a13d 346a df3c
00000030: 4c19 a03d ba2e 6d3d 02a7 693d f745 973d
00000040: 18ba 563d 2daa 933d 9786 df3c 6928 373c
00000050: 044e 523d 4669 af3c e216 403d 97a1 cc3c
00000060: db3a 803d 6f90 253d 3f20 783d 8202 3b3d
00000070: 7b56 f93c a6d3 2d3d d246 903d a3d6 5a3d
00000080: 4bfd 9dbc 3b2d a03d 469e 433d 6563 28bc
00000090: ea07 353d 7667 bf3d 4513 9b3d f941 393c
000000a0: 84bc e5bc 43a6 4e3d 2c24 2c3d b679 5c3d
000000b0: a9af 553d c275 2c3d be01 bc3d 510b b2bc
000000c0: 8f3b 393d 8831 073d c126 823d 3694 21bc
000000d0: c931 9b3d 8345 643d 2675 8d3d fe08 a83c
000000e0: ec73 723d 8891 4abc 4414 06bd 007d 5a3d
000000f0: 6b06 923c 81ab 403c fa8d da3c ebba 4f3d

head.weight f4 [15, 64]
-0.71661156 0.5478595 0.26273933 0.010978381 0.11138887 0.11808142 -0.78196406 -0.26618946
0.2476884 -0.65964335 0.05703534 -0.4324809 -0.8911187 -0.33107933 0.058830075 0.03617573
-0.20250154 0.034401357 0.32668772 -0.62259257 -0.1648323 -0.6477662 0.07304996 -0.25422567
-1.41928 0.36083955 -1.2618188 -0.9119666 0.05137979 0.2821279 -0.21085228 -0.18096977
-0.27527127 0.11861438 0.0016942634 0.3873529 0.12518221 0.061385866 0.08600283 -0.2810369
0.26591823 -0.6609566 0.5426472 0.08011177 -1.0982337 -0.42484203 0.4010752 -0.5157335
-0.4833498 -0.3908142 0.036538415 0.34877467 0.03678078 -0.2761417 0.29002106 -0.69784015
-0.8256521 -0.28887054 -0.6014502 -0.19816099 -0.16240075 0.6286662 -0.6296195 -0.49077663
0.6683261 0.10335118 0.049736436 0.075781785 -0.65671563 0.46667093 -0.20239116 -0.57011384
0.046153493 0.08397355 0.03197671 0.1523823 -0.00092081033 0.29177648 -0.65470487 -0.6549861
-0.9868743 -0.8224702 -0.3189399 -0.32884672 -0.45329246 -0.26295006 -0.802915 -0.25753763
0.12752293 0.6428533 0.020616101 -0.34876955 -0.88188624 -0.47097984 -0.55777293 -0.5686681
-0.24320348 -0.73668104 0.5879832 -0.41478473 -0.5741327 0.43175438 0.5490837 -0.5158232
-0.43067196 -0.003891475 0.09536891 -0.9523436 -0.6792572 0.15867989 0.026390022 -1.2110014
-0.49339893 0.12092329 0.05367062 0.03745441 -0.67037624 0.28230515 0.59682775 0.101352066
-0.5284158 0.37211233 -0.22571857 -0.5839613 -0.23947759 0.09690772 0.0761197 0.24846622
-1.2449621 0.32814637 0.30801433 0.25899297 -0.34862754 -1.1596736 -0.2766392 -0.53788537
0.29909152 0.24705349 0.29034457 0.24721801 0.20949942 0.3601759 -0.3736101 -0.29331732
-0.89994556 -0.59125644 -0.19855624 0.48514023 -0.5444114 -0.19104126 -0.61446536 -0.2820633
0.302169 -1.1535419 0.25835267 -0.320758 -0.6680627 -0.20497109 -0.58006775 -0.58008623
-0.21428484 -0.269349 -1.0054989 -0.39684066 -0.39611387 -1.1956018 -1.332998 -0.5330796
-0.29064402 0.22301866 0.34263343 -0.33935255 -0.4509446 0.22707489 0.24840388 0.5549786
-0.61788195 0.27907 0.30878183 0.23918019 -0.42021048 0.41881734 -0.70753604 0.22229682
-0.47825834 0.40865037 -0.3149249 -0.64778936 -0.26573208 0.28952995 0.21726052 0.37850246
0.21597905 -0.34184527 -0.3430329 -0.34721515 -0.32873148 -0.38132972 0.36657646 0.18588312
-0.3843502 0.17609723 -0.3819987 0.19788668 0.66146755 0.12850218 -0.48826778 -0.2798926
0.43990517 -0.31020626 -0.29512388 0.121030636 0.18228413 -1.0997734 -0.24772383 -1.2826378
-0.75388914 -0.4376084 -0.7637857 -1.1966293 -0.31812155 -0.37754247 0.22518824 0.17393586
0.37449032 -0.34885585 -0.23560266 0.36483037 -0.3325296 -1.3512964 -0.26967472 0.18359561
-1.0554632 0.19040057 -0.3686192 -0.21315818 -1.3169166 0.19438118 -0.74355274 0.4097284
0.6738498 0.2190836 -0.31905475 -0.7583874 -0.4624839 0.1371673 -0.36754006 0.17555243
0.1838559 0.19439727 0.3812401 0.21106009 0.3766769 -0.3834645 0.1623206 0.2269801
00000000: db73 37bf 8540 0c3f c585 863e abde 333c
00000010: d91f e43d acd4 f13d cc2e 48bf fc49 88be
00000020: 07a2 7d3e 63de 28bf e49d 693d 236e ddbe
00000030: 5b20 64bf 3b83 a9be cef7 703d 012d 143d
00000040: 905c 4fbe 70e8 0c3d 9d43 a73e 3a62 1fbf
00000050: ccc9 28be 01d4 25bf 389b 953d de29 82be
00000060: f8aa b5bf f6bf b83e 4783 a1bf a576 69bf
00000070: 9d73 523d 1173 903e a9e9 57be 2450 39be
00000080: 5bf0 8cbe 19ec f23d 0c12 de3a 1f53 c63e
00000090: c42f 003e bf6f 7b3d 4022 b03d 12e4 8fbe
000000a0: 6f26 883e 7434 29bf edea 0a3f a411 a43d
000000b0: ec92 8cbf e584 d9be bb59 cd3e 1c07 04bf
000000c0: a079 f7be cc18 c8be 4ea9 153d 9892 b23e
000000d0: 71a7 163d 7262 8dbe a47d 943e a7a5 32bf
000000e0: f05d 53bf d7e6 93be a4f8 19bf b7ea 4abe
000000f0: 624c 26be 45f0 203f be2e 21bf 1347 fbbe
00000100: 6b17 2b3f c9a9 d33d 6fb8 4b3d 7b33 9b3d
00000110: 841e 28bf 7eef ee3e a13f 4fbe fbf2 11bf
00000120: 720b 3d3d 53fa ab3d 03fa 023d 1b0a 1c3e
00000130: 8962 71ba ba63 953e bd9a 27bf 2bad 27bf
00000140: cba3 7cbf 688d 52bf 174c a3be 995e a8be
00000150: f315 e8be 64a1 86be d68b 4dbf f9db 83be
00000160: 5f95 023e 0992 243f 19e3 a83c ec91 b2be
00000170: 4cc3 61bf 4524 f1be 35ca 0ebf 3c94 11bf
00000180: 550a 79be 2197 3cbf 1186 163f aa5e d4be
00000190: 5cfa 12bf e90e dd3e c090 0c3f fd0c 04bf
000001a0: 0981 dcbe 1e08 7fbb c650 c33d cacc 73bf
000001b0: cde3 2dbf fb7c 223e e32f d83c 1802 9bbf
000001c0: c99e fcbe a1a6 f73d b9d5 5b3d cc69 193d
000001d0: c79d 2bbf 4d8a 903e b4c9 183f ac91 cf3d
000001e0: 4246 07bf 8285 be3e c522 67be 7d7e 15bf
000001f0: 9d39 75be 8e77 c63d a5e4 9b3d ee6d 7e3e
00000200: eb5a 9fbf cd02 a83e 0eb4 9d3e ba9a 843e
00000210: 4f7f b2be 2f70 94bf a7a3 8dbe dbb2 09bf
00000220: 8622 993e 97fb 7c3e 0ba8 943e b826 7d3e
00000230: 0487 563e fa68 b83e d349 bfbe b02d 96be
00000240: d562 66bf 955c 17bf 5452 4bbe 4d64 f83e
00000250: 8c5e 0bbf 52a0 43be 9a4d 1dbf 9a6a 90be
00000260: e5b5 9a3e 43a7 93bf cd46 843e 643a a4be
00000270: 2806 2bbf f1e3 51be 527f 14bf 8880 14bf
00000280: 7c6d 5bbe 1de8 89be 30b4 80bf b32e cbbe
00000290: 70cf cabe 7b09 99bf ae9f aabf e877 08bf
000002a0: 4bcf 94be 015f 643e a66d af3e 9ebf adbe
000002b0: 36e2 e6be 5286 683e 965d 7e3e 1413 0e3f
000002c0: 832d 1ebf 43e2 8e3e a718 9e3e a7eb 743e
000002d0: d425 d7be 3a6f d63e 1521 35bf c7a1 633e
000002e0: 47de f4be 9f3a d13e d63d a1be 86d5 25bf
000002f0: 090e 88be 453d 943e 8b79 5e3e 13cb c13e
00000300: 9d29 5d3e 5806 afbe 02a2 afbe 2fc6 b1be
00000310: 7e4f a8be a63d c3be e9af bb3e 2558 3e3e
00000320: 8dc9 c4be d552 343e 5595 c3be cea2 4a3e
00000330: f055 293f 1396 033e 3cfe f9be 154e 8fbe
00000340: 403b e13e 5bd3 9ebe 7a1a 97be e9de f73d
00000350: b1a8 3a3e 60c5 8cbf 51ab 7dbe 7a2d a4bf
00000360: e1fe 40bf 350e e0be 7687 43bf 262b 99bf
00000370: d4e0 a2be 3f4d c1be bf97 663e 3e1c 323e
00000380: 32bd bf3e 3c9d b2be d341 71be 0ccb ba3e
00000390: 5241 aabe 48f7 acbf ce12 8abe 7d00 3c3e
000003a0: 6b19 87bf 5ef8 423e a8bb bcbe 2346 5abe
000003b0: b990 a8bf dc0b 473e 7959 3ebf ecc7 d13e
000003c0: 6c81 2c3f 7457 603e 255b a3be ad25 42bf
000003d0: b1ca ecbe 9675 0c3e 362e bcbe 04c4 333e
000003e0: b944 3c3e 1410 473e e731 c33e 2320 583e
000003f0: cbdb c03e 7555 c4be 5f37 263e 796d 683e

head.bias f4 [15]
-0.036026783 -0.082112044 0.11778373 0.021175573 -0.06699122 -0.0028726624 -0.11629891 0.16663271
0.008066333 0.10412705 0.05485671 0.0054831286 -0.14035386 0.01173148 -0.04986233
00000000: d290 13bd 5c2a a8bd 9938 f13d 6578 ad3c
00000010: b132 89bd 4743 3cbb 1f2e eebd c4a1 2a3e
00000020: a728 043c 9040 d53d 6eb1 603d d1ab b33b
00000030: ecb8 0fbe 6535 403c 713c 4cbd
