surrogate/trained_model/model_rate4_fold0.pth (torch, 179077 bytes, 18 tensors)

ds.proj_conv.weight f4 [16, 2, 7]
00000000: 706f 4f3d 483a 333d ae58 963d 2a51 bf3d
00000010: 4ce2 e63d 5190 fc3d 0658 0f3e 9608 873d
00000020: 61c6 123e 96d6 393e f908 5f3e 1aa4 203e
00000030: 6f6c 853d 08c3 123d 9d88 28bd 88aa 41bb
00000040: bd2d d43d ad19 0d3e dde4 3b3e 2177 023e
00000050: 9b08 bb3d 7f2a 0abe c0e9 c1bd 504b d4bc
00000060: 70b4 09bd d0a5 ffbc ef9b 04be 9774 11be
00000070: 397a 8ebc eb1b ae3d 9802 a03d 37bd bb3d
00000080: 7bcd 5f3e 483d 4f3e df93 2a3d f053 6dbd
00000090: 65af ccbc 9625 b83d 6f22 a03d 4ab6 833d
000000a0: 3b01 4bbd 95b9 e1bd 80c2 2e3e 58d4 273e
000000b0: 034f 023e e36d f43d 9576 eb3b 4e06 9b3d
000000c0: 342d ac3d aacf a3bd 28c9 e9bd 2037 98bd
000000d0: aac6 a2bd 371d b1bd 8c8f f8bd aae0 01be
000000e0: f740 58bd 26f4 27bc 80ab cbbb 29a3 983c
000000f0: 34c0 c63c 0e76 613d 4988 4fbd 0582 22be
00000100: c14f 90be 7965 86be 0651 28be 3804 90be
00000110: eb7e 81be bfd9 44be a441 cc3d 5888 843e
00000120: f9b5 293e b557 133e b22d af3d 8566 8f3d
00000130: 6bca 9bbd 2ccb 693d ab76 d23d 18f8 583d
00000140: 7b97 ec3d 6819 843c 713a 61bd 2cb4 abbd
00000150: 2fc5 423d 665c 7abd 563e e5bd 71b6 833c
00000160: 23fa c2bd feee a1bd aa3d 06bd c174 94bc
00000170: d3bb 2fbc fea8 c03d 4884 123e b996 4f3e
00000180: 2fe3 fc3d 2bd9 a43d 9b93 bdbd 2a1f 65be
00000190: e4ce 6cbe 8de2 1abe ad46 60be 7492 26be
000001a0: 3d6d 3bbd cbaf 9a3c 05bd 4d3d eb95 a63d
000001b0: 8adc 9f3d 67cb 953d 3342 763d c2e9 4d3d
000001c0: 771d e5bd 4a27 22be 5e85 13be 56db 25bd
000001d0: cc0a 223d d511 be3d f899 d83d 43a7 843d
000001e0: e019 543b d822 01be 11fa 16be 8dea 58be
000001f0: 1748 3cbe 9256 39be a291 233e 6305 d63d
00000200: 4cc5 693d 21fc 383e 7084 8e3d a548 f83d
00000210: fc07 cd3d 47ba bb3c 2a5a 5c3c f831 4dbc
00000220: 02e0 21ba 1113 54b9 20dc 7f3b f3a4 03bd
00000230: 74f0 21bd 4d3a 89be ea0b 9bbe 92ca 8fbe
00000240: 33d2 91be d3e2 5abe 4091 ddbd e5a4 8c3b
00000250: ace6 423c a347 4c3c 00b6 c0bc 20b9 2bbd
00000260: 44cf f5bc abc6 d4bc 83d3 7bbd b84a c9bd
00000270: 1185 d4bd 0190 fbbc 6a01 b1bd 4f73 16be
00000280: 0a61 243d beed 6b3d 65bc 273e b49f 353e
00000290: a109 003e d130 9c3d aca4 07bc 299c 3bbd
000002a0: 4bbe 50bb 1dac ed3d 55e7 913d e932 113e
000002b0: 5b8e 1a3e 83d5 f93d 0fca 2a3e ba79 c5bd
000002c0: cd11 62bd 39c5 153d 334a 953c 52f8 643b
000002d0: 82d7 9fbd 27b1 d9bd 47c3 943d f86f d93d
000002e0: 3b5b c23d 031f 02bd a0b0 c0bd f1ef 4abe
000002f0: c0d9 9dbd 6c98 bbbd 0dd1 a4bd 205a 03be
00000300: ef1b 38be b842 30be dbba 0f3c 3241 c83c
00000310: 2267 e93d 7978 e13d b484 fb3d 4d51 633d
00000320: 03a7 163d aa2c cabc 400f 9bbc 8893 35be
00000330: 46c4 66be 8312 4fbe 37e2 1abe 8a74 20be
00000340: 2a9f 2fbe e549 b0bd dd66 853d c41c 653d
00000350: 2f1c 793d 27ed 8f3d 0e2c c43d 93c5 d43d
00000360: 187a 093e fb6f 3a3e 4df4 783e a5c7 533e
00000370: da5f 243e 0d91 8b3d d5d7 283c b178 8abd
0.050643384 0.043756753 0.07341133 0.09341653 0.112736315 0.12332214 0.13998422 0.065934345
0.14333488 0.18148264 0.21780767 0.156876 0.06514823 0.035830528 -0.04114591 -0.0029551107
0.103602864 0.13779326 0.18349023 0.12740757 0.09132501 -0.13492773 -0.094684124 -0.025914818
-0.033619344 -0.031206995 -0.12950109 -0.14204632 -0.017392265 0.08501419 0.07812995 0.09166949
0.21855728 0.2023822 0.041644927 -0.057941377 -0.024985978 0.08991544 0.07819068 0.06431253
-0.04956172 -0.11021725 0.17066383 0.16389596 0.12725453 0.11935022 0.007185767 0.07569562
0.08407059 -0.07998593 -0.11415321 -0.07432389 -0.079480484 -0.086481504 -0.121367544 -0.12683359
-0.05279633 -0.010251081 -0.0062155128 0.018632488 0.024261571 0.055044226 -0.05066708 -0.15869911
-0.28185847 -0.26249292 -0.16437158 -0.2812822 -0.25292143 -0.19223689 0.099734575 0.25885272
0.16573323 0.14388926 0.085536376 0.07001976 -0.076069675 0.057078525 0.1027654 0.052970976
0.1155233 0.016125396 -0.054987375 -0.083839744 0.04755133 -0.061123274 -0.1119353 0.016078206
-0.09520366 -0.07906912 -0.03277365 -0.018122079 -0.010725933 0.09407233 0.14308274 0.2027234
0.12348019 0.08049234 -0.09256669 -0.2237517 -0.23125798 -0.15125485 -0.2190196 -0.16266805
-0.045758475 0.018882653 0.05022909 0.08134063 0.07805736 0.073141865 0.060121726 0.050271757
-0.111872606 -0.158353 -0.14406344 -0.04049238 0.039561078 0.09280745 0.10576242 0.06477215
0.0032364056 -0.12610948 -0.1474383 -0.21183224 -0.18386875 -0.1809943 0.15973523 0.10450246
0.057072923 0.1806493 0.06958854 0.12123231 0.100112885 0.022915972 0.013449231 -0.0125241205
-0.00061750424 -0.00020224998 0.0039041117 -0.03213973 -0.039535955 -0.26802292 -0.30282527 -0.28084236
-0.28480682 -0.21375589 -0.1081872 0.004292118 0.011895817 0.012468251 -0.023524284 -0.041924596
-0.030006059 -0.025973639 -0.06148101 -0.098287046 -0.10376943 -0.030708315 -0.08642848 -0.14692424
0.040131606 0.057599775 0.1638046 0.17736703 0.12503673 0.076264985 -0.008279007 -0.045803223
-0.0031851705 0.11605094 0.07124201 0.14179577 0.15093367 0.12198927 0.16678642 -0.09642358
-0.055192757 0.03656504 0.018223858 0.003493805 -0.07804777 -0.10629492 0.07263809 0.106170595
0.09490057 -0.031767856 -0.094086885 -0.19818093 -0.07707548 -0.091599315 -0.08047686 -0.12827349
-0.17979406 -0.17212951 0.008772577 0.02444515 0.11396624 0.110093065 0.122811705 0.055497456
0.03678037 -0.0246795 -0.01892817 -0.1773206 -0.2253581 -0.20221905 -0.15125357 -0.15669456
-0.1715056 -0.08607844 0.0651376 0.055935636 0.060817894 0.07027655 0.09578715 0.10389247
0.13425481 0.1820678 0.24311943 0.20681627 0.1605219 0.068147756 0.010305365 -0.06761301

ds.proj_conv.bias f4 [16]
00000000: 579f 6ebe 7d61 4a3e 628e 6b3e f07d 60bc
00000010: 9cdc 52be dccd 7fbe 4786 90be d5db 9f3e
00000020: 3f7a d53d 0c11 923e 18aa 4a3d 8cf6 9a3c
00000030: 448e 09bc 125e 1ebe 7747 2bbe 250d a1be
-0.23302971 0.19763751 0.23003533 -0.013701901 -0.20591968 -0.24980873 -0.28227445 0.31222406
0.10423707 0.2852863 0.04947862 0.01891639 -0.008395735 -0.15465572 -0.1672648 -0.3145534

ds.proj_bn.weight f4 [16]
00000000: 9406 843f 9dd5 a23f 359d 833f bf56 ac3f
00000010: f344 a13f 20a0 743f 25d0 9a3f ec76 ba3f
00000020: 16ad a53f 8ac6 563f c27a a93f c4de 973f
00000030: 2949 873f ea2a a33f cacb cc3f 9fc2 843f
1.0314507 1.272144 1.0282351 1.3463973 1.2599167 0.9555683 1.2094771 1.4567542
1.2943447 0.83896697 1.3240588 1.1864858 1.0569202 1.2747471 1.5999691 1.0371894

ds.proj_bn.bias f4 [16]
00000000: 1ef7 79be dc28 38be c329 43be 0d6e 8ebd
00000010: 237a acbb 9bab 6fbe b926 cabc b8f2 453c
00000020: 7f27 4b3d 1920 cfbe 5e86 02bd 7171 8dbd
00000030: fac4 44be 6fb3 143d 34c7 cd3a 0347 83be
-0.24410674 -0.17984337 -0.190589 -0.06954584 -0.0052635833 -0.23405306 -0.024676668 0.012081794
0.049598213 -0.40454176 -0.031866424 -0.06906403 -0.19215766 0.036303934 0.0015699626 -0.25640115

ds.proj_bn.running_mean f4 [16]
00000000: 3abd 683e 7ce3 4f3e cbcd e23e 41f1 1a3c
00000010: ae71 32bf d89b 323d 309f 44be d345 ba3d
00000020: 5a6c 4dbe 2b44 073f ac71 e1be 1234 113d
00000030: a522 133e 5cea c3be 2173 cdbe a450 e23d
0.22728434 0.20301622 0.44297633 0.0094569335 -0.6970471 0.043605655 -0.1920135 0.09095349
-0.20060864 0.5283839 -0.44032037 0.03545005 0.14368685 -0.3826474 -0.401269 0.11050537

ds.proj_bn.running_var f4 [16]
00000000: 4645 993d 49c1 2e3e 4de5 a13d dd6f 753e
00000010: d358 bb3e c4da 8f3d b1c3 e43d 1e6d 973e
00000020: 2763 b23d c5c9 bc3d 711a 9f3e c880 083e
00000030: 2170 0b3e 5794 733d b92b 9e3e 5d64 933d
0.07483916 0.1706592 0.07905064 0.23968454 0.36591205 0.07024148 0.11170138 0.29575437
0.08710318 0.09218172 0.3107486 0.13330376 0.13616993 0.05946764 0.30892733 0.07196877

ds.proj_conv1.weight f4 [8, 16, 5]
00000000: 7a5b 113d 5366 503c 4375 48bd 4275 f7bc
00000010: 37ef e53c aaf4 063e 7cad de3d d497 8ebd
00000020: 2527 b7bd dc0d 0bbe a8cc 093e a4d0 ab3d
00000030: 0e58 4abd f671 c3bd 5f40 d6bd 64a9 46bd
00000040: 846f 053e ebe3 4f3d c9d4 e4bd df35 38be
00000050: f858 01bd c662 ab3d 0e28 033d a302 303d
00000060: 9272 1bbd c371 463d c295 153e 8188 fc3d
00000070: aca0 27bd fe84 c7bd 0a87 bdbc df36 8f3c
00000080: 60bc 9ebd 5d4d 9ebd 543c 113d 8678 693c
00000090: 1f7b dfbd 9e7b 69be 9421 c4bd 197a e33d
000000a0: 5d33 143e 098d 9dbd 25b3 27be ef8e 1d3d
000000b0: 21b4 f7bd 83fa 003e 4332 4d3e 2e6d 633e
000000c0: 26fd 6d3d 2088 b8bc 760c df3c fb21 63be
000000d0: b73e 99be 6993 d23b d2ae 1f3e 3800 3fbd
000000e0: cd4a 123d 9088 203a 0112 c0bd 81bf 3b3c
000000f0: b45b c33d 2075 9b3d 0c52 7fbd e5e1 d1bd
00000100: 2bc9 05be a02e bbbd 1cd0 54be f1f1 a03d
00000110: 586a c93d fb4d 313e ba48 dbbd 3fbb 063e
00000120: ead3 773e ed5e 8ebd 5044 b1bd 76e4 afbd
00000130: 6d65 87ba c5c6 2fbb 0223 a4bd cd19 75bc
00000140: ece5 8cbc 5760 a5bd 771f acbe ea1e a1be
00000150: 67cc 0bbe 20ff c4bc 6498 443d cef5 bdbb
00000160: 05e3 64bd 9a1b 76bd ccf8 4f3d a887 133e
00000170: 0e96 3c3d abbb 8dbc 58c6 30bd eacb 62be
00000180: 50af d1bd 7ee3 8cbd 5cf9 8fbd 1fbf 68bd
00000190: 8ee2 3ebd e245 2fbc 9a63 2dbd bf55 5abc
000001a0: 5734 3ebd 0ed6 d13c ef13 f93d 293a 0d3e
000001b0: 922c 36bd edfc 4b3c a17d d53d 10af acbb
000001c0: 290e feb9 f864 8fbb f5ac 233e ee45 4e3e
000001d0: ea57 ed3d 6608 a23d fc53 893b 7990 d33d
000001e0: 89cf 833d 6384 6c3d 7609 e53c 4cda d83c
000001f0: eb26 2dbe 2bb4 02bd b769 2f3d dbfd 20bd
00000200: 8efb e3bd a184 39be 322f 673e 6e09 283e
00000210: 0ba3 b03c a8f4 8ebd ff73 47bd 3c6e 823d
00000220: 0186 c83d 3235 1abc 4f8b 9fbd 990f 333c
00000230: f103 9c3c 12b8 223d aa78 683c 00d4 c9bb
00000240: 4dc4 8a3c ab58 acbd 75bc a6bc b833 043c
00000250: 90c2 5fbc ab85 83bd da8f 83be 59ed b3bd
00000260: faa4 c0bd 23f1 9cbd b8e7 84bd 4059 b7bc
00000270: b445 403c 66f8 5ebe 5189 d3be 9d0c 63be
00000280: d416 f23c 78b2 0a3e 471b 003e 3cd8 10be
00000290: c888 cebd 53c1 8139 c93e 02bd 2726 b4bc
000002a0: 8d91 0dbe ff6a 643d a6e3 74bc 37df 03bd
000002b0: dd23 f8bd 6a28 1bbe 6a98 1c3c 09d2 323d
000002c0: e8b8 79bc aa1e cfbc b608 b5bd 89a7 a0bd
000002d0: b11d c9bb d7ba c33d abf4 3a3e 083d 1f3e
000002e0: 9700 8fbd ba6a 9a3d bce4 a7bd ef4e e3bd
000002f0: 94ff 9fbe 0897 b6bd 25f0 733b 4960 8cbd
00000300: 6ada ebbc 9b86 93bd 8b84 cb3d 757d 21bd
00000310: b0ad 1bbe 55d3 58be 4cd3 74be 7105 f93c
00000320: ae48 6a3d 197f 463e 80d8 8f3e f4b1 c03d
00000330: d5c6 29be b7ae c53c 7ae7 a7bd 310f 58be
00000340: e6f2 91be 4135 87bd 35c1 2bbd ef5b c6bd
00000350: b7ac 17be 359f 1dbe 5b80 da3c 4b8f 5c3c
00000360: b887 4ebb 5177 1abe 5402 bdbd 7085 a23d
00000370: 8422 9abc f161 d8bc af0b 04be 559e 25be
00000380: a145 543c 7fe8 cebd e98b fa3d dca2 633e
00000390: d488 4d3e 1403 c3bd 5824 8b3d b490 ad3d
000003a0: 1b3d 313e ffad b53d 3bee 2dbd f9f7 5c3d
000003b0: 29dd 9d3d 43c4 8a3d bdba 16bd 0464 00be
000003c0: 6c64 a53b 6a47 2a3d e01c 563d 30e0 81bd
000003d0: 9f7e 623d 7d05 84bd e836 c43e 2a6d 123e
000003e0: a6b7 f0bb da8e c6bd 8c02 b6bc 572a c73d
000003f0: 8cbc b13d 44ef 73bd ca80 d2bd cd2d febc
0.03548763 0.0127197085 -0.048939954 -0.03020728 0.028068168 0.1317927 0.10872933 -0.06962553
-0.08943013 -0.13579506 0.13456976 0.083894044 -0.04940038 -0.09543221 -0.104614966 -0.048501387
0.13030821 0.05075447 -0.11173398 -0.179893 -0.031578988 0.08368449 0.03202062 0.042971265
-0.03795106 0.048448335 0.1460791 0.123307236 -0.040924713 -0.09742163 -0.02313568 0.01748222
-0.077507734 -0.077295996 0.035457924 0.014249926 -0.10912155 -0.22801062 -0.09576717 0.11107273
0.14472719 -0.07692916 -0.16376932 0.03846639 -0.12094904 0.12595563 0.20038705 0.22209617
0.05810275 -0.022525847 0.027227622 -0.22180931 -0.2993066 0.006426264 0.15594032 -0.046631068
0.035715867 0.0006123865 -0.09378434 0.011459232 0.09538975 0.07590699 -0.062334105 -0.10248164
-0.1306502 -0.091397524 -0.20782512 0.07858647 0.098347366 0.17314903 -0.10707231 0.13157366
0.24201933 -0.069516994 -0.08655608 -0.08588497 -0.001032991 -0.0026821357 -0.0801449 -0.014959765
-0.017199479 -0.08075016 -0.33617756 -0.31468898 -0.13652192 -0.024047434 0.047996894 -0.0057971245
-0.055880565 -0.060084917 0.05077438 0.14407218 0.04604154 -0.017301401 -0.043157905 -0.221481
-0.10238516 -0.06879328 -0.070299834 -0.056822892 -0.046602778 -0.010697814 -0.042331316 -0.0133261075
-0.046436634 0.025614765 0.12162005 0.13791718 -0.0444761 0.012450439 0.104243524 -0.0052698925
-0.00048457205 -0.00437605 0.15983947 0.20143864 0.11589034 0.07911758 0.00419092 0.1033029
0.064360686 0.05774344 0.027958613 0.02647128 -0.16909377 -0.031910103 0.042825427 -0.039304595
-0.111319646 -0.18117 0.22576597 0.16409847 0.02156212 -0.06980258 -0.048694607 0.06368682
0.09791184 -0.009412097 -0.07790243 0.010929012 0.019044848 0.039726324 0.014188925 -0.0061593056
0.016939307 -0.084153496 -0.020353535 0.008068971 -0.013657227 -0.064219795 -0.25695688 -0.08785505
-0.09406467 -0.07663181 -0.06489509 -0.022381425 0.0117353685 -0.21774444 -0.41315702 -0.2217278
0.0295519 0.13544643 0.12510405 -0.14144987 -0.10084683 0.00024748835 -0.031798158 -0.021990849
-0.13825054 0.055766102 -0.014946854 -0.032195296 -0.121162154 -0.15152135 0.009557823 0.043657336
-0.015241839 -0.025283176 -0.08839552 -0.07844455 -0.0061375727 0.09557121 0.18257396 0.15550625
-0.069825344 0.07539888 -0.081979245 -0.1109904 -0.31249678 -0.08915526 0.0037221995 -0.068543024
-0.028790671 -0.07203408 0.0993739 -0.039426286 -0.15202975 -0.21174367 -0.23908728 0.030398102
0.05719822 0.19384421 0.28094864 0.09408942 -0.16579755 0.024131162 -0.081984475 -0.21099545
-0.2850563 -0.06601954 -0.041932303 -0.09685504 -0.14811979 -0.15392764 0.026672533 0.013461898
-0.0031514 -0.15084578 -0.0922896 0.079356074 -0.018815286 -0.02641389 -0.12895082 -0.1617368
0.012956054 -0.10102939 0.12233717 0.22230095 0.20071727 -0.095220715 0.067940414 0.084748656
0.17308466 0.08871078 -0.042463522 0.053947423 0.077081986 0.06775715 -0.03679918 -0.12538153
0.0050473716 0.041572012 0.05227363 -0.063415885 0.055296537 -0.06446359 0.3832314 0.14299455
-0.0073461113 -0.096952155 -0.022218011 0.097248726 0.086785406 -0.059554353 -0.10278471 -0.031027699

ds.proj_conv1.bias f4 [8]
00000000: c3bd 453c a8f7 73bb 88c1 8abd ace5 c63d
00000010: f859 bb3d bf11 4c3d a10e 683d 42b5 4838
0.0120691685 -0.0037226472 -0.067751944 0.09711775 0.091480196 0.04982161 0.056654576 4.7852525e-05

ds.proj_bn1.weight f4 [8]
00000000: 42fc ce3f 7e09 c13f 3321 c33f 0b93 b73f
00000010: e022 cd3f 66f1 b43f a01d b33f 348b bf3f
1.6170733 1.5081022 1.5244507 1.4341749 1.6026268 1.4136169 1.3993416 1.4964356

ds.proj_bn1.bias f4 [8]
00000000: 982e fb3d 24fe 7b3e 82ea 343e a97d 9f3d
00000010: eaed 103e b4bb de3d 779c 643e 2de3 a43d
0.122647464 0.24608666 0.17667583 0.0778764 0.14153257 0.10875645 0.22325312 0.08051143

ds.proj_bn1.running_mean f4 [8]
00000000: e157 80be dfd1 bfbe 83a4 dbbe 2e86 c43e
00000010: ba26 483f 1b70 78be 9510 32bf 6c33 423e
-0.25067046 -0.37464806 -0.4289895 0.3838362 0.7818409 -0.24261515 -0.6955655 0.18964928

ds.proj_bn1.running_var f4 [8]
00000000: f9ac 223f c4e2 ca3e df6b 2c3f e5a3 7e3f
00000010: 6c85 993f cca5 383f a8f2 3d3f 1b02 803f
0.63545185 0.39626133 0.673521 0.99468833 1.1993842 0.72127986 0.7419839 1.0000643

ds.fc1_conv.weight f4 [128, 256]
00000000: d752 8b3d 060c 973d 20b0 15be 0bc4 20be
00000010: 3733 233e e999 85bc 19a7 883e 0280 be3d
00000020: b6f4 c33c c6cf a1bb 8fba 62bd 4ec5 a33e
00000030: 55d1 27be 824a 6cbe 4632 b9be 32ac dcbe
00000040: 61fa 1bbf 0308 67be 8b9f 85bd 21db b5be
00000050: f54a 5fbe 0111 963c 12a1 303e 7536 3e3d
00000060: db24 b23d a3f6 c13b 20af 6fbd b512 afb8
00000070: c99e 293e 85d0 1d3d 07c7 633d e2f6 03bd
00000080: 2b97 2a3e 2f29 a03d 81eb 853d c514 9dba
00000090: 00db 31bd aa60 4bbe d343 1bbb d935 66be
000000a0: e994 1fbe 7434 bf3d 226d e43d 45f1 c53d
000000b0: f88d 0cbe 1b60 4ebd 1b13 11be c83b 81ba
000000c0: b404 db3d cf0e 653d 7b25 043e e42d 433e
000000d0: 8aea b23e ca00 e13d 1658 30be e596 023c
000000e0: d6ca 633d c7ec 893d 53a2 f4bd c62e 1f3d
000000f0: ac3c 87be 116b c9bc 6acb 8d3d 8cb4 0d3e
00000100: 19b7 723e a15c 773d dab8 8b3a 7c54 bcbd
00000110: 1303 99bd b474 6fbe 44ab 11bd 29b1 043e
00000120: f7af fe3b 8c8a 903d e811 a6be fbc3 d63e
00000130: 6366 9cbd 9db9 03be b667 5fbe 6578 eebe
00000140: bcc2 0dbf 4abf 19be 3351 1d3c 3954 29be
00000150: a7d0 d03d eb9c 81bd 6a0b 93be 09e0 88be
00000160: 1d9f 01be c1c6 07bc 25d1 043d 22b5 0fbc
00000170: 265f 8b3d 9111 373e 3846 9b3e 8a49 99bd
00000180: 7f49 61bd b242 f639 1a40 13be 5b15 56bd
00000190: c196 7a3d 0ff3 913e 3740 933d 09b6 b83d
000001a0: 8334 da3c 5b7e 6dbd 297e 59bd c047 b83e
000001b0: 73d5 36be 71ae 9ebe 017b 84be 4672 c0be
000001c0: 4391 0fbf 2aa6 64be 0599 d7bd 9bfb a9be
000001d0: 9829 73be 4130 763e 7ec2 1a3e 721e 633d
000001e0: c6c3 4d3d e9bf 103d 836c 73bc bf89 5cbc
000001f0: f206 2f3d 8588 d13c 47d6 b4bc f723 e2bd
00000200: fde4 a6be 7906 63be 1859 46bd ffc1 07be
00000210: 3d0c c9bd 6066 5abd 9c8e f33b c5f3 10be
00000220: ea7f 62be f8c6 6fbd c96a a0be f3f0 d73d
00000230: 8caf 75bd c430 0bbd 758f 853e a3c8 d63e
00000240: 4811 813e 99e3 833e a21d 993d 470b b7be
00000250: 5d97 aebd 0263 51be 3ec6 9d3d e7d1 93bd
00000260: 3512 c5bd 4609 02be fa10 2abd 72e2 20be
00000270: f745 d3bd 9a88 b2bd 2cd5 cbbc 4bd0 b5bd
00000280: fb5f 08bd 4153 02bb b540 58bd 83b1 aaba
00000290: e96a eebc 8252 453e 386a 533d 005a 123d
000002a0: c4ff 3e3b acca 28ba 343e 583d 951f a63c
000002b0: d4e8 f2bd 0d5d e8be fbca 19be 4428 d8be
000002c0: f4ca f1be ab94 e2be 6d87 b03b f7f1 8abe
000002d0: b276 92bd 288d 2c3e 4425 38bc cca1 a43c
000002e0: 6691 9b3c 0cab 46bd 5efd af3c 8ed7 793c
000002f0: 1913 ef3d f628 ea3c e2b1 67bd d8d4 ecbd
00000300: 4575 de3d 2e5f 6dbc 3776 373c 9ae3 473d
00000310: 508f b9bd 22e7 1ebe e6f7 78bd 313c 633d
00000320: f8ff efba c4f1 673e bd54 c83e 77fb d13e
00000330: 6f48 b2bc 9e9f 0f3e 632c 91be 4b0f 95bd
00000340: 90a7 05be 5c99 abbd 1ac9 d53d 4b9f 603e
00000350: 6ba2 9b3e 4568 1e3e 7453 25be 0ad5 ef3c
00000360: c6f4 8b3d 3e3f c13c a46e b03d 9a3f 11bb
00000370: 18da d13c 8dda 4b3e dc95 d3ba bdab ce3d
00000380: ac8f 3a3d dba2 cfbc 5f60 edbd 65e5 023e
00000390: 1ee6 1f3e 3385 033e f94b f23c 6aad b43c
000003a0: 33fb 463c b8d2 b63c 088d aa3e 3807 e0bd
000003b0: 245c 08be 267d d8be 18c6 90be 0bb2 0fbf
000003c0: f178 49be 14bc 26be c19c 91be fed7 65be
000003d0: 89c2 103d 9264 6f3e 1132 28bd e483 733d
000003e0: 11f9 5c3d 252d f5bc 4442 25bc 59a4 143d
000003f0: 655f 633d 8843 203e c9f2 a2bb d54e 7abe
0.0680291 0.0737534 -0.14617968 -0.15699784 0.15937506 -0.016308742 0.26689985 0.09301759
0.023920398 -0.0049380986 -0.055353697 0.3198647 -0.16388448 -0.23075297 -0.36171168 -0.43100125
-0.6092892 -0.2256165 -0.06524571 -0.35518745 -0.21805938 0.018318655 0.17248943 0.046438653
0.08698436 0.005919294 -0.05851662 -8.348135e-05 0.16564478 0.038528938 0.05560973 -0.032217868
0.16659229 0.07820355 0.065390594 -0.0011984339 -0.043421745 -0.19861093 -0.002369155 -0.22481479
-0.15584148 0.093361765 0.11153628 0.09665159 -0.13726032 -0.050384622 -0.14167444 -0.0009859735
0.106942564 0.055922326 0.12904923 0.19060475 0.34944564 0.109864786 -0.17221102 0.007970546
0.05561336 0.06734615 -0.119450234 0.038862966 -0.26413476 -0.024587186 0.06923564 0.13838404
0.23702659 0.060391072 0.0010659948 -0.091958016 -0.074712895 -0.23384362 -0.035563722 0.12958206
0.0077724415 0.07057676 -0.32435536 0.41946396 -0.07636716 -0.12863775 -0.21816906 -0.4657623
-0.55375266 -0.15014377 0.009601879 -0.16536035 0.10196047 -0.06328758 -0.28719646 -0.26733425
-0.12658353 -0.008287133 0.03242602 -0.008771213 0.068052575 0.17877795 0.3032701 -0.074847296
-0.055001732 0.00046970468 -0.14379922 -0.05226646 0.061178926 0.28505751 0.071899824 0.090190955
0.026636368 -0.05798183 -0.05309883 0.3599224 -0.17854862 -0.30992463 -0.25875095 -0.37587184
-0.56081027 -0.22329012 -0.10527233 -0.33199772 -0.23746336 0.24041845 0.15113255 0.055448957
0.050235532 0.03533927 -0.014857414 -0.013460576 0.042731233 0.025577793 -0.022074832 -0.11042016
-0.3259658 -0.22170438 -0.04842481 -0.13257597 -0.098167874 -0.05332029 0.007432772 -0.1415549
-0.22119108 -0.05853936 -0.3133147 0.10544004 -0.059981868 -0.033982053 0.26086012 0.4194995
0.25208497 0.2575958 0.07476355 -0.3575079 -0.08524964 -0.20447925 0.07703827 -0.0721777
-0.09622613 -0.1269885 -0.041520096 -0.15711382 -0.10316079 -0.08717461 -0.024881922 -0.08877619
-0.03329466 -0.001988605 -0.052796084 -0.0013022873 -0.029103713 0.19269755 0.05161497 0.035730362
0.0029144147 -0.0006438892 0.052793697 0.020278731 -0.11860815 -0.45383492 -0.15018837 -0.4221822
-0.47225153 -0.4425405 0.0053872378 -0.2713773 -0.071515456 0.16850722 -0.011239354 0.020096682
0.01899023 -0.048502967 0.02148312 0.015249146 0.116735645 0.028583985 -0.056566127 -0.11564034
0.10862211 -0.014488025 0.011197618 0.048801042 -0.09060538 -0.15517858 -0.06078329 0.055477325
-0.0018310538 0.2265082 0.3912715 0.41012165 -0.021763055 0.14025733 -0.28354177 -0.072783075
-0.13052201 -0.0837886 0.10438748 0.21935765 0.30397353 0.15469463 -0.16145116 0.02927639
0.06833796 0.023589727 0.08614853 -0.0022163154 0.02561669 0.1990759 -0.0016142684 0.1009135
0.045547172 -0.02534621 -0.11590647 0.1278282 0.15615126 0.1284378 0.029577242 0.022055347
0.0121448515 0.022317275 0.33310723 -0.10938877 -0.13316399 -0.4228298 -0.28276134 -0.56131047
-0.19675042 -0.16282684 -0.28439906 -0.22445676 0.035341773 0.23378208 -0.041063372 0.059451953
0.053948466 -0.029928753 -0.0100866 0.036289547 0.055510897 0.15650761 -0.00497279 -0.24444135

ds.fc1_conv.bias f4 [128]
00000000: 7950 cebc 0e5d b73c 021a 673d 1063 253d
00000010: 4263 0b3d e52a 123c 1fbb a33d bd46 33bc
00000020: 1644 183d f37e fb3d 4045 d73a 2a6f 953c
00000030: c770 df3b 818d 023b 8d92 6c3c fc0c d43d
00000040: 595c 133d 905e 473c 8932 0f3d 359f 413d
00000050: 79f2 a23d 733b 883d c8b6 c23c 278c 363d
00000060: a42e 23bc d13a ab3d 00dc 523d 7eda 5ebd
00000070: d4f8 fd3a 7cd2 9f3c a608 5c3d daf9 de3b
00000080: 765d 0d3b 9b25 1d3c e425 a93c c565 cdba
00000090: 535e 7d3d 3ac5 58bb daab 693d 90ce e33c
000000a0: aa4a 503d bc76 7f3d 6139 e4bc 9130 d1ba
000000b0: 6771 8abb 6ca9 613d 6ef1 663d d475 403d
000000c0: d8f8 473d 3be2 833c d466 803d 2b2c 04bc
000000d0: 0fe0 4cbd 4c17 00bc 12fd 833c 12ee d4bb
000000e0: 798b 9d3d 49a7 9b3d 899e b9bb d088 fb3c
000000f0: 8487 003d bc78 e93d 853e 623d deee 1c3d
00000100: e50c 163d 221f b43c 3672 143c b0e0 463d
00000110: 8305 d73c 0fcb aebc 38f4 a03d f18e 93bc
00000120: 1e9c 943d 14f0 a93d 0843 b83c 83c8 743d
00000130: c836 173b a44e e4bb 99e9 903d de12 363d
00000140: 234d 873c db24 d03d fcb9 9a3d 2272 793d
00000150: f4c1 2e3c 9d31 40bc aff3 963d e09c 683d
00000160: 7121 5dbc 6a46 cb3c 7670 8d3c 78b9 403d
00000170: 594f 543d 5aed 8e3b 19ac 183d bbcc 223d
00000180: 1c28 6a3c 6613 813b 924d 333c 72a8 c33d
00000190: 5219 7abc 92dd 963d 4b16 9e3c 7a24 6e3d
000001a0: 98ac 923d a7cc 1bbb 1bb4 be3c bb9d 333d
000001b0: adc1 ed3c 8140 673d 853f dc3c 26f7 c93c
000001c0: 67fa 8fbc b76f 5a3b 435a 703d 5c7a b5bc
000001d0: 1857 773b fd33 cc3c f9d0 3b3d 87c9 dc3c
000001e0: 95d8 553d 8c78 093d 5b82 463d d40d a23d
000001f0: c6ff 823d 19ef 003c 271e c63d 455a 9d3d
-0.025184857 0.02238324 0.056421287 0.040377676 0.034030207 0.00892136 0.07994675 -0.010942158
0.037174307 0.12280073 0.0016423836 0.018241484 0.006818864 0.0019920769 0.014439237 0.10354039
0.03597674 0.012168542 0.034960303 0.047270972 0.07956404 0.06651964 0.023768798 0.044567253
-0.00995985 0.08360828 0.05147934 -0.05440759 0.0019376525 0.019509546 0.053719185 0.006804687
0.00215706 0.009591485 0.02064795 -0.0015670588 0.061857533 -0.003307654 0.057048656 0.027808458
0.050852455 0.062369093 -0.027859392 -0.0015959908 -0.0042249444 0.055093214 0.05638259 0.04698737
0.0488213 0.016099086 0.06269613 -0.008067171 -0.050018366 -0.007818054 0.016111884 -0.0064981068
0.07692618 0.076002665 -0.005664651 0.030704886 0.031379238 0.113999814 0.055235405 0.03831374
0.03663339 0.021987502 0.009060433 0.048554122 0.026247745 -0.02133706 0.07859081 -0.018012496
0.072563395 0.082977444 0.0224929 0.059761535 0.0023073424 -0.0069673825 0.07075805 0.044451587
0.016516274 0.101632796 0.07555005 0.06089986 0.010666359 -0.011730579 0.07370698 0.056790233
-0.013496743 0.02481385 0.01726554 0.047051877 0.051833484 0.0043617906 0.0372735 0.039746027
0.014291789 0.00393908 0.010943787 0.09553613 -0.015264826 0.0736648 0.01929774 0.058140256
0.07161826 -0.0023773105 0.02327924 0.043851595 0.029023016 0.056458 0.026885757 0.024653982
-0.017575456 0.0033330747 0.05867983 -0.022153072 0.003774112 0.024927134 0.04585359 0.026951564
0.0522085 0.033562228 0.04846416 0.07912794 0.06396441 0.007869505 0.0967372 0.07683233

ds.fc2_conv.weight f4 [64, 128]
00000000: a14e a43d 380e 99be 6ce8 263d becf 043e
00000010: 426d 193c ad3d d83b 5e7f 71be 9806 463d
00000020: f2ab babe 208d eabd e1bd f1bc 672d 733e
00000030: 7e1b e13d 6b63 bb3d c1a0 5fbc 3bac 893d
00000040: 1be0 143e 6191 8dbd 5603 3b3b 968c 84be
00000050: 4437 0f3d 6379 003e 93d3 5d3e 7097 a5be
00000060: 9fc0 ba3d c820 233e 372d a93d 903f 363e
00000070: 0a8f a43c e6aa 9ebc b1ae 86bc 9941 fd3c
00000080: e209 27bd f0ed 893d b125 4b3e 7849 90bd
00000090: fcd1 97be 3855 e0bd b49b 1e3e 15d2 493c
000000a0: 2c2f 8f3c 1acd 333e 6111 0a3d 9475 b6be
000000b0: 7ca7 763d fea2 303e 1e7c 9cbe efee cabe
000000c0: ff8e 0fbc b949 6e3e eb92 94be 72c7 d3bd
000000d0: 8fa5 003e d4b9 323d 4412 443e b59b 343d
000000e0: db50 643e 7635 5cbb 7c64 2b3d 37cb a23e
000000f0: 59f1 3abe 5ea3 473d 1c9a 323e dd1b 5f3c
00000100: 22d1 8ebd 8003 d63c 5849 05be 59ed 86be
00000110: 5ec6 313e 05d1 3cbf 7096 853e c05f 52be
00000120: 39ad 233c ffc5 493c 1e7e 04bc b94b 4f3c
00000130: 13d7 70bc bb6b a73d 0ac3 c73d 7646 233e
00000140: 9662 08bd ff98 b23d 1b1d 4d3c 2a81 f9bc
00000150: 6afe 573e 50d4 9e3d 9212 3f3c 8b70 92be
00000160: 873b e63d 3ccb 913e dacc 663c 5efe fc3d
00000170: c75e 0a3e 8cd0 bb3e 8b74 3d3c 3933 143e
00000180: 446c 863e ce26 423d 0111 8f3d 63e3 a2bd
00000190: 9be0 14bd c5fe 943e d1e8 3abf f391 613d
000001a0: 7357 6ebe 0f29 bc3d 9617 253e 863b 813e
000001b0: afef 51be afd6 c0ba c768 833e c896 983d
000001c0: 1a5a 6a3c 5796 26be f510 9ebe ade1 fc3c
000001d0: 08c4 4abd 45c5 8abc bdfd e4be 5d1f 34be
000001e0: e4ea 12be 523e 6c3c b90d eabe ee99 26bd
000001f0: c3e1 a13e 03c1 ed3d 2927 393c 5df8 25bc
00000200: cf7c cb3e 6b41 bc3d e167 013d 9881 e73d
00000210: 5c76 a03b 8730 b4bc ba78 46be 18d9 263f
00000220: 734e efbc 5db4 fdbd 7564 d33e 3f90 9a3e
00000230: dcc2 0b3f 454c 893e cd3c 603d 5f9e 93be
00000240: 0ee4 25bc 17da 703d dbab 68bc e1a7 cbbd
00000250: 11f7 18be 0782 80bc 59d4 243e aad8 84be
00000260: fae1 ae3e 4de4 86bd eb85 cbbb d904 d73e
00000270: f96f e03e dc14 a03d 653d f9bb e1a7 f53e
00000280: 965b 0b3d aeae d63e ccc4 d93d d778 0c3f
00000290: 32d8 a3bd 6da2 aa3e d20d a4bd a114 053e
000002a0: 21d5 863d bce6 4f3d 977f 623e cf20 7c3d
000002b0: 237a a23d a3af d93d 2c42 e6be 2756 12bf
000002c0: 6b03 2c3e 013e 7fbd ada4 babd 5468 7a3d
000002d0: 6e93 7a3e c701 223e 0d35 693e 69f6 b4bd
000002e0: 0a84 b13d cf8c 35be f09f b63e 68b1 123d
000002f0: f0ad e7be 2398 58bc 57ab d5bd b6c9 7b3d
00000300: b41d 703c 7998 893d 88dd 333e 7d48 c6bd
00000310: be59 143d 58a8 093d 3fde 60bd d733 453f
00000320: e3e4 f53c 55f6 bfbc 400a 073e b0cd 1fbe
00000330: 61a5 993e 38b6 553e 1204 15be 5cdc 17be
00000340: 5063 f53d 790f 2fbe 72e1 27be 9865 1c3c
00000350: e4a9 a93b a197 873e 3143 69bd eb67 88bd
00000360: 768d a73e e466 873d 035d 733d a2ec d1bd
00000370: 9cae c03d 7480 7b3e c365 ee3c 7492 bb3c
00000380: 96d8 0a3e 49c5 123a f015 aa3d de4a ecbd
00000390: 6a1f 243e 4a6b 753d aeda d9bb 6d4d ee3d
000003a0: c8c7 0dbd b607 423d acc2 e83d c0e0 aebc
000003b0: 5f73 733d 1176 28bd 0996 d83c 9abe a9bc
000003c0: 11c3 6d3e 5ff9 933d 8227 e1bd e2f4 303e
000003d0: 467e ea3d 355f 443d 707a 7a3d 742d 94bd
000003e0: f710 e6be 12d3 a33d 923f ebbe 78fe 7abd
000003f0: 29c4 ebbd 6ba0 a03d 98b8 11bd 9837 79bb
0.0802281 -0.2989366 0.040749 0.12969872 0.009364428 0.006599149 -0.23583743 0.048346132
-0.3645931 -0.11452699 -0.029509487 0.23747788 0.10991572 0.09149822 -0.013649167 0.067223035
0.14538614 -0.069124945 0.0028535924 -0.2588851 0.034964815 0.12546305 0.2166274 -0.323421
0.09118771 0.15930474 0.08260577 0.17797685 0.020087738 -0.0193686 -0.016440721 0.030915068
-0.04078091 0.06734836 0.19838597 -0.07045263 -0.29652393 -0.10953754 0.15489084 0.012318154
0.017478548 0.17558709 0.03370798 -0.3563658 0.06021832 0.17249677 -0.30563444 -0.39635417
-0.00876212 0.2327031 -0.2901834 -0.103407755 0.12563156 0.04363425 0.19147593 0.044093806
0.22296469 -0.00336012 0.041843876 0.31795666 -0.1825613 0.048739783 0.174416 0.013617483
-0.06973483 0.026124716 -0.1301626 -0.26352957 0.17360827 -0.7375644 0.26091337 -0.20544338
0.00999003 0.012315272 -0.008086709 0.012652331 -0.014699715 0.08174845 0.097539976 0.15944847
-0.033297144 0.08720588 0.012519146 -0.030457098 0.21093145 0.07755339 0.011662142 -0.28601488
0.11241823 0.28475368 0.014086926 0.12353204 0.13512717 0.36682546 0.011563431 0.14472665
0.26254475 0.04740029 0.06985665 -0.07953527 -0.036347013 0.29100624 -0.730115 0.05507083
-0.23275547 0.09187519 0.16122279 0.25240725 -0.20501588 -0.0014712418 0.25665876 0.07450634
0.014303708 -0.16268288 -0.30872312 0.03086933 -0.049503356 -0.016939769 -0.44724837 -0.17590089
-0.14347416 0.014419155 -0.45713595 -0.040674143 0.31617555 0.1160908 0.01130084 -0.010130015
0.3974366 0.09192165 0.031593207 0.11304015 0.004896922 -0.021995796 -0.19381991 0.6517501
-0.029212212 -0.12387917 0.4128758 0.30188176 0.54594207 0.26816002 0.054745484 -0.28831765
-0.010125173 0.058801737 -0.01420113 -0.0994413 -0.14937998 -0.015687002 0.16096629 -0.25946552
0.3415678 -0.06586514 -0.0062110326 0.41995886 0.43835428 0.078164786 -0.0076061958 0.47979644
0.03402289 0.41930145 0.10633239 0.54871887 -0.0800022 0.33327046 -0.080104485 0.1299615
0.0658362 0.050757155 0.22118984 0.061554726 0.07933452 0.10629203 -0.4497236 -0.5716271
0.16798179 -0.06231499 -0.09113441 0.06113465 0.24470302 0.1582099 0.22774144 -0.088360615
0.086677626 -0.17729495 0.35668898 0.03581372 -0.4524989 -0.013219866 -0.10433071 0.061471663
0.014655519 0.06718535 0.17564976 -0.09681795 0.036218397 0.03360781 -0.05489945 0.77032226
0.030016368 -0.02343289 0.13187504 -0.15605807 0.30008987 0.20870292 -0.14552334 -0.14830154
0.11981833 -0.17095746 -0.16394594 0.009545706 0.0051777232 0.2648287 -0.056948844 -0.06660446
0.32725114 0.06611422 0.059414875 -0.10250212 0.09408304 0.2456072 0.029101258 0.022896983
0.13559183 0.0005598856 0.083049655 -0.11537717 0.16027609 0.059916772 -0.006648383 0.116358615
-0.034614354 0.047370635 0.11365256 -0.021347404 0.0594362 -0.041128222 0.02643873 -0.020720769
0.23218943 0.07225298 -0.10993864 0.17280915 0.11449866 0.04794236 0.06115192 -0.07235232
-0.44934818 0.07999243 -0.45946938 -0.061277837 -0.11512024 0.07843097 -0.035576433 -0.0038027521

ds.fc2_conv.bias f4 [64]
00000000: 0239 913d 9176 523d a949 363c 710a 063d
00000010: 31f1 26bc 1c4f 083c 37c6 b33b d1cb b2bc
00000020: a8fa b03c ad72 8a3d e174 3f3b 2613 073d
00000030: 4bc5 943d 4e32 183d 1ed9 183d 7f86 5a3b
00000040: d6cb d3bc 506d 4c3d 17d3 7b3d 2dec 1c3d
00000050: 805e 653c 467c 333d 7cbf 483c 6b02 663d
00000060: 1bd4 a03d 708f c33c 816c 0c3d 2cbe 813b
00000070: f8e1 2c3d 9d20 ca3d 8ce9 5c3c d159 2e3d
00000080: 83f5 3e3d 9a9b ba3d d2f7 663d c1c3 5a3c
00000090: 44e9 a13d 8c5b a63d 8be3 3dbc b44e c53d
000000a0: 898e 543d 989c ad3b fdda ed3c 71c5 c73c
000000b0: 66ec 013d 6f6e 0b3d 3366 893d a176 023d
000000c0: 1918 8b3c f8fb 1b3d adcd 4d3d 5262 c93c
000000d0: 4835 8c3d 5e25 a63d 25f1 183d c24d 703c
000000e0: a1c8 ae3d c448 c03b a11a 9b3d e443 99ba
000000f0: a288 123d a4f9 673d f2bc f9bc 5bfd 973d
0.070909515 0.051382605 0.01112596 0.0327248 -0.01018934 0.008319642 0.0054862755 -0.021825703
0.021603897 0.06760154 0.0029213952 0.032977246 0.07264193 0.03715735 0.037316434 0.0033344326
-0.025854032 0.049908936 0.061480608 0.038311172 0.013999581 0.04381969 0.012252685 0.05615465
0.07852956 0.023872107 0.034283165 0.003959438 0.042207688 0.09869502 0.013483416 0.042566124
0.046620857 0.0911171 0.056388684 0.013352335 0.0790582 0.0812293 -0.011589895 0.09634152
0.051893745 0.0052982084 0.029035086 0.02438614 0.031719588 0.034040865 0.06708946 0.031851415
0.016979264 0.038082093 0.050244976 0.024583016 0.068461 0.08112596 0.03733935 0.014666976
0.08534361 0.0058680493 0.075734384 -0.0011693207 0.035774834 0.05663456 -0.030485604 0.074213706

head.weight f4 [15, 64]
00000000: 7e0c b0bc 6c42 f7bc 3b01 de3e f949 13bf
00000010: d66d 23bd 8309 4f3d ba2d 0b3e 079d 3bbe
00000020: 844c bb3d b5ae 28bf 8d19 17be f7cb c23e
00000030: 19c7 893e 6a76 cfbe 676c 0fbd 9173 1f3c
00000040: db17 043e 9030 23bf 1486 083f 3f21 30bf
00000050: 15d9 cebc c428 f5be 6df3 d93c d567 d03e
00000060: 5406 563e dde7 8a3e 9bbf ef3d ef67 c53d
00000070: 2935 913e 787c b6bf e468 4cbf 6e02 2d3e
00000080: deea 8dbe 406d 903e c298 ef3e f099 5fbf
00000090: 9676 bf3d 593e febe 6aeb a13e dba5 3abf
000000a0: 319b 3ebf bc41 043e a8a7 6abe 28f3 91bb
000000b0: 73b1 7ebf 81ed 90be a453 44bf 3f2f 233e
000000c0: e18c 7eba d6e5 ae3d 9a22 d33d 5884 e13d
000000d0: 4362 1c3d a61e c0bd 5e54 0dbf bf11 05bf
000000e0: f70f 6abf c4e4 2dbf 6a0a 24bf 16fc 24bf
000000f0: 9c0d 373e b59b 8c3c ec3e 773e 9906 cfbc
00000100: d0a7 133e 71cd 69bf 411f f6be 673b 443e
00000110: e5fd 51bf b13f 143f e561 c9be 860d 13bf
00000120: 2d45 b9be 5942 323d 4a58 23bf b43d 213e
00000130: 4238 143e 0ee4 39bf 588d b03d 84e6 75bf
00000140: 9527 b0be 7b8e db3d 2464 0f3e a3c9 cf3d
00000150: 5d94 55bf 264d c43e b91f f4be 53ff f43d
00000160: efe9 033e a0fb bebe 709c 073f 6005 44bf
00000170: 6db1 203e 8c20 163e 3c6d 7cbf 7c1a d83e
00000180: 455a ffbe 30b3 693d edff 143e 12ac cbbe
00000190: 126c d63d 97fb c03d b2c6 97be 0009 44bf
000001a0: f6da 753e fe89 f63e 64f6 1fbf f985 5bbf
000001b0: 64d0 12bf 8638 03bf 26f4 48bf f9d8 f0be
000001c0: 9a77 6abf 4576 d0be 3939 393f e8e2 d4be
000001d0: 2bfd 853e f62a d13d 35ad ab3e 33c8 55be
000001e0: dd0e 2e3e b24d 6fbe 8966 2f3e 8737 83be
000001f0: bc88 e1be dcbf 243e 5486 d4be 51dd 933d
00000200: 671b 4e3e 236e 73bd 15e9 c0be e753 523e
00000210: ccce 0dbf 9248 8ebf fffe 57be 4bdb 25bf
00000220: f571 64be 1a38 583e 1e59 27bf 3e0e 603e
00000230: 3c47 603e a60f 7b3e 8e93 583e 00be 0abf
00000240: e050 79be 373c 653e 37de 743e 6453 97bf
00000250: 1a33 12bf 50d2 b23e a320 f3be 609b 653e
00000260: 366e 6e3e 618d 96be 09d4 82bf 1ee0 bdbe
00000270: 1af5 673e 3063 4a3e 39a5 61bf e183 80bf
00000280: 10b8 223f 9e36 533e 7e4d 763e d87a a2be
00000290: b68a 563e fa12 2f3e 07c3 7dbe 2fb5 cdbd
000002a0: f855 853e 7baf 65bf 3ed7 16bf 71b7 0dbf
000002b0: 1ccc cdbe 95a4 e9be 5e8b 8c3e 5d97 24bf
000002c0: 7feb 0abf 28a3 92be 2d51 56bf ab8a a1be
000002d0: 778d 9f3e a5ae 5c3e 2af9 9b3e cedf bcbe
000002e0: 09d4 6b3e a1a1 a6be 8af6 4e3e 6312 c6be
000002f0: 344b 97be 10b1 673e c144 8abe 4791 5c3e
00000300: ae64 abbe 504c 983e 9252 46be 5c2b 863e
00000310: 0051 5abe 7e6f c1bf 5cac 9fbe ff91 aa3e
00000320: 1bf8 a4be 6640 973e cdbe ad3e 316a b1be
00000330: b71d adbe cdb7 833e 963b a3be 694b 92be
00000340: 7406 afbe 0885 983e 552b cbbe eb07 aa3e
00000350: 7356 73be cc53 37bf 49cd c9be 3eec cabe
00000360: b8ff d8be 2124 80be d25d cabe 4796 33be
00000370: fad3 a3be 6062 923e 4568 bb3e 2024 c8be
00000380: 680e 943e 4395 d6be bc05 abbe 4707 96bf
00000390: 0034 53bf 9933 9c3e 8819 a1be 35df 873e
000003a0: fbfc 8b3e 03ea 56bf ab4d a73e 35d6 69be
000003b0: 602c 5bbf e80e 8e3e 231c 893e 7260 ddbe
000003c0: 7498 4cbe 15d5 87bf 91d7 8ebf d4b7 93bf
000003d0: 8be5 9ebf 3d15 a3be b6cb a33e d71a f83e
000003e0: bd22 873e e6d8 e43e a1b1 8e3e fcef eb3e
000003f0: 8cea 8cbf 64c2 98be 50cb 08be 775f c0be
-0.021490332 -0.03018304 0.43360314 -0.5753475 -0.03989967 0.05054618 0.13591662 -0.1832162
0.091454536 -0.6589158 -0.1475584 0.38046238 0.26909712 -0.4052003 -0.03501549 0.009732143
0.12899725 -0.63745975 0.53329587 -0.6880073 -0.025249997 -0.47882664 0.026605332 0.40704218
0.20900851 0.27130023 0.11706468 0.096389644 0.2836087 -1.4256735 -0.7984755 0.16895458
-0.27718252 0.2820835 0.46796232 -0.87344265 0.0934879 -0.49656942 0.3162492 -0.72909325
-0.74455553 0.129157 -0.22915518 -0.0044540353 -0.99489516 -0.283062 -0.76690125 0.15935992
-0.00097103236 0.085399315 0.10309334 0.11011571 0.038179647 -0.09380846 -0.5520686 -0.51980203
-0.9143061 -0.67927194 -0.6407839 -0.6444715 0.17876285 0.01716409 0.24145097 -0.0252717
0.14419484 -0.91329104 -0.4807072 0.19163285 -0.8202804 0.57909685 -0.393325 -0.5744251
-0.3618559 0.043520305 -0.63806593 0.15746194 0.14474586 -0.7261361 0.08620709 -0.96054864
-0.344052 0.10720535 0.14003044 0.10145881 -0.8342951 0.3834011 -0.47680452 0.11962762
0.12882207 -0.3730135 0.5297308 -0.765707 0.15692683 0.14660853 -0.9860418 0.42207706
-0.49873558 0.057055652 0.14550753 -0.39779717 0.104698315 0.09422987 -0.2964378 -0.7657623
0.24009308 0.48152155 -0.6248534 -0.857513 -0.5734923 -0.5125812 -0.7849754 -0.47040537
-0.9158875 -0.40715232 0.7235294 -0.41579366 0.26169714 0.10213272 0.33530584 -0.20877151
0.16997857 -0.23369482 0.17128958 -0.25628302 -0.44049633 0.16088814 -0.41508734 0.07219947
0.2012764 -0.059431206 -0.37677827 0.20539819 -0.5539367 -1.1115897 -0.21093367 -0.6478774
-0.22309096 0.21115151 -0.6537036 0.21880433 0.21902174 0.24517688 0.21150038 -0.54196167
-0.24347258 0.22386251 0.23912893 -1.1822324 -0.57109225 0.3492608 -0.47485837 0.22422552
0.2328423 -0.2940474 -1.0220958 -0.3708505 0.22652093 0.197644 -0.88142735 -1.0040246
0.6356211 0.20626304 0.24052998 -0.31734347 0.20951352 0.17097083 -0.24781428 -0.10044324
0.2604215 -0.89720887 -0.58922184 -0.55358034 -0.40194786 -0.4563338 0.2745008 -0.6429346
-0.5426559 -0.28640103 -0.83717614 -0.31551108 0.31162617 0.21550997 0.30463535 -0.368895
0.23030104 -0.32545188 0.20211235 -0.38685903 -0.29549563 0.22626138 -0.2700558 0.21539794
-0.3347525 0.29745722 -0.19367436 0.26204956 -0.21319962 -1.511215 -0.31186187 0.3331451
-0.3222054 0.2954132 0.33934632 -0.3465133 -0.33811733 0.25726166 -0.31881398 -0.28573158
-0.3418461 0.29788995 -0.39681497 0.33209166 -0.23763447 -0.7161224 -0.39414433 -0.39633363
-0.42382598 -0.25027564 -0.39524704 -0.17537795 -0.31997663 0.2859068 0.3660299 -0.3909006
0.2891724 -0.41910753 -0.33402812 -1.1720971 -0.8250122 0.30508116 -0.3146479 0.2653748
0.27341446 -0.83950824 0.32676443 -0.2283562 -0.85614586 0.27745748 0.2677928 -0.43237644
-0.19980031 -1.0611902 -1.1159536 -1.1540475 -1.2413801 -0.3185214 0.31991357 0.48457977
0.2639369 0.4469673 0.27869895 0.4608153 -1.1009078 -0.29835808 -0.13358808 -0.37572834

head.bias f4 [15]
00000000: 2593 ddbd e2a4 4d3b 1717 013e dead 103e
00000010: 3801 dabd d49b 2e3d 90e5 a63b de5c 443b
00000020: ed42 2d3e 071c 82bc c869 0abd 5be1 e5bc
00000030: 77bf 32bd 64b1 afbb 4fe7 d5bd
-0.10819081 0.0031378795 0.12606464 0.14128825 -0.10644764 0.042629078 0.005093284 0.002996258
0.16920061 -0.015882505 -0.033792287 -0.02806156 -0.043639626 -0.005361723 -0.10444509
