surrogate/trained_model/model_rate4_fold4.pth (torch, 179077 bytes, 18 tensors)

ds.proj_conv.weight f4 [16, 2, 7]
00000000: 6cd0 fcbd 1d39 b9bd 6dbd bebd 7f18 8fbd
00000010: 4a20 05be 1120 28be 18a1 3fbe 959c 123e
00000020: a4d7 023e 06c1 8b3d 0b26 093c f18a 29bd
00000030: 3ffd 5dbd ff86 a9bd 64ab c2bd 3e37 babd
00000040: e42f 26be 028d 47be 783e 61be 841d 0bbe
00000050: 2195 09be c264 17be bba1 20be 3f77 98bd
00000060: 7afb 173b 93a4 a5b9 abf1 953c d538 b33c
00000070: 0f33 573d 69bd c83d 8705 953d 39cb 5c3d
00000080: f8db 383e 6789 1d3e 9eed 313d 03d2 56bd
00000090: 6b62 44bd f25a 86bd 9ba5 51bd ee38 81bd
000000a0: b71a 27be dc62 1bbe ba20 08bd eaec fb3c
000000b0: 3e9e f83c ccdd b33d b0e1 bdba 8967 cebd
000000c0: cd9d 0abe 28e0 aa3d fe05 443e 1f9c 353e
000000d0: 557d ca3d 5e59 bd3d ef44 943c ad2d 083d
000000e0: 91bd 3cbe b862 27be bcec 25be b14d cebd
000000f0: ea85 11be 923e 40be ea47 68be 53e2 b73c
00000100: 0b40 943d e3c3 b03d 6be9 353d 3314 083d
00000110: e41a 453d 410f 663d 0982 13be 80be 5abe
00000120: e46c 63be e0ae 34be dd08 4cbe fc1f 7fbe
00000130: 6aa9 7dbe f098 173d 4710 be3c 1dd0 743d
00000140: 3dec 063c 6690 5b3d 53ac 3d3d 67b4 983d
00000150: 3762 243c 3407 753d 2b18 283d bc9d 703c
00000160: f616 debb a350 24bd b797 70bd 4f9b 4abe
00000170: 1870 04be 55a5 86be a561 afbe cdbd 8abe
00000180: 6251 edbd db77 a43c 398e 273d 8c24 9c3d
00000190: fef8 db3d 1ce1 003e 8650 b43d 9c31 103e
000001a0: 19e3 873b 7071 a8bd f3bd bbbd 7c85 a7bd
000001b0: e0a2 c2bd 5fd9 b5bd 40dc 48be 4f36 12be
000001c0: c8e0 a53d 2b82 b63d c798 0b3e fec9 133e
000001d0: 1093 b03d ffd4 453d 3139 493d eed8 53bd
000001e0: 8157 91bd 2659 8fbd d766 a7bd 66ff c1bd
000001f0: 6975 30be 8580 f4bd 4cb6 d1bd 8059 a83c
00000200: a587 703b 395f f23d d295 143e 1365 143e
00000210: 023a 073e c12b a7bc a01e 06be 3f71 39be
00000220: 6f87 c8bd 90ff 83bd 46f2 d8bd 3730 48bd
00000230: 15e9 e43c a65e e53d 5edc ee3d 6701 e23d
00000240: f1b0 ab3d b637 073e 483e a53d f0d8 953d
00000250: db5a 043e 649d 0f3e 7329 f03d d0b1 113e
00000260: 664d e43d 7eb7 a23d 224f f5bd d36d f1bd
00000270: 8aa8 fbbd 7b97 57be 0c7e 24be f4e9 c9bc
00000280: d0be babc ec1e 0d3e 654a a03d cfad a23d
00000290: 553f 70bc 05c0 b0bd db1c 04be 1fd0 20be
000002a0: 913a 453d 5814 b03d 45ac 043e 8779 f93d
000002b0: 363f 063e 2b2f 0d3e 4855 ce3d beea 693d
000002c0: b904 9f3d eb3a e53d 44c8 f13d 4a59 cd3d
000002d0: 2834 f33d a591 9c3d cc71 2dbd 2d1d 5dbe
000002e0: 54d9 0dbd 3d0e 0dbd 04f1 93bb 0136 e73b
000002f0: 2478 2bbc 5047 a6bd 5ffd 09be dbff 82be
00000300: 7f3b 63be aa1a 1abe 6e17 71ba 61c2 323d
00000310: 8c97 bcbd 2f1a 81bd d9dc 603d c993 06bd
00000320: 17af 0e3b f7a1 fd3c 91ff c73b 2cee b03d
00000330: 4b25 25be 64e2 97be 130c 88be 5bc3 78be
00000340: 1c00 89bd 299f dfbd 72d9 b23d 5ab8 ce3d
00000350: 2eaa c33d 6908 c33d e93c ca3d 5d27 a73d
00000360: 1580 823d 6d4b afba 579f 9b3d 15fe 333e
00000370: b8db 173e a3f5 2e3e e9f9 283e c27b 013e
-0.12344441 -0.090440966 -0.09313474 -0.06987094 -0.13000599 -0.16418482 -0.18713796 0.14317544
0.12777573 0.06823926 0.008370887 -0.04139227 -0.054196592 -0.082777016 -0.095053464 -0.09092568
-0.16229206 -0.19487384 -0.21996486 -0.13585478 -0.13435794 -0.1478453 -0.15686695 -0.074446194
0.0023190663 -0.0003159387 0.018303713 0.021877686 0.052538928 0.09801752 0.07276445 0.053904746
0.18052661 0.15384446 0.0434395 -0.052446377 -0.04794542 -0.06560315 -0.051183324 -0.063096866
-0.16318785 -0.1517443 -0.033234335 0.030752618 0.030348893 0.08782539 -0.0014486816 -0.100783415
-0.13536759 0.08343536 0.19142911 0.17735337 0.098871864 0.09245561 0.018099276 0.033246685
-0.18431689 -0.16346252 -0.16203588 -0.10073412 -0.1421124 -0.18773869 -0.22683683 0.022446787
0.07238778 0.086311124 0.044412058 0.03322239 0.048121348 0.05616689 -0.14405073 -0.21361732
-0.22209507 -0.17644835 -0.19925256 -0.24914545 -0.24771658 0.037011087 0.023201121 0.059768785
0.0082350345 0.053604506 0.04630692 0.07456284 0.010033182 0.059821323 0.041038673 0.014686044
-0.0067776395 -0.040115964 -0.058738437 -0.19785808 -0.12933385 -0.26298013 -0.34254184 -0.27097932
-0.11587788 0.020076683 0.04090712 0.07624158 0.10740851 0.12585872 0.08804421 0.14081424
0.004146945 -0.082247615 -0.09167089 -0.08179757 -0.09503722 -0.08879351 -0.19615269 -0.1427853
0.08099514 0.08911546 0.13632499 0.14432523 0.086218 0.048298832 0.049126808 -0.051720552
-0.07096768 -0.069994256 -0.08173912 -0.094725415 -0.17232288 -0.11938576 -0.102398485 0.02055049
0.0036701944 0.118345685 0.14510277 0.14491682 0.13205722 -0.020406606 -0.1309762 -0.18109606
-0.09791457 -0.06445229 -0.10593085 -0.048874106 0.027943173 0.111996934 0.116631255 0.11035424
0.08383358 0.13204846 0.0806852 0.07316768 0.12925284 0.14024884 0.11726656 0.14227986
0.11147575 0.079451546 -0.11977984 -0.117885254 -0.12288006 -0.21053879 -0.16063708 -0.02464769
-0.022796065 0.13781327 0.0782669 0.079433076 -0.014663537 -0.08630375 -0.12901632 -0.15704392
0.048151556 0.0859763 0.1295634 0.121813826 0.1311005 0.13787524 0.1007486 0.057108633
0.07764573 0.11192878 0.11805776 0.10026796 0.118751824 0.07644967 -0.042344853 -0.21593161
-0.03463109 -0.034437407 -0.0045148153 0.0070559983 -0.0104656555 -0.081190705 -0.1347556 -0.25585827
-0.22190665 -0.15049234 -0.00091969117 0.043642405 -0.09208593 -0.06303822 0.054898117 -0.032855783
0.0021771842 0.03096102 0.006103464 0.08639178 -0.16127507 -0.2966491 -0.26571712 -0.24293272
-0.06689474 -0.10919029 0.08732881 0.10093756 0.095539436 0.095230885 0.09874899 0.08161805
0.06372086 -0.0013373919 0.07598751 0.17577393 0.1482991 0.1708589 0.16501583 0.12644866

ds.proj_conv.bias f4 [16]
00000000: 9bcd 543e d824 1cbe 8483 073e c8a4 fb3d
00000010: 3079 723e c5c2 093d d779 123e 75e5 313e
00000020: 476d 21be 5618 06be 38d5 c8bd 876a 3bbe
00000030: 7631 13bd 72aa 26be 62d6 363e 214b 32be
0.20781557 -0.1524843 0.13233763 0.12287289 0.23679042 0.033633012 0.1430429 0.17372687
-0.15764342 -0.13095221 -0.09806293 -0.18302356 -0.03593584 -0.16275957 0.17855218 -0.17411472

ds.proj_bn.weight f4 [16]
00000000: 26c3 b23f 9a9c 993f 5a5a 9a3f 823a 983f
00000010: 8def af3f cff0 bb3f a497 ab3f 2c1a a03f
00000020: cf4e 9d3f ff47 9d3f e03e a13f 9dce 953f
00000030: 5ad6 a93f 300f 8c3f fdbf a83f 8e34 973f
1.3965805 1.2000916 1.2058823 1.1892855 1.374498 1.4682864 1.3405652 1.2507987
1.2289675 1.2287596 1.2597313 1.1703678 1.326854 1.0942135 1.318359 1.1812913

ds.proj_bn.bias f4 [16]
00000000: d848 aabd 53a7 1bbe 338b c2bd 1a8f dabd
00000010: f2ff b5bd 1769 2dbd 5c5f 903d 8a8e dbbc
00000020: 96be 23bd 8f73 50bd ac27 25be d64d 11bd
00000030: d78b 14be 8851 90bd 7401 e93d 4115 3cbe
-0.08314675 -0.15200548 -0.094992064 -0.10671826 -0.08886708 -0.04233655 0.07049438 -0.026801366
-0.03997668 -0.050891455 -0.16128415 -0.03547462 -0.1450647 -0.07046801 0.1137723 -0.18367483

ds.proj_bn.running_mean f4 [16]
00000000: 37f2 31bc d595 10bf f288 213e 5857 913e
00000010: 366e 92bc f360 a7be ed87 62be 4dde 033e
00000020: 609e 1ebe 8edb 35be e985 a83e 4705 e6be
00000030: e35e c43e 5f88 fdbe f435 1cbe a626 863e
-0.010860971 -0.56478626 0.15774897 0.2838695 -0.017874818 -0.32691154 -0.22122164 0.1287777
-0.15490103 -0.17759535 0.32914665 -0.449259 0.38353643 -0.49518105 -0.15254956 0.2620136

ds.proj_bn.running_var f4 [16]
00000000: fec6 093e 5adb e13d c569 343e af4d b73d
00000010: 71c2 8b3e d1ed be3e 6de0 833e cc62 563e
00000020: 4a5f 413e d01f 173e 79e8 803d e7ed b53d
00000030: 2fbd 6c3d 4ed2 953d a86d 203e 5d3b 943d
0.13454816 0.11028166 0.17618473 0.08950364 0.27296785 0.37290815 0.2575716 0.20936126
0.18884006 0.1475823 0.06294341 0.08883267 0.057797607 0.07315503 0.1566683 0.07237885

ds.proj_conv1.weight f4 [8, 16, 5]
00000000: 7c0e 4e3d 9a0d f03c c62c 3dbd 9037 e9bd
00000010: 7fdb 75ba 0ea7 2dbe 956b fdbe 4df8 46be
00000020: cb0a 3e3d 0862 123d ff77 cc3d 3860 883e
00000030: 206e 1f3e 05fe 85bd c522 9bbd c277 af3a
00000040: c941 ca3c c4b9 fdbc e41d 01bd 99ea 823d
00000050: af79 af3d d7d1 9d3d 275d 76bd 51ed 35bb
00000060: a5b2 bc3c bef0 af3d 0f18 d03c 6106 ecbd
00000070: 2914 38bd 2578 973c 7e06 03bd be7c 973d
00000080: c37a b13d e303 13bc a6d0 d13c 7948 de3d
00000090: 2920 9f3e d9b5 1d3e 908e d43a 5456 95bd
000000a0: b23b 9e3d 7496 8f3e 8727 343e 9983 a73c
000000b0: eb5e babd 50b6 aa3e 3802 573e 6160 093d
000000c0: fbbb 10be fb3e 07be 0697 81bd 1374 063c
000000d0: b75f 963c 341c 92bd 1b0f 1dbd 1276 1abe
000000e0: 3067 abbd eeb6 04be 69bf 2dbd 38e9 a1bd
000000f0: a444 adbd a00a 85bd 74b6 e438 4c14 c1bd
00000100: c8d2 fdbd 0793 713e fa8c b53d 0e1f 7fbc
00000110: f755 893d 354d a83d 6100 883e 9a38 743c
00000120: 1bc6 bebc 0780 0fbe 4c72 94bd 8849 c53b
00000130: e3d3 23bc 7b7a 973c 01a7 743b a3c7 f03d
00000140: 122f 1bbc 117c 6abc 8a60 8f3b f2ea 1a3e
00000150: 291b a33d 2b29 5f3d d6db d43c 8bbf 36be
00000160: 5e29 28be 906e 06bc 5c11 20bc 1002 bcbc
00000170: 4674 f03d 8ead b13d b2b5 d73c 5cc9 0fbd
00000180: 9d00 e93c 7865 8d3e 683b 913e 15ab ec3b
00000190: f349 023d a4b0 2c3e 4ad3 d73e 5407 513e
000001a0: 5ff7 ca3d 16d5 0e3d 0b42 623e 5f71 aa3e
000001b0: 3e23 8c3e cbc8 6e3d a0f8 5a3d 1708 7dbe
000001c0: dbbb b43d 3493 74bc e31e b6bb bc6b dfbc
000001d0: c4d6 6cbd 0a6c cc3d bbc7 a33d 567b 6ebc
000001e0: 1d0c 8d3c 4b2f b7bd a040 b13d beb7 a93d
000001f0: a3e5 483c 3214 d4bc 8407 b5bc bfbc b63d
00000200: 1db4 b93b c9ae 90bb 7855 babb 1dad 11bd
00000210: c3d0 36bd 2102 8fbc 6e46 07bd 8b84 3abd
00000220: f8de e53c a427 88bd 509b ca3d 2213 a23d
00000230: 4256 0ebb da3a 0eb9 6ccf daba 09a8 c53c
00000240: 94f0 163d b664 5c3d 9f87 09be 9ec9 143d
00000250: 2843 09be 8c51 5a3d 1232 dfbd 4d7e f8bd
00000260: 9903 5d3d 37c6 1bbe 6c36 e8bc f79e 9dbb
00000270: 7911 7c3d 0115 993d 97b5 853d fa6b 86bd
00000280: 78c6 be3c 959a c4bd 0ef8 c7bc 616d f33d
00000290: f2e1 6a3d 24c6 feb9 9591 723d 00fd f2bd
000002a0: c68c 54be a0a1 3fbe 66f8 173d 074f 43bd
000002b0: 1876 40bd 6132 ae3b 44a7 c4bd 7035 94bb
000002c0: b0fd 72bc 5cb9 c73d 4e6b c33e 8b51 1f3e
000002d0: e5a3 ca3c 2f99 9b3c e5b3 4d3d 618f 613e
000002e0: 4afd 313d 90ae 003d 0478 cb3c 09eb aa3d
000002f0: d6af 323e f46a 1f3b 59b8 163e 640c c43c
00000300: e6c6 62bd 627e 1b3c f529 dfbd c695 133d
00000310: 1710 97bd 0454 4bbd c5c0 283b 9cf6 a4bd
00000320: 14a9 963d 2d13 eabc e8e4 8bbd 81f7 453c
00000330: c28a bfbd dc27 303d 9aef aabd b927 233b
00000340: 0216 ac3c 4e35 8cbd 34f5 b33d 7f4c eabb
00000350: c879 d63d 03f1 c83d 62ca 153e 32fc 8dbd
00000360: 9051 87bd 6483 90bd 16ac 37bc 82c8 663d
00000370: 119b d53d d815 453d da2f 0a3e 5a9b dd3d
00000380: c7d2 0c3e ca4b 933c 9992 4d3d d8c7 2a3d
00000390: 5a2f 713d 2776 443d 2f62 343c 58c4 7fbd
000003a0: cb6a 44bd fd56 bbbc beef 37be 1a9c c93d
000003b0: ef6d a03d a6c2 9c3e 1d03 b23e c8a5 2b3e
000003c0: f3d2 77bd a60f dfbc 60fd 113e c5e4 693c
000003d0: d919 fc3c b27f 9a3d 431c e63d c26f 67bd
000003e0: e94a 273c b59b 2ebc 154f 41be 638b a83b
000003f0: 5f96 d53d 0807 98bc 165c c93a 5da9 a7bd
0.050306782 0.02930336 -0.046185277 -0.11387551 -0.0009378716 -0.16958258 -0.4949614 -0.19430657
0.04639701 0.03573802 0.09983825 0.2663591 0.15569353 -0.06542591 -0.07574991 0.0013387131
0.024689572 -0.030972369 -0.031522647 0.06392402 0.08568131 0.077060394 -0.06014743 -0.002775986
0.023034403 0.0859084 0.025402097 -0.11524654 -0.0449411 0.018489907 -0.031988613 0.073968396
0.08665993 -0.008973095 0.025612187 0.10853667 0.31079224 0.154014 0.0016216803 -0.072918564
0.0772623 0.28044474 0.17593203 0.020448493 -0.091001354 0.33342218 0.2099694 0.03353918
-0.14134209 -0.13207619 -0.063276336 0.008206385 0.018356187 -0.071342856 -0.038344484 -0.15084103
-0.08369291 -0.12960407 -0.04241887 -0.07905811 -0.08460358 -0.06496167 0.00010905872 -0.094276994
-0.12393719 0.23591243 0.0886478 -0.015571369 0.067058496 0.08217851 0.2656279 0.014906073
-0.023287823 -0.14013682 -0.07248363 0.0060207285 -0.009999248 0.01849102 0.0037330987 0.11756828
-0.009471672 -0.014311806 0.004375522 0.15128687 0.07964165 0.05448262 0.025983732 -0.17846505
-0.1642203 -0.008205071 -0.009769764 -0.022950202 0.117409274 0.08675681 0.026331756 -0.03510414
0.028442675 0.27616477 0.28365636 0.007222543 0.031808805 0.16864258 0.42153388 0.20412952
0.099104635 0.034871183 0.22095506 0.3328962 0.27370638 0.05829696 0.053459764 -0.24710117
0.08824893 -0.014927674 -0.005557881 -0.027273051 -0.057822004 0.09981544 0.0799708 -0.014555773
0.01721769 -0.08944567 0.08654904 0.08286999 0.012261781 -0.025888536 -0.02209831 0.08922719
0.005667223 -0.0044153673 -0.005686458 -0.035565484 -0.044632684 -0.01745707 -0.03302615 -0.04553656
0.028060421 -0.06648186 0.09892905 0.079138055 -0.0021718894 -0.00013564099 -0.0016693897 0.024127977
0.036850527 0.053806983 -0.13430642 0.03632509 -0.13404524 0.053300425 -0.10898222 -0.12133465
0.05395851 -0.15212332 -0.028346263 -0.00481021 0.0615401 0.07474709 0.06528776 -0.06563564
0.023287997 -0.09599797 -0.024410274 0.11886097 0.057344384 -0.00048594282 0.05922087 -0.11864662
-0.20756826 -0.18713999 0.037102126 -0.04768279 -0.046987623 0.005316064 -0.09602216 -0.004522972
-0.014830992 0.09752151 0.38167804 0.1555845 0.024736354 0.018993942 0.05022039 0.22027351
0.043454446 0.031416476 0.024837501 0.08345611 0.17449889 0.0024325224 0.1471876 0.02393169
-0.055365466 0.009490581 -0.108966745 0.036031507 -0.07376116 -0.04964067 0.0025749665 -0.080548495
0.07356468 -0.028573597 -0.0683077 0.012082935 -0.09352638 0.043006763 -0.083464816 0.0024895503
0.021006588 -0.068461046 0.08787003 -0.0071502323 0.10472447 0.09811594 0.14627984 -0.06932868
-0.06607354 -0.07056311 -0.011210462 0.056343563 0.10429967 0.048116535 0.13494816 0.108206466
0.1375228 0.017980475 0.050188635 0.041694492 0.05888305 0.04796424 0.011009737 -0.062443107
-0.04795341 -0.022868628 -0.17962548 0.09844227 0.07833468 0.30617255 0.34768 0.1676246
-0.06050391 -0.027229141 0.14256811 0.014275734 0.030774044 0.07543887 0.11235859 -0.056503065
0.010210731 -0.010657241 -0.18877824 0.0051435693 0.10429072 -0.01855804 0.0015362527 -0.081866

ds.proj_conv1.bias f4 [8]
00000000: 6fa9 e13c ec6c 9dbd d6d1 f73d 78df 433d
00000010: bdf2 e8bc 78f5 863a 7e7e c93d 35f1 dd3d
0.027546613 -0.07686791 0.1210057 0.04782054 -0.02843606 0.0010296544 0.098385796 0.10837022

ds.proj_bn1.weight f4 [8]
00000000: c91c c43f 13ac ca3f 320d ce3f 6ce6 ba3f
00000010: 929a b93f 178e c43f 5aa7 c43f d90d cc3f
1.5321285 1.5833763 1.6097777 1.4601569 1.4500296 1.5355862 1.5363572 1.5941726

ds.proj_bn1.bias f4 [8]
00000000: a8bf ad3d 85d2 593d 809a 013e 601e 8c3e
00000010: 9c48 20bd 25a2 d13d 8651 163c 7ddd 6c3e
0.08483821 0.053179283 0.12656593 0.27366924 -0.039131746 0.10236005 0.00917471 0.23131366

ds.proj_bn1.running_mean f4 [8]
00000000: 272c 8d3e 874a 2d3f d6e5 2d3f 899c 5fbf
00000010: c828 7d3f 3880 d83e b3cb 8c3f f451 cdbe
0.27572748 0.67691845 0.67928827 -0.8734823 0.9889035 0.42285323 1.0999664 -0.40101588

ds.proj_bn1.running_var f4 [8]
00000000: e0c4 853f 0ab6 ad3f 0942 b93f 81de 5f3f
00000010: 08f4 863f 621c 193f ad95 313f a7d0 8a3f
1.0450706 1.3571179 1.4473277 0.8744889 1.0543222 0.59808934 0.6936901 1.0844926

ds.fc1_conv.weight f4 [128, 256]
00000000: 09ae 773a 6e89 af3d bb50 9e3d 0822 ca3d
00000010: a60f 023e b44b 00be a582 ad3d 5927 5b3d
00000020: 7e48 8d3d fdd3 6ebd 7548 10bd 7822 013e
00000030: be75 863c 00ff 5d3c d603 33be 7713 fcbe
00000040: 17f7 1abe 1be9 b5bd 4672 85be 8800 80be
00000050: 4f2e 14bd 2021 f6bc 8cd2 013e 240d abbd
00000060: 8161 ee39 fd86 b53d af9b c63d 8fef 85bc
00000070: d760 f4bd 5c57 ef3d c989 a4bb baee f4bd
00000080: 91ea 89be 0fa2 5d3e 3d83 5f3d 81a5 56be
00000090: a921 23be 55ed a63c fbe2 bbbc 0fed 89bd
000000a0: 1983 5abd 64de 00bd a340 713c 3922 d9bd
000000b0: 5119 2e3e d6b8 d43d 1a69 c33d b8ca d63d
000000c0: 430c 12be 8164 28bd 9094 20bb f3b5 c3bc
000000d0: 0192 5f3d 89ee 41be fe5e 443e e16e ea3c
000000e0: 5380 6439 997c 21bd 6281 c5bd cd52 70be
000000f0: d1b2 babd 82c4 8ebe 50b5 b5bd 32d1 a4bd
00000100: 6b9f 5bbe 2574 2f3e ae54 ac3d 9cb9 d3bd
00000110: 6224 2fbd eb81 3abd d7d0 a9bc ad5f 38bc
00000120: 5db8 933c 235f 173d f0e8 fb3d fb4d 3dbd
00000130: 7334 803e 1ffd 533d 555c 993e dae7 c43d
00000140: 6b8e bebd ffd7 b13d 7866 62bd 4d09 503d
00000150: f6d1 9bbd 9591 1cbd d91f 223e b9cd 063e
00000160: edc2 b43c 0f15 a23b 5438 06be b44e 80be
00000170: df3c c7bd 16ad 30be 6320 6abc 888e 77bd
00000180: 4b84 febc fee6 e13d e6aa 7cbc 3844 e0bd
00000190: 0f52 07bd b791 12bb 9d49 18be dd75 d8bd
000001a0: a16d afbd ad57 58bd f635 f1bd ee93 0fbe
000001b0: fd47 f83d 31f2 683d 6225 7abc b2ad ddbb
000001c0: cd57 79bd 14b8 eebc 4b86 973d 6459 bebc
000001d0: 1948 293e e1a6 28be 42e4 3d3d 5925 b5bd
000001e0: 3e24 fbbd 954f 9abd 15b6 f0bd 632e bfbe
000001f0: 5b32 d0bd 254d 7ebe 0caf 36be 79cc 743c
00000200: bea2 f5bc 069b 3a3e 6c5b 293e 5038 523e
00000210: 53ce a43d 49e3 66bd 9d88 013e ea1a 893c
00000220: 28d0 9ebc da66 ee3c 91bc 813d a997 973e
00000230: e613 623e 2d05 823e 504e a9be c517 6dbe
00000240: 2389 efbb 2f1a a53d 6845 8a3e 697a 89bc
00000250: 7f90 8c3d 8536 b4bc 882a 203e 9583 ab3d
00000260: 88db 2f3e 1940 f33d 7a05 1a3d 36da e6bd
00000270: 4043 fcbc ac87 293e 6558 bc3d d845 3d3e
00000280: 3ab7 963d 5d87 543e 0c04 00be 4dfc e33c
00000290: 754e 26be 6895 36bd 52f9 05be fa37 93bd
000002a0: 8059 a3bd 4ce5 413d 7566 17be bd0c 85be
000002b0: 32e4 593d d6fe 6dbd 7f2a abbd 886b b93d
000002c0: ff90 0ebd bf92 aa3d becd 973d 320c bd3d
000002d0: bb12 a1bc 6071 49be a763 36bc 1774 2dbd
000002e0: 65c7 e0bd 37b6 dcbd f26e 99be a4f3 86be
000002f0: 7d53 70be d80a 3abe 61d2 96bc 8cea 903e
00000300: f479 d0bc 4ac9 6a3e 7b67 4f3e c119 233e
00000310: 0517 a6bc de82 323e 5cd1 9c3b c35a 4bbd
00000320: aa76 863c 8cf1 3b3e b199 183e ff3b 063e
00000330: 44a3 983e 9fcf bdbc a9f0 053c c3d2 78be
00000340: 9703 edbd 69cc b23d 7674 113d ab5e 1bbd
00000350: 33ea 823d f283 f7bd a1ed d63d 6364 743e
00000360: 5edf ec3d 7ad6 123d 3351 ccbd 3f17 0f3b
00000370: 35b1 2a3e b2f1 0d3e d753 ea3d e755 5b3e
00000380: 3cb5 693d b709 b63c dc64 50bd 62cf 28be
00000390: cd69 48be c49f fbbd 76d6 5dbe 38cd 2dbe
000003a0: f7cd 35be f88b 20be d49a 63be 423e 83be
000003b0: a895 e33c ec49 e4bc 3f3d ddbd baa9 3f3d
000003c0: dc76 69bd d63a 043d b75c a83d 5f17 7a3d
000003d0: 73b4 eb3d ac80 2fbe 1fa0 50bd 25d5 80be
000003e0: f89d 84be 9a8f 45bd 7139 25be 69b5 16bf
000003f0: 0900 18be 7cb9 79be b8d8 a1bb db6b 113d
0.00094482355 0.085711345 0.07730242 0.09869772 0.12701282 -0.12528878 0.08472184 0.05350432
0.068985924 -0.058307637 -0.03522535 0.12610805 0.016413566 0.013549566 -0.17481932 -0.492336
-0.1513332 -0.08882352 -0.26063746 -0.25000405 -0.036176976 -0.030045092 0.12677974 -0.08352116
0.00045467544 0.088636376 0.09697663 -0.016349582 -0.11932533 0.11686584 -0.005021308 -0.11959596
-0.26936772 0.21643852 0.054568518 -0.20961572 -0.15930809 0.02037684 -0.022935381 -0.067346685
-0.05334768 -0.03146209 0.014724883 -0.106022306 0.17001845 0.10386817 0.09541531 0.10487884
-0.1426249 -0.041111473 -0.0024502613 -0.023890471 0.0545826 -0.1893865 0.19176862 0.028617324
0.00021791579 -0.039425466 -0.096438184 -0.23469086 -0.09116138 -0.278843 -0.08872473 -0.08047713
-0.21447532 0.1713415 0.08414589 -0.103381366 -0.042759307 -0.045534056 -0.020729465 -0.01125328
0.018032247 0.036955964 0.12300289 -0.046216946 0.25040016 0.051755067 0.29953256 0.09614535
-0.09304508 0.08683776 -0.055273503 0.05079012 -0.07608406 -0.038224775 0.15832461 0.13164414
0.022065604 0.004946358 -0.13107425 -0.25060046 -0.09728407 -0.17253527 -0.014289948 -0.060438663
-0.031068942 0.110303864 -0.015421605 -0.10950512 -0.03303724 -0.0022364685 -0.14871831 -0.10569356
-0.08565832 -0.05281799 -0.1177787 -0.14021274 0.12123106 0.056871597 -0.015267702 -0.006765091
-0.06087475 -0.02914051 0.07398661 -0.023235984 0.1653141 -0.16469909 0.04636026 -0.08845014
-0.12262772 -0.0753471 -0.117534794 -0.37340078 -0.101658545 -0.24834116 -0.17840213 0.014941328
-0.029984828 0.18223199 0.16538781 0.20529294 0.08047166 -0.0563691 0.1264977 0.016736466
-0.019386366 0.029101778 0.06334794 0.29607895 0.22077903 0.25394574 -0.3306756 -0.23153599
-0.007310049 0.08061635 0.27006078 -0.016782003 0.06863498 -0.021998653 0.15641224 0.08374707
0.17173588 0.1187746 0.03760288 -0.11272089 -0.030793786 0.16555661 0.091965474 0.18483675
0.073591664 0.20754762 -0.12501544 0.027830267 -0.16240866 -0.04457608 -0.1308339 -0.07188411
-0.07976055 0.047337815 -0.14785178 -0.2598628 0.05319614 -0.05810436 -0.08357715 0.09053713
-0.034806248 0.08328771 0.07412289 0.09230842 -0.019662252 -0.19672155 -0.011132157 -0.04234704
-0.109755315 -0.10776942 -0.29967457 -0.26357758 -0.23469348 -0.18168199 -0.018410863 0.28303945
-0.025448777 0.22928348 0.20254318 0.15927793 -0.020274648 0.17432734 0.0047857 -0.049647104
0.016414005 0.18353862 0.14902379 0.13108824 0.29812062 -0.02317029 0.008175054 -0.24299149
-0.1157295 0.087303944 0.035511456 -0.03793208 0.06392326 -0.120857134 0.10494543 0.2386642
0.115660414 0.035849072 -0.09976425 0.0021833924 0.16669162 0.1386173 0.114417724 0.21419488
0.057057604 0.02222143 -0.050877437 -0.1648536 -0.1957161 -0.12286332 -0.21663842 -0.16972816
-0.1775435 -0.15678394 -0.22227031 -0.25633436 0.027781323 -0.02786728 -0.108026974 0.046792723
-0.05699812 0.032282673 0.08220809 0.061057445 0.11509027 -0.17138928 -0.050933953 -0.25162616
-0.2590177 -0.048232652 -0.16135193 -0.5887056 -0.14843763 -0.24387163 -0.004939165 0.03550325

ds.fc1_conv.bias f4 [128]
00000000: c1fb 03be 3d96 4bbd bd7b 04be e7fa 22be
00000010: 1bb3 f53d 1c6a aabd 3601 dc3c 17bc 56be
00000020: 8f83 7c3c 4c27 5bbe 3704 07be 6f4a 3ebe
00000030: fecd 2cbd 4b2f 8abe 9838 5c3e 8068 423e
00000040: 26c7 cb3d e88c 2a3d 8377 b23d 1ea8 f2bd
00000050: bad5 a0bd 2a0a 283e 9764 41be e3bf bcbd
00000060: d03e 76bd 1372 f13b de78 6dba 89f5 143e
00000070: 40e0 883d ad56 97bc c917 3cbe 5701 50bb
00000080: 2a2e 0f3c a161 c23d adbc a23c d470 bcbd
00000090: 55e3 9abd ceb7 51bd 75df 3bbd 3a5b 3a3d
000000a0: 927f 73be 9db9 853d 73ae 27be e1e0 4bbe
000000b0: 029a ddbc 43cf 97bd 16a9 343e 14c3 54be
000000c0: 77fb 49be a752 bebc 438c 70bb 080b efbd
000000d0: f0d5 14bd ff03 9d3d 496e f63d d9c9 0cbe
000000e0: 0ebc 9dbc e353 3fbe 3a79 27bd 7568 2e3d
000000f0: 7307 033e e51b 2b3e 11c7 20be 9fb1 bcbd
00000100: 05b0 fbbd 8d11 993d b190 d9bc 25bc 193d
00000110: 2aef 183e 511f bc3d 8541 af3d f993 27be
00000120: 2fdb ab3e a097 c7bd 3d14 8b3d a1f4 6ebc
00000130: 2464 51bc 30ad a53b 5da0 b73d 60fa db3b
00000140: 1229 cd3d 308d 173d db36 883d 4581 cf3d
00000150: ba2f 28bd df20 223e a5de bd3d 68bd 323c
00000160: d615 87bd 0a1f 13be 7e92 64bd 9a03 8b3d
00000170: 9f95 943d b065 15be 9770 a3bc a09d b83e
00000180: cd60 033e 7fa7 9ebb 361a f03c d765 013d
00000190: 2792 0cbe f87c 6cbb 61dc 09be b8a4 223c
000001a0: f786 0e3e 9a0c 04be 0e57 80bd e8fc e83c
000001b0: 6886 d13d 36f2 853c 105f 1dbe 51f9 493d
000001c0: 9846 62be e082 933d 8782 943e 3730 89bd
000001d0: cb81 3a3e fa35 8d39 93e5 043c 295d 6f3d
000001e0: 2e08 823d 0b72 943d 37d7 d4bd af29 283e
000001f0: 7bf3 093e 5e72 f3bd c5de d43d ce1a 90bd
-0.12889005 -0.049703825 -0.12937827 -0.15916024 0.11997052 -0.0832102 0.026856046 -0.20970188
0.015412225 -0.2140171 -0.13185202 -0.18583082 -0.042188637 -0.26989207 0.21505964 0.18985176
0.09950094 0.041638285 0.08714201 -0.11848472 -0.07853265 0.16410127 -0.18886028 -0.09216287
-0.060118496 0.007368335 -0.0009058843 0.14546789 0.06683397 -0.018473947 -0.18368448 -0.003173908
0.008739034 0.094912775 0.019865358 -0.09201208 -0.075628914 -0.05120068 -0.045867402 0.045497157
-0.23779133 0.065295435 -0.16375141 -0.19910003 -0.027050976 -0.07412579 0.17642626 -0.20777541
-0.19724832 -0.023232771 -0.0036704696 -0.11672026 -0.03633684 0.07666778 0.12032754 -0.13748874
-0.01925471 -0.18684344 -0.040887095 0.042580087 0.1279581 0.1670986 -0.15700938 -0.09213566
-0.122894324 0.07474051 -0.026558252 0.037532944 0.14934984 0.09185661 0.08557419 -0.16365041
0.3356566 -0.09745717 0.067909695 -0.014584691 -0.012780223 0.005056046 0.08966134 0.0067131966
0.10017599 0.03699988 0.06651088 0.10132078 -0.04106114 0.15832852 0.09270982 0.010909416
-0.06595962 -0.14367309 -0.05580377 0.06787796 0.072551005 -0.14589572 -0.019951148 0.36057758
0.12829895 -0.0048417444 0.029309373 0.031591263 -0.13727628 -0.003608523 -0.13462974 0.009926967
0.13918673 -0.12895432 -0.06266604 0.028440908 0.10230714 0.016350847 -0.15368295 0.049310032
-0.22097242 0.07202697 0.29005834 -0.066986494 0.18213575 0.0002693383 0.008111375 0.058438454
0.063492164 0.072483145 -0.103926115 0.16422151 0.13471787 -0.11887048 0.103940524 -0.070363626

ds.fc2_conv.weight f4 [64, 128]
00000000: c3b3 98bb 27d7 963e 96e4 ebbd 41a2 a0be
00000010: 9eb1 a53e ce38 5b3d b0dc 5d3d 9bf7 9cbe
00000020: 09b9 a13d 297f 4f3e 7204 233c 5c11 403e
00000030: 4bb4 68bd 6829 febe 301a 913c d8f9 193f
00000040: ba41 9a3d a0dd ea3b 2d6b dc3d 9df7 923e
00000050: 7b58 273e bcba a63c 1ff9 d73c 4de3 86bd
00000060: aa3e 8f3e 24f5 943b 721e 54bd f88e 573d
00000070: 0fb2 3a3d 5ff4 bdbd b7a1 b3be 5c26 013e
00000080: a707 8c3d 26d6 4c3e 8136 febd c1b3 acbe
00000090: 953a ed3d 3478 59bd 4562 1b3e 5597 523d
000000a0: 648b 40be e684 0e3d 1fa6 523e bebf f4be
000000b0: 38bd c5bd 2410 5e3e 645a 143d 36be eabb
000000c0: 2e0b a23c d3c9 523d 5737 45be e64e c53d
000000d0: eec3 283e 77f5 1d3d 38ce 52bd 3951 cebe
000000e0: 61f9 1abe bfd3 2cbe 1083 8e3e c8c9 f83d
000000f0: 4ad1 863d 55e3 963d 48e1 af3d a461 1c3e
00000100: b197 203d 507f b9bd 85cc 333b 53f7 cd3d
00000110: e2f1 223e 5968 fb3d a32b 023e 77e8 ffbd
00000120: d3a3 023f 07d3 5c3d 58c8 be3d 030a 023f
00000130: 625b 4b3d 6add 1fbc 14a1 163d f873 223e
00000140: 5359 e73d 6611 023e fa0e 8c3d 3144 1f3e
00000150: cea2 ab3c 927d 3b3f edbb 2b3d 64f1 66be
00000160: 8602 693e 3a93 e3be 7250 26bf 436f b8bc
00000170: 8b0e 6c3d 31a5 873d ef80 8fbe 31f5 c43e
00000180: c106 1a3e d7ea 453e b153 d33c 572d 2bbd
00000190: a3df 2cbd da32 0fbd d4fd 823e 0d85 82bd
000001a0: bd33 5ebd f8e2 e2bd a665 053e 8fe5 943d
000001b0: 5542 913c a88b dfbd 22f3 d1be 7982 6e3e
000001c0: 8a8a 39bd 6103 5dbe 4415 1a3f faa8 323e
000001d0: 6469 003d 5d42 8fbd d130 afbb b050 023e
000001e0: 3742 233b d65e ab3d 99d0 97bc fe98 903d
000001f0: abfe ca3e 2b5b 763e 6a42 d83d f835 353e
00000200: 7f2f 1d3e a861 f23c 95ed 2cbf ebf6 c43d
00000210: 7bb7 47be ac1c 8b3d 4bc2 3ebe 03d5 f7bb
00000220: 936a cdbe cf9e 793d 84ff 30be 11cf c3bc
00000230: 3ac1 cc3c 906b 61be 46a1 403b 592b 82be
00000240: 0ce3 023d c6e7 0abe d685 e0bc 31a8 c8bd
00000250: 94c3 5ebc 68f3 03bc c407 9f3e 13d2 343e
00000260: 8826 acbd cd80 f33d c399 023e eb29 ee3d
00000270: 3c9e 8b3e f833 2d3e 75c7 323e c1ce 5d3e
00000280: 2675 a4be 9486 72be d488 b33e c644 c23d
00000290: 7e3f 8d3d 5859 383c 3c4b ce3d e746 13be
000002a0: fb49 17bf d06b ae3e 4bec 02bb fedb a03c
000002b0: d112 db3d ff30 7c3d 1bd5 2a3d 0543 13be
000002c0: ac89 2cbe 116a e33d 28f3 943d abf5 813d
000002d0: a733 143e e56d cc3e 0344 67bd 97f1 8d3d
000002e0: 4383 af3d da3b 5dbb 9990 61bd 46e7 bebe
000002f0: 2b46 c438 89f0 dd3c a584 603e 305c 4e3c
00000300: 174b 6e3d f359 cc3d a82e 813e ead0 863e
00000310: a379 a83c 5792 933e ddd7 cc3e 8d13 d43d
00000320: 89c7 243e c69f a53d 8463 bb3c e9e5 a8be
00000330: 97c7 07be 1f98 c03e 6778 f23c 1981 c23d
00000340: be77 8a3c 708a b43d e55d e43e 03ce 3a3e
00000350: 9638 d43d f5b5 b23c bb1c c13c 234b c73d
00000360: dc98 81bd 1e58 23be 2c2b ab3c f0b1 933d
00000370: 4ad0 893e 1906 44be 0570 75bc b039 403e
00000380: b512 073e 9973 8bbd fab1 c43e 9435 9d3e
00000390: 0fdd 28bf 0ef4 57bd b74c f93b e039 f6bd
000003a0: 3539 cb3c 0c1a 14bf d293 3ebc 514d c23e
000003b0: 97b7 dd3d 9496 ba3e 7bee 433e c966 19bc
000003c0: 3d8f 06be 34b7 1fbd f042 273e 9f90 05bd
000003d0: 0b4d d6bc 391b ad3d c22c f03d 286b a23c
000003e0: d797 ccbc 1ce0 333d c568 bc3d 5286 3b3d
000003f0: fa5b b7be 8ea5 aabd 3992 eabc c6ba 723d
-0.004660101 0.29461023 -0.11518209 -0.3137379 0.32362074 0.05352097 0.054165542 -0.30657658
0.07896621 0.20263352 0.00994979 0.18756622 -0.056812566 -0.49640965 0.017712682 0.60146856
0.075320676 0.007167533 0.1076263 0.2870454 0.16342346 0.020352714 0.026363907 -0.06586323
0.27977496 0.0045458246 -0.051786847 0.05262658 0.045579966 -0.09275126 -0.35084316 0.12612289
0.06837397 0.20003566 -0.124127395 -0.3373089 0.11583439 -0.05309315 0.15174206 0.051413853
-0.18803173 0.03479471 0.20571183 -0.47802538 -0.09655231 0.21685845 0.036219016 -0.007163788
0.019780722 0.051462006 -0.19259392 0.09634189 0.16480991 0.03856417 -0.051466197 -0.40296343
-0.15134193 -0.1687765 0.27834368 0.12147862 0.065828875 0.07367579 0.08587891 0.15271622
0.039207164 -0.09057486 0.0027435136 0.10056939 0.15912583 0.12275762 0.12711959 -0.12495511
0.51031226 0.05391219 0.09315556 0.50796527 0.049647696 -0.009757379 0.03677471 0.15864551
0.11296334 0.1270195 0.06838794 0.15553357 0.020951655 0.7323848 0.041927267 -0.2255302
0.22754869 -0.44448262 -0.649665 -0.022513991 0.057631057 0.06623305 -0.28028056 0.38468316
0.15041639 0.19327866 0.025796743 -0.041791286 -0.042205464 -0.034960605 0.2558428 -0.06373034
-0.05424856 -0.11078447 0.13027057 0.07270347 0.017731825 -0.10915309 -0.41005808 0.23291959
-0.045298137 -0.2158332 0.601887 0.17447272 0.03135051 -0.0699508 -0.0053463955 0.12726092
0.0024911293 0.08367698 -0.018532084 0.07060431 0.3964742 0.24058215 0.105595425 0.17696369
0.1535015 0.029587582 -0.6755002 0.09617408 -0.19503586 0.06792578 -0.18628804 -0.007563235
-0.40120372 0.060942467 -0.17284971 -0.023902448 0.024994481 -0.22013688 0.0029393001 -0.25423697
0.03195481 -0.13564977 -0.027407568 -0.09797705 -0.013596434 -0.008053638 0.31060612 0.17658262
-0.08405787 0.11889801 0.12753968 0.11629089 0.2726916 0.16914356 0.174589 0.21660902
-0.32120627 -0.2368415 0.3506533 0.09485774 0.06896876 0.01125177 0.100729436 -0.14382516
-0.5909726 0.3406663 -0.0019977267 0.01963615 0.10696948 0.061570164 0.04170714 -0.14381035
-0.16849393 0.11104215 0.07272941 0.063456856 0.14472829 0.39927593 -0.056461345 0.06930845
0.08569958 -0.0033757598 -0.05506954 -0.37285823 9.359078e-05 0.027092235 0.219256 0.012595221
0.05817708 0.09978094 0.25230908 0.26331264 0.020565813 0.28822586 0.4000844 0.103552915
0.16091742 0.08087115 0.022874601 -0.32987908 -0.13259731 0.3761606 0.029598428 0.0949728
0.0169028 0.08815467 0.44602886 0.1824265 0.103623554 0.02181528 0.02357327 0.09731128
-0.06327984 -0.15951583 0.02089461 0.07211673 0.26916724 -0.19142951 -0.014980321 0.18772006
0.1319073 -0.06809158 0.38417035 0.3070494 -0.6596231 -0.052722983 0.007608022 -0.120227575
0.024807552 -0.57852244 -0.011631923 0.37949613 0.108260326 0.36443007 0.19133942 -0.009362885
-0.13140579 -0.038993075 0.16334128 -0.032608625 -0.026159784 0.08452458 0.11727287 0.019826487
-0.024974747 0.0439149 0.09199671 0.045782395 -0.3581236 -0.08332358 -0.028634178 0.059260152

ds.fc2_conv.bias f4 [64]
00000000: 1d11 133e c82c 723d 17c6 013e a4c1 413d
00000010: 4944 b03d 084c af3d cebe 8d3d 2d89 d9bd
00000020: 152c 6bbd cf6c 013e 7bc6 323d f2b5 7d3d
00000030: 1473 6ebd 3481 723d 9be5 fe3d 35c8 e93c
00000040: da4f e7bc 3f73 893c e1ad f13c 995c 8b3d
00000050: ffd0 6fbd f5c0 aa3c 198e 5ebd 6994 b23d
00000060: 4fc4 1b3d e34b 263d 107d 9b3d db27 313d
00000070: 19a5 733d d239 bfbb 0fe3 7f3d 7ebb 363d
00000080: 665c 713d 8b0f a03d a9d1 e5bc 92bf 0c3e
00000090: 01e1 2ebc c6d7 fa3d 6045 cd3d 7495 0c3e
000000a0: 3423 1e3d 7f59 663d d9b4 bb3d 5b0b 843d
000000b0: 46f6 283c 61a6 c6bd 3366 a93d 5b47 1fbc
000000c0: 3fc6 52bc fded bebc 0b5f ef3d 0e07 b83d
000000d0: b0b6 953d ce77 b1bc b2c5 683c ea32 913d
000000e0: b302 943d 7731 813d 0642 b03d d575 553c
000000f0: 2044 863d c637 d73d 2237 413b 811e 0e3d
0.14361997 0.059124738 0.12673222 0.04730381 0.08606774 0.08559424 0.06921159 -0.10621867
-0.057415087 0.12639163 0.043646317 0.061941095 -0.058215216 0.05920525 0.124461375 0.028537849
-0.028236318 0.016778586 0.029501857 0.06804771 -0.058548924 0.020843962 -0.054334734 0.08719713
0.03802901 0.040599715 0.07592213 0.0432509 0.05948362 -0.00583575 0.0624724 0.0446124
0.05892601 0.078154646 -0.028054075 0.13744953 -0.010673762 0.12248187 0.10022998 0.13728887
0.03860779 0.056237694 0.09165353 0.064474784 0.010312622 -0.09699703 0.08271446 -0.009721602
-0.012864648 -0.023306841 0.1168805 0.089857206 0.073102355 -0.021663573 0.0142072905 0.07089789
0.07227077 0.06308263 0.08606343 0.013028582 0.065559626 0.10508685 0.0029482325 0.03469706

head.weight f4 [15, 64]
00000000: 38a1 01bc 29cf 373e 8113 5a3e bdf0 6dbe
00000010: 452c 31be 6220 5ebe 3b6d 71be 99ca 73bf
00000020: f2d1 88bf b610 ed3d 2ea4 343d e11f 29bf
00000030: f803 3fbe afb4 073f fcef 403d 6b6b 67bf
00000040: 4c78 8ebe ba62 bc3e 66c5 273e 7fbf 7b3e
00000050: 1864 57bb 5927 823d 7b94 16be 006b 85bf
00000060: d3fe bdbe cad4 f03e e94b c13e 5949 f23e
00000070: 4054 95be 2c58 3dbe 9842 60be 6665 90be
00000080: ea63 20bf 4dd3 ae3a 7495 b8be 98de e23d
00000090: 2f14 dcbd f631 d73d a9ed 113d 1c71 4e3e
000000a0: 74db 25bf 72ca 5dbf 1299 5abe 6b37 12bd
000000b0: e460 fbbe 8a97 84be 286f 593e 5ba0 5bbe
000000c0: 3f2b 89bf 5207 66be dbdf 743d 4093 453b
000000d0: ef6c dc3e 5cf0 5ebe 7063 fe3e 8da6 36be
000000e0: d13d 55be 195f 1fbf e588 85bf 48fb 05bf
000000f0: 15be a73d 0410 b13c d201 f53d da22 67bd
00000100: e82c 933d 02d8 d4be f200 123d 9efa 02bf
00000110: d2cf debe 21b4 473e 2d8a 453e f1de 82be
00000120: a0e2 993d 5afb 133f 9bd0 43bf d6b2 f03d
00000130: 7163 d2be c4de 0e3f 7546 07bf 0b74 053e
00000140: 1141 323e 0fd4 a2be 2b91 37bf b273 5bbf
00000150: cb82 3dbf b993 92be 91b4 6b3e 0977 86be
00000160: ae7d 303f 1dcc 053e 0b04 a23d 7781 063e
00000170: ebd6 603e a72f 8bbe 6d0e 41bf bc79 55bf
00000180: f465 8fbe 5ae5 ae3d 6ae4 cd3d 16c0 57bf
00000190: 6acb 063e 71df 3abf 9c2b 943c 34a5 30bf
000001a0: 8078 ef3d d1a0 aa3d d078 ac3d 264d 33bf
000001b0: 5ca9 7dbe e795 1cbf 0372 abbe 3094 633e
000001c0: 222f bf3d 9129 28bf 497e 0bbf f103 4cbf
000001d0: fd1a c03d 2e7f 423e 7554 403e 83ec fbbe
000001e0: 7d0d 163e 4e1f ea3d 8bee 6c3e d7eb aebe
000001f0: 304b 08bf 3bbf 063f da2f 1cbf 7f82 8abe
00000200: 7c49 333d 4c7b e8be 2db7 ebba 1e33 30bf
00000210: 3412 0abf 1bff ea3d 22ed 073e 4e3d 953e
00000220: bd65 7f3d 9795 78bf f3c6 cfbe 5c55 cc3d
00000230: 143a cd3e 1e4e 7cbf 70e3 c4be 2599 f93d
00000240: 3402 943e bda7 d1be 7778 60bf 4889 72bf
00000250: 7200 d5be efee 91be d8e1 1c3e e18d bcbe
00000260: 4b56 86bf 57c3 9e3e cfb0 ff3c 4e6c 973e
00000270: ed28 c93d db97 a9be 4978 ed3e c37d 94bf
00000280: 616f ccbe 8134 413e 840a 8d3d 09ed 353f
00000290: 5e32 a63e 9bc9 26bf 1033 c33c ed14 09bf
000002a0: ed8a e23d f6c5 bc3d 365c d93d f582 f3be
000002b0: b1dd 9fbe 46de d93d 1975 b4be 6134 2d3e
000002c0: 1c41 273d 64d5 eb3e c187 f4be a9d4 ebbe
000002d0: 2070 e63d f238 303e 446d 8c3e 6bc2 2ebf
000002e0: 48dd 063e 0b14 803d fdb9 f03d 1fd8 d9be
000002f0: bc2b a6be 212a 90bf 9255 b5be 1e79 b1be
00000300: 5deb 6bbf 0b96 52bf 1083 28bf b4ea 463e
00000310: 632a 863e fec3 303e 8aaa 503e c6e4 303e
00000320: 0bb4 243e cb55 b6be 2f8f 75be ec2f e7be
00000330: a8d3 293e 946c 80be 5605 82be 30ca d6be
00000340: 3f1e ed3e 1af3 663e 59b0 0f3f 2f4f 8a3e
00000350: edfd 4ebe 5cfe eabe 77aa 6f3e 9f96 323e
00000360: c6bf 71bf 5320 80be 4eef d3be 223f 78be
00000370: a334 4e3e 0272 7a3e 46b3 6a3e 6fa1 87bf
00000380: 2ade 483e cc47 92be 418f 683e 0cf6 10bf
00000390: 6e00 7ebe 8c33 9bbe 58bd c7be 0da5 69be
000003a0: d115 c4be 5d9f 83bf 8490 edbe 9466 d8be
000003b0: 7b31 3f3e 0566 773e 8920 2c3e 2b5e 7d3e
000003c0: 3114 623e 3c2e 313e 4347 8fbe 3936 e5be
000003d0: db9d bdbe abd0 8e3e 86a9 1d3f 1b2c 7c3e
000003e0: f98e 4a3e 1df9 ffbe b64b fabe e90e 7cbf
000003f0: 4d44 6bbe b9b0 d3be 779b dbbe 4ed5 63bf
-0.007911973 0.17950119 0.21296503 -0.23236366 -0.17302044 -0.2169204 -0.23576824 -0.95231014
-1.068907 0.11575453 0.044101886 -0.6606427 -0.18653858 0.53010076 0.047103867 -0.9039828
-0.27826154 0.36794072 0.16383895 0.24584769 -0.0032866057 0.06355161 -0.14705078 -1.0423279
-0.37108478 0.47037345 0.37753227 0.47321585 -0.2916584 -0.18490666 -0.21900403 -0.2820236
-0.62652457 0.0013338119 -0.36051524 0.11077613 -0.10746037 0.10507576 0.03562704 0.20160335
-0.64787984 -0.8663703 -0.21347454 -0.035697382 -0.4909736 -0.25896865 0.21233809 -0.2144789
-1.0716323 -0.2246373 0.059783798 0.0030147582 0.4305186 -0.21771377 0.4968524 -0.17836972
-0.20824362 -0.6225448 -1.0432402 -0.5233655 0.08190552 0.021614082 0.11963238 -0.05642972
0.071862996 -0.4157105 0.035645433 -0.5116366 -0.4351793 0.19502307 0.19290991 -0.25560716
0.075139284 0.5780541 -0.7649018 0.1175286 -0.41091493 0.55808663 -0.52841884 0.13032548
0.17407633 -0.31802413 -0.71705884 -0.8572341 -0.740277 -0.28628328 0.230181 -0.26262692
0.6894177 0.13066144 0.079109274 0.13135324 0.21956985 -0.27184793 -0.75412637 -0.83388877
-0.28007472 0.08539839 0.10053332 -0.84277475 0.13163534 -0.72997195 0.0180872 -0.6900208
0.116929054 0.083314545 0.08421481 -0.70039594 -0.24771637 -0.6116623 -0.33485422 0.22224498
0.09335162 -0.65688425 -0.5448957 -0.79693514 0.093801476 0.18993828 0.18782218 -0.49203882
0.14653583 0.11431752 0.23137872 -0.34164307 -0.5323973 0.52635545 -0.61010516 -0.27052686
0.043771252 -0.45406568 -0.0017983668 -0.68828 -0.53934026 0.11474439 0.13274053 0.29148334
0.062352885 -0.97103256 -0.40581474 0.099772185 0.40083373 -0.985567 -0.3845477 0.12187413
0.2890793 -0.40948287 -0.87683815 -0.94740725 -0.41601902 -0.28502604 0.15320528 -0.36826995
-1.0495085 0.31008407 0.031212239 0.29574817 0.09822259 -0.3312367 0.46380833 -1.160088
-0.39928725 0.18867685 0.06886771 0.7106481 0.32460302 -0.65151376 0.02382806 -0.53547555
0.11061654 0.092174456 0.10613291 -0.4756085 -0.31223825 0.106380984 -0.35245588 0.16914512
0.040833578 0.46061242 -0.47759822 -0.46060684 0.11251855 0.17209223 0.27427113 -0.6826541
0.1317035 0.06253823 0.117542244 -0.425477 -0.32455242 -1.1262857 -0.35416847 -0.34662718
-0.9215601 -0.822602 -0.65824986 0.1942547 0.26204214 0.17262265 0.20377555 0.1727477
0.16084306 -0.3561233 -0.23980401 -0.4515375 0.16584647 -0.2508284 -0.25394696 -0.41951132
0.46312138 0.22553673 0.5612846 0.27013537 -0.20214052 -0.45897186 0.23404871 0.1744027
-0.9443325 -0.2502466 -0.41393512 -0.24242833 0.20137267 0.24457553 0.2291995 -1.0596141
0.19615999 -0.28570402 0.22710897 -0.5662544 -0.24804851 -0.30312765 -0.39011645 -0.22816868
-0.38297895 -1.0283009 -0.4639932 -0.4226576 0.18671219 0.24160011 0.16809286 0.24742953
0.22078015 0.17302793 -0.27984056 -0.4476793 -0.37034497 0.27893576 0.615868 0.246262
0.19781102 -0.49994746 -0.48885888 -0.9846025 -0.22975273 -0.41345766 -0.42892048 -0.8899735

head.bias f4 [15]
00000000: f840 17bd ae3e 3cbd fab8 63bd 9c86 ca3d
00000010: 3bde 2fbd 8de9 433d 18c0 f9bc 7930 1a3d
00000020: c765 923d 59c9 56bd 29b7 d53d dab2 a53d
00000030: 924d 79bd 0c36 12bd d0ec 9cbd
-0.036927193 -0.045958214 -0.05559633 0.09888956 -0.042936545 0.047830153 -0.030487105 0.037643883
0.07148319 -0.052438114 0.10435326 0.08090754 -0.060864992 -0.035696074 -0.07662356
