surrogate/trained_model/model_rate4_fold1.pth (torch, 179077 bytes, 18 tensors)

ds.proj_conv.weight f4 [16, 2, 7]
000000 ae ed 71 3d a3 37 0b 3d ff 5d 67 3d 4e 28 63 3e
       0.05906456 0.033988606 0.056486126 0.22183344
000010 73 1f be 3d dc 14 2f 3e 6a 27 01 3e 83 18 24 3d
       0.09283342 0.17097801 0.12612692 0.04006244
000020 43 52 92 3d 35 5b a6 3d 2c 86 35 3d f4 92 f4 3d
       0.071445964 0.08122865 0.04431741 0.119420916
000030 05 94 e5 3d 40 a8 aa 3d 50 74 c4 bc 0a f1 a2 3d
       0.11209873 0.083328724 -0.023981243 0.07956131
000040 65 ef 91 3d b4 d0 07 3e e6 d0 07 3e ef 14 0d 3e
       0.07125739 0.13263208 0.13263282 0.13777517
000050 86 bd dd 3d 3c 56 70 bd 3a 39 52 bd 3c 60 9a bd
       0.10827164 -0.05867599 -0.051324107 -0.075378865
000060 82 03 97 bd 80 9c 2a bd 9f 1b e8 bd 1a 1f 48 bd
       -0.07373716 -0.041653156 -0.11333393 -0.048857786
000070 e5 cf 9b 3c c3 2f 31 be 9e de 27 be 20 a5 2e be
       0.01902003 -0.17303376 -0.16393515 -0.17055178
000080 d4 bf 3c be 7f fe 39 be 48 05 7f bd 2f 96 f9 bd
       -0.18432552 -0.18163489 -0.062260896 -0.12186848
000090 e6 9d c6 bd 22 04 49 3c 36 24 02 bd c8 fa 85 3c
       -0.096980855 0.012269052 -0.031772815 0.016354933
0000a0 07 89 1a 3d 77 06 17 3a 7b 41 74 3d c3 83 e8 3c
       0.037728336 0.0005761156 0.05963276 0.028383141
0000b0 1b 73 1c 3d 6b d3 64 3d 72 7e ad 3d 03 aa 90 3d
       0.03819571 0.055865686 0.08471383 0.07063677
0000c0 d5 33 fc 3d f5 c8 00 3e b0 aa 1a 3e ab fe 33 3e
       0.12314574 0.12576659 0.15104175 0.17577617
0000d0 21 9d 33 3e 84 fe 11 3d b7 1a 7e 3d 5a c4 a1 3c
       0.17540409 0.035643116 0.062037196 0.019746948
0000e0 ac bf 7b bd 4b 2e b4 bd 50 8c d6 bd 15 7b e8 bd
       -0.06146209 -0.08797892 -0.10475981 -0.11351601
0000f0 a4 39 05 be 77 b2 25 be ed 06 7c bd 93 33 83 3d
       -0.1301027 -0.1618136 -0.061530042 0.064063214
000100 0b e5 b7 3d 0a f1 0c 3e c1 2e 8d 3d df 05 f0 3c
       0.08979233 0.13763824 0.06893683 0.029299675
000110 76 5d e3 3b bf 28 eb bc ea 65 94 3d 2a 89 f3 3d
       0.0069386316 -0.028705953 0.07246001 0.11891396
000120 39 7b 60 3d da b6 50 3c 90 e3 0c bb 21 06 59 bd
       0.054805014 0.012738908 -0.0021497943 -0.05298436
000130 6a 95 4a be 75 a8 e2 bd 06 3e 23 be fd 46 1a be
       -0.1978356 -0.11067287 -0.15941629 -0.15066142
000140 bb 7d 5d bd 51 db bf bd 9e dd f5 bd 0a c1 79 3c
       -0.054074984 -0.09368003 -0.12005161 0.015243778
000150 f4 26 04 3b cf 99 ad 3c 48 a4 17 3d 06 6e a8 3d
       0.002016482 0.021191506 0.037021905 0.0822411
000160 ba 1d dd 3d 48 b6 a0 3d 7e 62 1e 3d 0e 10 e3 bd
       0.107966855 0.078472674 0.03866815 -0.110870466
000170 96 5b 04 be 89 6f 30 be c9 06 17 be 25 13 02 be
       -0.12925562 -0.17230047 -0.14748682 -0.12702616
000180 f6 0a 6e be 57 41 f0 bd 78 9f b7 bc bd 85 dd bd
       -0.23246369 -0.117312126 -0.022414908 -0.10816524
000190 5b c1 3a be 75 8f 31 be 62 f4 66 be fe 79 76 be
       -0.18237822 -0.17339881 -0.22554162 -0.24069974
0001a0 59 2a c0 bd fd 0a 51 bd d9 ba 91 bd 53 a9 d3 bd
       -0.09383077 -0.05103587 -0.071157165 -0.103350304
0001b0 cb 9a d6 bc 61 4d 45 3c 1a 14 0e 3d 45 4e 62 3b
       -0.026196858 0.012042374 0.03468714 0.0034531516
0001c0 c5 03 50 3d 17 b2 68 3d a2 82 97 3d e7 da ae 3d
       0.050784845 0.056810465 0.07397963 0.08537846
0001d0 64 c3 b3 3d 31 25 93 3d d9 ac 95 3d 23 37 b5 3d
       0.08777502 0.07184828 0.07308359 0.08848407
0001e0 42 54 1f 3e bc bb 03 3e 8f 1b 02 3e ca 02 8d 3d
       0.15559486 0.12864584 0.12705825 0.068852976
0001f0 0c 86 59 3c 9c 45 56 bc 45 d1 b9 bd 82 74 13 bd
       0.013276588 -0.01307812 -0.09073118 -0.035999782
000200 97 02 b6 bc 56 57 11 3c 1b b6 da 3c ca d5 48 3c
       -0.022218032 0.00887092 0.026698163 0.012258003
000210 b2 dc 9a bd 67 58 60 bd c9 5e 28 be be 99 0b be
       -0.075616255 -0.054771807 -0.16442408 -0.13632867
000220 24 1e 70 be 54 ee 7f be 1a f5 3a be e6 70 fc bd
       -0.23448998 -0.24993259 -0.18257561 -0.12326221
000230 2c af 00 be ad 3e ed bd 56 71 a2 bc 4c 6f 36 3d
       -0.12566823 -0.1158422 -0.019829433 0.044539735
000240 a7 9e b9 3b d9 c9 b9 3c 6e fd ea bc 9f 5e e5 bc
       0.005664665 0.022679256 -0.028685298 -0.02799922
000250 9a 70 a9 bd 9a cf 05 be c2 5f 3e be f9 d6 62 be
       -0.0827343 -0.13067475 -0.18591216 -0.22152318
000260 85 f8 f2 bd f2 91 d8 bd 72 62 cb 3c 7f c0 39 3d
       -0.118638076 -0.10574712 0.024827216 0.045349594
000270 84 65 50 3d 43 32 5f 3d 0d 0e a7 3d c7 51 c9 3d
       0.050878063 0.054491293 0.08156977 0.09830051
000280 e6 a7 ba 3d 63 26 94 3d 74 9d 9e 3d 32 ab aa 3d
       0.09114055 0.07233884 0.077448756 0.08333434
000290 63 fe 90 3d ce dd 89 3d c1 d3 33 3d d4 9b a2 3c
       0.070797704 0.06731759 0.043903116 0.019849695
0002a0 42 20 77 bd 8d e7 c3 bd b9 1a de bd e5 2d e6 bd
       -0.060333498 -0.09565649 -0.10844941 -0.112392224
0002b0 0c d4 fa bd 4b a3 33 be 6f de 84 bd c5 6d 2d 3d
       -0.12247476 -0.1754276 -0.06487738 0.042341013
0002c0 49 85 ee 3d 41 7b 00 3e c5 47 b9 3d c5 7d ba 3d
       0.11646516 0.12547018 0.09046892 0.0910602
0002d0 0a c1 6d 3d b0 e2 a3 ba f6 e9 06 be 46 9d 4d be
       0.058045425 -0.0012503471 -0.13175187 -0.20079526
0002e0 d1 c9 7a be 6e 1a 31 be 21 26 75 be df f8 2b be
       -0.2449105 -0.17295238 -0.23940326 -0.16794156
0002f0 13 26 ae 3c af ca 7d 3d de 0e 09 3d 5d db a2 3c
       0.02125839 0.061960872 0.033461444 0.019879991
000300 3e 98 ff 3c 15 ec 0f bd 71 c5 02 bd 1e 36 7f bd
       0.031200524 -0.035137255 -0.031926576 -0.06230747
000310 fc 61 5b bd 55 22 04 be 72 84 11 be 5d 49 0f be
       -0.053560242 -0.12903722 -0.1421068 -0.1399283
000320 3f fc 1f be f4 b2 4b be b6 2b 6a bd 58 6d 01 3d
       -0.15623568 -0.19892484 -0.057170592 0.03159842
000330 4e 86 7f 3d 2a ba a1 3d 7d 90 a6 3d 22 44 b6 3d
       0.062383942 0.07896836 0.08133028 0.08899714
000340 3d f5 b4 3d 67 a1 0f 3b 09 63 e2 3d 53 1e ce 3d
       0.08835838 0.0021916272 0.11054046 0.10064378
000350 a2 8f 97 3d eb ab 27 3d f2 3e c5 3d 7c b1 c1 3d
       0.07400443 0.040935438 0.096311465 0.094576806
000360 9c bc 9e 3d 0d fb 95 3d b2 9a a3 3d bd e3 98 3d
       0.07750818 0.07323275 0.0798849 0.07465313
000370 52 c7 89 3d 15 99 aa 3d f8 c4 5e 3d 6f d3 e9 3c
       0.067274705 0.08329979 0.054387063 0.028543202

ds.proj_conv.bias f4 [16]
000000 87 b3 8a bb 7f ca 85 be 37 8e 78 3e eb a4 9c bd
       -0.004232827 -0.26131055 0.24273 -0.07648643
000010 85 b6 20 3e f1 70 11 3e d1 82 86 3d 34 f3 32 3d
       0.15694626 0.1420324 0.0656792 0.043688968
000020 bc 06 40 3b 4f b1 c3 3d ad f5 be bc af a4 d8 3d
       0.002930089 0.09555303 -0.023310507 0.10578286
000030 dc a8 f0 ba 3c e8 3b bd 7a ac c0 bd 84 2d 3d 3e
       -0.0018360871 -0.045875773 -0.09407897 0.18474394

ds.proj_bn.weight f4 [16]
000000 70 12 83 3f e0 f4 97 3f 31 25 91 3f 19 56 85 3f
       1.0240002 1.1871605 1.1339475 1.04169
000010 60 fa 93 3f bb 51 ae 3f 45 24 be 3f c3 07 8d 3f
       1.1560783 1.3618692 1.4854819 1.1017994
000020 69 12 a1 3f 0c 66 87 3f f9 67 99 3f b4 d2 ab 3f
       1.2583743 1.0578017 1.1984855 1.3423676
000030 e9 66 9a 3f 7b b2 a2 3f 37 73 a4 3f 20 50 84 3f
       1.2062656 1.2710718 1.2847661 1.0336952

ds.proj_bn.bias f4 [16]
000000 89 9c 1f be dc 60 6d bd 3a 61 68 ba f1 10 22 be
       -0.15587057 -0.0579537 -0.00088645855 -0.15826775
000010 cf 78 04 bd 8a 4e 85 3d 72 70 a4 3d 1d 63 0a bc
       -0.032341775 0.06509121 0.0802926 -0.008446482
000020 eb 7f ea bd 8c 5f 08 bd ad 9b 17 3d 8b 21 fe bd
       -0.1145018 -0.033294246 0.0370137 -0.124087416
000030 77 68 4a bc 58 bc 1f 3b 3f 6f 21 3c 1d 07 12 be
       -0.012354008 0.0024373736 0.009853183 -0.14260526

ds.proj_bn.running_mean f4 [16]
000000 98 81 c6 3e 92 59 48 be 85 e2 b9 bd 48 c1 8f 3e
       0.38770747 -0.19565418 -0.09076408 0.2807715
000010 1a a0 35 3d f1 61 56 bd 3f b8 ec bd 30 5a ac be
       0.044342138 -0.052339498 -0.1155858 -0.33662558
000020 ff 68 a3 3e 60 e8 93 be f0 1e af be d3 52 bc 3e
       0.31916043 -0.28888226 -0.3420329 0.3678194
000030 4a fb 99 bd bb 2a c6 be 70 86 70 be 56 e9 ff 3e
       -0.07518633 -0.38704476 -0.23488784 0.4998271

ds.proj_bn.running_var f4 [16]
000000 56 18 7a 3d 0c ce 10 3e 59 b2 d0 3d 0d 85 66 3d
       0.061058365 0.141411 0.10190267 0.05627923
000010 e6 f7 0f 3e 5c 0b 9a 3d e2 5b 74 3e 6a 13 07 3e
       0.1405941 0.07521698 0.23863176 0.13191
000020 52 d0 17 3d aa 91 28 3e 7f fc bb 3d fb c0 c2 3c
       0.037063904 0.16461816 0.09179019 0.02377366
000030 5c f7 3b 3e 8d 92 46 3e f9 4a 4f 3e 78 52 0e 3d
       0.18356079 0.19391842 0.20243444 0.034746617

ds.proj_conv1.weight f4 [8, 16, 5]
000000 23 c9 02 3e 73 b5 03 3e ea 78 85 3d 93 66 5a bd
       0.1277204 0.12862186 0.06517203 -0.05332048
000010 87 6e 1c be 30 16 5d 3e 65 31 49 3e 2d b9 85 3d
       -0.15276538 0.21590495 0.19647749 0.0652946
000020 1a 70 6f bd 6b 8f ba bd 88 20 ba bd d0 0c 89 be
       -0.058456518 -0.09109386 -0.09088236 -0.26767588
000030 7d 0e 41 be c6 94 93 3d eb 7d a3 3d ce 46 12 be
       -0.18853183 0.07206111 0.07983001 -0.14284822
000040 e5 52 90 bc 1a 70 3f bd 79 d9 05 bd 3f 86 65 bb
       -0.017617652 -0.046737768 -0.0326781 -0.0035022644
000050 1f 47 10 bd 27 86 0f 3d 4d 82 86 bc 64 e0 21 bc
       -0.035224076 0.035040047 -0.016419554 -0.009880159
000060 1a 56 0a bb 1f 85 08 be 8a e2 90 3d 2f 77 e8 3d
       -0.002110845 -0.13332032 0.07074459 0.113508575
000070 25 4d cb 3c 29 1d 7b bd 0c 56 91 3e ed 44 95 3e
       0.024817059 -0.061307106 0.2838596 0.2915415
000080 ec d3 70 3d 43 7f ba bc fe 46 ad bd f8 05 26 be
       0.058795854 -0.022765761 -0.08460806 -0.16213214
000090 2b ab 9c be e2 46 93 bd 23 a5 bb 3d f1 fb 03 3d
       -0.3059934 -0.07191254 0.09162357 0.032222692
0000a0 7f be 69 bd b2 f6 24 bd 83 26 a9 3b c8 80 2f 3c
       -0.057066437 -0.04027433 0.0051620617 0.010711856
0000b0 7e b8 0b bd 74 31 5c 3d 0e a8 ce 3c 1d 20 43 bd
       -0.034111492 0.0537581 0.02522662 -0.047638047
0000c0 91 50 85 3c e2 48 ab bd 9a f3 4d 3e bf ec 91 3b
       0.016273769 -0.08363511 0.20112458 0.004453271
0000d0 ed 5f 05 be 8e 41 8c 3d dd e3 66 bd 8b 52 13 bd
       -0.13024874 0.06848441 -0.05636965 -0.03596739
0000e0 df 84 64 bd f0 65 94 3d 5c f8 3e bc 05 e5 21 bd
       -0.05579078 0.072460055 -0.011655893 -0.03952505
0000f0 66 46 5a 3c fb e1 27 3c c0 20 b7 3c e3 1b 0b bd
       0.013322448 0.010246749 0.022354484 -0.03396214
000100 e9 bb 27 3d 86 49 aa bc 78 29 9d bd bc e8 d3 bd
       0.04095069 -0.020787012 -0.07673925 -0.10347125
000110 ce 37 a5 3d bc 78 db 3a 93 2d 42 3c 63 70 bf bc
       0.080672845 0.0016744356 0.011851686 -0.02336902
000120 98 2a db bc b9 8a 39 bd 68 c0 7b 3d 61 90 52 3d
       -0.026753709 -0.04529831 0.06146279 0.05140722
000130 6b bb 13 3c 29 4a 7a 3d 02 1a 50 3b 9b eb a0 bd
       0.009016852 0.06110588 0.0031753783 -0.07857438
000140 de 1f f8 3a a9 2e ac 3d 71 58 4f 3d fd da 6e bd
       0.0018930396 0.08407337 0.050621454 -0.058314312
000150 fd d8 f2 bd d6 0c 36 bc f1 7a 1e 3e 85 3a 4d 3e
       -0.118577935 -0.011111459 0.15476586 0.20041855
000160 c9 21 06 bd 8e 50 5a bd d0 15 a0 3d 30 2c c7 bd
       -0.032747064 -0.05329948 0.078166604 -0.09725225
000170 ad fc 35 be fb 55 d5 bd bc 24 83 3d 0b 7d 8b bd
       -0.1777217 -0.1041679 0.06403491 -0.068109594
000180 f4 da 01 bd 69 14 94 bc d3 ca 39 bd 8f 9a 92 bd
       -0.03170295 -0.018076139 -0.045359444 -0.07158386
000190 9b 06 b3 bb a9 ea 75 bd 49 db 2f 3d d1 57 73 bb
       -0.005463434 -0.060038242 0.042933736 -0.00371312
0001a0 39 df 25 bd bc 90 71 be 03 b9 8b bd c9 6e 13 3e
       -0.040496085 -0.23590368 -0.068223976 0.1439773
0001b0 32 a6 0f 3e 3c 6c cd bd a8 08 7c 3c c7 76 89 3e
       0.14028242 -0.1003041 0.015382923 0.26848432
0001c0 ce e5 a2 3e e8 19 86 bc 0f 9c 83 bd 01 69 f7 3c
       0.31815952 -0.016369775 -0.0642625 0.030201437
0001d0 8b d3 09 be 92 c7 7f be f8 5e 96 bd e6 ba fd 3c
       -0.13459603 -0.24978474 -0.073423326 0.03097291
0001e0 85 11 20 bd 6f 0e de 3b 86 2f f3 bb 18 bf 81 bd
       -0.039079208 0.006776623 -0.0074214367 -0.06335276
0001f0 5e ca 8d bd 3a 1a 8b 3c ff d2 bc 3d ae 0d 57 3d
       -0.06923364 0.01698028 0.09219932 0.05250328
000200 c5 b9 17 bd 86 16 3f bd b8 82 30 3e 8b 82 28 3e
       -0.037042398 -0.04665234 0.17237365 0.16456048
000210 6b c0 8a bb 0f 95 8d bd 71 4a 22 bd 4f 86 d8 bc
       -0.004234364 -0.06913196 -0.039621774 -0.02643123
000220 ca fc b1 bc 33 81 9e 3c f6 6e 9d bd ae c8 07 be
       -0.021726985 0.019348716 -0.0768718 -0.13260147
000230 80 b3 0d 3b b5 85 bc bc ae a2 a2 3d 13 c7 32 bd
       0.0021621883 -0.023012975 0.07941185 -0.043646883
000240 23 54 43 3d 48 22 23 3e d4 e2 0f be 9a b6 a8 bd
       0.04768766 0.15931046 -0.14051372 -0.082379535
000250 22 1a 5c bd 7a 98 7b 3d e3 7a 84 bb a2 c2 a4 bd
       -0.05373586 0.06142471 -0.0040429696 -0.08044936
000260 c9 f8 b6 3d 48 14 53 bd d4 66 75 3d 72 d4 35 bd
       0.08934171 -0.051533014 0.059912518 -0.044392057
000270 f3 eb 68 3d f8 8e 47 3c f8 61 91 bd 23 d8 c3 bd
       0.056865644 0.0121800825 -0.07098764 -0.09562709
000280 3b 96 9f 3c a0 bb 0d bd 80 11 1b 3d dc f4 bb bc
       0.019480815 -0.03460276 0.037858486 -0.022943906
000290 a6 14 f3 3c 97 d3 1b bd bd dc c9 bc f1 5c 91 3d
       0.029672932 -0.038043585 -0.024641389 0.07097805
0002a0 9b c6 67 3b 26 12 e9 bc 60 fd ef 3d e7 7c 5e 3d
       0.003536618 -0.028451037 0.11718249 0.054318335
0002b0 e5 46 9b bd 89 43 30 be a8 e6 5b 3c a1 44 e9 bd
       -0.075818814 -0.17213263 0.013421692 -0.11390043
0002c0 33 86 0b 3d 5b 7e 2c 3e 0a 94 85 3e 31 64 14 3e
       0.03406353 0.16845076 0.26089507 0.14491345
0002d0 0c c8 5d bd 5d 06 0e 3c 7b 02 5d 3d b6 5a 7d 3e
       -0.054145858 0.008668509 0.053957444 0.24741635
0002e0 51 1d 00 3e 94 b0 b3 bd 2e 03 04 be 96 eb 88 3c
       0.12511183 -0.08773914 -0.12891838 0.016713899
0002f0 4f cb 7f 3c 43 c5 98 3c d6 44 5f bd 28 2c 58 bd
       0.015612437 0.01864875 -0.054509006 -0.052776486
000300 f1 a8 aa 3d 40 96 f9 3c 1c 06 f6 bb 66 75 04 3e
       0.08333004 0.030467153 -0.0075080525 0.12935409
000310 b8 00 d1 bb 62 eb 2c bc 6f b6 af bd 59 70 8e 3d
       -0.0063782595 -0.0105541665 -0.08579718 0.06955022
000320 c9 ed ec bd 9a d9 26 3d fb 81 60 3d 28 d6 2c 3d
       -0.115687914 0.040734865 0.05481146 0.042196423
000330 85 76 40 3d 54 f4 96 bd 3d 75 19 be d4 ba 6f 3d
       0.04698803 -0.07370821 -0.14986129 0.058527783
000340 82 40 3f 3c c5 ae 2f 3d df c1 bf bd f7 8b 08 be
       0.011673095 0.042891283 -0.0936315 -0.13334642
000350 e2 6f 13 bb 95 d2 0e be 45 07 07 3d 9e 63 af bd
       -0.0022497107 -0.13947518 0.032965917 -0.08563922
000360 69 ca 82 3c 0b 4b 3b 3d ff bf 74 bd 5a 06 98 3c
       0.015965657 0.045725863 -0.059753414 0.018557716
000370 b1 4f 04 bd 4b 0f 96 3d 7f 6f 35 3e 41 be a8 3e
       -0.032302562 0.07327136 0.17718314 0.32957652
000380 42 e1 06 3e 4d a3 23 bd f2 73 5a bd 09 e9 96 bd
       0.13171867 -0.039950658 -0.05333323 -0.07368667
000390 10 d8 02 3e 5f f4 08 3e 91 e4 47 3c 0c 6d 1a 3d
       0.12777734 0.1337447 0.012200491 0.03770165
0003a0 41 98 66 3e 3a 63 9e 3e 60 a7 33 3d 43 ec 8e bd
       0.22519018 0.3093508 0.043860793 -0.06978657
0003b0 e8 27 81 bc ad 47 28 3d ab af ee bc 75 9c c9 bc
       -0.0157661 0.04108398 -0.0291365 -0.024610737
0003c0 14 1a cd 3d 55 da 1e 3d 4a 59 22 3d a7 80 56 3d
       0.1001474 0.038782436 0.039635934 0.052368786
0003d0 ec 19 b0 3d 88 3d af 3c b2 a4 e3 bd 33 95 d6 bc
       0.08598694 0.021391645 -0.111153975 -0.02619419
0003e0 f2 22 2e 3c a1 36 0a bc 28 bf 13 3e 3e dc 2b 3d
       0.010628449 -0.008435876 0.14428389 0.041958086
0003f0 1f fb 50 bd 55 f7 14 3d 98 4e 94 3d d6 39 43 3c
       -0.051020738 0.036368687 0.07241553 0.011915645

ds.proj_conv1.bias f4 [8]
000000 e0 a6 ca bb ae d3 6d bd 19 a0 a1 bd 1c d0 01 3e
       -0.006184444 -0.0580632 -0.07891864 0.12677044
000010 c0 71 4f bd 18 de cf bd 53 46 f4 3b 11 a0 02 be
       -0.05064559 -0.10149783 0.0074546724 -0.12756373

ds.proj_bn1.weight f4 [8]
000000 e9 fe c8 3f e0 7c b3 3f 4d 80 af 3f 38 de ba 3f
       1.5702792 1.4022484 1.3711029 1.4599066
000010 d0 87 b7 3f 31 1a b1 3f 16 e6 b4 3f 12 64 b0 3f
       1.4338322 1.3836118 1.4132717 1.3780539

ds.proj_bn1.bias f4 [8]
000000 c8 d3 d9 3d b9 89 97 3b 77 35 27 bc 1a 35 c8 3d
       0.10636097 0.004624572 -0.010205618 0.09775753
000010 79 ef c1 3d 96 28 58 3d d4 a3 c2 3d 50 e6 03 3e
       0.09469504 0.05277308 0.09503904 0.12880826

ds.proj_bn1.running_mean f4 [8]
000000 cb b3 7f 3b 94 5b ec bd 26 02 ba 3e 22 aa 90 be
       0.0039017077 -0.11540905 0.36329764 -0.282548
000010 81 65 0b 3f f6 77 d9 3b 85 3d 08 3f 59 7f f8 be
       0.5445176 0.006636615 0.5321887 -0.4853466

ds.proj_bn1.running_var f4 [8]
000000 97 3c 1f 3f 6b 5a ed 3e c8 f3 8d 3f 17 4a 10 3f
       0.6220183 0.46358046 1.1090021 0.5636305
000010 ca bf 0b 3f a7 14 92 3f c8 c4 04 3f 9b 56 12 3f
       0.5458952 1.1412553 0.51862764 0.571634

ds.fc1_conv.weight f4 [128, 256]
000000 d4 70 46 3d 31 7f b6 bd 80 69 e0 bd 11 7e 00 be
       0.048447445 -0.089109786 -0.109576225 -0.1254809
000010 5b 24 f6 bd 65 97 95 be 3b a3 b6 3d 24 65 5b 3b
       -0.12018653 -0.29217067 0.089178525 0.0033477033
000020 ef e8 84 bc 92 aa ac bc c8 a9 bc 3b 3d 07 2a bd
       -0.016224353 -0.021077428 0.005757544 -0.04151081
000030 64 26 5f be 95 53 94 bc 03 b7 e4 3d 15 34 85 3d
       -0.21791989 -0.018106261 0.11167719 0.065040745
000040 6c 60 8a 3e 49 73 9b 3e d4 66 b4 3b b9 a9 0a 3e
       0.2702669 0.30361393 0.005505422 0.13541307
000050 67 d0 e6 3c 03 33 4b 3d 33 7c 09 be 53 9d 0c bd
       0.028175546 0.049609195 -0.13426284 -0.034329724
000060 31 6a f0 ba bb fe bb bd b3 09 fa bb 31 e8 14 bd
       -0.0018342194 -0.09179445 -0.007630551 -0.036354247
000070 46 8f 12 3d 79 aa 96 bd 61 54 3e be e4 c8 fb bc
       0.035781167 -0.07356734 -0.18586875 -0.03073544
000080 ba 18 66 bd 0c d8 d2 bd 4d aa 13 be 27 53 9d bd
       -0.056175925 -0.10295114 -0.14420433 -0.07681876
000090 f8 29 2d be fd 7c 99 bd c8 2b 35 3d ed 57 78 bd
       -0.16910541 -0.07494543 0.044231206 -0.060630728
0000a0 a0 2d 73 bc 65 73 95 3c b7 b2 c3 bb 48 4e 4b bd
       -0.014842421 0.018243501 -0.005972232 -0.0496352
0000b0 69 38 0e bd fe db f5 3c b9 00 33 3e f0 32 e4 3d
       -0.034721766 0.030012127 0.17480744 0.11142528
0000c0 b3 02 e1 3e b1 1c 97 3e 19 18 f8 3d 4f 8c 0c 3e
       0.43947372 0.29514077 0.12113971 0.13725398
0000d0 95 cb 70 bc 95 0a 0a be 0e a4 b7 bc d9 de a6 bb
       -0.014696975 -0.13480599 -0.022417095 -0.0050924835
0000e0 cf c1 80 bd e2 de e1 bd 76 75 9c 3d 8c 43 0e be
       -0.06286966 -0.1102884 0.076395914 -0.13892955
0000f0 ff 2e af bd 9e 97 b7 bd 4d 46 02 be ae 28 2c 3d
       -0.08553886 -0.089644656 -0.1272213 0.042030983
000100 52 b7 17 3e 09 08 a7 3d 52 f9 0f 3e 51 0f 11 3d
       0.14816025 0.081558295 0.14059952 0.035414997
000110 3f 43 16 bd 7a fb 0a 3e 9b b2 43 3d 6d cc 6b bd
       -0.036685225 0.13572493 0.047777753 -0.057568002
000120 d0 d9 06 bd 5e 55 a5 3c 8f ee 89 3d 59 97 cb 3d
       -0.032922566 0.020182308 0.067349546 0.09940977
000130 64 45 81 3c ee 21 8d bd be 41 7d be 74 eb c5 bd
       0.015780158 -0.06891237 -0.2473211 -0.0966405
000140 d6 ba a5 be 75 58 7c be d9 fd 5b 3d 61 b0 b7 ba
       -0.32369107 -0.24643119 0.053708885 -0.0014014357
000150 6c 66 34 bc 48 29 19 bd 5e 7f ad 3c d8 83 bd 3d
       -0.011010747 -0.037392884 0.021178897 0.09253663
000160 71 2c 97 3c e0 48 98 bd d2 8b bb 3d 1f 94 f8 3d
       0.018453809 -0.07435775 0.09157528 0.12137627
000170 c8 ce 08 3d 6f 18 4c bd 05 d0 a8 bb 10 a7 df 3d
       0.033400327 -0.04982799 -0.005151751 0.109205365
000180 31 fb 4a 3d 58 e9 25 be cb e9 d2 3c a2 e3 21 3e
       0.04955596 -0.16202295 0.025746247 0.15809491
000190 70 58 fe 3d 92 31 41 3d ca 8e 41 3e 96 24 53 3d
       0.12419212 0.047166415 0.18902126 0.051548563
0001a0 77 e3 0c be 3c c4 33 be 8e 1f c5 bd 9d ff 54 3d
       -0.13758646 -0.17555326 -0.09625159 0.052001584
0001b0 8d a3 a4 bd cf 14 d0 bc 6f a2 ea bd d0 74 bc bd
       -0.08039007 -0.025400547 -0.11456763 -0.09201968
0001c0 4d 3a 96 be de e3 b0 be 76 90 dc be a5 6c 5f be
       -0.29341355 -0.3454885 -0.43078965 -0.21818788
0001d0 fe e9 2a be 50 e3 b3 ba cf 29 48 be 7e 11 fc bd
       -0.16690823 -0.0013724361 -0.19547199 -0.12308024
0001e0 05 0c 00 3d 85 3b 13 3c 1c 15 ad bc 8f 44 ec ba
       0.031261463 0.0089863585 -0.02112823 -0.0018025803
0001f0 39 b8 dd 3d 7c 39 a7 3d f0 3d a8 3d eb 1d d1 3d
       0.10826153 0.08165261 0.08214939 0.102107845
000200 d3 58 06 3e c1 fd 71 3e ec ff 60 3d 2e 52 e1 bd
       0.13119821 0.23631956 0.054931566 -0.11002003
000210 62 74 2f be 16 b0 30 3d 6c 98 d9 3d 6d 3d 27 3d
       -0.1713424 0.04313668 0.10624775 0.040830065
000220 fa 22 d4 3d f3 86 2f 3d 61 cf 01 3e fb 4a 32 be
       0.10358234 0.042853307 0.12676765 -0.17411415
000230 9f 5d b0 3d 03 9a d9 3d 88 9a 5e 3d f8 a1 60 bc
       0.08611607 0.106250785 0.05434659 -0.013710491
000240 d9 a5 34 bd d2 b0 23 bd 34 27 2e 3d 8f ac 3b 3e
       -0.044103477 -0.03996355 0.042517856 0.18327545
000250 fe 1f de 3d dd 7c 96 bc 74 f2 d8 3c 45 90 2c ba
       0.10845946 -0.018370086 0.026482798 -0.0006582777
000260 50 c9 8c 3a 22 3e 33 3e 43 ab 31 3e e1 22 9e bc
       0.0010741148 0.1750417 0.17350487 -0.019303741
000270 ac 48 fe 3c 09 a5 0b bd d0 90 d7 3d fa 4b e1 3d
       0.031040512 -0.034092937 0.10525668 0.110008195
000280 b5 c2 1b 3d 6d 59 81 3d 88 ef 12 3e 17 e5 27 3e
       0.038027484 0.06315885 0.14349186 0.16395985
000290 9b 30 a8 bb d5 21 1a bd ea 02 ef 3d 6d 58 91 bd
       -0.0051327473 -0.03762992 0.11670478 -0.07096944
0002a0 63 8e 8e bd 97 df 86 bc 83 08 6e 3d 21 d2 07 bb
       -0.06960752 -0.016464038 0.058113586 -0.0020724612
0002b0 b0 f2 2c 3d 54 13 70 bd d8 5a 66 be 5e 15 2c be
       0.042223632 -0.058612183 -0.22495592 -0.16805026
0002c0 df 62 90 be a7 56 9d be 88 db 18 be 95 87 65 bd
       -0.28200433 -0.30730173 -0.14927495 -0.056037504
0002d0 3f ec b0 3d c8 a0 eb 3d 4c 4d 41 3d 22 bd f9 3c
       0.0863881 0.11505276 0.047192857 0.030485693
0002e0 91 31 47 3c 55 cd a7 bd 5a e9 46 3d 4e d3 64 3c
       0.012157814 -0.08193461 0.048562385 0.013966395
0002f0 45 fa 67 3e ea a5 d8 bc 8b 66 a9 3d 00 0a be 3d
       0.22654064 -0.026446301 0.08271512 0.09279251
000300 67 83 fc 3d 86 ae 50 3e eb 21 71 3e 1f c7 45 3c
       0.123297505 0.20379075 0.23548095 0.0120714
000310 b5 a2 88 be 46 48 db ba 97 6a 1d 3e 24 49 94 bc
       -0.26686636 -0.0016729913 0.15372692 -0.018101282
000320 9c de d2 3d d2 19 43 3d 9d 3b 37 3c c3 df 6a bd
       0.102963656 0.047632046 0.0111836465 -0.057342302
000330 09 0b af 3d 0d 74 fa 3d 76 01 0f 3e 95 de 00 3d
       0.08547027 0.12229166 0.13965401 0.03146227
000340 8a ba c9 bd 77 3a 43 bd 61 24 9e bc e4 0c 0f 3e
       -0.09850033 -0.04766318 -0.019304456 0.13969761
000350 b6 c4 b7 3d c9 89 d1 3d 53 c9 06 bd 43 0c 2e bd
       0.089730665 0.102313586 -0.03290684 -0.042492162
000360 06 69 6f bd d7 5e ef 3d 91 22 0b 3e 7c 7d ad 3b
       -0.058449768 0.11688011 0.13587405 0.0052945
000370 54 05 85 3d 92 30 f5 3d 50 6a a5 39 97 e7 85 3e
       0.06495157 0.11972155 0.0003155046 0.26153252
000380 cc 0e 20 bd 53 6c 29 bd 04 91 bb bd e3 b1 23 bd
       -0.03907661 -0.04136307 -0.09158519 -0.039964568
000390 50 da 25 3c 7d c2 9c be be 8d a1 3c f9 5a f8 3c
       0.010122851 -0.30617133 0.019720908 0.030316817
0003a0 8a 2d 8f 3d f0 72 10 bd 5b 21 2d 3d bd 78 01 be
       0.06991108 -0.035265863 0.04226814 -0.12643714
0003b0 6a 2b 9a be f1 64 aa bd 5f 87 90 3d d2 46 82 bc
       -0.30111247 -0.08320034 0.0705707 -0.01590291
0003c0 81 75 0e 3e e6 ca 82 3e 4b c7 86 3d 73 1b e3 bc
       0.13912012 0.25545424 0.06580981 -0.02772305
0003d0 0a 58 a1 bc 23 91 0e bd ca 6f 9b bd 0a af 1b 3e
       -0.0196953 -0.034806382 -0.075896814 0.15203491
0003e0 17 1e 38 3e 35 e3 88 3d b4 80 24 3d 44 e8 99 bd
       0.17980228 0.06683961 0.040161803 -0.07515004
0003f0 cc 28 5f 3c 2b 5c 04 be 6f 29 81 be 70 55 bf bd
       0.013620567 -0.12925784 -0.25226924 -0.09342468

ds.fc1_conv.bias f4 [128]
000000 f6 c9 d3 bd 56 82 15 3d b0 c2 c6 3c 41 3e a8 bd
       -0.10341255 0.03650125 0.024262756 -0.08214999
000010 3f 74 da bd 24 e0 49 bc 6d 13 d6 3d e2 9b 57 3d
       -0.106667034 -0.012321506 0.10452924 0.052638896
000020 85 82 12 3e 9a 13 41 bc 39 a8 37 3c 49 fd 03 3d
       0.14307602 -0.0117844585 0.011209541 0.032223973
000030 82 67 ac bd e1 64 34 bd bb 82 a5 3d 58 08 0a 3e
       -0.0841818 -0.044041518 0.080815755 0.13479745
000040 2e 07 ae bd 51 2d ff bd 43 53 9a 3d 95 f3 3a 3c
       -0.08497463 -0.12459815 0.07535412 0.011410614
000050 b2 36 f5 3d c0 e4 b6 3d 99 43 0e 3e 22 f8 dd 3d
       0.11973323 0.08930349 0.13892974 0.10838343
000060 bc 0e 06 39 1c 0c ec bd c8 b8 72 3d 11 44 ff 3d
       0.00012784725 -0.11525747 0.059258252 0.124641545
000070 36 a0 a1 3d ea 34 c2 bd 1d fa fe 3c 61 5d cc bd
       0.07891886 -0.09482749 0.031125123 -0.09978748
000080 ee cd 0a bd b0 cd ee 3c 32 c2 1c bc 53 4b 5a 3e
       -0.033887796 0.029150814 -0.009567784 0.21317796
000090 b0 a9 47 bc c5 78 21 3b 66 0d 83 3c 8b bf a4 bc
       -0.012186453 0.0024638635 0.0159976 -0.020110866
0000a0 24 d7 96 bd 88 5c 09 be 24 aa 25 3e bc 6f 3f bb
       -0.073652536 -0.13414204 0.16178185 -0.0029210886
0000b0 73 9e f7 3d 2d 17 de bd ea 20 5a bd 35 ea 95 3b
       0.12090769 -0.10844264 -0.053254046 0.004575039
0000c0 24 14 10 be 6d 40 2b 3d c9 9f fe bd 45 4d 5b 3d
       -0.14070183 0.041809488 -0.1243282 0.053540487
0000d0 00 5a a6 bd 06 5b 2b 3d d0 5a 40 bd ba 52 49 3d
       -0.08122635 0.041834854 -0.046961606 0.04915116
0000e0 20 92 7e 3e 1a 3d 92 3c 6e 39 6d 3c 3c 85 99 3c
       0.2486043 0.017851401 0.014479024 0.018740289
0000f0 d3 d0 00 3d b2 6b dd bc 42 d9 50 3d 1f 88 80 bd
       0.03144915 -0.027028892 0.050988443 -0.06275963
000100 0b 75 23 be df 24 ed bd a9 29 bc 3d 71 ed 09 be
       -0.15962617 -0.11579298 0.091876335 -0.13469483
000110 ca 81 3c ba 06 86 42 3e db 1e f7 3d ab 73 52 3d
       -0.0007190971 0.18996438 0.12066432 0.05137984
000120 01 14 96 3d e6 4c a4 3d a8 b5 9c 3d 73 74 76 bd
       0.07328034 0.0802248 0.07651836 -0.06016965
000130 99 c4 d6 bc 0f 72 3e bd 4a 72 e3 bd eb aa 9e 3d
       -0.026216792 -0.046495494 -0.11105783 0.07747444
000140 2e 82 a6 3c db 98 8c bd b1 2e 9a ba fa 16 01 3d
       0.020325746 -0.06865092 -0.0011763183 0.031516053
000150 a9 47 23 3e 04 f1 d0 bd d1 2e d2 bd 08 52 c1 bd
       0.15945305 -0.1020222 -0.10262836 -0.09439474
000160 cb 44 02 be 2f 0b fd bc 76 eb 82 bc ab 6c 02 3e
       -0.12721555 -0.030889122 -0.015981417 0.12736766
000170 cf 21 07 be e8 82 78 3d 29 ea e3 bd 76 66 27 bd
       -0.1319649 0.060671717 -0.11128647 -0.0408692
000180 38 0d a5 3c c3 9d 19 be 34 04 50 3d f1 0a fe 3d
       0.020147905 -0.15001588 0.05078526 0.12404431
000190 10 bd cf 3d 4e 8d 9b bd 88 dd 16 be df 17 92 bd
       0.10143483 -0.07595311 -0.14732945 -0.07133459
0001a0 fb 88 86 3c e0 6d a3 bd d3 2a bb bd 6a 63 75 bc
       0.01642274 -0.07979941 -0.091390274 -0.014977315
0001b0 d2 d3 a3 3d f9 61 0a bd 16 6d 83 3d fc 90 5f 3c
       0.07999386 -0.03378484 0.06417291 0.013645407
0001c0 2e 9b f1 bd b9 91 bd 3d a3 25 cd bd 64 27 4d bd
       -0.11797176 0.0925631 -0.10016944 -0.050086394
0001d0 ac 67 ad 3d 6a e3 cd 3d 8b 97 af bd e5 20 db 3d
       0.084670395 0.100531414 -0.085738264 0.106996335
0001e0 5a a3 42 3d d1 2d ba bb 9c ba e9 bd a8 a7 c7 bd
       0.047519065 -0.0056817313 -0.11412546 -0.09748775
0001f0 88 1a 1e be 0b cb 6f 3d 98 5a a9 bd 49 58 66 bd
       -0.15439808 0.058543246 -0.082692325 -0.05623654

ds.fc2_conv.weight f4 [64, 128]
000000 18 85 8e 3c 94 cf a9 be a2 d3 d1 3d b7 e7 67 be
       0.017397448 -0.33166182 0.10245444 -0.22646986
000010 ce 23 67 3e 28 6a 54 be 3c 4e 93 3e b2 0b 8b 3e
       0.22572252 -0.2074362 0.28770626 0.2715736
000020 52 1b 05 3c 62 76 db bd e8 47 a4 be 60 9a be bd
       0.008124189 -0.10715939 -0.3208611 -0.093067884
000030 b2 7d c1 bd 57 b6 8c be 1d 4a 24 3d 6c 7b 1d 3e
       -0.094478026 -0.27482864 0.040109742 0.15379113
000040 f5 95 8e 3e c6 73 bb bc 73 e7 c1 bd 3f 19 00 bd
       0.27848783 -0.022882354 -0.094679736 -0.031274077
000050 09 61 10 3e 1c 3f 52 be df 94 7c be f1 07 ca 3d
       0.14099516 -0.20531887 -0.24666165 0.09864796
000060 b9 f0 ed bd 49 58 88 3d d4 b6 14 3e 27 e8 83 3e
       -0.1161818 0.06657464 0.14522868 0.25763056
000070 04 47 f5 bd 57 0d a1 3d 02 97 17 be 8d cd 60 3d
       -0.11976436 0.078638725 -0.14803699 0.05488353
000080 76 37 e7 bd e6 8d f3 3d bc 50 cd 3d 25 b8 24 3d
       -0.11289875 0.11892299 0.100251645 0.040214676
000090 e4 b7 d2 bd 97 f8 89 3d 85 ff d4 bc 49 b2 81 3e
       -0.102889806 0.06736868 -0.026000747 0.25331333
0000a0 70 23 9f 3e ad 92 6b be c9 05 81 3e f8 83 95 be
       0.31081724 -0.23005171 0.25199726 -0.29202247
0000b0 73 21 a0 bd 2c 48 8a bd 79 e0 ea bd 72 6d 8f be
       -0.0781888 -0.06752047 -0.11468596 -0.28013188
0000c0 66 5c d2 bb 9b 4c 97 be ae 1b 56 be 61 51 a7 3c
       -0.006419706 -0.29550633 -0.20908996 0.020424547
0000d0 44 ba 31 bd 0d 7a 04 3d 3d 08 20 3e f7 5c e9 3d
       -0.043390527 0.03234296 0.15628143 0.11394685
0000e0 7f b7 36 be c4 c2 6f 3e c9 db b8 bd f9 7b f0 3d
       -0.17843436 0.23414141 -0.09026296 0.11742396
0000f0 56 26 82 3e f1 eb be bb ea a2 b4 3d 4b ab 9f bb
       0.25419873 -0.0058264663 0.08820136 -0.0048727146
000100 04 c9 c1 bd fe cc c5 3d 44 d1 5e 3d 94 5e 74 3e
       -0.09462169 0.0965824 0.05439879 0.23864204
000110 57 83 98 be 26 40 08 3e 0d 3f 4b be f8 96 b1 bd
       -0.29787704 0.1330572 -0.1984827 -0.08671373
000120 62 e3 7e 3d 0a 9f 94 3e 75 02 e1 3d 2c 53 98 be
       0.062228568 0.29027587 0.10986797 -0.29750955
000130 f5 b4 37 3e fb 46 4e be d0 47 74 bd a9 60 a8 3d
       0.17940123 -0.20144264 -0.0596388 0.082215615
000140 06 ec ba be 5d f0 87 bd cd 16 fa 3d 96 31 f0 3d
       -0.36508197 -0.066376425 0.1221138 0.11728208
000150 a1 f1 12 3e 15 bf 57 bd 3a 6f 47 3c 96 4b a4 bd
       0.14349987 -0.052672464 0.012172515 -0.080222294
000160 f7 4b 7e 3e 89 eb 8b be 96 f3 87 3d dd 53 fb 3d
       0.24833666 -0.27328137 0.06638257 0.12271855
000170 ed 1b 65 bc ed 45 10 3e 99 cf 2f 3e 13 ec 39 be
       -0.013983709 0.14089175 0.17169036 -0.18156461
000180 79 a3 b0 3d ee b9 54 3e 2f f8 f5 bd 6d 58 3e 3d
       0.0862493 0.20774052 -0.12010228 0.04647105
000190 c8 9f 4e 3d 09 4d cd bd 67 87 76 be df 23 46 be
       0.050445348 -0.10024459 -0.2407509 -0.19349621
0001a0 1d 25 a3 be ef 4d ea 3d 8f 4c 61 3e 63 3b 10 3e
       -0.31864253 0.11440646 0.22001861 0.14085154
0001b0 fc 8d 89 bd e5 93 ac be 44 e6 8f bd c5 61 d1 3d
       -0.067165345 -0.33706585 -0.070263416 0.10223726
0001c0 a6 94 d4 3c 26 1b 8a 3e 84 f2 a1 3c 68 78 5c 3d
       0.025949787 0.26973838 0.01976896 0.053825766
0001d0 f0 ba 87 3e 12 a2 ae 3d ac 28 12 3b c7 6e d5 3d
       0.2650981 0.08527006 0.0022302074 0.1042152
0001e0 54 03 d2 be 25 d6 4b bd 87 8c 85 bc 1a 4a db bd
       -0.41018164 -0.04976477 -0.01630236 -0.10707493
0001f0 72 7d 1d be 7c 72 44 3d 0e 25 a6 bd 29 37 84 be
       -0.15379885 0.047960743 -0.08112536 -0.25823334
000200 c3 5d 50 3d 1c ff 9f 3d 7f d2 b5 bd f8 97 43 3e
       0.05087067 0.0781233 -0.088780396 0.1910094
000210 e8 84 5f be 7a 06 4b 3c 91 61 b7 be 27 f7 8b be
       -0.21828043 0.012391681 -0.35816625 -0.27337
000220 45 58 85 3e 59 da b2 bb 3c dd 82 3e 56 a7 6c bc
       0.26043907 -0.005458158 0.25559413 -0.014444193
000230 a5 55 26 3e 03 16 df 3e fc 67 88 3c 2f c7 ed bd
       0.16243608 0.4357148 0.016651146 -0.11610257
000240 88 87 55 bd 70 02 0b 3c 0d d4 c7 3d 58 5e 2d bd
       -0.052131206 0.008484468 0.09757242 -0.0423263
000250 70 d4 08 be 44 cc b6 bd d5 12 96 be 1f 6f ad bd
       -0.13362288 -0.08925679 -0.29311243 -0.0846846
000260 ec 7d 43 3d 72 56 47 3e e3 45 d2 bd a0 50 da bd
       0.04772751 0.1946657 -0.10267236 -0.10659909
000270 63 1a d4 3d 7e b3 0a 3e dd 94 30 3d 7a 95 ea bc
       0.10356595 0.13545033 0.043110717 -0.02863573
000280 5b 71 c2 3b 49 78 88 bd 58 fa 59 3e 41 35 5d be
       0.005933923 -0.066635676 0.21286905 -0.21602346
000290 54 08 34 3d 49 02 96 3d 41 6f 44 3e 1f 58 b7 be
       0.043953255 0.073246546 0.19183065 -0.3580942
0002a0 6b d0 c2 be 9e 2b c0 3e 10 ff 23 be ae ea 25 3d
       -0.38049635 0.37533277 -0.16015267 0.04050701
0002b0 b9 59 4a bd 2b f2 00 3e 81 87 a0 3d 59 f4 85 bc
       -0.049401972 0.1259238 0.07838345 -0.016351866
0002c0 c9 71 61 3e 37 ef 87 3e 02 be 76 3e 3d 96 a6 bc
       0.22016062 0.26549694 0.2409592 -0.020335311
0002d0 18 47 3b 3c 70 00 ac bd a7 e5 c1 bd 17 e9 6d be
       0.011430524 -0.08398521 -0.09467631 -0.23233448
0002e0 3d 86 4e bd f7 a4 4c be ec 73 1d 3d 60 cb 76 3a
       -0.05042099 -0.19984804 0.03844063 0.00094144605
0002f0 c6 e6 83 be f1 70 4a bd c2 9a 33 bd d1 9d 9e bd
       -0.25762004 -0.049424116 -0.04384876 -0.07744945
000300 0f cb 28 3e cc 71 a5 3d 22 38 96 bd f6 3f 85 bc
       0.1648371 0.08078346 -0.07334925 -0.01626585
000310 c5 49 78 3d de d4 b1 be 60 b2 85 3b 3d c9 66 bd
       0.060617227 -0.34732717 0.004080102 -0.05634426
000320 96 6c f7 bc 96 9f a7 be 7d bd 0d be f6 5e 54 3e
       -0.030203145 -0.32738942 -0.13841815 0.2073935
000330 96 76 90 bd 8a a6 10 3e f3 01 85 3e b1 64 85 bd
       -0.070538685 0.1412603 0.2597805 -0.06513346
000340 98 7b 91 3e bf bf 38 3d 25 fe 16 3d 28 cf 1c bd
       0.28414607 0.04510474 0.036863465 -0.038283497
000350 e1 81 c2 bd 9f 04 e5 3c 01 eb 5c 3d 51 b3 86 3e
       -0.09497429 0.027956305 0.053935055 0.26308683
000360 2b 79 6c 3c e8 ca b9 3d 00 bf be 3d 83 bd a9 bd
       0.014433186 0.090719044 0.09313774 -0.082880996
000370 61 89 a0 3e e1 ce 32 bd f3 28 05 3d 23 38 24 3e
       0.31354812 -0.043654326 0.032509755 0.1603704
000380 d2 96 b5 bd 9e 7b a4 bd 5c 5d dc 3d 91 35 4a 3d
       -0.08866657 -0.080313906 0.107599944 0.04936749
000390 50 a0 a7 bd e4 a5 1d 3e 47 e4 c7 3e 9d 02 b2 3e
       -0.08184874 0.15395314 0.3904135 0.3476762
0003a0 f8 eb c0 3c ca 20 ef bc e3 32 03 be ab ab 50 be
       0.023550019 -0.02919044 -0.1281238 -0.20377986
0003b0 e8 01 1a 3b 15 74 9c 3d 96 44 a9 3d 0d 91 74 bd
       0.0023499671 0.076393284 0.08265035 -0.059708644
0003c0 ca 73 18 bd 88 1a 57 be 7b 04 84 3d f0 8a 02 3e
       -0.0372198 -0.21006215 0.06446167 0.12748313
0003d0 14 cb 14 be 7d 8c 84 3d f1 de 9c 3d 95 86 95 bd
       -0.14530593 0.064721085 0.0765971 -0.0730106
0003e0 db c4 16 3f be 26 6c 3b 30 e4 88 3e 5d 39 96 3e
       0.5889413 0.0036033834 0.26736593 0.2934064
0003f0 60 3b 9e 3e d1 aa e4 bc 58 11 7a bd 75 f4 0d 3e
       0.30904675 -0.027913483 -0.061051697 0.13862784

ds.fc2_conv.bias f4 [64]
000000 ba 1a 4e 3d c9 b3 61 bd b5 d6 1e 3e 9a d9 2d 3d
       0.050318457 -0.055103097 0.15511592 0.04244385
000010 81 9b a4 bc 93 74 59 3d 81 d9 00 3e 63 f7 64 bd
       -0.020093681 0.05308969 0.12582971 -0.05589999
000020 fb dc 38 3e a8 6d 18 3e f3 18 ee 3d 78 c7 86 bd
       0.18053047 0.1488558 0.116258524 -0.065810144
000030 14 42 84 3c 1a 84 5e bb a4 0e 38 3e 9e 92 d9 bc
       0.01614479 -0.003395325 0.17974335 -0.02655917
000040 1c 68 8c 3d 89 ea 27 3d 2d 0d 6e 3d 1b b9 f3 3c
       0.06855795 0.040995155 0.058118034 0.029751351
000050 9c 6b 4a bd d2 36 b2 3c 58 12 69 bd bc 91 a9 3a
       -0.04941903 0.021754656 -0.05690226 0.0012937109
000060 91 b3 4b 3d be 76 94 bb 90 26 2b bd e5 a2 11 3e
       0.049731795 -0.0045307567 -0.041784823 0.14222296
000070 78 15 b1 bd 1f 27 d4 3b 41 0b 56 3d f2 3c 04 3e
       -0.08646673 0.00647439 0.052256826 0.12913874
000080 28 d3 81 3d f5 20 c1 3b ad cf f7 3d 6f 17 78 bd
       0.06339103 0.0058938214 0.12100158 -0.060569223
000090 15 d1 38 3c d1 bb 15 3d b3 57 94 3b 63 b3 34 3e
       0.011280318 0.03655607 0.004527056 0.17646556
0000a0 04 bd 37 3e 87 a9 de 3d 64 3d 9b bd f6 5e 67 3d
       0.17943197 0.108721785 -0.07580069 0.056487046
0000b0 32 6a 1a 3e dd b8 ea bc 99 3f 51 bb 93 f9 da 3d
       0.15079573 -0.028652603 -0.0031928776 0.10692134
0000c0 12 7f 6a 3c 6f 50 8f 3d 58 10 b7 bc 8d f5 8a bd
       0.0143125225 0.06997763 -0.02234666 -0.06785116
0000d0 0f 82 14 bd e6 3b 6b 3d 72 a5 51 bd e7 64 8e bc
       -0.036256846 0.05743017 -0.05118317 -0.017382098
0000e0 ae 36 30 3e 9f fd 72 bd 86 f2 37 3d 9c c6 5e bd
       0.17208359 -0.059323903 0.044909023 -0.054388627
0000f0 38 5f 52 3d 9d c6 80 bd d3 a4 e3 bb e7 02 ce 3d
       0.05136034 -0.062878825 -0.006947139 0.10059147

head.weight f4 [15, 64]
000000 e8 78 fd 3c d4 89 69 be 7b 25 7d 3d 4a 6a 61 bc
       0.030941442 -0.22806484 0.061803322 -0.013758251
000010 d1 59 02 3e 14 bf c2 3e 9a 3c 4c bf b8 ee 76 3d
       0.12729575 0.38036406 -0.7977997 0.060286254
000020 18 c6 cb 3d 61 0f bc 3d 1a 61 8c 3d 5f 85 6d be
       0.09949893 0.09182621 0.06854458 -0.23195408
000030 c6 5f 12 bf 18 52 65 be a2 29 8e 3d fa 47 7d 3e
       -0.5717739 -0.22394598 0.069415346 0.24734488
000040 96 e5 97 be ae 04 37 3e 6c 85 8d 3e 4b 1a 80 be
       -0.29667348 0.17872879 0.27640855 -0.2502006
000050 27 a7 ac be a4 9f 8a be bc 54 af 3d 85 8e c7 be
       -0.33721277 -0.2707492 0.08561084 -0.3897592
000060 b0 20 35 3e e3 00 dd be d6 0d 09 bf 74 28 47 bf
       0.1768825 -0.4316474 -0.53536737 -0.777961
000070 06 53 f1 be 4b be 04 bf 35 c4 21 be e4 dc 80 3e
       -0.47133654 -0.51852864 -0.15797503 0.25168526
000080 41 52 f0 be f6 21 01 bf 30 8c b4 3e ed 19 f5 be
       -0.46937755 -0.50442445 0.35263205 -0.47871342
000090 7f 66 8f be 8d ab 93 be 94 4e 73 be 47 02 12 bf
       -0.28007886 -0.2884182 -0.23760444 -0.57034725
0000a0 fa bf f3 3d 4e 18 bf 3d 47 e9 02 bf 75 2f 87 bf
       0.11901851 0.093308076 -0.511372 -1.0561358
0000b0 17 59 c9 3d 12 f0 36 bd 6e b6 38 3e e3 d0 11 3e
       0.09831446 -0.044662543 0.18038341 0.1423984
0000c0 8e bd bb 3e a6 40 4c 3e 47 fa ab be 3a 96 88 be
       0.36668056 0.19946536 -0.33589384 -0.26677114
0000d0 d6 87 80 be ae c6 3f bd fd 0a 4c bf c1 dd ff be
       -0.25103635 -0.046820335 -0.79704267 -0.49973872
0000e0 46 33 a5 3d 67 91 3a be 62 7a 67 3d 31 58 27 3e
       0.0806642 -0.18219529 0.056513198 0.16342236
0000f0 ac a3 99 be 47 33 a3 be b1 d5 9b 3e 45 30 8c 3d
       -0.30007684 -0.3187506 0.3043647 0.06845144
000100 a0 3a 2f bf 01 f4 2b 3e 64 eb ae be 86 cb 06 3e
       -0.6844883 0.16792299 -0.34163964 0.13163576
000110 a6 c1 b1 3e e6 66 cb 3e 86 b8 05 3e 10 3d 69 be
       0.34718055 0.39726943 0.13058671 -0.227772
000120 57 8d 1e bf 87 f1 2a bf ae 7a d2 3e 2e df 63 be
       -0.6193442 -0.6677479 0.41109222 -0.22253105
000130 06 de ad 3d b0 80 8a 3e d0 e6 35 bf 47 81 10 bf
       0.08489613 0.27051306 -0.71055317 -0.5644726
000140 27 31 ee be 5f f3 a7 be 7e cf 26 3e a6 7d 45 3e
       -0.46521875 -0.32802865 0.1629009 0.19286212
000150 0f b8 ed 3d db 7f d8 be 58 3b 2f bf 39 1d af be
       0.11607372 -0.42285046 -0.68449926 -0.34201983
000160 5d ec e5 be 44 b1 41 be 45 b7 eb 3d f8 65 0f 3e
       -0.44906893 -0.18915278 0.11509565 0.14003742
000170 2b 83 6b be 0c 02 dd be cd 71 c8 be 20 2e 2c bf
       -0.22999255 -0.43165624 -0.39149323 -0.6725788
000180 1e 88 93 be 72 63 d1 be 56 ba b1 3e 79 1f d6 3d
       -0.28814787 -0.40896183 0.34712476 0.10455222
000190 c2 ef 99 3e d5 f3 96 be fe a3 c8 be 9f 62 17 3e
       0.30065733 -0.29482904 -0.39187616 0.14783715
0001a0 78 e1 d0 3e 4f b5 35 bf 6f 88 04 bd b5 e3 e7 3d
       0.4079702 -0.7097978 -0.032356676 0.113227285
0001b0 7b f2 be 3e cc 20 66 3e f5 ac 30 bf 06 c3 ee 3e
       0.37294373 0.22473449 -0.6901391 0.46633166
0001c0 d0 49 3e bf 08 9a 04 bf 9e d9 86 be ee a0 42 bf
       -0.7433138 -0.51797533 -0.26337904 -0.7602681
0001d0 9c 2f 36 be 63 1f 25 bf c0 e8 81 be 07 81 23 be
       -0.17791599 -0.6450102 -0.25372887 -0.15967189
0001e0 3b a1 db be 6b dd 2b bf 6f 08 a2 3d b6 4f c7 be
       -0.42896447 -0.6713473 0.07911765 -0.38928002
0001f0 f4 b8 68 3e cf fe 0c 3e 02 30 c6 3d 77 92 8e 3d
       0.22726804 0.13769077 0.096771255 0.0696153
000200 5d 0d e4 be a8 f6 75 3e b0 a2 39 bf 8e b1 81 3e
       -0.44541445 0.24019873 -0.72513866 0.25330776
000210 01 9c 4c bf ff 8c 28 bf 20 d3 6a 3e 98 d8 2f be
       -0.79925543 -0.6584014 0.229321 -0.17172468
000220 2b 10 9b be 36 58 a3 be de b0 45 bf 40 ca a2 be
       -0.30285773 -0.31903237 -0.77223 -0.3179493
000230 61 eb 53 3e bf 7e 74 3e 85 28 df be 2b ea c1 be
       0.20695259 0.23876475 -0.435856 -0.37873968
000240 73 13 2b bf f4 de 67 be 7e 30 bd 3e 54 c9 65 3e
       -0.6682655 -0.22643644 0.3695106 0.22440082
000250 df 21 4c 3e 25 7c 1e bf fd 06 c3 3d da c9 b6 be
       0.19934796 -0.6190818 0.09522817 -0.35700876
000260 e4 ec 8c be d7 ec 7b be e3 27 28 3e e7 d5 73 3e
       -0.27524483 -0.24602066 0.16421466 0.23812066
000270 e9 b9 94 3e 1e e8 1b bf 65 d6 15 bf 64 c2 13 bf
       0.29048088 -0.6090106 -0.58530265 -0.5771849
000280 38 d1 aa be e3 48 04 bf 84 a6 49 bf a6 64 28 3e
       -0.33362746 -0.51673716 -0.7876971 0.16444644
000290 a6 3c 93 3e 1e 87 69 be 1a 8a 06 bf 24 62 7c 3e
       0.2875721 -0.2280545 -0.52554476 0.24646813
0002a0 9c 1f 40 bf 3f 74 ce be 1a 66 91 3e 28 ad 55 3e
       -0.7504823 -0.40323064 0.2839821 0.20866835
0002b0 31 4a 33 bf 8a 53 86 3e d3 a4 dc bc ef 56 01 bf
       -0.7003508 0.2623561 -0.026934063 -0.50523275
0002c0 f3 ed f7 be a3 b7 a0 be b0 eb ec be a3 6d 6e 3e
       -0.48423728 -0.31390104 -0.46273565 0.2328401
0002d0 cd 10 a2 be 69 e3 cf be 0c bb 94 be f9 8b 9a be
       -0.31653443 -0.40603188 -0.29048955 -0.30184916
0002e0 11 a6 8a bf 2a c0 fe 3e 2d 0f be 3e 58 fb 8f be
       -1.083193 0.49755985 0.37120953 -0.28121448
0002f0 30 a3 6f 3e 88 ac 53 3e 34 53 bb 3e f8 d4 6d 3e
       0.23402095 0.20671284 0.36586916 0.23225772
000300 b3 70 5f be 4c eb 17 3e db eb 05 bf 3e 15 b0 be
       -0.21820335 0.14835852 -0.5231301 -0.34391207
000310 f2 82 8b be 4f e9 90 be b8 2d 08 bf f7 51 bf be
       -0.2724834 -0.28303 -0.5319476 -0.37367222
000320 44 64 b1 be b4 22 2f be 04 9a 98 be e8 52 67 3e
       -0.3464681 -0.17103082 -0.29805005 0.2259022
000330 14 94 de 3e ae 9a 2a 3e b2 ee 02 bf e5 11 b5 be
       0.4347235 0.16660568 -0.5114547 -0.35365215
000340 6d 97 4a 3e 14 76 da be 22 14 a4 be f5 9c f5 3d
       0.19784327 -0.4266821 -0.3204661 0.11992828
000350 2f 44 2f 3e f5 1a 7a 3e 88 c6 dd 3e eb b8 66 3e
       0.17115854 0.24424346 0.4331553 0.22531478
000360 ba 91 e9 be 55 97 6d 3e 9c 0e 17 3e f0 bf 3e bf
       -0.45618993 0.2320226 0.14751667 -0.74511623
000370 39 b1 98 3d d7 fa 38 3e 1a 50 5f 3e e0 97 2e bf
       0.074556775 0.18064438 0.218079 -0.6820049
000380 97 0f 1f bf 60 81 24 3e c7 32 a0 be b7 d9 ef 3d
       -0.62133163 0.16064978 -0.3128874 0.11711448
000390 61 21 0d bf e4 15 ca be 00 c3 33 3e 7b 3a 27 bf
       -0.5512906 -0.39469826 0.17554855 -0.6532361
0003a0 22 c5 b1 be c0 f6 64 be 26 d1 48 3e b7 8b e1 3e
       -0.34720713 -0.22359753 0.19611034 0.44051906
0003b0 a8 7a 9b be 5e 12 4c bf 3c c4 47 3e c6 5a 83 be
       -0.30367017 -0.79715526 0.19508451 -0.25655192
0003c0 c7 98 10 bf 74 28 e2 be ba 9f 22 3e 75 e1 59 3e
       -0.5648312 -0.44171488 0.15881243 0.21277411
0003d0 0b 3a 65 3e bd ff b8 be 85 1f 80 3e bc 61 1e bf
       0.22385423 -0.36132613 0.25024047 -0.6186788
0003e0 22 aa 34 bf 8f 21 30 3e ff 1e 9f be 92 2d 1a bf
       -0.705721 0.17200302 -0.31078336 -0.60225785
0003f0 d4 02 a8 3d 1b 0c 24 3e b6 3c a9 be a5 34 fb be
       0.082036644 0.16020243 -0.3305413 -0.49063602

head.bias f4 [15]
000000 78 ba 52 bd 07 c4 93 bc a3 70 66 3d ad 6b c9 bc
       -0.05144736 -0.018037809 0.056259762 -0.024587477
000010 66 67 a6 bd c3 ee 1b 3d d5 2e fc bb 82 32 be 3d
       -0.081251904 0.038069498 -0.0076960125 0.09286977
000020 e3 d4 17 bd 18 18 8f 3c 7c 7f 81 3d 4c 2c 35 3d
       -0.03706826 0.017467543 0.06323144 0.044231698
000030 dc 35 d7 bd cc 18 ff 3c 30 65 00 be
       -0.1050832 0.031139754 -0.125386
