surrogate/trained_model/BCRNet_S/model_rate8_fold1.pth (torch, 14313 bytes, 14 tensors)

ds.proj_conv.weight f4 [8, 2, 7]
0	0xbdc1eed8	-0.09469384
1	0xbd88c72b	-0.06678613
2	0xbd132378	-0.035922498
3	0x3d3aa672	0.04556889
4	0x3e0c404f	0.13696407
5	0x3e47f950	0.19528699
6	0x3e3ca99a	0.18424073
7	0x3b9e47a2	0.0048303166
8	0x3de464df	0.11152052
9	0x3d802d71	0.06258667
10	0x3e098d20	0.13432741
11	0x3df98322	0.12183215
12	0x3d893395	0.066992916
13	0x3dde09be	0.10841702
14	0xbd96cf1c	-0.07363722
15	0xbe883f78	-0.26610923
16	0xbea4ccc5	-0.32187477
17	0xbe244e05	-0.16045387
18	0xbe284af2	-0.1643484
19	0xbe64917d	-0.22321124
20	0xbe49c819	-0.19705237
21	0xbd59f8d2	-0.05321581
22	0x3d10c7bb	0.035346728
23	0x3d47065e	0.048590057
24	0x3dafef21	0.08590532
25	0x3d1c6804	0.038185135
26	0x3d1325bb	0.035924654
27	0x3daea428	0.08527404
28	0x3e0542c8	0.13013756
29	0xbd308b32	-0.043101497
30	0x3d2320d3	0.039826225
31	0x3d7f6a6e	0.06235736
32	0x3e17b019	0.1481327
33	0x3d952d1f	0.07283997
34	0x3c9e7b08	0.019345775
35	0xbbdb77e3	-0.006697641
36	0x3e3dd176	0.18536934
37	0x3e57c6db	0.21071951
38	0x3e350db6	0.17681012
39	0x3dae9186	0.0852385
40	0x3d3626a2	0.044470437
41	0x3dad69a6	0.084674165
42	0xbe74cd32	-0.23906401
43	0xbe642cf4	-0.22282773
44	0xbdd51b55	-0.10405604
45	0x3d190af9	0.03736398
46	0xbc1cb675	-0.0095649855
47	0xbe1dfbad	-0.15428038
48	0xbe00cafe	-0.12577435
49	0x3c94f6b0	0.018184036
50	0x3d831b75	0.064017214
51	0x3dbb6174	0.09149447
52	0x3de2223f	0.11041688
53	0x3dffc991	0.124896176
54	0x3d28cc86	0.041210674
55	0x3d18468c	0.037176654
56	0x3b87d0c3	0.0041447594
57	0x3ddd2a10	0.107990384
58	0x3dfaa8c4	0.12239221
59	0x3e4d12bc	0.20026678
60	0x3e126bf6	0.14298996
61	0x3e0a3737	0.13497625
62	0x3da94730	0.08265531
63	0xbd59a740	-0.053138018
64	0xbd62180f	-0.055198725
65	0xbdc139f3	-0.09434881
66	0xbdc3ec31	-0.09566534
67	0xbc0922ef	-0.008370145
68	0xbcbd3c5e	-0.023100074
69	0xbb8be05f	-0.0042686905
70	0x3e0ac1f0	0.13550544
71	0x3d85d22b	0.06534227
72	0x3da0859c	0.07837984
73	0x3db24eb1	0.087064154
74	0x3e0cc6ad	0.13747664
75	0x3c8ccd4c	0.017187737
76	0xbca50418	-0.020143554
77	0x3e059ecc	0.13048857
78	0x3e32eb26	0.17472515
79	0x3e3efa01	0.18650056
80	0x3e05e514	0.13075668
81	0x3df3ff38	0.119139135
82	0xbcf384b1	-0.029726358
83	0xbd13f7e7	-0.03612509
84	0xbe111233	-0.14167099
85	0xbe393c10	-0.18089318
86	0xbe391a56	-0.18076453
87	0xbe35f3b3	-0.17768745
88	0xbda33b2f	-0.07970273
89	0xbcc3c335	-0.023896793
90	0x3cdb6795	0.02678279
91	0xbcc47fa6	-0.023986649
92	0xba4daeaf	-0.0007846159
93	0x3d594284	0.05304195
94	0x3d8450c3	0.064607166
95	0xbd919978	-0.0710935
96	0xbe049bac	-0.12950009
97	0xbe173e75	-0.14769919
98	0xbd33fc34	-0.04394169
99	0xbca4a4f6	-0.02009819
100	0xbc1a2300	-0.009407759
101	0xbd156e1c	-0.03648196
102	0xbdc0330a	-0.09384735
103	0xbda39814	-0.07987991
104	0xbdb3c8d2	-0.08778538
105	0xbe22746c	-0.15864724
106	0xbe37f5f2	-0.17964914
107	0xbe4b4d22	-0.19853643
108	0xbe4a5908	-0.19760525
109	0xbe26a911	-0.16275431
110	0xbd126efa	-0.035750367
111	0x3b16a8a0	0.0022988692

ds.proj_conv.bias f4 [8]
0	0x3df2b6a5	0.11851243
1	0xbe5fb626	-0.21846828
2	0xbd7a1764	-0.061057463
3	0x3e15e97b	0.14639847
4	0x3e7a1071	0.24420334
5	0x3b90bb45	0.0044168555
6	0xbe810def	-0.25205943
7	0x3e3d4771	0.18484284

ds.proj_bn.weight f4 [8]
0	0x3fa22505	1.2667547
1	0x3fc68194	1.5508294
2	0x3f9adf68	1.2099428
3	0x3fd30036	1.6484439
4	0x3fa057e8	1.2526827
5	0x3f95e6e3	1.1711086
6	0x3fb2b0b4	1.3960176
7	0x3fc98246	1.5742881

ds.proj_bn.bias f4 [8]
0	0x3d3868d6	0.045021854
1	0x3dba5e2a	0.090999916
2	0xbe602317	-0.21888386
3	0x3d38abcc	0.045085713
4	0xbe68fd8e	-0.22752973
5	0xbe93ee9e	-0.28892988
6	0xbe24ae36	-0.16082081
7	0xbd6982fc	-0.057009682

ds.proj_bn.running_mean f4 [8]
0	0x3ed41f66	0.41430205
1	0xbf0cdd25	-0.5502494
2	0x3e9cc8f3	0.30622062
3	0x3d5f2bb0	0.054485023
4	0x3ec14285	0.37746063
5	0x3eb89343	0.36049852
6	0xbf0e0c22	-0.55487263
7	0xbe584c71	-0.2112291

ds.proj_bn.running_var f4 [8]
0	0x3d43a3b2	0.047763534
1	0x3eb4d411	0.35318044
2	0x3d822688	0.063550055
3	0x3e4afd70	0.19823241
4	0x3e1cd0d4	0.15314037
5	0x3d52ed1f	0.051495668
6	0x3d87dd69	0.066340275
7	0x3dc13179	0.09433264

ds.proj_conv1.weight f4 [4, 8, 5]
0	0x3ce823e8	0.028337434
1	0xbe117a53	-0.14206819
2	0x3dcca20c	0.099918455
3	0x3ca53b9a	0.020170022
4	0x3c3523ec	0.011055928
5	0x3e13fadb	0.14451163
6	0x3e104124	0.14087349
7	0x3dfe5ed2	0.12420429
8	0x3da17d3c	0.07885215
9	0x3d80b0cc	0.06283721
10	0xbd4223d5	-0.047397453
11	0xbb4ab8b0	-0.0030932836
12	0x3c9e439b	0.019319346
13	0xbd742bf4	-0.05961223
14	0x3d417e34	0.047239497
15	0x3d9d3f80	0.07678127
16	0x3e830cc8	0.2559569
17	0x3ddea31d	0.10870955
18	0x3a167b23	0.00057403947
19	0x3c7483fb	0.014924045
20	0x3e4018a8	0.18759406
21	0x3ccfb18e	0.02535322
22	0x3e1c5dd4	0.15270168
23	0x3e6d2db8	0.23161972
24	0x3e76edf1	0.24114205
25	0xbd71b6a8	-0.059012085
26	0xbc130d0f	-0.008975281
27	0xbc84f4b9	-0.016229974
28	0xbcd9d9a7	-0.026593043
29	0x3d2d70ce	0.042343907
30	0xbdb3606c	-0.087586254
31	0x3d7bd716	0.06148442
32	0x3d2f89d6	0.04285606
33	0x3dd36a6e	0.10323034
34	0x3d2ee84b	0.042702
35	0xbd261ba3	-0.0405537
36	0xbe637cd7	-0.22215591
37	0xbdbbbd6e	-0.0916699
38	0xbc346218	-0.0110097155
39	0x3c804df5	0.015662173
40	0xbc04dce8	-0.008109309
41	0xbd2af8f3	-0.041741323
42	0xbe28281d	-0.16421552
43	0xbda10dba	-0.07863946
44	0x3bd8280a	0.00659657
45	0x3941a66c	0.00018467911
46	0xbb8c9c56	-0.0042910976
47	0xbd0bf838	-0.034172267
48	0xbd9c21ea	-0.07623656
49	0x3c8e25cb	0.017352005
50	0x3cc85ad4	0.024457373
51	0x3d2becd0	0.04197389
52	0xbdc0a58b	-0.09406575
53	0xbe4c6161	-0.19959022
54	0xbdb258b0	-0.08708322
55	0xbc89fd7a	-0.0168445
56	0x3cb3360a	0.021876354
57	0xbced557b	-0.028971424
58	0xbdc248d2	-0.094865456
59	0x3c6dd361	0.014515729
60	0xbb52261c	-0.0032066172
61	0xbc17c109	-0.009262332
62	0xbde78025	-0.113037385
63	0xbee3c83d	-0.44488707
64	0xbdba9d20	-0.091120005
65	0x3cfedee4	0.031112142
66	0x3c30ee28	0.010798968
67	0x3d8d37bb	0.06895395
68	0xbc237aea	-0.009978035
69	0xbd940edc	-0.07229397
70	0x3d4e87cf	0.050422486
71	0x3cd2dd6b	0.025740346
72	0xbbb5a356	-0.005543153
73	0x3d343f63	0.044005763
74	0xbc2fdddd	-0.010734049
75	0xbd7734df	-0.060353156
76	0xbd5f85b0	-0.054570854
77	0x3d042338	0.03226015
78	0xbc914302	-0.017732147
79	0xbceb7e45	-0.028746733
80	0x3d080866	0.033211134
81	0x3df6f816	0.120590374
82	0x3d5e10a7	0.0542151
83	0xbc1edcc4	-0.009696189
84	0x3d14438d	0.036197234
85	0xbd3e18c4	-0.046410337
86	0xbc96eac9	-0.018422501
87	0xbdad274c	-0.08454761
88	0xbe02692e	-0.12735435
89	0x3b6f947d	0.0036557012
90	0xbc0598d8	-0.008154117
91	0x3e290ea0	0.16509485
92	0x3e2fc112	0.17163494
93	0xbbd32aa7	-0.0064442935
94	0xbc088a06	-0.008333689
95	0xbc019bf5	-0.007910718
96	0xbd615a49	-0.055017743
97	0x3d33ef3c	0.043929324
98	0xbdd40290	-0.10352051
99	0xbd9b0526	-0.07569341
100	0xbca3bd6b	-0.019987782
101	0x3d608957	0.054818477
102	0x3e344c79	0.17607297
103	0x3d8579f4	0.06517401
104	0x3ced0679	0.02893375
105	0xbc86c5b3	-0.016451692
106	0x3dc1da01	0.09465409
107	0x3e4c2448	0.19935715
108	0x3dc78d8f	0.09743797
109	0xbd1c8120	-0.03820908
110	0x3c8b76bd	0.017024392
111	0xbdb08908	-0.08619887
112	0xbe8093c5	-0.2511274
113	0xbe2329b9	-0.15933885
114	0xbd4cf747	-0.05004051
115	0xbd5a717e	-0.05333089
116	0x3d4420e8	0.047882944
117	0x3e506bfb	0.20353691
118	0x3e52ddef	0.20592473
119	0x3dc1b3c7	0.09458118
120	0xbce2c300	-0.027680874
121	0x3bbc6934	0.005749846
122	0x3c8eb4cf	0.0174202
123	0xbc88d56d	-0.016703332
124	0x3e22129a	0.15827408
125	0x3db3ca8e	0.087788686
126	0x3e2bd2db	0.16779654
127	0x3e0e5d0a	0.13902679
128	0xbce30e55	-0.027716795
129	0x3d0e4ea7	0.034742977
130	0xbd32b607	-0.043630626
131	0xbc149f9d	-0.009071258
132	0x3c96a192	0.01838759
133	0xbdc0a700	-0.09406853
134	0x3c3db1dd	0.01157805
135	0xbca0c8d0	-0.019627005
136	0x3d15731b	0.036486726
137	0x3ecdb36d	0.40175954
138	0x3ddc7e0c	0.10766229
139	0xbdcb4564	-0.099253446
140	0xbd280553	-0.041020703
141	0xbd8434e5	-0.06455401
142	0x3d456425	0.04819121
143	0xbe1760b6	-0.14782986
144	0x3dc2b812	0.09507765
145	0xbdc6c98a	-0.09706409
146	0xbd89a618	-0.06721133
147	0x3b686be0	0.003546469
148	0xbd298372	-0.04138512
149	0x3cf89976	0.030346613
150	0x3bde841d	0.0067906515
151	0xbbb0b671	-0.0053928425
152	0xbc8b7feb	-0.01702877
153	0x3dbad20a	0.09122093
154	0x3e2da581	0.16957666
155	0x3dfeeff8	0.12448114
156	0xbe15ab79	-0.14616193
157	0xbe6b69c3	-0.22989564
158	0xbdd3f334	-0.10349122
159	0x3d3363c9	0.043796334

ds.proj_conv1.bias f4 [4]
0	0xbe0a3136	-0.13495335
1	0x3e2547d8	0.16140687
2	0xbe0d0d74	-0.13774663
3	0x3d114277	0.035463776

ds.proj_bn1.weight f4 [4]
0	0x402b640f	2.677982
1	0x4019ada8	2.4012241
2	0x4020d315	2.5128834
3	0x400fc2a0	2.246254

ds.proj_bn1.bias f4 [4]
0	0x3f1365ab	0.5757701
1	0x3f2875a4	0.65804505
2	0x3f53c8f7	0.82728523
3	0x3effc1e8	0.49952626

ds.proj_bn1.running_mean f4 [4]
0	0x3ec9d85a	0.39422876
1	0xbe715614	-0.23567992
2	0xbd0f1da0	-0.034940362
3	0x3e91234f	0.2834725

ds.proj_bn1.running_var f4 [4]
0	0x3e36e14c	0.17859381
1	0x3dbcd25b	0.092198096
2	0x3e064ae0	0.131145
3	0x3e6aa0be	0.22912881

head.weight f4 [15, 128]
0	0xbd90fc70	-0.07079399
1	0xbe222a5a	-0.15836468
2	0x3cd3825a	0.025818992
3	0xbe7bea6c	-0.24601144
4	0xbd722fe2	-0.059127696
5	0xbd91acfe	-0.07113074
6	0xbe133760	-0.14376593
7	0xbf58af9f	-0.84642977
8	0xbf29443d	-0.6611975
9	0xbf0e2244	-0.55521035
10	0xbf68ccf1	-0.90937716
11	0xbedfa3ee	-0.43679756
12	0x3c01ace1	0.007914753
13	0x3f0d2df6	0.55148256
14	0x3d32d3fa	0.043659188
15	0xbeb29b78	-0.34884238
16	0xbf33fb22	-0.70305073
17	0xbdd369a2	-0.10322882
18	0xbeb8ef3b	-0.36120018
19	0x3e11c5e5	0.14235647
20	0x3ea4ab9a	0.32162172
21	0xbe2d6d79	-0.16936292
22	0xbe929ee3	-0.28636846
23	0xbed13f55	-0.4086863
24	0xbed64203	-0.41847238
25	0xbe48444d	-0.19557305
26	0xbedfc0d5	-0.43701807
27	0xbea2fe14	-0.3183447
28	0x3b3ab5bb	0.0028489667
29	0xbed812a3	-0.4220172
30	0xbfab3734	-1.3376222
31	0xbe7ca44e	-0.24672052
32	0xbdc488a5	-0.095963754
33	0xbae14af4	-0.0017188475
34	0x3cb9252b	0.02260073
35	0xbdcb2b8f	-0.099204175
36	0x3e0623b6	0.1309956
37	0xbd3f91dd	-0.046769965
38	0xbddfb04d	-0.109222986
39	0x3deffe9f	0.11718487
40	0x3ec7f91a	0.39057237
41	0x3eb36242	0.35035902
42	0x3ef10521	0.47074226
43	0x3e87f0fa	0.26551038
44	0xbf3cc7c2	-0.73742306
45	0xbebfa388	-0.37429452
46	0x3e673284	0.22577864
47	0x3ed9c2b8	0.4253137
48	0x3e13d7fb	0.14437859
49	0x3ecf3198	0.40467525
50	0x3e204809	0.15652479
51	0xbed763fc	-0.4206847
52	0x3e4e7d0d	0.2016489
53	0x3d1a5d44	0.0376866
54	0x3ee57e6e	0.4482302
55	0x3e9ceb2d	0.30648175
56	0x3e5ac8f5	0.21365722
57	0x3ce6cba1	0.02817327
58	0x3cdb764d	0.026789809
59	0x3d979875	0.07402126
60	0x3dde4fc0	0.10855055
61	0xbe14a8db	-0.14517538
62	0x3d6871a4	0.056749
63	0x3e6c56a8	0.23079932
64	0xbe789a50	-0.24277616
65	0xbe9e97e8	-0.3097527
66	0xbd3d5cbf	-0.046231028
67	0x3e21075f	0.15725468
68	0x3e8ad4f8	0.27115607
69	0x3e859a0c	0.2609409
70	0x3de477f3	0.11155691
71	0x3dbf8efe	0.093534455
72	0x3b09a328	0.002100179
73	0xbe4a33d8	-0.1974634
74	0xbe2815d7	-0.16414581
75	0xbe883589	-0.26603344
76	0xbef23434	-0.47305453
77	0xbeeb3969	-0.45942238
78	0xbf39035b	-0.72270745
79	0xbf2139e6	-0.6297897
80	0xbf4bf2a9	-0.79667145
81	0xbe3d011e	-0.18457457
82	0xbf37dbbe	-0.71819675
83	0xbe8f8543	-0.28031358
84	0x3e5cea7f	0.21573828
85	0xbc2c0fab	-0.010501782
86	0x3ccd3795	0.025050918
87	0xbe8fd96c	-0.28095567
88	0xbda9982f	-0.0828098
89	0x3e132747	0.14370452
90	0x3ed5a942	0.41730696
91	0x3ea082a9	0.31349686
92	0x3e627458	0.22114694
93	0x3e453e0a	0.19261947
94	0x3ac3f269	0.0014949563
95	0xbe9bd4a2	-0.30435663
96	0xbe8c1290	-0.27357912
97	0x3efd57f8	0.49481177
98	0xbd72473b	-0.059149962
99	0xbf4e033b	-0.8047368
100	0xbf02b0c5	-0.5105098
101	0xbeca9a03	-0.39570627
102	0xbf5d50ac	-0.8645122
103	0xbe012502	-0.12611774
104	0x3cabf644	0.020991452
105	0xbe2de05f	-0.16980122
106	0xbebca7f8	-0.368469
107	0xbe073dad	-0.13207121
108	0x3f0ad935	0.5423768
109	0x3eb760f9	0.35816172
110	0xbd96aa63	-0.073567174
111	0xbed45e02	-0.41477972
112	0xbeb0b318	-0.34511638
113	0xbea2cb66	-0.31795806
114	0xbe18dd4a	-0.14928165
115	0x3e52e004	0.20593268
116	0x3eb96300	0.36208344
117	0xbed86b3e	-0.4226932
118	0xbe365e8a	-0.17809501
119	0xbf1db263	-0.6160032
120	0xbeba09a3	-0.36335477
121	0xbfafe9f1	-1.3743268
122	0xbfa5c212	-1.294985
123	0xbf69e213	-0.91360587
124	0xbef557fd	-0.47918692
125	0xbf92407e	-1.1425931
126	0xbf7ae752	-0.98009217
127	0x3e963fd4	0.29345572
128	0x3df2e425	0.11859921
129	0x3e43e5c6	0.1913062
130	0x3e73f8e4	0.23825413
131	0x3e1ac894	0.15115577
132	0x3e47e262	0.19519952
133	0x3e1c5175	0.15265448
134	0xbe689754	-0.22713977
135	0xbeafb69f	-0.34319016
136	0xbe8cfc38	-0.27536178
137	0xbf0bf95c	-0.5467737
138	0xbf914f26	-1.1352279
139	0xbe4a7d7c	-0.19774431
140	0x3e2d07d3	0.16897516
141	0xbf25a6cb	-0.6470763
142	0xbf8cdc3c	-1.100471
143	0xbfb42a33	-1.4075378
144	0xbfc66318	-1.5498991
145	0xbf944888	-1.1584635
146	0xbf29fe38	-0.6640353
147	0xbf8880ee	-1.0664346
148	0xbe3aa387	-0.18226443
149	0x3e1c456c	0.15260857
150	0xbed1eedf	-0.41002557
151	0xbdd676b5	-0.1047186
152	0x3dc58a4a	0.09645517
153	0xbebea8e3	-0.37238225
154	0xbe58d0d9	-0.21173419
155	0xbe528e1a	-0.2056202
156	0x3b4019f4	0.0029312344
157	0x3e89e776	0.26934403
158	0x3e9b8c6a	0.30380565
159	0x3ea663a8	0.32497907
160	0xbecf46fd	-0.40483847
161	0xbf2e18b7	-0.6800646
162	0xbe535fe3	-0.20642047
163	0x3bd1a0e6	0.0063973544
164	0x3e12bf84	0.1433087
165	0x3e016ab1	0.12638356
166	0x3e83095d	0.2559308
167	0x3e1d832b	0.15382068
168	0x3c41c6e2	0.0118272025
169	0x3e00799c	0.1254639
170	0x3e94d01a	0.2906502
171	0xbcc1790b	-0.023617288
172	0x3ecf8dbf	0.4053783
173	0x3eebc496	0.4604842
174	0x3e5ce6ea	0.21572462
175	0x3f224c40	0.633976
176	0x3f20efa0	0.6286564
177	0x3e886f91	0.26647618
178	0x3ec5afaa	0.38610584
179	0x3ef1b310	0.47206926
180	0xbe33f6c7	-0.17574607
181	0x3e64c82d	0.22341986
182	0xbdee00ec	-0.116212696
183	0xbea6f6a7	-0.32610056
184	0xbef826a7	-0.4846699
185	0xbbc50745	-0.0060128295
186	0x3e992d8b	0.2991756
187	0x3e5f8c93	0.21830969
188	0xbda297cb	-0.079391085
189	0xbf45ef68	-0.7731843
190	0xbf84d47c	-1.0377345
191	0xbf7bb836	-0.9832796
192	0xbebb374d	-0.3656563
193	0xbe026139	-0.127324
194	0xbeb8e433	-0.36111602
195	0xbf32d38d	-0.6985405
196	0xbf1c0583	-0.6094591
197	0xbf1b41fe	-0.6064757
198	0xbd91e143	-0.071230434
199	0xbdee0353	-0.11621728
200	0x3db03bde	0.08605169
201	0x3e1d3f0a	0.15356079
202	0x3d36b8ef	0.04460996
203	0xbe1b67c2	-0.15176299
204	0xbf524ad0	-0.82145405
205	0xbfa2359a	-1.2672608
206	0x3e660f86	0.22466859
207	0x3ea43dde	0.3207845
208	0xbe67cdd5	-0.22637112
209	0x3e5ee5c4	0.21767336
210	0x3ecf849c	0.4053086
211	0xbf923495	-1.1422297
212	0xbf837cc0	-1.0272446
213	0x3c75e315	0.015007754
214	0x3dd25ea9	0.10271961
215	0x3e5a01de	0.21289775
216	0x3dcd1b96	0.10015027
217	0x3deea564	0.116526395
218	0x3ad6e0d3	0.0016393907
219	0xbf5f8a90	-0.87320805
220	0xbf34b73c	-0.70592093
221	0xbf08baaa	-0.53409827
222	0xbe56f6af	-0.2099254
223	0x3cba9455	0.022775808
224	0x3de3e17a	0.111269906
225	0x3e735a99	0.23765029
226	0x3e41795c	0.18893951
227	0x3e2f0e7d	0.1709537
228	0x3e60ab9b	0.21940462
229	0x3c454114	0.012039442
230	0xbe8b686e	-0.2722811
231	0xbf2faa11	-0.68618876
232	0xbf11ebd6	-0.5700048
233	0xbed05c47	-0.40695402
234	0xbf0718bd	-0.5277212
235	0x3e4aae8b	0.19793145
236	0xbe175ebd	-0.14782234
237	0xbf335b1e	-0.7006091
238	0xbf8b5e62	-1.0888178
239	0xbe82a1c2	-0.25514036
240	0xbeda1d81	-0.42600635
241	0xbeeb8052	-0.45996338
242	0xbf6b0cde	-0.9181651
243	0xbf469da6	-0.775843
244	0xbd8ed941	-0.06975032
245	0x3f07e3fd	0.5308226
246	0xbf74c786	-0.9561695
247	0xbf350efa	-0.7072598
248	0xbef2ff80	-0.47460556
249	0xbe42d4c7	-0.1902648
250	0x3e16a88b	0.14712732
251	0xbe2ca169	-0.16858448
252	0x3d8d6a62	0.069050565
253	0x3e7a765c	0.24459213
254	0x3e807472	0.2508884
255	0x3ea0a5bc	0.31376445

head.bias f4 [15]
0	0x3d2fb269	0.042894755
1	0x3c68550b	0.014180432
2	0xbc881d85	-0.016615639
3	0xbe2699fe	-0.16269681
4	0x3ba28104	0.0049592275
5	0xbd5fb2ac	-0.054613754
6	0xbcb28009	-0.021789568
7	0xbc850cc7	-0.016241444
8	0xbd171085	-0.03688099
9	0xbb85bd77	-0.004081424
10	0x3d29e66d	0.041479517
11	0xbc38272f	-0.011239811
12	0x3d6e1e72	0.058134504
13	0x3d74f8dc	0.059807643
14	0xbd0b7350	-0.034045517
