surrogate/trained_model/BCRNet_S/model_rate_ll4_fold1.pth (torch, 14431 bytes, 14 tensors)

ds.proj_conv.weight f4 [8, 2, 7]
0	0x3dfd3604	0.12363818
1	0x3e13a9dc	0.14420265
2	0x3e103fd4	0.14086848
3	0x3de9f513	0.11423697
4	0x3dd679fe	0.10472487
5	0x3d7fb6b1	0.062430087
6	0x3d2191dd	0.039445747
7	0x3df5798b	0.11986073
8	0x3e12dd11	0.14342143
9	0x3e45cc90	0.19316316
10	0x3e3c4e4c	0.18389243
11	0x3c972a74	0.01845286
12	0xbd230d72	-0.039807744
13	0xbe054c5a	-0.13017407
14	0x3d5ed91c	0.05440627
15	0x3ce59774	0.02802632
16	0x3d947f58	0.072508514
17	0x3df9cadc	0.121968955
18	0x3e144511	0.14479472
19	0x3e00f3af	0.12592958
20	0x3c82b573	0.015955662
21	0x3dd1b516	0.102396175
22	0x3df80c71	0.12111748
23	0x3e05f783	0.130827
24	0x3dad4085	0.08459572
25	0x3daaf58e	0.08347617
26	0x3d93c38a	0.072150305
27	0x3d97df9b	0.07415696
28	0xbe052e17	-0.13005863
29	0xbd908ff0	-0.07058704
30	0x3bcb2f54	0.0062007103
31	0x3e3ff05f	0.18744038
32	0x3d124f41	0.035720114
33	0x3dab31b1	0.08359087
34	0x3d27d30a	0.040972747
35	0x3d53a81f	0.051674005
36	0x3d29afd4	0.04142745
37	0x3d1a54d1	0.037678543
38	0x3cf72b79	0.030172097
39	0x3cff0497	0.031130118
40	0x3d1f3794	0.038871363
41	0x3d0109b6	0.0315034
42	0xbe6b347d	-0.22969241
43	0xbd94957e	-0.07255076
44	0x3c595f52	0.013267355
45	0x3d2d92c3	0.04237629
46	0x3cf975d7	0.030451698
47	0xbcacd5a7	-0.021097971
48	0xbce905c7	-0.028445138
49	0x3d909feb	0.07061752
50	0x3ded4e75	0.1158723
51	0x3e09424b	0.13404195
52	0x3d27077a	0.040778615
53	0x3dbca84d	0.09211788
54	0x3dee0c34	0.11623421
55	0x3de3f640	0.11130953
56	0x3d5c36f2	0.053763337
57	0x3d42133c	0.047381625
58	0x3d921bc0	0.07134199
59	0x3d92ea43	0.07173588
60	0x3de80d5a	0.113306716
61	0x3dbeec84	0.093224555
62	0x3ce34ba9	0.027746039
63	0xbe05ad51	-0.13054396
64	0xbe08d432	-0.13362196
65	0xbe46ce7b	-0.19414704
66	0xbe2b64d0	-0.16737676
67	0xbe40edbc	-0.18840688
68	0xbe11a063	-0.14221339
69	0xbd4e01b4	-0.050294593
70	0xbe1acaac	-0.15116376
71	0xbe28116a	-0.16412893
72	0xbe1f8196	-0.15576777
73	0xbd9d3b12	-0.076772824
74	0xbdd34ab7	-0.10316985
75	0xbe3ef12b	-0.18646686
76	0xbe0f51f9	-0.13996114
77	0x3c8d3668	0.017237857
78	0x3d0f8288	0.035036594
79	0x3dac65c0	0.08417845
80	0x3d319637	0.043356147
81	0x3d855da5	0.06512002
82	0x3d6bc2f8	0.057558984
83	0x3d382325	0.04495539
84	0x3e0ba82b	0.1363837
85	0x3e00fae9	0.12595715
86	0x3de89e0c	0.1135827
87	0x3d5be064	0.053680792
88	0x3df86e79	0.12130446
89	0x3e256311	0.16151072
90	0x3dc73ad3	0.09728017
91	0xbd6b7d05	-0.057492275
92	0xbd5dd237	-0.054155555
93	0xbb8e6b1a	-0.0043462636
94	0xbccece9b	-0.025245002
95	0xbd51738a	-0.051135577
96	0xbe00aceb	-0.12565963
97	0xbe1d2707	-0.15346919
98	0xbdc56e68	-0.09640199
99	0xbcb4828b	-0.022034904
100	0xbcd25b63	-0.025678342
101	0xbd9d5df3	-0.07683935
102	0xbd978261	-0.07397915
103	0xbe0a241c	-0.13490337
104	0xbd6c93a7	-0.057758
105	0x3e563553	0.20918779
106	0x3e465993	0.19370107
107	0x3d221f3e	0.039580576
108	0x3c809d43	0.015699988
109	0x3bbd89f1	0.005784266
110	0xbc228ac6	-0.0099207815
111	0xbcf75fb3	-0.030197

ds.proj_conv.bias f4 [8]
0	0x3c04d591	0.008107559
1	0xbe322427	-0.17396604
2	0x3c8f3044	0.01747907
3	0xbb471f52	-0.0030383659
4	0x3e851171	0.2598987
5	0xbd9cdfd6	-0.07659881
6	0xbdc68437	-0.09693187
7	0x3e1948c9	0.14969172

ds.proj_bn.weight f4 [8]
0	0x3fb421d1	1.407282
1	0x3fa3a504	1.2784734
2	0x3f91c6e5	1.1388823
3	0x3fd29525	1.6451765
4	0x3fe2bd54	1.7714028
5	0x3fe48ce7	1.78555
6	0x3fc7247f	1.5558013
7	0x3fd44ac7	1.658532

ds.proj_bn.bias f4 [8]
0	0xbe9806c6	-0.29692668
1	0xbe3adc9c	-0.18248218
2	0xbeea1d8d	-0.4572567
3	0xbeaf5c87	-0.3425028
4	0x3e921eae	0.28539032
5	0x3d980c5f	0.074242346
6	0xbdd0c03e	-0.10192917
7	0xbe512bd5	-0.20426877

ds.proj_bn.running_mean f4 [8]
0	0x3ebb9e8f	0.36644408
1	0x3e3bfae2	0.18357423
2	0x3e0d6144	0.13806635
3	0x3dd98708	0.10621458
4	0x3dfeb9c7	0.12437778
5	0xbe8d4e1e	-0.2759866
6	0x3c8cdd1d	0.017195279
7	0x3df587ba	0.119887784

ds.proj_bn.running_var f4 [8]
0	0x3d76454f	0.06012469
1	0x3d405fc5	0.046966333
2	0x3c55b230	0.0130429715
3	0x3dd84eb2	0.10561885
4	0x3e808d9b	0.25108036
5	0x3e4efc5c	0.20213455
6	0x3e39dd91	0.18150927
7	0x3dc4e1eb	0.09613403

ds.proj_conv1.weight f4 [4, 8, 5]
0	0xbdd2b9ae	-0.10289322
1	0xbc16ba55	-0.009199698
2	0xbca87d14	-0.020567454
3	0xbcae6ec4	-0.021293052
4	0xbc92ac85	-0.01790453
5	0x3d178013	0.036987375
6	0x3dc369e4	0.095416814
7	0x3da04303	0.078252815
8	0x3dcb4c9e	0.09926723
9	0xbc7ac034	-0.015304614
10	0xbba53167	-0.0050412896
11	0xbc91772a	-0.017757017
12	0x3dcfa266	0.10138397
13	0x3d384a63	0.044992816
14	0xbdb39ba7	-0.08769923
15	0x3d229da5	0.039701123
16	0x3e0d331c	0.13789028
17	0x3dec9b85	0.115531005
18	0x3e0a2055	0.13488896
19	0x3cebad8b	0.028769275
20	0xbccb59ca	-0.024823088
21	0x3db1e827	0.08686858
22	0x3ea95244	0.33070576
23	0x3db5bfd4	0.08874479
24	0xbd176c98	-0.036968797
25	0xbd846e63	-0.06466367
26	0x3c8e794b	0.017391821
27	0xbd2dd30d	-0.0424376
28	0xbd409649	-0.047018323
29	0xbd158580	-0.03650427
30	0xbc54b4f1	-0.012982593
31	0x3da7e290	0.0819751
32	0x3dd21d5b	0.10259505
33	0x3d4ef7b3	0.050529193
34	0xbce66cd0	-0.028128058
35	0xbd656534	-0.056004718
36	0x3c177dfb	0.009246345
37	0x3dba0ead	0.090848304
38	0x3c6a1a37	0.014288477
39	0x3c442539	0.011971765
40	0x3cd6a91b	0.026203683
41	0x3dba3388	0.0909186
42	0x3e83f910	0.25775957
43	0x3e371ed1	0.1788285
44	0x3dbd2484	0.092354804
45	0xbd238896	-0.03992518
46	0x3c8b77ee	0.01702496
47	0x3ce3adb5	0.02779279
48	0x3d0d63a0	0.034518838
49	0xbc86295d	-0.016377145
50	0x3aff9386	0.0019498921
51	0xbaea2f7d	-0.0017866936
52	0xbdf33442	-0.11875202
53	0xbc65310a	-0.013988743
54	0x3c8c8c37	0.017156703
55	0xbb808382	-0.003921927
56	0x3d1dba42	0.038507707
57	0x3e08fc16	0.13377413
58	0x3db99b47	0.0906282
59	0x3c93edb2	0.018057678
60	0xbd21d644	-0.03951098
61	0xbd80b304	-0.062841445
62	0x3dbfd7aa	0.093673065
63	0x3ccfcd11	0.025366338
64	0xbd902559	-0.070383735
65	0x3cb9c78d	0.022678161
66	0x3d9ec502	0.0775242
67	0x3e812cb9	0.25229433
68	0x3da995f4	0.082805544
69	0x3d890b6b	0.06691631
70	0x3da4cc92	0.08046831
71	0x3d9e0e06	0.077175185
72	0x3dad07d8	0.08448762
73	0x3d60759f	0.054799672
74	0x3d26fc78	0.040768117
75	0x3c4b62d8	0.012413703
76	0x3c49827f	0.012299179
77	0x3d8bf6db	0.06834193
78	0x3d8895f5	0.06669227
79	0x3d574af8	0.05256173
80	0xbe625d0f	-0.22105812
81	0xbdb1e19f	-0.08685612
82	0x3c3c6012	0.011497514
83	0x3d1518a7	0.036400463
84	0xbc9844db	-0.01858752
85	0xbe388b3c	-0.18021864
86	0xbdfe702c	-0.12423739
87	0xbde1db93	-0.110282086
88	0xbda2758e	-0.07932578
89	0xbdf4e36e	-0.11957441
90	0xbd033ddb	-0.03204141
91	0x3c6ad5ef	0.014333232
92	0x3ca7dcbf	0.020491002
93	0xbbb63ab8	-0.005561199
94	0xbd6b4051	-0.057434384
95	0xbdf0e3cc	-0.11762199
96	0xbd01d1c6	-0.031694196
97	0x3b4fa02f	0.003168117
98	0x3d71689c	0.058937654
99	0xbbd5bd2c	-0.006522795
100	0x3d8e3a4a	0.069447115
101	0x3c6fe1aa	0.014641205
102	0xbdba21ab	-0.09088453
103	0xbdb3ad75	-0.08773319
104	0xbde07e05	-0.10961536
105	0x3b8d41e7	0.0043108347
106	0x3d423fde	0.04742419
107	0x3d7d910f	0.061905917
108	0x3e1d97a8	0.15389884
109	0x3de3a46f	0.111153476
110	0xbcb62e0a	-0.02223875
111	0xbcf3dd29	-0.029768543
112	0xbd85578d	-0.065108396
113	0xbdb39028	-0.0876773
114	0xbd94ba07	-0.072620444
115	0xbe1d4ed2	-0.15362099
116	0xbd0f5295	-0.034990866
117	0xbc29cc97	-0.010363719
118	0x3ce19bbe	0.027540084
119	0x3ddb4b5e	0.107077345
120	0x3d55660b	0.05209927
121	0x3c7cf183	0.01543844
122	0x3da97dd5	0.08275954
123	0x3e16629b	0.14686053
124	0x3ddb77f0	0.10716236
125	0xbd8e12f2	-0.06937207
126	0xbdb7c607	-0.089733176
127	0xbdae5ce5	-0.08513812
128	0xbe45781b	-0.19284098
129	0xbdff216f	-0.12457549
130	0xbcf282f9	-0.029603468
131	0xbc99d67b	-0.01877903
132	0xbccc21a1	-0.02491838
133	0xbda7b4c1	-0.08188773
134	0x3d3e00fb	0.046387654
135	0xbbb0bf5d	-0.005393906
136	0x3d402680	0.046911716
137	0x3db63495	0.08896748
138	0x3db6f7c2	0.08933975
139	0x3c6f5675	0.014608015
140	0xbbfb9410	-0.0076775625
141	0xbe1d6b7f	-0.15373038
142	0xbe1a4f3d	-0.1506929
143	0xbe89e1fe	-0.2693023
144	0xbe0f8100	-0.14014053
145	0xbd05445a	-0.03253589
146	0x3d6244ec	0.05524151
147	0x3e2a7e6f	0.16649793
148	0x3dd5dfdd	0.10443089
149	0xbad15149	-0.001596966
150	0x3ba2d27d	0.00496894
151	0xbdac3624	-0.08408764
152	0x3e5de85f	0.21670674
153	0x3da3a41a	0.07990284
154	0x3e0be528	0.13661635
155	0xbdbeebbe	-0.09322308
156	0xbb924478	-0.0044637285
157	0x3dabb975	0.083849825
158	0x3e0116aa	0.12606302
159	0x3db99279	0.090611406

ds.proj_conv1.bias f4 [4]
0	0x3db7140a	0.08939369
1	0x3b795c8f	0.0038049554
2	0x3c62c2c4	0.013840381
3	0x3d2d6831	0.042335693

ds.proj_bn1.weight f4 [4]
0	0x40058324	2.0861292
1	0x4026d338	2.6066418
2	0x40090320	2.1408157
3	0x40046200	2.0684814

ds.proj_bn1.bias f4 [4]
0	0x3f6aec08	0.91766405
1	0x3ef17b97	0.47164604
2	0x3f258e6e	0.64670455
3	0x3efde93f	0.49592015

ds.proj_bn1.running_mean f4 [4]
0	0x3eee590e	0.46552318
1	0x3f0d3939	0.5516544
2	0xbe86eae8	-0.26351094
3	0xbca28b8c	-0.019841932

ds.proj_bn1.running_var f4 [4]
0	0x3da56cc0	0.08077383
1	0x3e0aef0f	0.13567756
2	0x3e5f124c	0.21784323
3	0x3e251a82	0.16123393

head.weight f4 [15, 128]
0	0xbdae60fa	-0.085145906
1	0xbc5b08c4	-0.013368789
2	0xbd8ac1f9	-0.067752786
3	0xbbd0aa97	-0.006367992
4	0x3ea6570a	0.3248828
5	0x3e886b1d	0.2664422
6	0x3de935a6	0.11387186
7	0x3e207bc9	0.1567222
8	0xbda1127d	-0.078648545
9	0xbe6af080	-0.22943306
10	0xbe32fee1	-0.17480041
11	0xbe959b8e	-0.2922024
12	0xbd5f73fb	-0.054553967
13	0xbd018bd7	-0.031627502
14	0xbee7130b	-0.45131716
15	0xbf70ee66	-0.9411377
16	0xbf94c01a	-1.1621125
17	0xbd88dc01	-0.066825874
18	0xbf51d69c	-0.8196809
19	0xbe722069	-0.23645176
20	0xbe72f012	-0.23724392
21	0xbd8b321f	-0.06796669
22	0x3dd68ed9	0.10476465
23	0xbe82a8ce	-0.25519413
24	0xbdbeafcf	-0.093108766
25	0x3def1460	0.11673808
26	0x3eaabb67	0.33346102
27	0x3e476d09	0.19475187
28	0x3e683f5b	0.22680418
29	0x3e881e58	0.2658565
30	0x3dd66698	0.10468787
31	0xbe9d08ca	-0.30670768
32	0x3cd64143	0.026154166
33	0xbefe37bb	-0.49651894
34	0xbf2a6b3b	-0.6656987
35	0xbef4d322	-0.47817332
36	0x3dfb29bf	0.12263822
37	0x3dd5bb90	0.10436165
38	0xbe84255a	-0.25809747
39	0xbf2f7aa4	-0.6854651
40	0xbf83b15e	-1.0288503
41	0xbf64f0eb	-0.8943011
42	0xbe92fd82	-0.28709036
43	0xbde1d14c	-0.11026248
44	0x3f3a3ea2	0.7275182
45	0x3f027b02	0.50968945
46	0xbd154474	-0.036442235
47	0xbf1dc2e7	-0.6162552
48	0xbed0475d	-0.40679446
49	0xbe094d65	-0.1340843
50	0x3d008bf1	0.03138346
51	0x3ed123b4	0.40847552
52	0x3e94490c	0.2896198
53	0xbe38cbe7	-0.18046533
54	0x3e1f6643	0.15566353
55	0xbf31f459	-0.6951347
56	0xbf2ae9b0	-0.6676283
57	0xbf150d54	-0.5822346
58	0xbf17d36d	-0.59306985
59	0xbe42e581	-0.19032861
60	0xbd848938	-0.06471485
61	0xbf0bb9e5	-0.5458053
62	0xbf43bed6	-0.7646307
63	0xbe7371a0	-0.23773813
64	0x3da9cbeb	0.082908474
65	0x3ce0fb76	0.027463656
66	0xbe348215	-0.17627747
67	0xbe99edc1	-0.30064204
68	0xbe718ee7	-0.23589669
69	0xbec14c45	-0.37753502
70	0xbe14a528	-0.14516127
71	0xbe729462	-0.23689416
72	0xbdc6e2a2	-0.097111955
73	0x3dde2eeb	0.10848793
74	0x3e21addb	0.15788977
75	0x3f048a58	0.51773596
76	0x3ee84bc0	0.45370293
77	0x3ddac883	0.10682776
78	0xbcf5039c	-0.029908948
79	0xbe04de5a	-0.12975445
80	0x3e1525f5	0.1456526
81	0x3eec0057	0.4609401
82	0x3e86a896	0.26300496
83	0x3ee832de	0.4535131
84	0x3e2ea929	0.17056717
85	0x3e4a3e7e	0.19750401
86	0x3c567ccb	0.013091276
87	0xbccebb11	-0.025235685
88	0xbe4c3666	-0.19942626
89	0xbedd2aae	-0.43196625
90	0xbec96c77	-0.39340565
91	0xbead5509	-0.3385394
92	0xbe7bb4e5	-0.24580725
93	0xbe8f01d0	-0.2793107
94	0xbd99c124	-0.07507542
95	0x3e629765	0.22128065
96	0x3de11cf4	0.109918505
97	0x3ec297df	0.38006493
98	0xbdc7830d	-0.09741793
99	0xbed625ec	-0.41825807
100	0xbe0bc7af	-0.13650392
101	0xbd93d94e	-0.07219182
102	0xbeb318fb	-0.34979996
103	0xbeb5c703	-0.35503396
104	0xbe864b37	-0.2622926
105	0xbf3538e9	-0.70789963
106	0xbe058571	-0.13039185
107	0x3e7913fa	0.24324027
108	0x3f47314f	0.77809614
109	0x3e98a34c	0.29812086
110	0xbd59ea1b	-0.053201776
111	0xbf111af8	-0.56681776
112	0xbe69c642	-0.22829536
113	0xbe34b8e0	-0.17648649
114	0x3eac3de3	0.33640966
115	0x3eadea52	0.33967835
116	0x3f119325	0.5686515
117	0x3c085fb2	0.008323597
118	0xbe9bdab7	-0.30440304
119	0xbe8defbc	-0.27721965
120	0xbe9a1dc1	-0.30100825
121	0xbf1f006c	-0.6211002
122	0xbee7dda6	-0.45286292
123	0xbf72a643	-0.94784945
124	0xbf89d8b4	-1.0769258
125	0xbfab9496	-1.340472
126	0xbec21e7a	-0.37913877
127	0x3e4c5763	0.1995521
128	0xbe2056a2	-0.15658048
129	0x3e002d92	0.12517384
130	0xbca403e7	-0.020021392
131	0xbeaf4ba3	-0.34237394
132	0xbe6f0084	-0.2334004
133	0xbe04b9d4	-0.12961513
134	0xbe990425	-0.29885975
135	0xbe4ae1ef	-0.1981275
136	0x399b208c	0.00029588153
137	0x3cdcad0b	0.026937982
138	0xbd1b6240	-0.037935495
139	0x3ca808bf	0.020511983
140	0xbf54082b	-0.82824963
141	0xbfaea922	-1.3645365
142	0xbe7be145	-0.24597652
143	0xbc1b1c82	-0.009467246
144	0xbf306562	-0.689047
145	0xbddcf758	-0.107893646
146	0xbe533651	-0.20626189
147	0xbf86c4af	-1.0528773
148	0xbf09f51e	-0.53889644
149	0x3d8320f7	0.06402772
150	0x3c90bdf7	0.017668707
151	0x3e0ec703	0.13943104
152	0x3de72da9	0.11288006
153	0x3e008a10	0.12552667
154	0xbd7180f2	-0.058960862
155	0xbf23d467	-0.63995975
156	0xbec2d585	-0.38053527
157	0xbe0d2a4c	-0.13785666
158	0x3e9fa73b	0.31182274
159	0x3ee9c5ee	0.4565882
160	0x3e8cb682	0.27482992
161	0x3ecc3912	0.3988729
162	0x3e93c98f	0.28864715
163	0x3e2aebd8	0.1669153
164	0x3dd6c3f2	0.10486592
165	0xbd99f33e	-0.07517098
166	0x3d3dbb03	0.046320926
167	0xbeaf1f61	-0.34203628
168	0xbe777881	-0.24167062
169	0xbecb25cf	-0.39677283
170	0xbf43bc10	-0.76458836
171	0x3d754da1	0.059888486
172	0xbe88eb99	-0.26742247
173	0xbf54eacc	-0.8317077
174	0xbf474c84	-0.7785113
175	0xbfb9d3b7	-1.4517735
176	0xbff74fd5	-1.9321238
177	0xbfc8c853	-1.5686134
178	0xbf4b2ae7	-0.7936234
179	0xbf2656a0	-0.6497593
180	0x3d05aceb	0.03263561
181	0x3e86c172	0.26319462
182	0xbee9d309	-0.4566882
183	0x3d25d3d3	0.040485214
184	0x3e8e94ea	0.27847987
185	0xbd882db3	-0.066493414
186	0xbe95bacd	-0.2924408
187	0xbe1d962c	-0.15389317
188	0x3e0eb0ce	0.13934633
189	0x3e9bd2d6	0.30434293
190	0x3ead2e5b	0.3382443
191	0x3ee179a4	0.44038117
192	0x3e49f1dd	0.1972117
193	0x3e1a086f	0.1504228
194	0x3e1bbf19	0.15209617
195	0x3e3911e5	0.18073232
196	0x3e8322c7	0.2561247
197	0x3e5d2fec	0.21600312
198	0x3d116c24	0.03550352
199	0xbc2a20fd	-0.010383842
200	0xbdbd3289	-0.092381544
201	0xbeb68249	-0.35646275
202	0x3dda0632	0.10645713
203	0x3e72e3bb	0.23719685
204	0xbc9ccdfe	-0.019141193
205	0x3cf4b4ea	0.029871423
206	0xbe8745e9	-0.26420525
207	0xbe3723e0	-0.17884779
208	0xbe3ee0b8	-0.18640411
209	0xbf030b78	-0.51189375
210	0x3c467ac5	0.0121142315
211	0x3e8a8cf4	0.27060664
212	0x3e277a8e	0.16355345
213	0xbe8bb7f8	-0.27288795
214	0xbfa3038c	-1.2735457
215	0xbf1f0fa0	-0.62133217
216	0xbbfa3f72	-0.007636958
217	0xbe46ed41	-0.19426443
218	0xbe13df34	-0.14440614
219	0x3ea042e3	0.3130103
220	0x3e528909	0.20560087
221	0x3e569d1e	0.20958373
222	0x3e66292b	0.22476642
223	0xbd81c8ca	-0.063371256
224	0x3e9f71f1	0.31141618
225	0x3ea435f9	0.32072428
226	0x3e75eb5a	0.24015561
227	0x3e38f52d	0.18062277
228	0x3e86b9fd	0.26313773
229	0xbcf66cef	-0.03008124
230	0xbe3cbbf7	-0.18431078
231	0xbf373686	-0.7156757
232	0xbf28e822	-0.65979207
233	0xbebb0fcd	-0.36535493
234	0xbf264b60	-0.64958763
235	0x3eda89c3	0.4268323
236	0xbe69c182	-0.22827724
237	0xbf27744f	-0.6541185
238	0xbf9d3f98	-1.2285032
239	0xbf0b2640	-0.5435524
240	0xbd3cfbb7	-0.04613849
241	0xbf149ad6	-0.5804876
242	0xbfbb9259	-1.4654037
243	0xbe95ead0	-0.2928071
244	0x3dc792cb	0.097447954
245	0x3e62ac30	0.22135997
246	0xbf4a2bdb	-0.7897317
247	0xbf38830f	-0.7207498
248	0xbe81e56f	-0.25370356
249	0xbde181db	-0.11011096
250	0xbd5246c3	-0.051337015
251	0x3d1f3342	0.038867243
252	0x3e4dba7e	0.20090672
253	0x3ea58e57	0.3233516
254	0x3e8f4880	0.27985
255	0x3eb2b2a2	0.3490191

head.bias f4 [15]
0	0x3e82e848	0.25567842
1	0x3e089299	0.13337173
2	0xbe2f452a	-0.17116228
3	0xbeeafb0a	-0.45894653
4	0x3e6d3d72	0.23167971
5	0xbe1f25bb	-0.15541737
6	0xbe8188c6	-0.25299662
7	0x3e717b75	0.23582251
8	0xbe90229e	-0.2815141
9	0x3ddab61d	0.106792666
10	0x3e0c453c	0.13698286
11	0x3ca51951	0.020153673
12	0xbd3fbc6e	-0.04681056
13	0x3e81c389	0.25344494
14	0xbe14c98f	-0.14530014
