surrogate/trained_model/BCRNet_S/model_rate16_fold0.pth (torch, 14331 bytes, 14 tensors)

ds.proj_conv.weight f4 [8, 2, 7]
0	0xbcd1efa8	-0.025626972
1	0xbe32cfbb	-0.17462055
2	0xbe6e389a	-0.2326378
3	0xbea77197	-0.3270385
4	0xbe96c734	-0.29448855
5	0xbea6028f	-0.32423827
6	0xbdbad477	-0.09122556
7	0xbbe417f7	-0.0069608646
8	0x3ac4a986	0.0015004135
9	0x3bc9b545	0.006155642
10	0x3b693559	0.0035584776
11	0x3d308594	0.04309614
12	0x3ccaf2a9	0.024773913
13	0x3d32da91	0.043665472
14	0x3d25a898	0.040443987
15	0x3d5ad265	0.053423304
16	0x3dd5e7b6	0.10444586
17	0x3dbeda96	0.09319036
18	0x3dc68c51	0.09694732
19	0x3e1c8f3c	0.15289015
20	0x3dd63a82	0.10460378
21	0xbd896ad8	-0.06709832
22	0xbd41d619	-0.04732332
23	0xbdbc1767	-0.09184151
24	0xbdb3e5d3	-0.0878407
25	0xbdabe5b1	-0.083934195
26	0xbd8178b3	-0.0632185
27	0xbdf93c41	-0.12169696
28	0x3a34c808	0.0006896262
29	0x3d6293fa	0.055316903
30	0x3dd10eb3	0.10207882
31	0x3dceace8	0.10091573
32	0x3dce30cf	0.10067903
33	0x3dbddc41	0.09270526
34	0x3ca96b98	0.020681188
35	0xbd4db95b	-0.050225597
36	0xbd653412	-0.05595786
37	0xbe147e9e	-0.14501426
38	0xbde9ff02	-0.11425592
39	0xbddfe8f4	-0.10933104
40	0xbd7661ad	-0.060151745
41	0xbdd50bf1	-0.10402668
42	0xbcadb66e	-0.021205153
43	0x3d1605fa	0.036626793
44	0x3d9ef209	0.07761008
45	0x3dc7df60	0.09759402
46	0x3d81399a	0.06309815
47	0x3d596d45	0.053082723
48	0x3d6c2232	0.0576498
49	0x3cd2b544	0.0257212
50	0x3c62e022	0.013847383
51	0xbe6b725c	-0.22992843
52	0xbe28ed57	-0.16496788
53	0xbe2174a8	-0.15767157
54	0xbdd4044a	-0.103523806
55	0xbe2e725c	-0.17035812
56	0xbd9cfb6a	-0.07665141
57	0xbdd3f947	-0.1035028
58	0xbdb0392f	-0.08604657
59	0xbd3feb40	-0.04685521
60	0xbd401c55	-0.04690202
61	0xbd5908ec	-0.052987024
62	0xbd43f257	-0.047838535
63	0xbc95cb28	-0.018285349
64	0xbdad78aa	-0.084702805
65	0xbe265db9	-0.1624669
66	0xbe0af44b	-0.13569753
67	0xbe439726	-0.19100627
68	0xbd3e15a0	-0.046407342
69	0xbd49f9cf	-0.0493105
70	0xbc9ccb55	-0.019139925
71	0x3cbab7d9	0.022792744
72	0x3da4a8ed	0.080400325
73	0x3cb7e0e9	0.022446113
74	0x3d0f6550	0.03500873
75	0xbd465ee0	-0.048430324
76	0xbe06ddfb	-0.13170616
77	0xbe00daea	-0.12583509
78	0xbe04cbd5	-0.12968381
79	0xbe5e498b	-0.21707742
80	0xbe25f124	-0.16205269
81	0xbde76af0	-0.112996936
82	0x3d0955dc	0.033529148
83	0x3cc9086e	0.024540152
84	0x3d7e46a8	0.0620791
85	0x3de1e042	0.11029102
86	0x3dac405c	0.08410713
87	0x3dceb604	0.100933105
88	0x3de10731	0.109877
89	0x3cf8b68b	0.03036048
90	0x3dbe00cc	0.09277496
91	0x3db7b545	0.08970121
92	0x3e4f2e0b	0.20232408
93	0x3e1db252	0.15400055
94	0x3e297721	0.1654935
95	0x3df5fb2d	0.120107986
96	0x3de46510	0.11152089
97	0x3dd513f4	0.104041964
98	0x3d5f48db	0.05451284
99	0x3e06389d	0.13107534
100	0x3d8a54c8	0.06754452
101	0x3d41cc1e	0.047313802
102	0x3dca95d4	0.09891859
103	0x3e04440e	0.12916586
104	0x3dfdbcf2	0.12389554
105	0x3ddf7f67	0.10912972
106	0x3dea8140	0.11450434
107	0x3de8a86f	0.11360251
108	0x3dbf8a92	0.09352602
109	0x3d4ad840	0.04952264
110	0x3a6a3847	0.00089347776
111	0xbd8b504b	-0.06802424

ds.proj_conv.bias f4 [8]
0	0x3ddcd20d	0.107822515
1	0x3daf37bf	0.085555546
2	0xbe8c73ac	-0.27432
3	0x3cfc0454	0.030763783
4	0xbe214867	-0.15750276
5	0xbe27aa1f	-0.1637349
6	0x3e7f72af	0.24946092
7	0xbe1d18fa	-0.15341559

ds.proj_bn.weight f4 [8]
0	0x3fcdf91b	1.6091646
1	0x3fa7c46e	1.310682
2	0x3fbafa69	1.4607669
3	0x3fdd12aa	1.7271321
4	0x3fb3bafc	1.4041438
5	0x3f920077	1.1406392
6	0x3fb351aa	1.4009297
7	0x3f89c70b	1.0763868

ds.proj_bn.bias f4 [8]
0	0xbdbd8e83	-0.092556976
1	0xbe1cce1f	-0.15313004
2	0xbd97dbdc	-0.07414982
3	0x3c837a28	0.01604946
4	0xbc9f00ca	-0.019409556
5	0xbe737342	-0.23774436
6	0xbdd2322e	-0.10263477
7	0xbed15ba6	-0.40890235

ds.proj_bn.running_mean f4 [8]
0	0xbea22f1c	-0.31676567
1	0x3ddb802b	0.107178055
2	0xbea97bbf	-0.33102223
3	0xbdd3c881	-0.103409775
4	0xbf03e1bf	-0.51516336
5	0xbec87903	-0.39154825
6	0x3f3a72a6	0.7283119
7	0x3e3629d4	0.17789394

ds.proj_bn.running_var f4 [8]
0	0x3eb86f32	0.36022335
1	0x3e36718b	0.1781675
2	0x3e1e6a3e	0.15470216
3	0x3e33f938	0.17575538
4	0x3d4ca22c	0.049959347
5	0x3da37370	0.07981002
6	0x3db36eaf	0.087613456
7	0x3d2ad7d0	0.04170972

ds.proj_conv1.weight f4 [4, 8, 5]
0	0x3d06a0e4	0.03286828
1	0xbcb0a77a	-0.021564234
2	0xbbea7fa7	-0.0071563306
3	0xbd208c45	-0.03919627
4	0x3cf902ca	0.030396838
5	0x39275977	0.0001595969
6	0xbc42a60e	-0.011880411
7	0xbd239307	-0.039935138
8	0xbe445852	-0.19174317
9	0xbdc46b05	-0.09590725
10	0xbc04b30b	-0.008099328
11	0xbb83f774	-0.0040273014
12	0xbcc1677d	-0.023608917
13	0xbde0e7e4	-0.109817296
14	0xbd482010	-0.048858702
15	0xba85baf4	-0.0010202811
16	0xbb7a00df	-0.0038147492
17	0xbc871839	-0.016491042
18	0xbdb15251	-0.08658279
19	0xbcaeeda0	-0.021353543
20	0xbc856aa2	-0.016286198
21	0xbd14f576	-0.036366902
22	0xbc6f5867	-0.014608479
23	0x3cc7d993	0.02439574
24	0x3d176b7c	0.03696774
25	0x3bcc4695	0.006234
26	0x3ced79b1	0.028988691
27	0x3b6bf2bd	0.0036002838
28	0x3c11cb6a	0.008898595
29	0xbc82232a	-0.015885908
30	0x3d4fe0c1	0.05075145
31	0x3c88fdce	0.016722586
32	0xbcbf1199	-0.02332382
33	0xbde070f0	-0.10959041
34	0xbee010f1	-0.43762925
35	0xbb4fc031	-0.0031700248
36	0x3d758ef1	0.059950773
37	0xbd1992bd	-0.037493456
38	0x3dee3926	0.11631994
39	0x3d3bd2ad	0.045855213
40	0xbdb833ed	-0.08994279
41	0xbe7ce33a	-0.24696055
42	0xbe46ec35	-0.19426043
43	0xbe1b4eed	-0.15166827
44	0x3d8cc46c	0.06873402
45	0x3c658eee	0.014011128
46	0x3d6c0386	0.057620548
47	0xbb2d0f4b	-0.002640682
48	0xbdef86b1	-0.11695612
49	0xbddc229f	-0.10748791
50	0x3bab089c	0.005219532
51	0x3e076d3e	0.13225266
52	0x3d411ec5	0.047148485
53	0xbcf532a8	-0.029931381
54	0xbd6bafb3	-0.057540607
55	0x3d7636c4	0.060110822
56	0x3e0b6f00	0.13616562
57	0x3d580da0	0.05274737
58	0xbd82e1fd	-0.0639076
59	0xbdd3f79c	-0.10349962
60	0x3e3c671a	0.18398705
61	0x3e09fb49	0.13474764
62	0x3e05025f	0.12989186
63	0x3e152731	0.14565732
64	0xbce2a89e	-0.027668294
65	0x3b231cae	0.002488892
66	0x3df0fac6	0.11766581
67	0x3cb0315c	0.021507911
68	0x3d3b6136	0.045747004
69	0xbd6629f5	-0.056192357
70	0x3dc35c62	0.09539105
71	0x3d50a458	0.05093798
72	0x3d7cdab6	0.061732017
73	0xbd139a7c	-0.036036
74	0xbc8c06ce	-0.017093088
75	0x3e090d3f	0.13383959
76	0xbca2ea26	-0.019887041
77	0x3e578eeb	0.21050613
78	0xbc86b63c	-0.016444318
79	0xba6ed27c	-0.0009110344
80	0xbc8523a8	-0.016252354
81	0xbd9cfd32	-0.07665481
82	0xbe081768	-0.13290179
83	0xbe308354	-0.17237598
84	0xbdc0ca0e	-0.09413539
85	0xbb56fb55	-0.0032803614
86	0xbd45a794	-0.048255518
87	0xbcaa8a7c	-0.020817988
88	0xbc01200e	-0.007881178
89	0x3c8c3819	0.017116593
90	0xbc3f8cc1	-0.011691273
91	0xbd70088c	-0.0586019
92	0xb9e4444a	-0.00043538428
93	0xbd206b03	-0.039164554
94	0x38f91c47	0.00011878512
95	0x3c81a006	0.015823375
96	0xbd1b73e7	-0.03795233
97	0x3d435a62	0.047693618
98	0xbd551ad7	-0.05202755
99	0x3bf1bfe5	0.007377612
100	0x3b461f7a	0.0030231164
101	0x3d0dd2e8	0.034624964
102	0x3d9d415f	0.07678484
103	0x3e7a04c3	0.24415879
104	0x3d30801f	0.043090936
105	0x3ca2c818	0.019870803
106	0xbc558190	-0.013031378
107	0xbca95d96	-0.020674508
108	0x3c8beb6d	0.017080033
109	0xbc241cc0	-0.01001662
110	0x3dfd40a4	0.12365845
111	0xbd7e99fb	-0.062158566
112	0xbe06cc3c	-0.13163847
113	0xbe028a25	-0.1274801
114	0xbe21b4a4	-0.15791565
115	0xbd388d83	-0.04505683
116	0xbe19a489	-0.15004171
117	0xbedb53b0	-0.42837286
118	0xbd271eb5	-0.04080077
119	0x3cd94ee9	0.026526885
120	0x3e0d340c	0.13789386
121	0xbe1c1029	-0.1524054
122	0xbe87acb1	-0.2649894
123	0x3c313b53	0.010817367
124	0x3d565138	0.05232355
125	0x3c23681a	0.00997355
126	0x3dad8457	0.084725074
127	0x3daeadae	0.085292205
128	0x3d0ac361	0.033877734
129	0xbce35d5b	-0.027754476
130	0xbd17ff9e	-0.03710901
131	0x3da1426e	0.078739986
132	0x3e18ab43	0.14909081
133	0x3d5f25a9	0.054479275
134	0xbc948b60	-0.018132865
135	0xbd042e19	-0.032270525
136	0x3e1149dc	0.14188331
137	0x3e7afd0e	0.24510595
138	0xbb6107b8	-0.0034336876
139	0xbd51519d	-0.051103223
140	0xbd43c68c	-0.04779677
141	0x3d25bfc7	0.040466096
142	0x3e26f176	0.16303048
143	0x3d951161	0.072787054
144	0x3c1c28d4	0.009531219
145	0xbd8713f4	-0.06595603
146	0xbad1016b	-0.0015945857
147	0x3bcb0b2b	0.0061963997
148	0x3cdd9527	0.02704866
149	0xbca12604	-0.019671448
150	0x3e4452fe	0.19172284
151	0x3dcc58f1	0.09977902
152	0x3e000c62	0.12504724
153	0x3e714eb2	0.23565176
154	0x3e22e3a0	0.15907145
155	0x3d3db83e	0.046318285
156	0xbc4d66c0	-0.012536705
157	0xbe01676d	-0.1263711
158	0xbdb5502b	-0.088531815
159	0x3d9fe5fc	0.07807538

ds.proj_conv1.bias f4 [4]
0	0xbd316303	-0.043307316
1	0x3e30991c	0.17245907
2	0x3e3f590a	0.1868631
3	0x3e6bd421	0.2303014

ds.proj_bn1.weight f4 [4]
0	0x40186131	2.380932
1	0x400cbf13	2.1991622
2	0x40251bfb	2.5798328
3	0x401685e4	2.351922

ds.proj_bn1.bias f4 [4]
0	0x3f110e9f	0.56662935
1	0x3f278cd7	0.6544928
2	0x3f414fb1	0.75512224
3	0x3f3d5f88	0.73973894

ds.proj_bn1.running_mean f4 [4]
0	0xbeb26774	-0.34844553
1	0x3e2310f3	0.15924434
2	0xbe36ba6a	-0.17844549
3	0x3f1c5f4c	0.6108291

ds.proj_bn1.running_var f4 [4]
0	0x3d80a0aa	0.06280644
1	0x3e4922a4	0.1964212
2	0x3e26c89f	0.16287468
3	0x3dd6c741	0.104872234

head.weight f4 [15, 128]
0	0x3be766a5	0.0070617967
1	0x3db66f29	0.08907921
2	0x3d8d40b0	0.06897104
3	0xbdfc97bd	-0.12333629
4	0xbe597d9b	-0.21239321
5	0xbd68ce78	-0.05683753
6	0xbe3a5278	-0.18195522
7	0x3db6c253	0.08923783
8	0x3e7ea34b	0.24866979
9	0x3e99275c	0.2991284
10	0x3e355bec	0.17710847
11	0xbe3cf70b	-0.18453614
12	0xbf16abd0	-0.58855915
13	0x3eb9aaf9	0.36263254
14	0x3e7b9c26	0.24571285
15	0x3e8f43d3	0.27981433
16	0x3d9edc4b	0.07756861
17	0x3ea0c1f7	0.31397983
18	0xbe95d730	-0.29265738
19	0xbe7c657c	-0.24648088
20	0x3e7e6e4f	0.24846767
21	0x3b67ca19	0.0035368262
22	0x3e977341	0.2958012
23	0x3eca66fe	0.39531702
24	0x3e454899	0.19265975
25	0xbe80e46a	-0.25174266
26	0xbecf0afe	-0.40438074
27	0xbe0349e2	-0.12821153
28	0xbe349e28	-0.17638457
29	0xbd4a6180	-0.04940939
30	0x3e085ae7	0.13315926
31	0xbbec91b2	-0.0072195167
32	0xbf3ed900	-0.74549866
33	0xbf088006	-0.5332035
34	0xbed94f6b	-0.42443404
35	0xbe05f5c9	-0.13082041
36	0x3e46ffba	0.1943349
37	0x3e3a7071	0.18206955
38	0x3dc1ad0c	0.09456834
39	0x3cc5b457	0.024133844
40	0xbd4a56db	-0.049399238
41	0xbe71b81b	-0.23605387
42	0xbe66e821	-0.22549488
43	0xbe4e213c	-0.20129865
44	0xbf8beb4b	-1.0931181
45	0xbf117e99	-0.568338
46	0xbf0ec8d0	-0.55775166
47	0x3e80e41d	0.25174037
48	0xbec5f431	-0.38662866
49	0xbe626d84	-0.2211209
50	0xbf76e3a9	-0.9644113
51	0xbf2758d3	-0.6536991
52	0xbea2985a	-0.3175686
53	0xbf86a247	-1.0518273
54	0x3e0d4178	0.13794506
55	0x3c38fade	0.01129028
56	0xbe45331f	-0.19257782
57	0xbd5dbac1	-0.05413318
58	0x3dc2669e	0.09492229
59	0x3e2a63c8	0.16639626
60	0x3e62ef8d	0.22161694
61	0x3e4461a4	0.19177872
62	0x3cc8e138	0.024521455
63	0xbe2f0665	-0.17092283
64	0xbdad0d2b	-0.08449777
65	0xb99d3f49	-0.00029992525
66	0x3e8e2715	0.27764192
67	0x3d82168f	0.06351959
68	0x3d17c023	0.03704847
69	0x3e525935	0.20541842
70	0x3c411382	0.011784436
71	0x3e34b65f	0.17647694
72	0x3e4cd50d	0.20003147
73	0x3e563272	0.20917681
74	0x3e82683b	0.25470147
75	0x3d82e7e6	0.06391887
76	0xbfc254e7	-1.518216
77	0xbf3c6199	-0.7358642
78	0x3ecd6c35	0.40121618
79	0x3e862e4c	0.26207197
80	0xbe5eb25c	-0.21747726
81	0x3e8fe0a1	0.28101066
82	0xbeec0ba7	-0.4610264
83	0xbf545e98	-0.8295684
84	0xbda558b2	-0.08073558
85	0x3dbbbcab	0.09166845
86	0x3bc5a5cc	0.0060317274
87	0x3e3d1f3f	0.1846895
88	0x3df349dd	0.11879323
89	0x3e3041d0	0.17212605
90	0x3dfccb67	0.123434834
91	0x3dd412b8	0.10355133
92	0x3e4eb2f3	0.20185451
93	0x3e8fa6ca	0.28056937
94	0x3e595442	0.21223548
95	0x3de3463f	0.11097383
96	0xbe95f630	-0.2928939
97	0xbec101b4	-0.37696612
98	0xbdae04d1	-0.084970124
99	0x3d3a95cb	0.04555301
100	0x3e3b3fc8	0.1828605
101	0x3e2ee3d9	0.17079104
102	0xbd98f2b8	-0.0746817
103	0xbcbb1920	-0.022839129
104	0xbe89ef80	-0.26940536
105	0xbec20e16	-0.37901372
106	0xbeb5f5c1	-0.35539058
107	0xbed4e2b9	-0.41579226
108	0xbf33a15d	-0.70168096
109	0xbf1bb4fd	-0.6082304
110	0xbf11c7f6	-0.5694574
111	0xbe4c9a57	-0.19980751
112	0xbf0d1f47	-0.5512585
113	0xbf06bb4d	-0.5262955
114	0xbf0bb264	-0.5456908
115	0xbee11517	-0.43961403
116	0xbf0f2efa	-0.55931056
117	0xbdce8601	-0.10084153
118	0xbd5e0bf3	-0.054210614
119	0xbeab9698	-0.3351333
120	0xbeabb7dd	-0.33538714
121	0xbd9eb851	-0.07749999
122	0x3e0f0a98	0.13968885
123	0x3e3ed809	0.18637098
124	0x3dd1689c	0.10225031
125	0x3e209c10	0.15684533
126	0x3c6c86b6	0.014436414
127	0xbe9dce17	-0.30821297
128	0xbf35d1b9	-0.71023136
129	0xbf11b7de	-0.56921184
130	0x3d847b0e	0.06468783
131	0x3e819538	0.25309157
132	0x3e65cf60	0.22442389
133	0x3e447f12	0.19189098
134	0x3e055bcd	0.130233
135	0xbd3b18a7	-0.045677807
136	0xbd2fbf38	-0.04290697
137	0xbe3cf46c	-0.18452615
138	0x3cedb913	0.029018914
139	0x3ea3ddb5	0.32005087
140	0x3f10c476	0.56549776
141	0x3e62473d	0.22097488
142	0xbe234c62	-0.15947106
143	0x3ecd25c0	0.40067863
144	0x3e509304	0.20368582
145	0xbe9fff00	-0.31249237
146	0x3ef2c293	0.47414073
147	0x3eb1d1b2	0.34730297
148	0xbe4f6805	-0.20254524
149	0x3e9cf89e	0.3065843
150	0xbe287b8f	-0.16453384
151	0xbdf0f156	-0.11764781
152	0xbeb04517	-0.3442771
153	0xbc4ef306	-0.0126311835
154	0x3ea9751f	0.3309717
155	0x3ddb5869	0.10710222
156	0x3c680eee	0.014163716
157	0xbf2075df	-0.62679857
158	0xbfa1696a	-1.2610295
159	0xbc0cdc19	-0.008597397
160	0xbf83b618	-1.0289946
161	0xbece0998	-0.40241694
162	0xbeb281e1	-0.34864715
163	0xbe9cd0d9	-0.30628088
164	0xbec4cdc8	-0.3843825
165	0xbf57fbf3	-0.8436882
166	0xbe8dd42e	-0.27700943
167	0xbdd572e0	-0.10422301
168	0x3d791277	0.060808625
169	0x3cdbe1ac	0.026841007
170	0x3d26c96b	0.04071943
171	0xbe489dd7	-0.19591461
172	0xbc8f0e49	-0.017462866
173	0xbf495f44	-0.7866099
174	0xbdc91a35	-0.09819452
175	0x3e945ace	0.28975528
176	0xbe6071dc	-0.21918434
177	0xbe7632e8	-0.24042857
178	0x3eacf1f2	0.3377834
179	0xbe4ce85d	-0.20010515
180	0xbfb5a1b5	-1.4189974
181	0x3e39ea23	0.18155722
182	0xbef71621	-0.4825907
183	0x3d9b6875	0.07588283
184	0x3d8d4ade	0.068990454
185	0x3c9a13b1	0.018808218
186	0x3beed3f9	0.0072884527
187	0xbece6448	-0.40310884
188	0xbf551594	-0.8323605
189	0xbf0c3076	-0.54761446
190	0xbed56e37	-0.4168565
191	0xbef160e6	-0.4714424
192	0xbf1b48f3	-0.60658187
193	0xbf48df44	-0.78465676
194	0xbeecf36b	-0.46279463
195	0xbeca8922	-0.3955775
196	0xbd90a7ee	-0.0706328
197	0x3e4e45cb	0.20143811
198	0x3b6a59f7	0.003575919
199	0x3dc27766	0.0949543
200	0xbda3ba6a	-0.0799454
201	0x3e650887	0.22366534
202	0x3ec0979a	0.37615663
203	0x3dd8af99	0.105803676
204	0x3ed950d5	0.42444482
205	0x3f1f0e66	0.62131345
206	0x3eb63b4e	0.3559212
207	0x3f1647e1	0.5870343
208	0x3f3929ef	0.7232961
209	0x3f0b219e	0.5434817
210	0x3f1b6962	0.60707676
211	0x3ee40d9e	0.4454164
212	0xbe8c11c8	-0.27357316
213	0x3bb6cfcc	0.0055789705
214	0x3f0a0a2a	0.5392176
215	0x3dff926e	0.12479101
216	0xbea1837a	-0.3154562
217	0xbbef8f33	-0.007310772
218	0x3e5d9e82	0.21642497
219	0xbd2d43dc	-0.042301044
220	0xbf0898a9	-0.5335794
221	0xbf825516	-1.0182216
222	0xbf899b1a	-1.0750458
223	0xbf8eb05b	-1.114757
224	0xbecce612	-0.4001928
225	0xbe39323d	-0.1808557
226	0xbed1bc53	-0.40963992
227	0xbece30d1	-0.4027162
228	0xbed90cca	-0.4239257
229	0xbe7965a7	-0.24355184
230	0xbe7bf4bb	-0.24605076
231	0xbd3de044	-0.046356454
232	0x3d1fac1d	0.0389825
233	0xbcf9e844	-0.03050626
234	0xbd8a0a75	-0.06740276
235	0xbee6c0a5	-0.4506885
236	0xbf2870e7	-0.65797275
237	0xbf95c362	-1.1700251
238	0x3b324904	0.0027204165
239	0x3b0d17c2	0.0021529053
240	0xbf33a4d9	-0.7017341
241	0x3d211e9b	0.03933583
242	0x3da7fece	0.08202897
243	0xbf9727a3	-1.1808971
244	0xbf4894a5	-0.78351814
245	0xbed85ed5	-0.4225985
246	0x3d37afb5	0.0448453
247	0x3cbd36ab	0.023097357
248	0x3c53b7b0	0.0129222125
249	0x3d90b0f8	0.07065004
250	0xbd8169e9	-0.06319029
251	0xbf8b6a26	-1.0891769
252	0xbf3466f1	-0.70469576
253	0xbf1806f9	-0.5938564
254	0xbed3c7e5	-0.41363445
255	0xbe8d869a	-0.27641755

head.bias f4 [15]
0	0xbd9b4f66	-0.075835034
1	0xbd1ac83a	-0.037788607
2	0x3d8d22b9	0.068913884
3	0x3e8238d8	0.25433993
4	0xbdd47426	-0.10373716
5	0xbd7042d0	-0.058657467
6	0x3cec873f	0.028873084
7	0xbdf787a7	-0.120864205
8	0x3e091ef4	0.13390714
9	0xbdf0eb94	-0.11763683
10	0xbcca6416	-0.024705928
11	0xbd496586	-0.049169086
12	0x3dd8bd23	0.1058295
13	0xbc9de9d2	-0.019276533
14	0x3d8a3d0e	0.067499265
