surrogate/trained_model/BCRNet_S/model_rate16_fold4.pth (torch, 14331 bytes, 14 tensors)

ds.proj_conv.weight f4 [8, 2, 7]
0	0xbc0731a0	-0.008251578
1	0xbcb4e1ab	-0.022080263
2	0xbe3838c9	-0.17990412
3	0xbe20982a	-0.15683046
4	0xbe79205c	-0.2432875
5	0xbe8f39fc	-0.27973926
6	0xbd746e70	-0.059675634
7	0xbc998c2e	-0.0187436
8	0x3ca7b72f	0.020473091
9	0x3c883749	0.016627925
10	0x3d4f9c69	0.050686274
11	0x3db9f298	0.09079474
12	0x3da884f8	0.08228487
13	0x3d796142	0.060883768
14	0xbd561074	-0.052261785
15	0xbd00695d	-0.031350482
16	0x3de53179	0.11191077
17	0x3dc457a9	0.09587032
18	0x3d43eb94	0.047832087
19	0xbdba32f6	-0.09091751
20	0xbe0124ab	-0.12611644
21	0x3da684bb	0.08130785
22	0x3dd70818	0.10499591
23	0x3db11d3c	0.08648154
24	0x3ddc230e	0.10748874
25	0x3db586c0	0.08863592
26	0x3dac6ca6	0.084191605
27	0x3d6d7954	0.057977036
28	0x3d85b850	0.065292954
29	0x3d98133c	0.07425544
30	0x3dcf764e	0.10129987
31	0x3dad3b13	0.08458533
32	0x3db3e42c	0.08783755
33	0x3dd3741a	0.10324879
34	0x3d70e619	0.05881319
35	0xbe18a500	-0.14906693
36	0xbd5e3fbe	-0.054260008
37	0xbd8b4c93	-0.06801715
38	0x3b61f759	0.0034479706
39	0x3d378c9e	0.044811837
40	0x3d5eab5d	0.054362644
41	0xbc3521d1	-0.011055426
42	0x3dc7fa45	0.09764532
43	0x3d9dbd0f	0.07702076
44	0x3d0b533d	0.03401493
45	0xbd4997f7	-0.04921719
46	0xbd0854cf	-0.033284005
47	0xbd265c54	-0.040615395
48	0xbd070af6	-0.032969438
49	0xbe7997bc	-0.24374288
50	0xbe60f579	-0.2196864
51	0xbdf6d59a	-0.1205246
52	0xbe31b9d0	-0.17356038
53	0xbe7adfae	-0.2449939
54	0xbe2d1b52	-0.16904953
55	0xbd75a888	-0.059975177
56	0x3a01b8f2	0.00049485185
57	0xbac2d896	-0.0014865573
58	0x3c912036	0.017715555
59	0x3b489916	0.0030608824
60	0xbd7fdc18	-0.062465757
61	0xbdf9b9cd	-0.12193642
62	0xbd839a9b	-0.06425973
63	0xbed3a4ca	-0.41336662
64	0xbe899151	-0.2686868
65	0x3d9d9cff	0.0769596
66	0x3e266f1d	0.16253324
67	0xbe0cfe08	-0.1376878
68	0xbe26386a	-0.16232458
69	0xbd853c64	-0.06505659
70	0x3d2a1567	0.041524317
71	0x3d75300a	0.059860267
72	0x3e0a5a5a	0.13511029
73	0x3dd8f222	0.10593058
74	0x3d6da303	0.05801679
75	0x3da7de7e	0.08196734
76	0x3d1dbfaf	0.03851288
77	0x3de3559c	0.11100313
78	0x3d956bea	0.072959736
79	0x3c03ef10	0.008052602
80	0xbd96605b	-0.07342597
81	0xbda5e3df	-0.081001036
82	0xbe462d54	-0.19353229
83	0xbe375501	-0.1790352
84	0x3e26433b	0.16236584
85	0x3e0cf0d0	0.13763738
86	0x3d44ef59	0.048079822
87	0x3d536ffa	0.05162046
88	0x3ddcb6fc	0.10777089
89	0x3db815e2	0.08988549
90	0x3d8e1df1	0.069393046
91	0x3ded5ba0	0.11589742
92	0x3ded0850	0.11573851
93	0x3df51b6b	0.1196812
94	0x3e0bcd2b	0.13652484
95	0x3ce9339c	0.028466992
96	0xbd17ec95	-0.037090857
97	0xbd02b53b	-0.031911116
98	0xba924abb	-0.0011161187
99	0xbcfdd7ba	-0.030986656
100	0xbd67cb80	-0.056590557
101	0xbd31c24b	-0.043398183
102	0xbd8c83d1	-0.068610795
103	0xbd6488c4	-0.055794492
104	0xbdfb9acd	-0.12285385
105	0xbc285bfc	-0.010275837
106	0xbcb15852	-0.02164856
107	0xbdc19209	-0.09451682
108	0xbe2dbb84	-0.16966063
109	0xbe4799ff	-0.19492339
110	0xbcc4eaf2	-0.024037812
111	0xbd4a5f22	-0.049407132

ds.proj_conv.bias f4 [8]
0	0x3ec13a14	0.37739623
1	0x3e0eb233	0.13935165
2	0x3de5b9c9	0.11217076
3	0xbe64f7e8	-0.22360194
4	0x3ed21f90	0.41039705
5	0xbe9c06df	-0.30473992
6	0x3d1f31eb	0.038865965
7	0xbdc80ce6	-0.09768085

ds.proj_bn.weight f4 [8]
0	0x3fdcd38e	1.7252061
1	0x3fb207a9	1.3908588
2	0x3f9b16ff	1.2116393
3	0x3f9566ec	1.1672034
4	0x3faa50d5	1.3305918
5	0x400592d5	2.087087
6	0x3f9efd76	1.24211
7	0x3fc894f8	1.5670462

ds.proj_bn.bias f4 [8]
0	0xbddb245b	-0.10700294
1	0xbeb7d63c	-0.35905635
2	0xbea355d7	-0.31901428
3	0xbeaf5776	-0.34246415
4	0xbea35237	-0.31898662
5	0x3ebb6840	0.36602974
6	0xbe976cdd	-0.29575244
7	0x3d66f924	0.056389943

ds.proj_bn.running_mean f4 [8]
0	0x3e347c7e	0.17625615
1	0x3e9d8283	0.30763635
2	0x3e70e588	0.23525059
3	0xbf12d31c	-0.5735338
4	0x3dd11813	0.1020967
5	0xbe7a85a2	-0.2446504
6	0x3ec0965f	0.37614724
7	0xbec399e3	-0.38203344

ds.proj_bn.running_var f4 [8]
0	0x3e4faa55	0.2027982
1	0x3d80d19a	0.06289978
2	0x3d94e393	0.07269969
3	0x3e72ad5b	0.23698942
4	0x3db0867b	0.086194
5	0x3dc6b5c1	0.097026356
6	0x3d388620	0.045049787
7	0x3d0b5572	0.034017034

ds.proj_conv1.weight f4 [4, 8, 5]
0	0x3c3dc9ef	0.011583789
1	0xbdc16600	-0.09443283
2	0xbe367de0	-0.17821455
3	0xbe78125b	-0.24225752
4	0xbdaf3916	-0.0855581
5	0x3dd6f04f	0.10495054
6	0xbe24c7e8	-0.16091883
7	0x3e06cf35	0.1316498
8	0x3e5566ea	0.2084004
9	0x3d93f38c	0.07224187
10	0x3d095ecf	0.033537682
11	0x3cc68bf3	0.024236655
12	0x3d4fc4e1	0.050724868
13	0xbc1a7d10	-0.009429231
14	0xbd227923	-0.039666306
15	0xbd75cae8	-0.06000796
16	0xbd544b9f	-0.05182993
17	0xbd270954	-0.04078038
18	0x3cc62844	0.024189122
19	0x3d5b4c20	0.053539395
20	0xbdee520b	-0.11636742
21	0xbdd3dae8	-0.103444874
22	0xbc94c8aa	-0.01816209
23	0x3d174b14	0.036936834
24	0x3dd09792	0.1018516
25	0x3d4f4edf	0.050612327
26	0x3d714537	0.0589039
27	0x3db1555c	0.08658859
28	0x3cee99e3	0.029126113
29	0x3e07f6cd	0.13277741
30	0xbe45e93e	-0.19327256
31	0xbd42ea3c	-0.047586665
32	0xbe1aebd3	-0.15129022
33	0xbd239b56	-0.03994306
34	0xbdb2c996	-0.08729856
35	0xbc2c1df5	-0.010505189
36	0x3db7b61a	0.0897028
37	0x3dfb551a	0.12272091
38	0x3d859680	0.06522846
39	0x3d8f5bfc	0.069999665
40	0x3da07e71	0.07836617
41	0x3d8cf5d2	0.06882824
42	0xbc5d6966	-0.0135138985
43	0xbd2e1277	-0.04249808
44	0xbdf5d1f0	-0.12002933
45	0xbdd629a8	-0.10457164
46	0x3de25d2b	0.11052927
47	0xbce2b226	-0.027672838
48	0xbdf41abb	-0.11919161
49	0xbd94c169	-0.072634526
50	0xbd4cfe06	-0.050046943
51	0x3e3b2f79	0.18279828
52	0x3c7ebe66	0.015548324
53	0xbe07b45c	-0.13252395
54	0xbe35a00b	-0.17736833
55	0xbd88b08c	-0.06674299
56	0xbdd81eba	-0.105527356
57	0xbdb2d0c5	-0.08731226
58	0xbe6847ac	-0.2268359
59	0x3bdb2f0b	0.0066889576
60	0xbd620ade	-0.055186145
61	0xbcdad5a4	-0.0267132
62	0xbda5304a	-0.08065851
63	0xbd295e24	-0.041349545
64	0x3cb00f67	0.02149172
65	0xbe8086c9	-0.25102833
66	0xbdee4890	-0.11634934
67	0xbe6b8561	-0.23000099
68	0xbe1aa464	-0.15101773
69	0xb9a00766	-0.0003052309
70	0xbd91b1a1	-0.07113958
71	0x3d50ccc8	0.050976545
72	0x3e56e202	0.20984653
73	0x3da2247e	0.079171166
74	0xbd3e135c	-0.04640518
75	0xbd4cc7fd	-0.04999541
76	0xbe210fef	-0.15728734
77	0xbc4ee2e7	-0.01262734
78	0xbc884d58	-0.016638443
79	0x3e1a5602	0.15071872
80	0xbd6c1caf	-0.057644542
81	0x3da7b6b9	0.081891485
82	0x3e2e9c2e	0.17051765
83	0x3d413984	0.04717399
84	0xbd94ab53	-0.0725924
85	0xb85cdaea	-5.2655967e-05
86	0x3dc26e4d	0.094936945
87	0x3ebc50aa	0.36780292
88	0x3dcbcdd3	0.09951367
89	0xbb0702cd	-0.0020601035
90	0xbd79ffd6	-0.061035
91	0x3defe42c	0.11713442
92	0x3e6100eb	0.21973006
93	0x3ddf15e8	0.1089285
94	0x3a28ad66	0.000643453
95	0x3c972335	0.018449405
96	0xbd4cc62e	-0.049993686
97	0x3daa7e75	0.08324901
98	0xbc8be9da	-0.017079283
99	0x3cd7dea1	0.026351275
100	0x3d7cfd45	0.061764974
101	0xb9c6ea98	-0.0003794029
102	0x3c9dc643	0.019259578
103	0xbcf9c4ad	-0.03048929
104	0xbd7d24ba	-0.061802603
105	0x3dd1a788	0.10237032
106	0x3e02c240	0.12769413
107	0xba74d3af	-0.00093394046
108	0x3dd0f669	0.10203249
109	0x3df046a6	0.11732225
110	0xbdbd0ccf	-0.09230959
111	0x3c0c9953	0.008581477
112	0x3d676739	0.056494925
113	0xbc0af192	-0.008480446
114	0xbdd69d8b	-0.10479268
115	0x3d8ca64b	0.06867655
116	0xbd59511b	-0.053055864
117	0xbd245f40	-0.0401299
118	0x3d1abdfb	0.037778836
119	0x3cd8ccac	0.026464783
120	0x3cef9086	0.029243719
121	0x3d9301ed	0.07178102
122	0x3df59a19	0.119922824
123	0x3e5f6282	0.21814921
124	0x3d84ebd5	0.06490294
125	0xbd58e198	-0.052949518
126	0x3d8419f2	0.06450261
127	0x3d32c65e	0.04364621
128	0x3e2574aa	0.16157785
129	0x3d868fb3	0.06570377
130	0x3d802188	0.062563956
131	0x3a09695b	0.00052418344
132	0x3d595224	0.05305685
133	0x3d14120b	0.03615002
134	0x3e15765d	0.14595933
135	0xbc8204d3	-0.015871441
136	0x3d24fd12	0.04028041
137	0xbcda24c3	-0.026628857
138	0x3bfef0be	0.0077801635
139	0x3d011acb	0.031519692
140	0xbcdbe16e	-0.026840892
141	0x3ce9fa6c	0.028561793
142	0xbd9a12d4	-0.075231224
143	0xbd73538a	-0.05940584
144	0xbca20cb8	-0.019781455
145	0x3d1a2afd	0.037638653
146	0xbcaec8f3	-0.021336054
147	0xbcd51b45	-0.02601398
148	0xbdf788ff	-0.12086677
149	0xbdb58e37	-0.08865016
150	0x3d474d25	0.048657555
151	0x3af87134	0.0018954636
152	0x3e7c3678	0.24630153
153	0x3e1858a6	0.14877567
154	0x3e46e154	0.19421893
155	0x3c969c6b	0.018385133
156	0x3d1fcd50	0.03901416
157	0x3cd93b98	0.026517674
158	0xbdd56004	-0.10418704
159	0xbd135fe1	-0.03598011

ds.proj_conv1.bias f4 [4]
0	0x3c1f712e	0.009731574
1	0xbe3608ba	-0.17776766
2	0xbe53103f	-0.20611666
3	0x3e4a4f17	0.19756733

ds.proj_bn1.weight f4 [4]
0	0x4015b1a9	2.3389685
1	0x402ba55b	2.6819675
2	0x402e16fb	2.7201526
3	0x402b1b07	2.6735246

ds.proj_bn1.bias f4 [4]
0	0x3f3ef76d	0.7459629
1	0x3f1e4f9a	0.6184021
2	0x3f330ed8	0.69944525
3	0x3ee3f5af	0.4452338

ds.proj_bn1.running_mean f4 [4]
0	0x3a29b080	0.0006473139
1	0xbf26bc5c	-0.65131164
2	0x3e80bb02	0.25142676
3	0x3f03b9fe	0.51455677

ds.proj_bn1.running_var f4 [4]
0	0x3dad786a	0.08470233
1	0x3e0ba6e8	0.13637888
2	0x3da893d9	0.08231325
3	0x3e0f8935	0.14017184

head.weight f4 [15, 128]
0	0xbeb14f06	-0.34630603
1	0xbe60d1f1	-0.21955086
2	0x3ea1ea33	0.31623992
3	0x3e945269	0.28969124
4	0x3ea4bcc3	0.32175264
5	0x3e4a8b34	0.19779664
6	0x3e5fd6c2	0.21859267
7	0x3e657cd8	0.22410905
8	0x3e17c4d4	0.14821178
9	0x3dae9a49	0.08525521
10	0x3d66bbac	0.05633132
11	0xbf2abbe2	-0.66692936
12	0xbffbce1a	-1.9672272
13	0xbf8df326	-1.1089828
14	0x3eeb3d0c	0.45945013
15	0x3dbf0e60	0.09328914
16	0xbd9c95da	-0.076457694
17	0xbf11b83d	-0.5692175
18	0xbf9f307b	-1.243667
19	0xbf850cf9	-1.0394584
20	0xbec9e25c	-0.3943051
21	0x3e7f7d3e	0.2495012
22	0x3e6bf7a5	0.23043688
23	0x3e8bbb75	0.27291456
24	0x3eac435a	0.33645135
25	0x3e96bd44	0.29441273
26	0x3eafbccd	0.3432373
27	0x3eb10614	0.3457495
28	0x3e995ad1	0.299521
29	0x3e99897a	0.299877
30	0x3d99f837	0.07518046
31	0xbd2662a2	-0.040621407
32	0xbe8173ca	-0.25283653
33	0x3ed62215	0.41822878
34	0x3e6ad8d2	0.22934273
35	0xbeb3c71c	-0.35112846
36	0xbe898ffb	-0.2686766
37	0xbf74f6fe	-0.9568938
38	0xbf0fb87a	-0.56140864
39	0xbe5b6a36	-0.21427235
40	0xbc611d61	-0.013739915
41	0x3ef73b29	0.48287323
42	0x3f505b19	0.81389004
43	0x3e111ed4	0.14171916
44	0xbdfe8fb0	-0.1242975
45	0x3f0f4678	0.559669
46	0x3e44d68e	0.19222471
47	0xbe4fd11e	-0.20294616
48	0xbe5c0d41	-0.21489431
49	0x3cef0318	0.02917628
50	0xbed1ba30	-0.40962362
51	0x3d800973	0.06251802
52	0x3edc83c0	0.43069267
53	0xbdcbb8cd	-0.09947357
54	0x3e3e0420	0.18556261
55	0xbe2e3620	-0.17012835
56	0x3e84fe4d	0.25975266
57	0xbed86325	-0.4226314
58	0xbf0327a7	-0.5123238
59	0xbf1bd1f1	-0.6086722
60	0xbeaecec3	-0.34142122
61	0xbec47988	-0.3837397
62	0xbf30d228	-0.69070673
63	0xbdb3a4d8	-0.08771676
64	0xbd5f3241	-0.054491285
65	0x3e9bcb08	0.30428338
66	0xbe6e1cf1	-0.23253228
67	0x3e31c0bc	0.17358679
68	0x3e6ae375	0.2293833
69	0xbc5a973f	-0.013341724
70	0x3e2e1547	0.17000304
71	0xbdf501da	-0.11963244
72	0xbf01c170	-0.5068579
73	0xbf082727	-0.5318474
74	0xbf810d77	-1.0082234
75	0xbedf5264	-0.43617547
76	0x3ee9bbb5	0.45651022
77	0x3f061416	0.523744
78	0xbe9bfa41	-0.30464366
79	0xbeea614b	-0.45777354
80	0xbf221786	-0.63317144
81	0xbefb84c7	-0.4912474
82	0xbf0c12f2	-0.5471641
83	0x3e3f91ce	0.18707964
84	0x3e2a69a8	0.16641867
85	0xbec2c657	-0.38041946
86	0xbe9a7732	-0.30169064
87	0xbf57bce9	-0.8427263
88	0xbeeea107	-0.4660723
89	0xbeb3cb44	-0.35116017
90	0x3e5411a9	0.20709862
91	0x3e066e0c	0.13127917
92	0xbe9370bf	-0.28796956
93	0xbd0ea096	-0.034821115
94	0xbec2c447	-0.38040373
95	0xbf706f13	-0.93919486
96	0xbe122a70	-0.14274001
97	0xbf21cb18	-0.6320052
98	0xbf2acddf	-0.66720384
99	0x3d9c4409	0.07630164
100	0xbdc3ed7c	-0.09566781
101	0x3e0ce9a3	0.13761
102	0xbe3e7eba	-0.1860303
103	0xbf5317c7	-0.82458156
104	0xbf3a800f	-0.7285165
105	0xbf33797e	-0.7010726
106	0xbe3fb59e	-0.18721625
107	0xbc8ac18f	-0.016937999
108	0x3f27019d	0.65236837
109	0x3e0375cd	0.12837906
110	0xbedad4fc	-0.4274062
111	0xbf4229aa	-0.75844824
112	0xbe0db7dd	-0.1383967
113	0xbef09946	-0.46991938
114	0x3e34a08f	0.17639373
115	0x3ebb231d	0.36550227
116	0xbec8c976	-0.39216202
117	0xbe91c817	-0.2847297
118	0xbe012292	-0.12610844
119	0xbede1617	-0.43376228
120	0x3e25c0c0	0.1618681
121	0xbe42037e	-0.18946645
122	0xbec5aa8e	-0.38606685
123	0x3e0cf3bc	0.13764852
124	0xbe77d3f2	-0.24201944
125	0xbf38a66a	-0.7212893
126	0xbec24a75	-0.3794743
127	0x3e150630	0.14553142
128	0xbf33978e	-0.7015313
129	0xbf22889a	-0.6348969
130	0xbf0412f2	-0.5159141
131	0xbf162dd7	-0.58663696
132	0xbf08b9ac	-0.5340831
133	0x3da04efc	0.07827565
134	0x3e38ba92	0.18039921
135	0x3e3a1dba	0.18175402
136	0x3e6b8bf4	0.23002607
137	0x3e949b23	0.2902461
138	0x3e39f89c	0.18161243
139	0x3c45856a	0.012055734
140	0xbecec12d	-0.40381756
141	0x3ed6d31a	0.41957933
142	0x3ec5e1fc	0.38648975
143	0x3e6d0086	0.23144731
144	0x3ec6fd52	0.38865143
145	0x3f00abdc	0.50262237
146	0x3f35e9da	0.71059954
147	0xbf01a690	-0.5064478
148	0xbd38e121	-0.045136575
149	0x3e5aa93d	0.21353622
150	0x3e994c46	0.29941005
151	0x3e8459a8	0.25849652
152	0x3e5c1215	0.21491273
153	0x3e19a570	0.15004516
154	0x3d87cb4f	0.06630575
155	0xbf512942	-0.8170358
156	0xbf9b3e2b	-1.2128347
157	0xbf80db46	-1.0066917
158	0xbf36754a	-0.7127272
159	0xbfd24d51	-1.6429845
160	0xbf1f7d21	-0.62300307
161	0x3e2d0c3f	0.16899203
162	0x3e5519fe	0.20810696
163	0x3e165a87	0.14682971
164	0x3e2b03dd	0.16700692
165	0x3dbc1abc	0.09184787
166	0xbdb256de	-0.08707975
167	0xbe437c86	-0.1909047
168	0xbf039af6	-0.51408327
169	0xbf236eca	-0.63840926
170	0xbf459a26	-0.77188337
171	0xbeaa930d	-0.33315316
172	0x3ea64bfe	0.32479852
173	0xbb3d0c83	-0.002884657
174	0xbf014fa4	-0.50512147
175	0xbf69de91	-0.91355234
176	0xbf02efad	-0.51146966
177	0xbe9b2dbe	-0.30308336
178	0xbf237db2	-0.6386367
179	0xbf40d43a	-0.7532383
180	0xbea30a69	-0.3184388
181	0x3e9f1473	0.3107029
182	0xbedb9883	-0.42889795
183	0xbf970f39	-1.180152
184	0xbd9f5708	-0.07780272
185	0xbdc299c2	-0.09501983
186	0xbe081790	-0.13290238
187	0xbe8b42a1	-0.2719927
188	0xbea36c80	-0.31918716
189	0x3d105ea6	0.035246514
190	0x3e632e7e	0.22185704
191	0x3ea5fa04	0.3241731
192	0x3e89ce01	0.2691498
193	0x3e8f6d3a	0.2801302
194	0x3e3fefc3	0.18743806
195	0xbc207a9d	-0.009794858
196	0xbe1e5081	-0.15460397
197	0xbec29d5e	-0.38010687
198	0xbd59b8a2	-0.053154595
199	0xbe42eccf	-0.19035648
200	0xbbd11262	-0.006380365
201	0xbe8b1dad	-0.27171078
202	0xbf243ccc	-0.6415527
203	0x3d0b5523	0.03401674
204	0xbe802fc9	-0.25036457
205	0xbf88be1a	-1.0683014
206	0xbf85f169	-1.0464298
207	0xbf8b90cd	-1.0903565
208	0xbfb37541	-1.4020158
209	0xbf70ff15	-0.94139224
210	0xbf48f223	-0.7849447
211	0xbf4e643d	-0.806217
212	0xbe1b9322	-0.15192845
213	0x3ee7f482	0.45303732
214	0xbf079b63	-0.52971476
215	0x3d1a185e	0.037620895
216	0x3eacd7a6	0.33758277
217	0x3b7d421f	0.0038644148
218	0xbf521fc5	-0.82079726
219	0xbec88de1	-0.39170745
220	0xbd2bc369	-0.041934405
221	0x3e0758f1	0.13217522
222	0x3ec1ff93	0.378903
223	0x3f21b818	0.6317153
224	0x3e9354b5	0.28775564
225	0x3e9d3097	0.30701134
226	0x3e5d12bb	0.21589176
227	0x3db35dd7	0.08758133
228	0xbdf53e89	-0.11974818
229	0xbd693cb3	-0.056942653
230	0xbce0b7bc	-0.027431361
231	0xbc1f1308	-0.009709127
232	0xbc7838f5	-0.015150298
233	0xbf3b0222	-0.7305013
234	0xbf462464	-0.7739928
235	0x3da5da38	0.080982625
236	0xbf2ab23a	-0.666782
237	0xbf862275	-1.0479265
238	0xbf577b2c	-0.8417232
239	0xbfc6c524	-1.5528913
240	0xbfb3368a	-1.4001019
241	0xbf9729c0	-1.1809616
242	0xbf54b640	-0.8309059
243	0xbe7afcaf	-0.24510454
244	0x3e132fe8	0.14373744
245	0xbed97c91	-0.4247785
246	0xbf2b08d9	-0.66810375
247	0x3dee1e1a	0.11626835
248	0x3d03d1c1	0.03218246
249	0xbef460a6	-0.47729987
250	0xbebde442	-0.3708821
251	0xbd8db58e	-0.069193944
252	0x3e8b5871	0.27215913
253	0x3ec564c6	0.38553447
254	0x3ef292a4	0.47377503
255	0x3f4ca1e3	0.7993452

head.bias f4 [15]
0	0x3dea11c3	0.11429169
1	0x3db7f249	0.08981759
2	0xbe1b2dfd	-0.15154262
3	0xbeb162e0	-0.34645748
4	0x3e80e8cb	0.25177607
5	0xbe9c8881	-0.30572894
6	0xbe18eaf5	-0.14933379
7	0x3e346322	0.17615941
8	0xbe82c6dc	-0.25542343
9	0x3d7f77a2	0.06236995
10	0xba41c20f	-0.00073912827
11	0xbccff5ca	-0.025385756
12	0xbd46ccf4	-0.048535302
13	0x3e91c234	0.28468478
14	0xbdc7c65f	-0.09754633
