surrogate/trained_model/BCRNet_S/model_rate_ll32_fold4.pth (torch, 14449 bytes, 14 tensors)

ds.proj_conv.weight f4 [8, 2, 7]
-0.05143736 -0.01914213 0.0889442 0.11881343 0.02525859 -0.04911596 -0.05387026 0.08395835
0.11590914 0.15643243 0.13742635 0.1552336 0.14988121 0.108982556 -0.11864946 -0.06834227
-0.16011792 -0.103314556 -0.072394155 -0.1177253 -0.017414134 0.03028626 0.08094791 0.12551108
0.12723584 0.15118672 0.09564698 0.03253454 0.06996413 0.049006656 0.11525373 0.06664625
0.08400305 0.07497178 0.061522897 -0.057114586 -0.07422834 -0.19341883 -0.13568647 -0.16949143
-0.2309014 -0.17543085 0.07625334 0.15643607 0.12944855 0.12688497 0.06109818 0.07536981
0.06108204 0.050402205 0.07839913 0.03031408 0.08820237 0.08667956 0.122956075 0.056576025
-0.19183086 -0.12068129 -0.009519018 0.19299793 0.1337004 0.14214884 0.038186103 0.030949945
0.0475864 0.056927606 0.065584496 0.05980586 0.048678733 0.057837334 0.11334841 0.103132315
0.08634181 0.07019311 0.12146232 0.16790132 0.089003704 -0.11412595 -0.04540482 -0.032849133
-0.0024089743 0.042043094 -0.044730507 -0.058309466 0.035977278 0.06745136 0.061073314 0.041642614
0.09726382 0.05746697 0.054105185 0.13008064 0.17205949 0.09125791 0.058750894 0.07154169
0.03641013 -0.00014439414 -0.066378966 -0.1119514 -0.3245436 -0.2739314 -0.1395703 -0.06394271
-0.002313954 0.025839334 0.038017105 0.008878212 0.011821386 8.877336e-05 -0.008588214 -0.005775503
00000000: fbaf 52bd f5cf 9cbc 6028 b63d 7554 f33d
00000010: 1aeb ce3c d12d 49bd 10a7 5cbd 5bf2 ab3d
00000020: c561 ed3d d32f 203e 7eb9 0c3e 8ff5 1e3e
00000030: 767a 193e 3f32 df3d 7dfe f2bd 08f7 8bbd
00000040: f4f5 23be 9596 d3bd 6343 94bd f619 f1bd
00000050: 16a8 8ebc e41a f83c 05c8 a53d fa85 003e
00000060: 1d4a 023e b1d0 1a3e 90e2 c33d f042 053d
00000070: 5b49 8f3d 34bb 483d 260a ec3d d47d 883d
00000080: cb09 ac3d ce8a 993d 6fff 7b3d fcf0 69bd
00000090: 0705 98bd 960f 46be 65f1 0abe 298f 2dbe
000000a0: 6b71 6cbe 25a4 33be b62a 9c3d c730 203e
000000b0: 298e 043e 22ee 013e 1642 7a3d 7d5b 9a3d
000000c0: 2931 7a3d 8b72 4e3d b98f a03d 3c55 f83c
000000d0: 72a3 b43d 0e85 b13d 65d0 fb3d 43bc 673d
000000e0: 4f6f 44be c127 f7bd a8f5 1bbc 40a1 453e
000000f0: c2e8 083e 778f 113e 0869 1c3d bd8a fd3c
00000100: f5e9 423d ec2c 693d 2a51 863d fdf6 743d
00000110: 5a63 473d d7e6 6c3d 3623 e83d 0937 d33d
00000120: fad3 b03d 68c1 8f3d 3dc1 f83d 53ee 2b3e
00000130: 9347 b63d deba e9bd 68fa 39bd d08c 06bd
00000140: e2df 1dbb 6135 2c3d 5637 37bd e8d5 6ebd
00000150: e95c 133d f023 8a3d 0328 7a3d 7291 2a3d
00000160: 4132 c73d 7c62 6b3d 669d 5d3d dc33 053e
00000170: 5d30 303e 6de5 ba3d c7a4 703d 7384 923d
00000180: ca22 153d 8268 17b9 b2f1 87bd c746 e5bd
00000190: 942a a6be bd40 8cbe 84eb 0ebe 65f4 82bd
000001a0: b5a5 17bb 03ad d33c d3b7 1b3d ec75 113c
000001b0: 7dae 413c d62b ba38 95b5 0cbc 6e40 bdbb

ds.proj_conv.bias f4 [8]
-0.1697538 0.14342807 0.4849352 0.17139757 -0.17177522 -0.20419027 -0.11288875 0.24632867
00000000: f1d3 2dbe cfde 123e 6d49 f83e d882 2f3e
00000010: d8e5 2fbe 4117 51be 3832 e7bd 953d 7c3e

ds.proj_bn.weight f4 [8]
1.4222136 1.998479 2.263242 1.1472683 1.4384471 1.411744 1.3190833 1.7106428
00000000: 180b b63f 29ce ff3f f5d8 1040 b0d9 923f
00000010: 091f b83f 07b4 b43f b9d7 a83f 58f6 da3f

ds.proj_bn.bias f4 [8]
-0.35529965 0.13973688 -0.041517287 -0.5310346 -0.21747291 -0.31144643 -0.11535703 -0.18382992
00000000: d6e9 b5be 2f17 0f3e 080e 2abd e2f1 07bf
00000010: 38b1 5ebe e875 9fbe 4e40 ecbd e93d 3cbe

ds.proj_bn.running_mean f4 [8]
0.105604924 0.12571086 0.34860432 0.5276985 -0.009384731 -0.04493104 0.17277099 -0.035066154
00000000: 6547 d83d 59ba 003e 447c b23e 4017 073f
00000010: 6ac2 19bc 9c09 38bd e1ea 303e 87a1 0fbd

ds.proj_bn.running_var f4 [8]
0.11003126 0.19281785 0.2812077 0.04682023 0.026704641 0.11998491 0.03250253 0.15974382
00000000: 1258 e13d 0b72 453e 75fa 8f3e 92c6 3f3d
00000010: b1c3 da3c a6ba f53d 5f21 053d e293 233e

ds.proj_conv1.weight f4 [4, 8, 5]
0.052189283 -0.049872525 0.07298407 0.08742735 -0.12015118 0.04824307 -0.14120457 -0.15303056
-0.10291034 0.031383768 0.018803524 0.0610282 0.21414785 0.20906584 -0.00019821397 -0.11732265
-0.08397341 -0.15378109 -0.14955413 -0.08851151 0.1420636 0.12566216 0.16692384 0.13400546
-0.023220884 0.06183144 0.049098734 0.042445175 0.040954787 0.007835424 0.11013097 0.07255985
0.1608471 0.07385703 0.082701094 0.04038422 -0.01213994 -0.21923475 -0.171514 0.046268478
-0.008396008 -0.031533137 -0.20131545 -0.16996075 -0.049918875 0.019788187 -0.08055551 -0.03915066
-0.083595276 -0.011996844 -0.042842068 -0.026488895 -0.06999699 -0.0783495 -0.0034018336 -0.25132316
0.006137101 0.14793725 0.09762742 -0.02069206 0.0578355 0.045727786 -0.17149423 -0.12198212
-0.009728699 -0.12447984 -0.10701023 -0.15697297 -0.23555423 -0.13342537 -0.024737744 0.03447399
-0.019753985 -0.047955144 -0.03896061 0.023826908 0.03023693 0.006568616 0.01817736 0.005448125
0.011549599 0.11494506 0.025126193 -0.22550228 0.024006974 -0.15502134 -0.20660888 -0.24532932
-0.15768501 0.16981153 0.06127866 0.15201584 0.11918922 -0.018487187 -0.1026896 -0.103063256
-0.0851803 -0.045497537 -0.02939696 -0.07166195 0.13930266 0.12142319 -0.024476182 -0.09705621
-0.09358555 -0.019945163 0.032039654 0.08076507 -0.041414447 -0.049871914 -0.05801989 -0.054979827
0.03464411 -0.044187933 -0.12048994 -0.10466071 -0.090299465 -0.07795518 -0.0199236 0.019705959
-0.0431135 0.074835196 0.06986528 0.040844277 -0.047942825 0.065063514 0.119016595 0.1405716
0.12352974 0.0026287881 -0.09647398 0.050690994 0.032037012 0.0016093539 -0.054798063 -0.011478599
0.05184565 0.16742052 0.16555798 0.12450916 -0.040807046 0.014689441 -0.007465052 -0.0544534
-0.01282915 0.06261459 0.12655343 0.116806306 0.112251736 0.116205536 -0.0074081877 0.004328671
0.060703598 0.036870398 0.038577672 0.045354906 0.0306685 0.044908136 0.03132383 0.091662526
00000000: 6ec4 553d 2247 4cbd ac78 953d 1c0d b33d
00000010: d211 f6bd 869a 453d ee97 10be 0bb4 1cbe
00000020: a8c2 d2bd 448c 003d d909 9a3c b5f8 793d
00000030: 9349 5b3e 5b15 563e a8d7 4fb9 dc46 f0bd
00000040: 40fa abbd ca78 1dbe b824 19be 8645 b5bd
00000050: 1f79 113e 95ad 003e 15ee 2a3e ba38 093e
00000060: b939 bebc f742 7d3d c11b 493d feda 2d3d
00000070: 35c0 273d 2660 003c 598c e13d 429a 943d
00000080: 1ab5 243e 5b42 973d 315f a93d ed69 253d
00000090: 99e6 46bc 137f 60be 5ea1 2fbe 0484 3d3d
000000a0: 698f 09bc e428 01bd a325 4ebe 310a 2ebe
000000b0: bc77 4cbd d61a a23c 4afa a4bd 715c 20bd
000000c0: 0034 abbd 698e 44bc 2a7b 2fbd 3dff d8bc
000000d0: 955a 8fbd b475 a0bd 4cf1 5ebb 6ead 80be
000000e0: bc19 c93b dd7c 173e e3f0 c73d 6582 a9bc
000000f0: ebe4 6c3d 0f4d 3b3d 2f9c 2fbe c3d1 f9bd
00000100: 1f65 1fbc 49ef febd 2e28 dbbd 86bd 20be
00000110: 2135 71be a9a0 08be cfa6 cabc 9934 0d3d
00000120: 1cd3 a1bc 9d6c 44bd 2995 1fbd a630 c33c
00000130: 70b3 f73c 8b3d d73b b0e8 943c 2f86 b23b
00000140: 873a 3d3c 5168 eb3d 72d5 cd3c 12ea 66be
00000150: 46aa c43c eabd 1ebe 4791 53be 9c37 7bbe
00000160: 2e78 21be 13e3 2d3e 55ff 7a3d 0aaa 1b3e
00000170: 7a19 f43d 7172 97bc ed4e d2bd d412 d3bd
00000180: 0273 aebd a05b 3abd e5d1 f0bc 80c3 92bd
00000190: 5ba5 0e3e b9ac f83d 4682 c8bc 68c5 c6bd
000001a0: c8a9 bfbd 0a64 a3bc 033c 033d 2868 a53d
000001b0: 32a2 29bd 7e46 4cbd 44a6 6dbd 8732 61bd
000001c0: fbe6 0d3d 68fe 34bd 6ec3 f6bd 5b58 d6bd
000001d0: edee b8bd f7a6 9fbd d136 a3bc 646e a13c
000001e0: c897 30bd 3243 993d 8715 8f3d 544c 273d
000001f0: b25f 44bd 0540 853d f9be f33d 00f2 0f3e
00000200: 29fd fc3d bf47 2c3b 2694 c5bd 5ca1 4f3d
00000210: 3e39 033d f5f0 d23a ef73 60bd bc10 3cbc
00000220: 1b5c 543d 4970 2b3e 0888 293e a9fe fe3d
00000230: 4a25 27bd fbab 703c 659d f4bb 870a 5fbd
00000240: 5b31 52bc 143c 803d 3997 013e 2538 ef3d
00000250: 3de4 e53d 2bfd ed3d 62c0 f2bb 86d7 8d3b
00000260: 56a4 783d 6a05 173d 9f03 1e3d 11c6 393d
00000270: 823c fb3c 98f1 373d 6b4d 003d 90b9 bb3d

ds.proj_conv1.bias f4 [4]
0.16999987 -0.037236735 -0.14229147 0.035016224
00000000: 7214 2e3e 8c85 18bd dbb4 11be 2c6d 0f3d

ds.proj_bn1.weight f4 [4]
2.411031 2.1614964 2.2702389 2.4160914
00000000: 554e 1a40 f555 0a40 984b 1140 3ea1 1a40

ds.proj_bn1.bias f4 [4]
0.8383003 0.42027146 0.69069606 0.56928205
00000000: d99a 563f d22d d73e 75d1 303f 78bc 113f

ds.proj_bn1.running_mean f4 [4]
0.35536295 -0.5331547 -0.5007087 0.51659095
00000000: 22f2 b53e d47c 08bf 722e 00bf 4e3f 043f

ds.proj_bn1.running_var f4 [4]
0.17713888 0.13427576 0.26363403 0.109048165
00000000: e563 353e 967f 093e 0afb 863e a554 df3d

head.weight f4 [15, 128]
-0.051575184 -0.26572052 -0.04054936 0.26682365 0.39074105 0.25745127 0.1326965 0.18774365
0.0053591775 -0.27433807 -0.20345612 -0.26597854 -0.507921 -0.17415938 -0.74393225 -0.6048623
-0.5446431 -0.92243624 -0.5621852 -0.60153455 -0.7599209 0.1491345 0.052365754 -0.035449952
0.091013856 0.295424 0.5132794 0.40987894 0.3840399 0.2995656 0.00447779 -0.2917543
-0.10502245 -0.21495418 -0.055711262 -0.044849157 -0.26823768 -0.3369411 -0.18832506 -0.10624916
0.13427414 0.27839303 0.5161049 0.12560968 -0.23602314 -0.31127062 0.19782266 0.55965483
0.13902438 0.33722606 0.21803045 -0.21887916 0.043717075 -0.20700793 0.19346741 0.169173
0.15973672 -0.17320377 -0.6257277 -0.29617897 -0.030430162 -0.11348068 -0.014960657 0.13086236
-0.016349582 -0.33405688 -0.20263126 0.07746883 0.3126401 0.19313252 0.14642294 0.15001234
0.13278577 0.053187516 -0.12961723 -0.20711493 -0.9257221 -1.7578573 -1.0352492 0.5764509
0.07215911 0.32236734 -0.8297173 -1.2314517 -0.33967435 -0.8391063 0.038300045 0.04276196
0.13225019 0.13776131 0.26414272 0.23926616 0.2920292 0.5229399 0.35767353 0.041683566
-0.77815896 -0.5643666 -0.75445354 -0.23696627 0.00023376186 0.12422138 -0.30417204 -0.7986305
-1.0044066 -0.8181117 -0.6400345 -0.25939593 0.25768963 0.5248164 -0.057066575 -0.8017362
-0.7133289 -0.0800192 -0.3250289 0.27361923 0.14592543 0.17198385 -0.17903726 -0.57891715
-0.41429704 -0.68110925 -0.29491684 0.107040726 -0.088158615 -0.4241103 -0.99763286 -0.31849536
-0.305416 0.0048120306 -0.40380096 -0.3784265 -0.31537703 -0.12413814 0.095020145 0.09827941
0.15747537 0.2236876 -0.033368092 -0.0382108 -0.81694025 -0.94472146 0.18764399 0.23986213
-0.2601718 0.20580481 0.3257582 -0.95193243 -0.28888342 -0.43213218 0.15850157 0.20126607
0.095152535 0.11366173 0.13299593 -0.6551487 -0.5826904 -0.4341411 -0.41495124 0.09248794
-0.11072322 -0.54100484 -0.20692983 0.013970929 0.01584639 -0.014980543 0.14490224 0.024887865
-0.08520264 -0.13717973 -0.11818474 0.08699574 0.42679438 0.50518256 0.36516103 0.35097885
0.1562857 0.07123181 0.35310593 0.49588433 0.006133291 0.017828068 -0.24161153 -0.18710473
-0.1850064 -0.354196 -0.012187748 0.23791909 0.21733464 -0.11014285 -0.7661845 -0.8243181
-0.56620705 -1.2400926 -0.91138834 -0.23998837 -0.012412278 -0.5472231 -0.055456724 0.039995234
0.19886754 0.16450267 0.13353013 -0.03602371 0.10953293 -0.33442783 0.6304997 0.4270322
0.16104528 0.040381648 0.3766484 0.4230912 -0.895729 0.23109524 -0.16192992 0.20033005
0.15944338 0.07968748 0.101863846 -0.055602644 -0.521234 -1.0773511 -1.0888228 -0.9388941
0.1519157 0.19207123 0.17554058 -0.0056563094 0.017520642 -0.08469785 0.12418132 -0.24969305
-0.16825353 -0.59770626 -0.6997794 0.2654524 -0.056719396 -1.0467997 -0.8733852 -1.5805874
-1.7987133 -1.0094924 -0.47425726 -1.3850358 -0.29236227 0.10688279 -0.529225 -0.006441412
0.12760362 -0.24441046 -0.34903747 -0.2456318 0.0009361689 0.0966378 0.15657501 0.40629736
00000000: 8040 53bd 850c 88be 1617 26bd 1c9d 883e
00000010: 360f c83e a7d0 833e 97e1 073e df3f 403e
00000020: 0a9c af3b 0a76 8cbe cd56 50be 572e 88be
00000030: 1c07 02bf d656 32be 5872 3ebf 41d8 1abf
00000040: bb6d 0bbf c824 6cbf 5feb 0fbf 2bfe 19bf
00000050: 2d8a 42bf b7b6 183e 797d 563d f833 11bd
00000060: 7965 ba3d d141 973e 4766 033f a7db d13e
00000070: e1a0 c43e aa60 993e 6dba 923b d260 95be
00000080: 0316 d7bd f31c 5cbe 7e31 64bd c0b3 37bd
00000090: 7356 89be 8b83 acbe 49d8 40be 2999 d9bd
000000a0: 297f 093e 8889 8e3e 731f 043f d39f 003e
000000b0: 0db0 71be dd5e 9fbe 0692 4a3e 8a45 0f3f
000000c0: 685c 0e3e e5a8 ac3e 6043 5f3e dc21 60be
000000d0: ad10 333d e3f9 53be 521c 463e b03b 2d3e
000000e0: 0692 233e 545c 31be b12f 20bf c5a4 97be
000000f0: ad48 f9bc 8f68 e8bd 8b1d 75bc c800 063e
00000100: 8fef 85bc 8109 abbe 927e 4fbe faa7 9e3d
00000110: 5d12 a03e 88c4 453e e5ef 153e d69c 193e
00000120: fef8 073e 27db 593d 61ba 04be f015 54be
00000130: 20fc 6cbf 7801 e1bf 0c83 84bf 4992 133f
00000140: 28c8 933d 550d a53e 5a68 54bf 36a0 9dbf
00000150: cce9 adbe accf 56bf 82e0 1c3d 2a27 2f3d
00000160: 986c 073e 4d11 0d3e b73d 873e 3002 753e
00000170: da84 953e 64df 053f fc20 b73e 63bc 2a3d
00000180: 6d35 47bf 547a 10bf de23 41bf 49a7 72be
00000190: f91d 7539 c767 fe3d 70bc 9bbe 0c73 4cbf
000001a0: 6590 80bf c56f 51bf 4dd9 23bf 8bcf 84be
000001b0: e5ef 833e 5e5a 063f a4be 69bd 953e 4dbf
000001c0: b99c 36bf 1be1 a3bd 306a a6be d217 8c3e
000001d0: 7a6d 153e 891c 303e 8b55 37be ea33 14bf
000001e0: be1e d4be 2d5d 2ebf 57ff 96be 2b38 db3d
000001f0: 818c b4bd fc24 d9be de64 7fbf d311 a3be
00000200: 7c5f 9cbe 3dae 9d3b 00bf cebe 1ec1 c1be
00000210: 1979 a1be 233c febd ec99 c23d b746 c93d
00000220: 3941 213e 5d0e 653e fbac 08bd ee82 1cbd
00000230: ff22 51bf 44d9 71bf bf25 403e 6b9e 753e
00000240: 3d35 85be 7fbe 523e c7c9 a63e d8b1 73bf
00000250: 87e8 93be 6e40 ddbe 3c4e 223e b118 4e3e
00000260: 55df c23d 7bc7 e83d 1630 083e d3b7 27bf
00000270: 332b 15bf be47 debe 7d74 d4be 516a bd3d
00000280: dbc2 e2bd 4b7f 0abf 6ae5 53be 53e6 643c
00000290: 4ad0 813c f470 75bc 4161 143e a3e1 cb3c
000002a0: b97e aebd d878 0cbe d70a f2bd d32a b23d
000002b0: cb84 da3e a553 013f 63f6 ba3e 80b3 b33e
000002c0: 5c09 203e fce1 913d 4dca b43e 8de4 fd3e
000002d0: c6f9 c83b 2b0c 923c 0369 77be 6298 3fbe
000002e0: 5172 3dbe 2e59 b5be 1faf 47bc 10a1 733e
000002f0: f98c 5e3e 9392 e1bd ab24 44bf 8306 53bf
00000300: f2f2 10bf 5bbb 9ebf bf50 69bf 83bf 75be
00000310: de5c 4bbc d016 0cbf 9726 63bd 0bd2 233d
00000320: efa3 4b3e 6373 283e 1fbc 083e 998d 13bd
00000330: cd52 e03d 203a abbe 6e68 213f f7a3 da3e
00000340: 0ee9 243e 3a67 253d 0fd8 c03e 699f d83e
00000350: 7f4e 65bf 3ba4 6c3e f5d0 25be 5223 4d3e
00000360: 2045 233e 3133 a33d fe9d d03d 99bf 63bd
00000370: 976f 05bf a4e6 89bf 8c5e 8bbf 5d5b 70bf
00000380: ca8f 1b3e 52ae 443e e9c0 333e 9058 b9bb
00000390: 7387 8f3c 1176 adbd c752 fe3d 89af 7fbe
000003a0: a74a 2cbe 4703 19bf be24 33bf 61e9 873e
000003b0: 9952 68bd 88fd 85bf 2c96 5fbf b050 cabf
000003c0: 3d3c e6bf 0c37 81bf d9d1 f2be da48 b1bf
000003d0: 82b0 95be 5de5 da3d 4a7b 07bf 7b12 d3bb
000003e0: 86aa 023e bc46 7abe 0ab5 b2be e786 7bbe
000003f0: 3b69 753a 0aea c53d 3355 203e 3506 d03e

head.bias f4 [15]
-0.0046533225 0.04462778 0.02237122 -0.07317463 0.06590705 -0.07933701 -0.0112138875 0.002265997
0.013838092 0.08647148 0.03934547 0.020821245 0.10629834 0.09566047 0.04265124
00000000: e67a 98bb 9ecb 363d d943 b73c 95dc 95bd
00000010: 47fa 863d 717b a2bd 74ba 37bc 1f81 143b
00000020: 2ab9 623c f617 b13d b728 213d 5191 aa3c
00000030: f2b2 d93d a3e9 c33d 11b3 2e3d
