surrogate/trained_model/BCRNet_S/model_direct4_fold2.pth (torch, 17228 bytes, 20 tensors)

encoding.conv2d.weight f4 [4, 2, 8]
0.016332636 -0.058563944 -0.06367832 -0.09023603 -0.12273601 -0.114973284 -0.095708646 -0.061366048
-0.01730618 0.13732739 0.09841432 0.09465286 0.03241541 0.04890251 0.099655695 0.12672715
-0.098257914 -0.09845904 -0.022212433 0.048160322 0.0003196539 0.056066245 0.114456624 0.1348632
0.1451126 0.0350573 -0.020187763 0.0035326073 -0.027512051 -0.07985417 -0.06682157 -0.16725153
0.0022303516 0.09925635 0.09879516 0.011318546 -0.03139751 -0.09254198 -0.15401238 -0.10556199
-0.14843316 -0.10242752 -0.0071454947 0.02585392 0.1153975 0.11545228 0.14411677 0.022465056
0.1981811 0.04304652 0.04274061 -0.055209655 -0.031091997 0.08083721 0.071056165 0.086281225
-0.17962351 -0.060354684 0.08126269 0.034278344 0.08321095 -0.010475436 -0.05865762 -0.13861139
00000000: 05cc 853c bfe0 6fbd c769 82bd abcd b8bd
00000010: 045d fbbd 1d77 ebbd e502 c4bd f75a 7bbd
00000020: b1c5 8dbc 8d9f 0c3e 728d c93d 5cd9 c13d
00000030: 05c6 043d 004e 483d 4918 cc3d c3c4 013e
00000040: 723b c9bd e5a4 c9bd d9f6 b5bc c243 453d
00000050: 3897 a739 b8a5 653d 3c68 ea3d 9419 0a3e
00000060: 6698 143e 3e98 0f3d cf60 a5bc 5183 673b
00000070: f460 e1bc 958a a3bd bfd9 88bd fc43 2bbe
00000080: 172b 123b ea46 cb3d 1e55 ca3d 6c71 393c
00000090: ad9a 00bd a686 bdbd 6cb5 1dbe e230 d8bd
000000a0: ddfe 17be 85c5 d1bd c124 eabb 9acb d33c
000000b0: 8655 ec3d 3f72 ec3d 5993 133e a308 b83c
000000c0: fcef 4a3e 8c51 303d c710 2f3d 8523 62bd
000000d0: a5b4 febc fb8d a53d e585 913d 36b4 b03d
000000e0: 3aef 37be 7936 77bd 0e6d a63d 7367 0c3d
000000f0: 816a aa3d 2aa1 2bbc f942 70bd 25f0 0dbe

encoding.conv2d.bias f4 [4]
-0.30977243 -0.4529336 -0.04525545 0.011858361
00000000: 7e9a 9ebe eae6 e7be c75d 39bd 9249 423c

encoding.bnorm1.weight f4 [4]
2.0347536 2.2486095 1.6050587 1.5746127
00000000: 6739 0240 38e9 0f40 9072 cd3f e98c c93f

encoding.bnorm1.bias f4 [4]
0.54800266 0.65065205 0.29688695 0.1390475
00000000: e749 0c3f 2291 263f 9101 983e 7862 0e3e

encoding.bnorm1.running_mean f4 [4]
-0.3133933 -0.45172474 -0.046372637 0.0134303095
00000000: 1675 a0be 7748 e7be 3cf1 3dbd cd0a 5c3c

encoding.bnorm1.running_var f4 [4]
1.2303079 0.15548746 0.1717591 0.36128387
00000000: bb7a 9d3f 1b38 1f3e 9ee1 2f3e 33fa b83e

ds.proj_conv.weight f4 [8, 4, 7]
0.007200154 -0.019866932 -0.052987136 -0.08296397 -0.07854711 -0.14076613 -0.19490936 -0.035510547
0.074695274 0.019515127 -0.009648698 0.066133834 -0.004401071 0.013188115 -0.22148164 -0.18695173
-0.17697896 -0.026929418 -0.0049054804 0.004307938 0.044319015 -0.2130784 -0.21793874 -0.13624167
-0.07341886 -0.056922805 -0.010624953 0.00067966845 -0.1055517 -0.0380217 -0.07821112 -0.0024755863
0.04302141 0.037150994 0.016326452 0.06978963 0.14742678 0.22772586 0.082203835 0.01806808
-0.07892925 -0.13044344 0.019258298 0.01174897 -0.03885605 0.046588458 0.04519053 -0.20643231
-0.2921423 0.14255686 0.044298053 -0.00094662874 0.059513513 0.07815916 0.10197197 0.13346817
-0.07245845 -0.041354764 -0.017222166 -0.017879799 -0.03263862 0.0027609118 -0.051519252 -0.03815623
-0.06976686 -0.115657344 0.01972896 -0.16772117 -0.2851541 -0.16194172 -0.2114971 -0.066738494
0.04203623 0.054482825 -0.21447775 -0.15680325 -0.16071184 -0.29748583 -0.13029663 -0.050557643
-0.05441815 -0.003974489 0.040396806 -0.03277459 -0.06905689 -0.07218141 -0.024329906 0.041963313
0.04596523 0.06688995 0.08935717 -0.017836167 -0.045868915 0.07951856 0.07657893 0.07442122
0.0008172313 0.038403857 -0.2133753 -0.03918151 0.09423433 0.16480994 0.07103552 0.027837988
0.05732173 0.043000255 0.019413745 0.02226353 0.03995945 0.020211274 0.064371355 0.023815427
-0.007575844 -0.0052483086 -0.053459436 -0.086617075 -0.09867039 -0.08387117 -0.03774557 -0.114831574
-0.017178385 0.02452585 0.0989212 0.22543876 0.07367881 -0.0049608443 0.12897201 0.06516974
0.03959885 0.055770982 0.08040689 0.12520398 0.2055365 0.042351298 -0.1330439 -0.1370987
-0.26254445 -0.29223216 -0.11295455 0.041542005 0.040080767 -0.0005269065 -0.019438906 0.0084617445
0.022774529 0.0702048 0.06861947 0.04891605 0.036505993 0.0043421495 -0.07165816 -0.051772796
-0.06231861 -0.06352637 0.20155993 0.14348453 0.067651756 0.038117375 -0.06517629 -0.013271167
-0.07505794 0.07927374 0.12526141 0.088468224 0.11474864 0.072931685 0.09748275 0.061108135
0.16394418 0.14642514 0.070883036 0.10293022 0.12787797 0.08212413 0.05246825 0.053769533
0.053070232 0.12037844 0.046402603 -0.04561284 -0.1817212 -0.17350426 0.009315645 -0.01879216
-0.0072291307 -0.04652056 -0.075777285 0.033303544 -0.017310023 0.11392142 0.09938713 0.0008511785
-0.01391038 -0.0068112332 0.030690948 0.06498164 0.21274368 0.16625437 0.14795816 0.12397334
0.05089216 0.051741865 0.022324223 0.08325562 0.11083386 0.20699179 0.066131674 0.068225056
0.029097054 -0.049510404 0.066149816 0.011290077 0.011185382 -0.012380798 -0.021698283 0.025732793
-0.032002263 0.06475669 0.0028743218 -0.022796128 -0.011368651 0.0055916277 -0.0004521044 0.04870649
00000000: 45ef eb3b fabf a2bc 0a09 59bd 04e9 a9bd
00000010: 4fdd a0bd ff24 10be 5296 47be 8273 11bd
00000020: d6f9 983d 30de 9f3c 9315 1ebc 2d71 873d
00000030: dc36 90bb f712 583c 15cc 62be 4670 3fbe
00000040: f939 35be 159b dcbc 27be a0bb 9a29 8d3b
00000050: db87 353d 3931 5abe 552b 5fbe f082 0bbe
00000060: a15c 96bd e327 69bd 4814 2ebc c72b 323a
00000070: 7d2b d8bd a4bc 1bbd 272d a0bd 723d 22bb
00000080: 3837 303d a42b 183d 0dbf 853c deed 8e3d
00000090: 0cf7 163e f830 693e 7c5a a83d 8303 943c
000000a0: a9a5 a1bd f792 05be 94c3 9d3c c07e 403c
000000b0: 8627 1fbd 8ad3 3e3d b519 393d fe62 53be
000000c0: ad93 95be 6dfa 113e e071 353d 2e27 78ba
000000d0: 71c4 733d e911 a03d aed6 d03d e1ab 083e
000000e0: 1965 94bd 9d63 29bd 8015 8dbc a878 92bc
000000f0: 13b0 05bd 6af0 343b da05 53bd b549 1cbd
00000100: ede1 8ebd c2dd ecbd a19e a13c 19bf 2bbe
00000110: b8ff 91be 0dd4 25be b292 58be 31ae 88bd
00000120: 2f2e 2c3d 6229 5f3d 0ea0 5bbe 0891 20be
00000130: a591 24be 1050 98be 7b6c 05be 8815 4fbd
00000140: 91e5 5ebd 6e3c 82bb 1f77 253d a63e 06bd
00000150: b36d 8dbd d9d3 93bd 834f c7bc b9e1 2b3d
00000160: 0946 3c3d 99fd 883d e400 b73d 271d 92bc
00000170: 0be1 3bbd a0da a23d 6ad5 9c3d 276a 983d
00000180: 773b 563a 5d4d 1d3d 0e7f 5abe cb7c 20bd
00000190: eefd c03d f0c3 283e 127b 913d 7e0c e43c
000001a0: 31ca 6a3d 0921 303d 9309 9f3c 0262 b63c
000001b0: 85ac 233d 1d92 a53c 21d5 833d 9218 c33c
000001c0: c93e f8bb 01fa abbb 48f8 5abd 4b64 b1bd
000001d0: b413 cabd a6c4 abbd 199b 1abd d12c ebbd
000001e0: afb9 8cbc 6fea c83c 3397 ca3d 6bd9 663e
000001f0: eae4 963d 948e a2bb 3d11 043e b677 853d
00000200: 6732 223d 1d70 643d 5eac a43d 7935 003e
00000210: 2978 523e 8e78 2d3d a93c 08be 9a63 0cbe
00000220: 3a6c 86be 749f 95be b754 e7bd f327 2a3d
00000230: bb2b 243d 1920 0aba 573e 9fbc 21a3 0a3c
00000240: a691 ba3c 89c7 8f3d 5d88 8c3d 325c 483d
00000250: 4f87 153d 9748 8e3b 83c1 92bd b60f 54bd
00000260: cc41 7fbd 1d1a 82bd ba65 4e3e 9ced 123e
00000270: 018d 8a3d f720 1c3d 267b 85bd 4f6f 59bc
00000280: fab7 99bd 455a a23d 8744 003e d42e b53d
00000290: 5601 eb3d 355d 953d 09a5 c73d 864c 7a3d
000002a0: fce0 273e 79f0 153e 202b 913d 14cd d23d
000002b0: 71f2 023e b230 a83d f3e8 563d 713d 5c3d
000002c0: 2c60 593d f988 f63d a810 3e3d 88d4 3abd
000002d0: 1f15 3abe 1aab 31be a6a0 183c 04f2 99bc
000002e0: 58e2 ecbb 588c 3ebd 1f31 9bbd 4c69 083d
000002f0: c0cd 8dbc a24f e93d 7b8b cb3d 9f21 5f3a
00000300: 5de8 63bc c430 dfbb 956b fb3c 1815 853d
00000310: 7bd9 593e 963e 2a3e 5882 173e bce5 fd3d
00000320: 4c74 503d 47ef 533d 4ae1 b63c ec81 aa3d
00000330: ddfc e23d a8f5 533e 0b70 873d 94b9 8b3d
00000340: f25c ee3c 6ccb 4abd 8e79 873d 04fa 383c
00000350: e442 373c d5d8 4abc 99c0 b1bc 94cd d23c
00000360: ce14 03bd 289f 843d 1e5f 3c3b f2be babc
00000370: 9443 3abc f939 b73b 6d08 edb9 7580 473d

ds.proj_conv.bias f4 [8]
0.0006958157 0.026507841 -0.16509014 -0.12032541 -0.030451529 -0.03038118 -0.117532626 -0.15952343
00000000: 6767 363a f926 d93c 640d 29be 2b6d f6bd
00000010: 7c75 f9bc f4e1 f8bc f2b4 f0bd 1c5a 23be

ds.proj_bn.weight f4 [8]
2.0440824 2.4106202 1.4957042 1.1310966 1.4378363 1.1552697 1.3130444 1.6024114
00000000: 3fd2 0240 9a47 1a40 3c73 bf3f c6c7 903f
00000010: 050b b83f e1df 933f d711 a83f d11b cd3f

ds.proj_bn.bias f4 [8]
0.32286525 0.21702509 -0.016491143 -0.24383299 -0.06760612 -0.25861984 -0.21824363 0.4607984
00000000: 984e a53e d33b 5e3e 6f18 87bc 5baf 79be
00000010: 1475 8abd d269 84be 427b 5fbe c5ed eb3e

ds.proj_bn.running_mean f4 [8]
-0.34785128 0.10958451 -0.7185419 0.038593106 -0.052484814 0.1330991 0.0877072 0.26297063
00000000: 9019 b2be d86d e03d 5df2 37bf ce13 1e3d
00000010: 51fa 56bd 214b 083e d59f b33d 16a4 863e

ds.proj_bn.running_var f4 [8]
0.18606614 0.17614217 0.17489578 0.029462488 0.097204894 0.06175132 0.09064952 0.102926515
00000000: 1f88 3e3e 9d5e 343e e117 333e 515b f13c
00000010: 5c13 c73d f4ee 7c3d 75a6 b93d 23cb d23d

ds.proj_conv1.weight f4 [4, 8, 5]
0.021631226 0.053960994 -0.050190147 -0.31950152 -0.2466047 -0.06193482 0.1608596 0.009539987
-0.08205545 0.045090407 0.03845503 -0.026773725 -0.038660623 -0.058686413 -0.11481731 0.055575907
0.051673267 -0.09550955 -0.01400807 -0.17278822 -0.08472508 -0.05370321 -0.23086366 -0.036651704
-0.20050094 -0.1438192 -0.08761108 0.01030121 0.0015277158 -0.022442766 -0.065896 -0.061819363
-0.014510931 0.06266242 0.11712558 -0.01886278 -0.00621077 -0.010590418 0.005461708 0.05888677
-0.0066311713 -0.21564619 -0.3542187 -0.24176735 0.03292496 -0.07697494 -0.024485901 -0.04065837
-0.16354096 -0.033048544 0.00126081 -0.09528542 -0.012394907 0.035965674 0.13024427 0.14707513
0.061842047 0.024976144 -0.004064899 0.02270097 -0.113967985 0.04162148 -0.08936652 -0.03168034
-0.0038171322 -0.090746485 0.14417109 0.023887446 -0.007524128 -0.03531471 -0.05656403 -0.0180193
0.004708483 0.014281152 0.018543946 0.021777362 -0.04997225 0.03689944 0.008953478 0.10317888
-0.0024121935 0.049023755 0.057092745 0.029917583 0.016995043 -0.06577358 0.0355244 0.04094994
0.22030865 0.25564075 -0.08819341 -0.029377911 -0.34179834 -0.05233853 0.04021308 -0.05487906
-0.023793949 -0.015732648 0.0024302935 -0.15992865 -0.009355477 0.017540427 0.11157138 -0.009354795
-0.19431554 -0.025291815 0.06895922 0.033470854 0.01637027 -0.022579582 -0.03853422 0.029952066
0.14914785 0.1893248 -0.01125536 0.032960832 -0.011576039 0.06498815 0.08547434 -0.045214765
0.027574046 -0.028200867 -0.087371774 -0.21784972 0.057152107 -0.30886272 -0.14930081 -0.021190323
-0.11847941 -0.08338454 0.18566732 0.055071287 0.08309555 0.13994269 0.1355328 0.069691196
0.09347005 0.10842952 0.1362223 0.049680393 0.010138201 0.12015599 -0.054634348 -0.10986517
-0.029410316 -0.057592 0.076987736 0.060137063 0.051918764 0.066960484 -0.07994352 -0.071227275
-0.021440882 0.00925345 -0.02917548 -0.035024688 0.073585905 0.11080488 0.06261923 0.044713173
00000000: f833 b13c 3406 5d3d 2f94 4dbd b495 a3be
00000010: f185 7cbe 5eaf 7dbd 61b8 243e 9b4d 1c3c
00000020: b00c a8bd b8b0 383d 0683 1d3d 9254 dbbc
00000030: 9a5a 1ebd 2a61 70bd 5625 ebbd 90a3 633d
00000040: 59a7 533d 839a c3bd 1b82 65bc 65ef 30be
00000050: 5884 adbd e6f7 5bbd 8667 6cbe 1920 16bd
00000060: 1e50 4dbe 5745 13be 706d b3bd 68c6 283c
00000070: a33d c83a e4d9 b7bc 7bf4 86bd 4d36 7dbd
00000080: 42bf 6dbc 2855 803d 89df ef3d 1e86 9abc
00000090: b783 cbbb 6f83 2dbc 21f8 b23b 4133 713d
000000a0: 4c4a d9bb 5bd2 5cbe 275c b5be dc91 77be
000000b0: 53dc 063d 0aa5 9dbd a896 c8bc 6489 26bd
000000c0: 4877 27be e95d 07bd c341 a53a 0125 c3bd
000000d0: 0214 4bbc be50 133d c15e 053e dd9a 163e
000000e0: 164e 7d3d c59a cc3c d832 85bb 62f7 b93c
000000f0: 0c68 e9bd 497b 2a3d cb05 b7bd 3fc3 01bd
00000100: da28 7abb 4bd9 b9bd 96a1 133e 9baf c33c
00000110: f68c f6bb 28a6 10bd afaf 67bd 369d 93bc
00000120: 9e49 9a3b 7efb 693c 79e9 973c 7066 b23c
00000130: b4af 4cbd de23 173d 9cb1 123c 734f d33d
00000140: e415 1ebb 22cd 483d 15da 693d b815 f53c
00000150: 3039 8b3c 4cb4 86bd 0982 113d 20bb 273d
00000160: 9798 613e 58e3 823e bf9e b4bd f2a9 f0bc
00000170: 3100 afbe ed60 56bd 78b6 243d ddc8 60bd
00000180: 87eb c2bc c1e1 80bc 8f45 1f3b 56c4 23be
00000190: b747 19bc f1b0 8f3c 897f e43d db44 19bc
000001a0: a7fa 46be c830 cfbc 7e3a 8d3d bc18 093d
000001b0: f21a 863c d1f8 b8bc 0fd6 1dbd 095e f53c
000001c0: 37ba 183e 5cde 413e 6768 38bc f001 073d
000001d0: 6da9 3dbc 8218 853d 2c0d af3d 1e33 39bd
000001e0: f7e2 e13c 8105 e7bc f9ef b2bd ff13 5fbe
000001f0: 5418 6a3d 4123 9ebe 50e2 18be 5497 adbc
00000200: 55a5 f2bd 84c5 aabd 931f 3e3e 6e92 613d
00000210: 002e aa3d 234d 0f3e 1cc9 0a3e 42ba 8e3d
00000220: 3a6d bf3d 4c10 de3d dc7d 0b3e ab7d 4b3d
00000230: b21a 263c 5814 f63d 44c8 5fbd fe00 e1bd
00000240: e7ed f0bc 97e5 6bbd bfab 9d3d 4852 763d
00000250: c5a8 543d 9422 893d 6eb9 a3bd 9bdf 91bd
00000260: caa4 afbc c89b 173c 6b01 efbc 0c76 0fbd
00000270: 35b4 963d abed e23d 833e 803d 2925 373d

ds.proj_conv1.bias f4 [4]
-0.010536318 0.24616148 0.15245903 -0.12461648
00000000: 85a0 2cbc c111 7c3e 381e 1c3e ed36 ffbd

ds.proj_bn1.weight f4 [4]
2.5011456 2.7173111 2.5359755 2.7622359
00000000: c512 2040 6de8 2d40 6c4d 2240 79c8 3040

ds.proj_bn1.bias f4 [4]
0.8774717 0.8385519 0.9828488 0.9541358
00000000: fca1 603f 56ab 563f fb9b 7b3f 3e42 743f

ds.proj_bn1.running_mean f4 [4]
-0.5454808 -0.19193192 0.31759518 -0.097777635
00000000: a1a4 0bbf cd89 44be d69b a23e a43f c8bd

ds.proj_bn1.running_var f4 [4]
0.12391922 0.2233284 0.15744656 0.1382458
00000000: 5cc9 fd3d 33b0 643e ac39 213e 4f90 0d3e

head.weight f4 [15, 128]
0.07705638 -0.30699742 -0.36843914 -0.05386081 0.24593711 0.24719374 -0.057772513 -0.40565422
-0.57974845 -0.7883688 -0.18391234 0.52954704 0.5961208 -0.24477135 -0.3089062 -0.29576594
0.007530927 0.13306752 0.55280876 0.4623933 -0.2418789 -0.7230453 -0.2025681 -0.49277347
-0.26777506 -0.29610732 -0.10687922 0.08941155 -0.20298724 -0.22981629 -0.04589457 0.14525236
0.23538466 -0.22991237 -1.2703083 -0.5527556 0.028024958 0.12457382 0.18287683 -0.32756338
-0.6548615 -0.9164244 -0.54705375 0.06940676 0.6786877 0.32302198 -0.4544944 -0.84357
-0.122739956 -0.4035482 0.31577688 0.73706925 0.12867866 -0.5687554 -0.43742737 -0.5847174
-0.34239358 -0.40387473 -0.29109782 -0.114889376 -0.37057367 -0.6064852 -0.4940191 -0.44393355
-0.52604926 -0.14418268 0.16866119 0.2912702 0.3780963 0.36357996 -0.02627758 -0.65736145
-0.84186554 -0.8886682 -0.22496203 0.02299732 0.6238278 0.2392368 -0.032318085 -1.2398111
-0.65968984 -0.25456282 -0.57196844 0.216761 0.3587173 0.011112078 -0.8270966 -0.47012478
-0.05782731 0.4830094 0.43117613 0.2927593 -0.06322089 -0.19845705 -0.6275879 -0.86981165
0.39161938 -0.21620753 -0.79577667 -0.5033017 -0.12499912 0.019219501 -0.58400303 -0.22699337
0.13128725 0.20961134 -0.13584211 0.31036562 0.6970041 0.03864148 -0.3467102 -0.6054583
0.37510586 0.06105795 0.4752682 0.6386414 0.252126 0.28357765 -0.2316502 0.24119252
-0.5856236 -0.45816618 -0.274876 -0.3735518 -0.34700996 -0.49245504 -0.10881156 -0.11945302
0.5009617 0.33214596 0.16899821 0.10239436 -0.6825358 -0.5847781 -0.29688415 -0.23406851
0.022581574 -0.13172166 0.18637982 0.07121327 -1.2021044 -0.84915835 -0.99318904 -0.84800106
-1.6786369 -1.467294 -0.82994413 0.087216824 0.06063726 0.5333451 0.0644185 0.10867298
0.2435015 -0.10822214 -0.41356283 0.30295518 0.43154335 0.40648082 0.40640512 -0.38855153
0.44551075 0.40894303 0.2653607 0.26913944 -0.1375824 -0.977659 -0.6399207 -0.20726791
-0.20693007 -0.17805094 -0.28793973 0.13836557 -0.62386 -1.4848984 -0.63492966 -1.0196077
-1.5467794 -1.7061651 -1.4482454 -0.54683393 0.0855 -0.35959953 0.4949578 -0.31607765
0.07103397 0.0631651 -0.36717826 -0.025867637 0.33320487 0.42371973 0.46791962 0.28507122
0.0060030418 0.41253987 0.03829186 -0.18436487 -0.29831463 -0.17832722 -0.12881589 0.10729179
0.0709144 -0.5087584 -0.12792583 -0.08331575 -0.8414364 -0.44882494 -0.46594435 -1.8550853
-0.35740304 -0.31332317 -0.8954377 -1.6433458 -0.13749135 0.4125742 0.2579481 0.2912152
0.09663237 -0.8687404 -1.2218413 -0.41511413 -0.1892017 0.09795132 0.47874755 0.55167687
0.4149264 0.4104916 0.26858214 0.2684801 -0.09725568 -0.43430358 -0.11802184 -0.082277395
-0.44601253 -0.815763 -0.122159414 0.21531697 -0.6489927 -0.8052574 -0.10260678 -0.72302157
-0.7841308 -0.6820813 -0.91744053 -0.13071027 0.03478475 -0.6078127 -0.5573391 -0.36890554
-0.028936453 -0.2443847 -0.09346998 0.37575713 0.33700266 0.3894799 0.39113665 0.050817557
00000000: bccf 9d3d c42e 9dbe 0ea4 bcbe 279d 5cbd
00000010: f0d6 7b3e 5b20 7d3e dfa2 6cbd e9b1 cfbe
00000020: 656a 14bf 8ad2 49bf 8453 3cbe 6590 073f
00000030: 5f9b 183f 57a5 7abe f428 9ebe a26e 97be
00000040: ffc5 f63b da42 083e e084 0d3f d1be ec3e
00000050: 1aaf 77be 7f19 39bf 036e 4fbe ce4c fcbe
00000060: d019 89be 619b 97be 7ee3 dabd 671d b73d
00000070: e3db 4fbe f654 6bbe f2fb 3bbd 09bd 143e
00000080: ad08 713e 266e 6bbe 7699 a2bf 6481 0dbf
00000090: 9994 e53c 8f20 ff3d 1044 3b3e 63b6 a7be
000000a0: 01a5 27bf ca9a 6abf b70b 0cbf 2225 8e3d
000000b0: 7abe 2d3f 2363 a53e 7db3 e8be 34f4 57bf
000000c0: 165f fbbd df9d cebe 82ad a13e 92b0 3c3f
000000d0: 57c4 033e f499 11bf 7bf6 dfbe 0ab0 15bf
000000e0: 364e afbe abc8 cebe c60a 95be 1f4b ebbd
000000f0: d5bb bdbe 9d42 1bbf 12f0 fcbe 424b e3be
00000100: 2aab 06bf a0a4 13be 85b5 2c3e 5e21 953e
00000110: d795 c13e 2727 ba3e 1444 d7bc d748 28bf
00000120: 8084 57bf c27f 63bf 725c 66be e064 bc3c
00000130: 2eb3 1f3f 7efa 743e f85f 04bd 21b2 9ebf
00000140: 6fe1 28bf 0f56 82be 866c 12bf 98f6 5d3e
00000150: cba9 b73e 6f0f 363c 9abc 53bf 32b4 f0be
00000160: 54dc 6cbd 024d f73e 1ec3 dc3e 8ce4 953e
00000170: f479 81bd 5338 4bbe 9aa9 20bf faab 5ebf
00000180: 5682 c83e 8265 5dbe 05b8 4bbf 61d8 00bf
00000190: 8aff ffbd 3772 9d3c 3981 15bf f370 68be
000001a0: 2a70 063e 5ba4 563e 321a 0bbe 3ee8 9e3e
000001b0: dc6e 323f 8746 1e3d 0084 b1be 51ff 1abf
000001c0: e00d c03e e717 7a3d 5a56 f33e 017e 233f
000001d0: a916 813e 1731 913e b635 6dbe 2cfb 763e
000001e0: 6eeb 15bf c294 eabe 8cbc 8cbe 2e42 bfbe
000001f0: 4aab b1be 1123 fcbe 98d8 debd c9a3 f4bd
00000200: 073f 003f 090f aa3e de0d 2d3e 22b4 d13d
00000210: abba 2ebf 04b4 15bf 3301 98be a8af 6fbe
00000220: fefc b83c 0be2 06be 5ada 3e3e 43d8 913d
00000230: 8fde 99bf 7162 59bf a341 7ebf 9916 59bf
00000240: 93dd d6bf 4ad0 bbbf 3877 54bf bc9e b23d
00000250: c75e 783d 4e89 083f d9ed 833d f08f de3d
00000260: 7558 793e 92a3 ddbd 82be d3be f11c 9b3e
00000270: 40f3 dc3e 411e d03e 5514 d03e 3af0 c6be
00000280: fc19 e43e fb60 d13e 5cdd 873e a5cc 893e
00000290: 67e2 0cbe dc47 7abf d8d1 23bf 0a3e 54be
000002a0: 7ae5 53be fc52 36be d66c 93be b4af 0d3e
000002b0: 4ab5 1fbf 2711 bebf c08a 22bf 8182 82bf
000002c0: defc c5bf 9e63 dabf 1b60 b9bf 4ffd 0bbf
000002d0: a01a af3d 6e1d b8be 1c6b fd3e eed4 a1be
000002e0: 427a 913d b45c 813d cafe bbbe 5ee8 d3bc
000002f0: d499 aa3e cbf1 d83e 2993 ef3e dbf4 913e
00000300: 2ab5 c43b 6d38 d33e edd7 1c3d 25ca 3cbe
00000310: b2bc 98be 699b 36be 50e8 03be ccbb db3d
00000320: 923b 913d fe3d 02bf fdfe 02be 73a1 aabd
00000330: 6068 57bf 62cc e5be 4290 eebe 6f73 edbf
00000340: 88fd b6be e56b a0be 683b 65bf 2859 d2bf
00000350: 88ca 0cbe ed3c d33e c611 843e 291a 953e
00000360: 31e7 c53d c565 5ebf 4c65 9cbf d789 d4be
00000370: 17be 41be b49a c83d 661e f53e b23a 0d3f
00000380: 3c71 d43e f42b d23e 9983 893e 3976 893e
00000390: fc2d c7bd 0a5d debe 6fb5 f1bd 0d81 a8bd
000003a0: c15b e4be d8d5 50bf b72e fabd 0d7c 5c3e
000003b0: 6324 26bf 5925 4ebf 8123 d2bd f117 39bf
000003c0: ccbc 48bf e19c 2ebf 62dd 6abf ead8 05be
000003d0: 747a 0e3d 9d99 1bbf c6ad 0ebf 30e1 bcbe
000003e0: 240c edbc fc3f 7abe 306d bfbd 3d63 c03e
000003f0: 9d8b ac3e e969 c73e 1043 c83e 1226 503d

head.bias f4 [15]
0.38608542 0.23202284 -0.4392186 -0.5545596 0.41626826 -0.37298858 -0.39860055 0.37602672
-0.5028226 0.07839045 0.076952614 -0.17943393 -0.14354625 0.64767855 -0.21809594
00000000: fdac c53e 6597 6d3e 43e1 e0be 9ef7 0dbf
00000010: 1d21 d53e 5cf8 bebe 5f15 ccbe 9386 c03e
00000020: fbb8 00bf 2c8b a03d 5599 9d3d 87bd 37be
00000030: cafd 12be 43ce 253f 8b54 5fbe
