surrogate/trained_model/BCRNet_S/model_rate8_fold4.pth (torch, 14313 bytes, 14 tensors)

ds.proj_conv.weight f4 [8, 2, 7]
00000000: 1c71 b9bd 6d77 3bbe 2bbc dcbd a5f1 0c3e
00000010: b4ef 133e c7c7 7abd cf17 6fbd 4435 ddbd
00000020: bd9f 43bd 3256 923d 02a3 b13d 8fd1 173e
00000030: 0efd f13d 3a24 513d fa5f a9bd e666 acbd
00000040: ece9 ebbd 1754 16bd 0887 853c f20f 52bd
00000050: 517a 543c d771 123e 82c1 263e 1d90 263e
00000060: 22c2 023e 604b a73d 9380 b93c fc6e 4e3d
00000070: c91f b83c 4253 193d f3b0 963d 2be0 143e
00000080: 5a1c fc3d 3bb7 233e a8a9 303d ef33 fabd
00000090: c6e1 23bd 4dad 9fbd ef46 2ebd f874 063d
000000a0: acc8 09bd 7e98 e6bc 8a1f 603d 67bb 933d
000000b0: 36fb 173d fdcf a23d 77b8 a03d 0cd0 003e
000000c0: 1f47 c03d 1e58 ddbd 6d46 283d 4519 1dbd
000000d0: b4d2 ac3d 963f c63d 3a37 023e 6eb0 123e
000000e0: 53d9 ec3d 3cba 023e c172 2b3e bc71 0c3e
000000f0: bb6c fa3c aa17 223c 213c c73a af87 b53d
00000100: cba3 f13d e8fc 0e3e 7228 033e 078c 053e
00000110: 1f63 043e 9081 953d 8438 9abd 3852 67bd
00000120: 7192 38bc 9a23 07bc 7ab7 bbbd fcab 8dbd
00000130: 51c6 5abd a8bb d9bc 93d3 f2bd 027c 25be
00000140: fa8d e9bd 05f7 67be 19af 7fbd e726 4d3c
00000150: 84c8 dd3c 7a53 973d 2c14 c03d 5efd 5d3d
00000160: 7f43 303c 57b6 7abb 4e74 3bbd fe13 78be
00000170: d326 60be 2423 1abe 60fe 01be 6920 03be
00000180: 0c8a 13be 0d07 89bd e13a f2bd be42 18be
00000190: 5685 b5be 0101 f0bd 0715 d0bd efb4 cebc
000001a0: 8c33 c73c 49e9 ec3d c31b d93d 89d8 9f3c
000001b0: 91a1 dc3b d790 09bc 2923 ecbb 5322 bf3a
-0.09054777 -0.18307276 -0.10778078 0.13764055 0.14446908 -0.06122568 -0.058372315 -0.10801175
-0.04775976 0.07145347 0.086736694 0.14826034 0.118158445 0.05105994 -0.08270259 -0.08418064
-0.115192264 -0.036701288 0.01629974 -0.051284738 0.012968616 0.14301239 0.16284755 0.16265912
0.12769368 0.081686735 0.022644317 0.05039881 0.022476094 0.037432916 0.07357969 0.14538638
0.12310095 0.15987866 0.043130547 -0.12216937 -0.040010236 -0.077967264 -0.042548116 0.032826394
-0.03363864 -0.028148886 0.054717578 0.072134785 0.037104808 0.07949827 0.07847684 0.12579364
0.09388565 -0.10807823 0.04108279 -0.038354177 0.08438626 0.09680097 0.1271638 0.14325115
0.11564889 0.12766355 0.16742994 0.13715261 0.030569425 0.009893337 0.0015200415 0.0886377
0.11798819 0.13963664 0.12808397 0.13041697 0.12928437 0.07300103 -0.07530311 -0.056474894
-0.011265383 -0.008248234 -0.09165855 -0.06917569 -0.053411786 -0.02657874 -0.11856761 -0.16160586
-0.11404033 -0.22652824 -0.062422846 0.012521482 0.027073152 0.07388969 0.093788475 0.054196708
0.01075828 -0.0038255656 -0.045765214 -0.24226376 -0.2188981 -0.15052468 -0.12694693 -0.12805332
-0.1440813 -0.06690798 -0.118276365 -0.1486921 -0.3545329 -0.117189415 -0.10160261 -0.02523276
0.024316572 0.11567933 0.10600998 0.019512432 0.0067331274 -0.008396349 -0.00720634 0.0014582373

ds.proj_conv.bias f4 [8]
00000000: 37f9 ad3c 3ce1 c9bd aff1 47be 10b9 07be
00000010: bae4 a53e d69d ccbd 2b36 103d 4696 3c3e
0.021236999 -0.09857413 -0.19525789 -0.1325419 0.32401067 -0.09991042 0.03520791 0.184167

ds.proj_bn.weight f4 [8]
00000000: 1cb1 9e3f 6b2d a83f 4839 a53f 2374 963f
00000010: f2eb 983f 376c ae3f 6516 eb3f f492 fc3f
1.23978 1.313886 1.2908106 1.1754192 1.1947005 1.3626775 1.8366209 1.9732347

ds.proj_bn.bias f4 [8]
00000000: d597 81be 8c8c 01be e0d5 52be 0358 91be
00000010: ef1c bfbe 3c5c f7bd ca1d 4dbd fafa 343e
-0.2531115 -0.1265127 -0.205894 -0.2838746 -0.37326762 -0.12078139 -0.050077237 0.17673865

ds.proj_bn.running_mean f4 [8]
00000000: aaa6 423d 52b7 4a3c 3b1c ccbd 0cd8 053e
00000010: fa00 3c3f e714 d2be f26d 55be 5f2a 8dbb
0.047522224 0.0123728085 -0.09966322 0.13070697 0.7343899 -0.41031572 -0.20842722 -0.0043080295

ds.proj_bn.running_var f4 [8]
00000000: fd96 393d 7d76 113e 57b5 c83d d93f 043d
00000010: b662 863d 3337 4b3d 347f 573e 7d59 193e
0.04531001 0.14205356 0.09800213 0.032287452 0.06561796 0.04961319 0.21044618 0.14975543

ds.proj_conv1.weight f4 [4, 8, 5]
00000000: 0978 8ebc 5058 9cbd c9cb 85bd ae9c 46bd
00000010: 11d3 903c 3537 4a3c 368a 2d3b 80ab 9cbe
00000020: 5689 2cbc 6f50 0c3c b242 d8bd 6948 67bd
00000030: a6c2 7d3c d8af 18bd c7ba 83bd 7ebb d3be
00000040: e3ce ccbd 23a6 be3c 3f77 623c 4980 7b3d
00000050: 3475 023d 99a5 86bc 080e 463e 6033 eabc
00000060: dead 94bd 42b1 b53c d635 923d 5941 653d
00000070: 9f30 963d 5eb7 d7bc 41ec d63b ec49 1c3d
00000080: fef9 51bd 02d6 b03c 5960 2d3c 6d9f 78bd
00000090: b94f 9cbd 21d0 31bd 2c50 e5bc 0c08 9dbd
000000a0: 7b0f 853c ce99 1abd 098e 893d a5e6 0abd
000000b0: 0ccf 3e3d 0e3c 8dbb 224d 2b3d 5f0d b9bd
000000c0: ce93 0f3c 7c7b 923b c2dc 803d 0341 8abd
000000d0: e406 8b3d 17a7 7f3d 59ac 9bbb 7e9e 233d
000000e0: 68ce f1bc 03f0 99bd 6faf 8b3d ba9c 73bd
000000f0: 81d2 f63c 4e46 543d 04f6 8e3d 8c8b 6fbc
00000100: 2cbd 303c 88f4 0d3e cb5b 113e 423a 353d
00000110: 85db 4ebd 2b10 cabd f0b7 5a3e c871 e93d
00000120: 2f52 993c 59b1 0c3c 6e92 a7bd 8806 bebe
00000130: 585a 4abe d140 d1bc 5c40 3b3e aa43 873d
00000140: d915 f03b 2af2 a93c d51c 143d fd81 573e
00000150: 6ec1 80bd b6a1 caba f25f 083d 72b0 38bd
00000160: 8247 66bc 245d 8abc ae9d 093c 1722 bb3d
00000170: 4935 543d 65d2 ea3d d065 233c 17f7 483d
00000180: ce73 8ebc e913 d7bc 2b96 eabd 9e43 493c
00000190: f0c6 4b3c 6be8 133e 6af6 913e 3a04 5d3e
000001a0: f59e 333d c5ca 39bd fb41 d53c 49d6 8a3d
000001b0: 5c61 133d b0ba 443d 925c 90bd c786 9cbc
000001c0: 9d12 a93d c088 563e 65c5 763d 4b8f f1b9
000001d0: 3bcb d93d bff0 85bd dbd5 b5be 270a 60bd
000001e0: 7d9f 26be 9428 b7bd 406f e83c cb8f 1abc
000001f0: eaf5 b33d 9df8 ae3a 8505 62be d303 22be
00000200: 92b1 3ebc 963f 71bc 3d19 323d 805c 4dbe
00000210: cdeb 06be 1b47 a5bd 219c 64bd d458 273d
00000220: b932 d2bd 45fe 6bbe e735 583d 9012 c03d
00000230: 5308 8abd 3232 f73d 476b 06be 8c6d 74bd
00000240: 1178 01bd fe53 32bd fe6b aa3d 53fc f63c
00000250: e2e3 573d ee15 d8bc 4702 12bc 0f0b 51bd
00000260: 85f6 60bc 270b de3c c9a2 95bd 9c79 3e3d
00000270: eb28 643d 34ba 04be 909d c3bc 6896 5c3d
-0.017391222 -0.07634032 -0.065330096 -0.048489265 0.01767877 0.012342264 0.0026480085 -0.30599594
-0.01053079 0.008564099 -0.10559596 -0.05646554 0.015488302 -0.037277073 -0.06432109 -0.41353983
-0.10000398 0.02327258 0.013822376 0.06140164 0.031850055 -0.016436385 0.1934129 -0.02858895
-0.07259725 0.02217925 0.07139175 0.055970524 0.073334925 -0.026332553 0.0065589254 0.038156435
-0.0512638 0.021586422 0.010582053 -0.060698915 -0.076323934 -0.043411378 -0.02799233 -0.076675504
0.016242733 -0.037744336 0.06716544 -0.033911366 0.046584174 -0.0043101376 0.041821606 -0.090357535
0.008763267 0.004470287 0.06292106 -0.06750681 0.06788424 0.06241521 -0.00475077 0.03994607
-0.029517367 -0.07516482 0.06820571 -0.059475638 0.030129673 0.05182486 0.069805175 -0.014620673
0.01078729 0.13862813 0.14195172 0.044245012 -0.05050232 -0.09866365 0.21359229 0.11398655
0.018715946 0.008587205 -0.08182226 -0.37114358 -0.19761026 -0.025543602 0.1828627 0.06604703
0.007326823 0.020745356 0.03616031 0.2104568 -0.06286894 -0.001545957 0.033294626 -0.045090146
-0.014055135 -0.016890116 0.00839941 0.091373615 0.05180863 0.11465911 0.009973004 0.04906377
-0.017389204 -0.026254611 -0.114544235 0.012284188 0.012437567 0.14444129 0.28508312 0.21583644
0.043852765 -0.04535939 0.026032439 0.06779153 0.03598152 0.0480296 -0.070489064 -0.019107236
0.08255503 0.20950603 0.060246844 -0.00046073864 0.10634466 -0.06540059 -0.3551472 -0.054697182
-0.16271777 -0.089432865 0.02837336 -0.009433697 0.08787139 0.0013349239 -0.22072418 -0.15821771
-0.011639016 -0.014724633 0.0434811 -0.20054817 -0.13175888 -0.08070203 -0.05581296 0.040856197
-0.10263581 -0.23046215 0.05278578 0.093785405 -0.06739869 0.12070121 -0.1312686 -0.059674785
-0.031608645 -0.043537132 0.08321379 0.030149614 0.05270756 -0.026377644 -0.008911676 -0.051035937
-0.01373065 0.027104927 -0.073064394 0.046502694 0.055703085 -0.12961656 -0.023878843 0.053854376

ds.proj_conv1.bias f4 [4]
00000000: f021 39bd c667 8a3d 946a bf3d 0d04 763e
-0.04519838 0.067580745 0.093465 0.24024983

ds.proj_bn1.weight f4 [4]
00000000: 0100 1c40 c8e2 1540 2f4b 1e40 a36d 1b40
2.4375002 2.3419666 2.4733388 2.4285667

ds.proj_bn1.bias f4 [4]
00000000: bf0a 583f 52bb 4c3f 6658 533f 162a 2d3f
0.843914 0.7997333 0.8255676 0.67642343

ds.proj_bn1.running_mean f4 [4]
00000000: 7dec babe d114 e03d b1af 883e b3a0 bbbd
-0.3650855 0.109414704 0.26696542 -0.0916151

ds.proj_bn1.running_var f4 [4]
00000000: 4551 c23d 89f9 0c3e 7281 e83d a7f3 ce3d
0.09488157 0.13767065 0.11352815 0.10105067

head.weight f4 [15, 128]
00000000: 22d8 bd3c fe67 1dbd 73a5 863e c150 6b3e
00000010: c12a 07bd dbaa 0abe d69f 03be 9ef8 a9bd
00000020: 6124 d03d eee2 693e c06a 7f3e 924a b93e
00000030: da16 c5be ffc0 d4bf 0dd1 553c b9e5 a23e
00000040: 3e39 de3d ec65 853d 5c46 693e 99a6 58bf
00000050: fe75 f9be 0241 483e 1860 53bd b3b5 143e
00000060: 52fa 4e3e f633 3e3d bbe8 9d3d c154 07be
00000070: 97ba 383d 1e29 953e d10d 393e a053 c13d
00000080: 6016 cb3e 45d3 73be f275 b4be 42a9 57be
00000090: 061f cd3d a4a5 493e 9112 773e 573c 833c
000000a0: b540 773d e1f7 35be 1f9d 88be 8475 9dbe
000000b0: 2634 3c3c 6a9b a5bf 2581 f3be 8b88 c0be
000000c0: ef60 c73e 14cc c7be 0ca4 893c 575c acbf
000000d0: 4e71 02bf ff5a 32bf c7f6 64be 6536 143b
000000e0: 3c38 8cbe 9e72 45be 016b 8ebd 6e59 553e
000000f0: b424 0d3e 28bc c03d 814e 5f3e ba6d 8ebc
00000100: 6fb9 aebe 8a0d 78be c73e d5bd befd 243e
00000110: 87a4 973e 35aa a73d 7605 c23d 8b16 e1bd
00000120: 1d09 93be 96ff 1bbf 09af 8cbe b610 2ebf
00000130: 6d99 8ebe e204 5bbf f018 45bf fa0e 29bf
00000140: f51b 34bf 4234 83bf d922 50bf 8057 86bd
00000150: 0d31 6dbf 09c1 3b3e 0db8 20be 3aa9 bcbe
00000160: 6b77 c2bd 589b d93d c054 ac3e f88f 233e
00000170: fddf 7b3e 853b 0c3d 6145 b7bd 7ce9 f7be
00000180: 64bb 13bc 84bb e4bd f935 7dbc f0c4 4b3d
00000190: f5d5 dcbd 796e c63d b81a 39be 935d dfbb
000001a0: d4a0 7c3e ea20 523e f465 f13e 9234 913e
000001b0: d84d 58be cfc7 9abf a5fe b9be 69f9 ab3e
000001c0: 60e7 923e 0a2a babc f68d b13e 8ffb 2ebe
000001d0: 4b76 13bf 726a 593e d104 683e 75b8 893e
000001e0: 584e 1b3e 5b78 df3d 1087 3abe 0877 0cbe
000001f0: 626d 37bc 7816 393c 0769 523e 4a8d c53e
00000200: 0c99 08bf f2b1 28bf 5cc8 e9be 6111 e7be
00000210: 8da8 48be 3b8d 43bd d854 943d a9ce a23d
00000220: ee9b 94bc 1d32 fcbd 443b 6b3e 18f9 0b3e
00000230: 9153 83bc b067 1c3f cf31 9e3e 64b7 7e3e
00000240: bc16 dd3e 066f 163f c2f0 b33e be2f 303f
00000250: 841e d33b 62b7 32be eba1 633d aff7 cd3e
00000260: 257f 08be 4192 53be 6791 5cbc f996 8d3e
00000270: bfbe 0bbe 30b9 27bf 2702 81bf b3d3 c0bf
00000280: 02f1 553d 76f7 a1be a3d1 babe 72ed cbbe
00000290: 2d41 7dbe c87d f4be 670b d0be 50ff c7bd
000002a0: bb21 ebbc 4ac5 5a3d a9d9 5a3d 81e6 0d3d
000002b0: 3285 c0be 67fe a0be 342c 64bf 419a e63d
000002c0: 5834 953e 3631 fbbe 7c45 423d 2c6d ef3e
000002d0: c3d9 20bf 0247 2cbf 829a 0ebe 40b8 113d
000002e0: 3d37 e13d 6a3e 1f3d f7ca 223c 6362 c93c
000002f0: 2c17 d6be 2657 4cbf bcfe 17bf d759 bdbe
00000300: 6d7e 8dbe 17ea 59be 7602 1fbf c7d8 4ebf
00000310: 1444 38bf 698f 38be d124 cab9 638f 2b3d
00000320: ccdc 3d3d f1dc 843d 8ed7 65be f7a3 f4bd
00000330: 2241 dabf 19d2 15bf 4b2a 993e 6715 633c
00000340: fce3 d7be f674 b83e 6523 94bd 03d3 a5bf
00000350: 93c0 5abe dd4e 03bf 8b01 ab3d a356 3d3a
00000360: b29b 05bd cb2e 883c 4e45 aebe a90d 9bbf
00000370: 229f 24bf 0ba2 56bf 57d3 6fbe 51fc ebbd
00000380: 241d d7be 94cd 08bf 54f6 25bf ddca 89be
00000390: ad2f 28be 3737 6e3d 8b34 f5bb 74d2 ad3d
000003a0: 02ed 33be f6e9 cf3d 0284 bd3e 28ad d13d
000003b0: 3322 383d a6b1 063f 7003 113f c8ad a53e
000003c0: 46a6 163f c5fb 923e 93e7 423e ed6e b73e
000003d0: b55e e03e b480 17bf df28 a13e dcd4 d5bb
000003e0: f088 a1be 0765 25be ff4b 313e 7eef 753e
000003f0: 7762 afbd 0dd7 babe e2df 3dbf 5d52 b0bf
0.02317435 -0.038429253 0.26298103 0.22980024 -0.032999758 -0.13541739 -0.12853941 -0.08299373
0.10163189 0.22840473 0.24943066 0.36189705 -0.38493997 -1.6621398 0.01305033 0.3181589
0.10850762 0.06513581 0.22780746 -0.8462921 -0.48722833 0.19556049 -0.051605314 0.14522438
0.20212677 0.046436273 0.077104054 -0.13215925 0.04509982 0.29132932 0.18071677 0.09439778
0.39665508 -0.23811062 -0.35246235 -0.2106066 0.10015683 0.19692093 0.24128176 0.016019983
0.060364444 -0.1777034 -0.26682374 -0.3075372 0.0114870425 -1.2938054 -0.47559467 -0.37604174
0.38941142 -0.39022887 0.016801856 -1.346568 -0.5095414 -0.696701 -0.22359763 0.002261543
-0.27386653 -0.19282004 -0.06954003 0.20834896 0.13783532 0.09410888 0.2180729 -0.017386306
-0.3412585 -0.24223915 -0.104123645 0.1611242 0.29617712 0.08186761 0.09473698 -0.10990628
-0.2871789 -0.6093687 -0.2747729 -0.6799425 -0.2785143 -0.85554326 -0.76991177 -0.6603848
-0.7035516 -1.0250323 -0.81303173 -0.06559658 -0.9265297 0.18335356 -0.1569521 -0.3684786
-0.094954334 0.106253326 0.3365841 0.15972888 0.24597163 0.03423645 -0.0894878 -0.48420322
-0.009016845 -0.11168578 -0.015454763 0.04974836 -0.107829966 0.0968904 -0.18076599 -0.006816575
0.24670726 0.20520368 0.47148097 0.2836042 -0.21123445 -1.2092227 -0.3632709 0.33588722
0.2869215 -0.022725124 0.3467862 -0.1708815 -0.57602376 0.21232012 0.22658087 0.26898542
0.15166605 0.10911628 -0.18215585 -0.13717282 -0.0111955125 0.011296861 0.20547877 0.38584358
-0.5335853 -0.65896523 -0.45660675 -0.45130447 -0.19595547 -0.04774211 0.07242745 0.079495735
-0.01814076 -0.12314246 0.22971827 0.1366924 -0.016031059 0.61095715 0.30897376 0.24874645
0.43181407 0.5876316 0.3514462 0.6882285 0.0064428467 -0.17452767 0.05557434 0.4022803
-0.13329752 -0.2066126 -0.013462401 0.27654245 -0.13646983 -0.6551695 -1.0078782 -1.5064605
0.052231796 -0.3163411 -0.36488065 -0.39829594 -0.24731894 -0.47752213 -0.406337 -0.09765494
-0.028702607 0.053410806 0.053430233 0.034643654 -0.3760162 -0.31444094 -0.8912995 0.1125989
0.29141498 -0.49060982 0.047429547 0.4676298 -0.6283228 -0.6729585 -0.13926128 0.035576105
0.10996864 0.038877882 0.009936086 0.024583047 -0.41814554 -0.7982048 -0.5937307 -0.36982605
-0.27635518 -0.21280704 -0.6211313 -0.80799526 -0.7197888 -0.18023457 -0.00038555873 0.04188479
0.046353146 0.06487454 -0.22445509 -0.11945336 -1.7051127 -0.5852371 0.2991508 0.013860083
-0.42166126 0.36026734 -0.072333135 -1.2955021 -0.21362524 -0.5129221 0.08349904 0.0007222688
-0.032619186 0.016623875 -0.3403725 -1.2113544 -0.6430532 -0.8384101 -0.23420464 -0.11522735
-0.4201442 -0.5343869 -0.6482899 -0.26912585 -0.16424437 0.058158126 -0.0074830703 0.084874064
-0.1757088 0.101520464 0.37014776 0.10238105 0.04495449 0.5261482 0.5664587 0.32359147
0.58847463 0.2870771 0.19033651 0.35826817 0.43822256 -0.5918076 0.31476495 -0.006525619
-0.31549788 -0.1615182 0.17314146 0.2401714 -0.085637026 -0.36492196 -0.74169743 -1.3775135

head.bias f4 [15]
00000000: e901 aabd 792c 20bd 4281 bd3d fcb8 103e
00000010: 9ef2 8ebd 0566 cdbd 2d30 b03d 19b7 06be
00000020: d84d 043e b7ed 24be acd4 0fbd b7fe a6bc
00000030: 79e2 0b3e a44d 09bc e420 603d
-0.083011456 -0.039104912 0.092531696 0.14133066 -0.06979869 -0.10029224 0.08602939 -0.13155784
0.1292032 -0.16106306 -0.03511493 -0.02038513 0.13660611 -0.008380327 0.054718867
