surrogate/trained_model/BCRNet_S/model_direct_ll8_fold4.pth (torch, 17431 bytes, 20 tensors)

encoding.conv2d.weight f4 [4, 2, 8]
-0.121405266 0.0084853135 0.0785253 0.011471791 0.0022139035 0.026841903 0.06985687 0.108428344
0.16060552 0.024616411 -0.018463653 -0.03276977 -0.0077322265 -0.014542801 -0.05278196 -0.11631224
0.08803597 0.036891364 0.09327047 0.033932075 -0.016698264 -0.008531833 -0.0760843 0.09619598
-0.07377361 -0.10888475 -0.07418074 0.020061592 0.06809196 0.046059042 0.028047014 -0.14819095
0.07571714 0.06162584 -0.024268059 -0.014721013 0.02971763 -0.09559732 -0.04967636 -0.13099857
-0.0839982 -0.06429902 0.007423344 -0.021712894 0.052946217 0.1257466 0.08310049 0.10017393
-0.1803097 -0.08824324 -0.07206776 -0.034207083 -0.06903496 -0.060232963 -0.0284364 0.051678367
0.158724 0.08032961 0.07068105 0.07893811 0.047555853 0.044776853 0.034073405 -0.061207913
00000000: 53a3 f8bd fc05 0b3c dfd1 a03d 2ef4 3b3c
00000010: 2317 113b 8de3 db3c 1e11 8f3d ae0f de3d
00000020: c675 243e 5ba8 c93c 1641 97bc 9839 06bd
00000030: 9e5e fdbb ee44 6ebc e631 58bd 1d35 eebd
00000040: 344c b43d 661b 173d 9704 bf3d 5cfc 0a3d
00000050: ccca 88bc 1ac9 0bbc 16d2 9bbd 6602 c53d
00000060: 9e16 97bd f8fe debd 12ec 97bd 3558 a43c
00000070: cc73 8b3d 68a8 3c3d dac2 e53c 5ebf 17be
00000080: 9711 9b3d 606b 7c3d cfcd c6bc 6730 71bc
00000090: 6372 f33c 87c8 c3bd 7079 4bbd 7d24 06be
000000a0: 4007 acbd 34af 83bd 863f f33b 3ddf b1bc
000000b0: 22de 583d b7c3 003e 9730 aa3d fd27 cd3d
000000c0: 1ba3 38be dfb8 b4bd 4398 93bd ba1c 0cbd
000000d0: 3362 8dbd d7b6 76bd 74f3 e8bc b2ac 533d
000000e0: 8b88 223e da83 a43d 3ac1 903d 4eaa a13d
000000f0: edc9 423d ef67 373d 8e90 0b3d 26b5 7abd

encoding.conv2d.bias f4 [4]
0.27442548 -0.001198644 -0.48682207 -0.3428269
00000000: 7f81 8c3e d21b 9dba be40 f9be 0287 afbe

encoding.bnorm1.weight f4 [4]
1.9971457 1.9054524 1.6878408 2.160714
00000000: 78a2 ff3f dde5 f33f 2b0b d83f 2349 0a40

encoding.bnorm1.bias f4 [4]
0.8252187 -0.090175234 1.6267198 0.1473037
00000000: 8841 533f cbad b8bd 5b38 d03f c8d6 163e

encoding.bnorm1.running_mean f4 [4]
0.27645427 0.002788516 -0.49006838 -0.35073403
00000000: 6a8b 8d3e 89bf 363b 3eea fabe 6993 b3be

encoding.bnorm1.running_var f4 [4]
0.08922687 0.19823001 0.1545839 0.77367395
00000000: 94bc b63d cffc 4a3e 3e4b 1e3e 7f0f 463f

ds.proj_conv.weight f4 [8, 4, 7]
0.008974739 0.013859756 -0.03333174 -0.076252826 0.045316745 -0.043205857 -0.032819495 0.08885809
0.13420409 0.17424138 0.08710082 0.069643855 0.008815185 0.048198055 0.041557804 0.069194235
-0.027256476 -0.0806485 -0.059969608 -0.054873377 0.028424982 0.05249939 0.08276627 0.13207349
0.1136412 0.075973496 0.07160193 0.034065045 -0.06210255 -0.18947752 -0.21844943 -0.043591175
-0.33636293 -0.23044157 -0.14257872 -0.2660461 -0.24355741 -0.16647959 0.007389579 0.021739047
0.15900631 0.19028357 0.100441165 0.05349666 0.064894125 0.017085457 0.041230816 0.026932096
-0.053899236 -0.01922131 -0.007299799 0.028310163 0.026984151 0.036776412 -0.017306218 -0.008190852
-0.050858375 -0.014197217 0.039811 -0.06195231 0.010741572 0.025972117 0.057513967 -0.12966758
-0.16344555 -0.13551635 -0.14812244 -0.119538054 -0.1356429 -0.1894893 -0.043400265 -0.011548085
-0.06775163 -0.050498296 -0.03594032 -0.055914048 0.007247967 -0.039482195 -0.03153567 -0.065519065
-0.052809775 -0.14357813 -0.13541271 -0.037600685 -0.03306292 0.049757108 0.038346887 0.06523031
0.28285882 0.2206246 -0.003997722 -0.07796411 -0.07080714 -0.09095139 -0.037703536 0.042108648
0.060920555 0.014739674 -0.04100922 -0.015154332 0.013550039 0.007728993 -0.0005248764 0.022138333
-0.028529597 0.042089716 0.13995576 0.10682998 0.1128642 0.057213936 0.024858326 0.020388706
0.008874147 0.09477197 0.12859723 0.05715266 -0.10578354 -0.15637559 0.0073270686 -0.13166821
-0.13857955 -0.08212525 -0.14734621 -0.10637855 -0.065500244 -0.108249694 -0.08891812 -0.04504699
-0.075989574 -0.0678255 0.036719207 0.039602734 0.040091097 -0.13335077 -0.20236379 -0.25010872
-0.15858088 -0.07641056 -0.022026494 0.056253508 0.026966201 -0.011699213 0.019150686 0.05362844
0.06448886 0.05421137 0.05218871 -0.06490272 -0.1934936 -0.15623437 -0.14942943 -0.0632971
0.022271778 -0.07353956 0.06397113 0.07707813 0.049574386 0.018692348 0.05160354 0.079723135
0.12641749 -0.20703368 -0.21513209 -0.18927786 -0.08247353 -0.07275054 -0.0728584 -0.04627011
0.06606827 0.016996127 -0.029991867 -0.023895944 -0.015350222 -0.025157945 0.017397614 0.06330119
0.06235773 0.056194123 0.049609534 0.05179247 0.0036964784 -0.03178781 -0.06564412 -0.04328652
-0.027234944 0.05712465 0.06614567 -0.0432249 -0.10387536 0.09965986 0.13232355 0.07939419
0.085572295 0.02233417 -0.040780757 -0.1204827 0.01483018 0.075023286 -0.015208495 -0.032642007
0.008283117 -0.006013066 -0.084001966 -0.082661405 -0.008873335 -0.029019345 -0.027532987 0.009309461
-0.033422593 -0.04169083 -0.25703293 -0.46286684 -0.24432643 -0.13170741 -0.059037782 -0.05699797
-0.025899466 0.07888909 0.045240007 0.072663784 0.113636136 0.14393894 0.11569173 0.10292743
00000000: c90a 133c 0814 633c dd86 08bd 712a 9cbd
00000010: 0d9e 393d a0f8 30bd bc6d 06bd 3bfb b53d
00000020: cc6c 093e 556c 323e ea61 b23d 70a1 8e3d
00000030: 916d 103c 536b 453d 8438 2a3d b5b5 8d3d
00000040: f948 dfbc 0a2b a5bd b1a2 75bd e8c2 60bd
00000050: 82db e83c 9a09 573d 5d81 a93d 463e 073e
00000060: b8bc e83d fe97 9b3d 08a4 923d ca87 0b3d
00000070: 3e5f 7ebd 6506 42be 35b1 5fbe a98c 32bd
00000080: c337 acbe e0f8 6bbe 2800 12be 3237 88be
00000090: 1d67 79be a079 2abe 4824 f23b 1616 b23c
000000a0: 8dd2 223e b2d9 423e 19b4 cd3d 501f 5b3d
000000b0: 36e7 843d cdf6 8b3c a5e1 283d b3a0 dc3c
000000c0: 72c5 5cbd 0276 9dbc 2733 efbb b7ea e73c
000000d0: de0d dd3c dda2 163d c5c5 8dbc ec32 06bc
000000e0: df50 50bd 729b 68bc dc10 233d b5c1 7dbd
000000f0: 6bfd 2f3c 7ac3 d43c c493 6b3d 94c7 04be
00000100: 455e 27be ccc4 0abe 69ad 17be 5ed0 f4bd
00000110: f9e5 0abe 7c09 42be 7ac4 31bd 2e34 3dbc
00000120: 5ec1 8abd 4dd7 4ebd 2836 13bd 2106 65bd
00000130: 5b80 ed3b 15b8 21bd 8c2b 01bd dc2e 86bd
00000140: 104f 58bd 2506 13be a1a9 0abe 2d03 1abd
00000150: fc6c 07bd 1cce 4b3d a011 1d3d 7897 853d
00000160: dfd2 903e 6aeb 613e 53ff 82bb a6ab 9fbd
00000170: 5503 91bd b944 babd 066f 1abd 1e7a 2c3d
00000180: d587 793d ac7e 713c 49f9 27bd e049 78bc
00000190: fc00 5e3c 7e43 fd3b dc97 09ba 735b b53c
000001a0: e7b6 e9bc 4466 2c3d 9050 0f3e adc9 da3d
000001b0: 5825 e73d 2959 6a3d b0a3 cb3c 3706 a73c
000001c0: df64 113c ce17 c23d feae 033e e818 6a3d
000001d0: 0aa5 d8bd ec20 20be e817 f03b 08d4 06be
000001e0: cce7 0dbe 4831 a8bd ede1 16be ffdc d9bd
000001f0: fe24 86bd 04b2 ddbd b41a b6bd 3183 38bd
00000200: 6ca0 9bbd 19e8 8abd e166 163d 7a36 223d
00000210: 9036 243d 1b8d 08be 7438 4fbe 400e 80be
00000220: 0763 22be 247d 9cbd e870 b4bc 146a 663d
00000230: 39e8 dc3c 0eae 3fbc e6e1 9c3c 7fa9 5b3d
00000240: bc12 843d be0c 5e3d d4c3 553d b8eb 84bd
00000250: 3023 46be e7fb 1fbe 0704 19be e9a1 81bd
00000260: 4e73 b63c e99b 96bd 4c03 833d 23db 9d3d
00000270: 830e 4b3d b220 993c 3c5e 533d e245 a33d
00000280: 9673 013e a300 54be 964b 5cbe 0ed2 41be
00000290: e2e7 a8bd 3cfe 94bd c936 95bd ba85 3dbd
000002a0: cd4e 873d 763b 8b3c 81b1 f5bc 6dc1 c3bc
000002b0: 7f7f 7bbc 0918 cebc 7185 8e3c 0ea4 813d
000002c0: d26a 7f3d cf2b 663d 5e33 4b3d 5724 543d
000002d0: 9e40 723b ef33 02bd 6d70 86bd 354d 31bd
000002e0: d11b dfbc 89fb 693d 6277 873d 980c 31bd
000002f0: 9bbc d4bd 781a cc3d d37f 073e 6c99 a23d
00000300: 8740 af3d 26f6 b63c b909 27bd a2bf f6bd
00000310: 49fa 723c cfa5 993d 0d2d 79bc a0b3 05bd
00000320: e9b5 073c 4109 c5bb 3909 acbd 624a a9bd
00000330: 7761 11bc fab9 edbc dc8c e1bc b686 183c
00000340: 21e6 08bd 01c4 2abd d299 83be e2fc ecbe
00000350: b530 7abe 4fde 06be 9ad1 71bd b476 69bd
00000360: 1e2b d4bc 9a90 a13d 964d 393d c0d0 943d
00000370: 10ba e83d bb64 133e c9ef ec3d 9ecb d23d

ds.proj_conv.bias f4 [8]
-0.07706266 0.2460653 -0.1323031 -0.009244492 -0.062228687 0.079383 0.06565209 -0.14107347
00000000: 07d3 9dbd 8bf8 7b3e 777a 07be 3676 17bc
00000010: 82e3 7ebd 8e93 a23d 9a74 863d 9075 10be

ds.proj_bn.weight f4 [8]
1.3840125 1.8372387 1.7472 1.9084141 1.8017352 1.6006968 1.2745682 1.7259797
00000000: 5227 b13f a32a eb3f 40a4 df3f ea46 f43f
00000010: 429f e63f a2e3 cc3f 0d25 a33f e7ec dc3f

ds.proj_bn.bias f4 [8]
-0.25616077 0.19533071 0.31836417 -0.11075617 0.2966719 -0.010901702 -0.5851639 0.15427753
00000000: 8127 83be c604 483e a100 a33e 21d4 e2bd
00000010: 61e5 973e 0d9d 32bc 4dcd 15bf eefa 1d3e

ds.proj_bn.running_mean f4 [8]
0.0832719 -0.08964674 -0.55411065 0.27936673 -0.4542455 0.062724575 0.09579768 -0.62971276
00000000: 758a aa3d b698 b7bd 32da 0dbf 2809 8f3e
00000010: de92 e8be be75 803d 9331 c43d db34 21bf

ds.proj_bn.running_var f4 [8]
0.063716546 0.42304122 0.124125175 0.08847427 0.15267366 0.11509168 0.023038192 0.19210649
00000000: d27d 823d dc98 d83e 5735 fe3d 0032 b53d
00000010: 7c56 1c3e 30b5 eb3d 97ba bc3c 90b7 443e

ds.proj_conv1.weight f4 [4, 8, 5]
-0.1450536 -0.12947802 -0.2218385 0.016466623 -0.05408203 0.093064606 0.037883583 0.1709101
0.052075036 -0.15515427 -0.013714789 -0.04385235 0.019727048 -0.027307002 0.059241645 -0.14375179
-0.13601191 -0.20400366 -0.03291272 0.09080874 0.082992904 -0.009256844 0.08799864 -0.0057800584
-0.008501365 0.049092755 -0.0066259 0.007518125 0.046108056 -0.013546709 0.025979394 -0.23433429
-0.0090530785 -0.040445443 -0.051443666 0.017185615 -0.08585804 -0.11568388 -0.12543945 -0.089746475
-0.16420515 0.109176226 0.13597377 0.070616506 0.0015093324 -0.10687946 -0.06921254 -0.045113448
0.0327939 0.09559904 -0.014819684 -0.12568296 -0.1287354 -0.11634381 0.013035963 0.097115785
0.038380742 -0.13921472 -0.038841415 0.066749014 0.05717474 0.060211007 -0.0033945679 -0.20872699
-0.037964575 0.031644322 0.07037034 -0.019037563 -0.24541184 -0.2265362 -0.14108548 -0.1421437
0.06273678 0.0753456 -0.09105775 0.11915965 -0.014755325 0.012775093 0.06860978 0.0824279
-0.0695698 0.029618641 -0.08679587 -0.09066009 -0.11464634 0.19957785 0.1361287 0.19480276
0.07543854 0.023932952 -0.037871413 -0.0627102 -0.047669 -0.06517851 0.004261394 -0.058196176
0.10660797 -0.006913765 -0.09229392 -0.009152156 0.09613095 -0.041180212 0.11012439 -0.08152753
-0.07055615 0.051893678 0.08881741 0.049469404 -0.026197452 -0.061368823 0.017819311 0.016976956
0.14865331 0.18672131 0.034108087 -0.12768054 -0.24434537 -0.10175043 -0.058853544 -0.042006962
-0.07760233 0.049838744 0.10928644 0.11679523 0.046351958 0.16541658 0.08290122 0.07465545
0.14679846 -0.0012119699 0.008430846 -0.16720141 -0.084101334 0.015851239 0.06396734 0.09460825
0.057007123 -0.10443339 0.011720048 0.003439574 -0.08039932 -0.13796058 -0.16165099 -0.06488702
0.013227189 0.12101807 0.115679935 0.061444733 -0.06501779 -0.031676047 0.09892115 0.018463403
-0.0070235124 0.19760057 0.005636543 -0.17654702 -0.032685556 0.11965737 0.039617512 0.08311329
00000000: ee88 14be e395 04be a229 63be 03e5 863c
00000010: 1e85 5dbd a898 be3d d12b 1b3d 0f03 2f3e
00000020: a24c 553d c3e0 1ebe ffb3 60bc 869e 33bd
00000030: 9e9a a13c efb2 dfbc 5ea7 723d ab33 13be
00000040: b546 0bbe 56e6 50be 7dcf 06bd eff9 b93d
00000050: 2ff8 a93d 05aa 17bc a238 b43d a566 bdbb
00000060: 4f49 0bbc 7c15 493d 141e d9bb 9b5a f63b
00000070: cddb 3c3d 04f3 5dbc bdd2 d43c 54f5 6fbe
00000080: 5d53 14bc 1faa 25bd 98b6 52bd d9c8 8c3c
00000090: 57d6 afbd aceb ecbd 3373 00be 00cd b7bd
000000a0: 6525 28be c997 df3d b53c 0b3e 639f 903d
000000b0: cbd4 c53a 9ee3 dabd 4ebf 8dbd e1c8 38bd
000000c0: e652 063d 6ec9 c33d 43ce 72bc 09b3 00be
000000d0: 36d3 03be aa45 eebd cb94 553c a4e4 c63d
000000e0: 2035 1d3d 4e8e 0ebe 2d18 1fbd b5b3 883d
000000f0: 0f30 6a3d d19f 763d 6677 5ebb 87bc 55be
00000100: be80 1bbd 7a9d 013d 531e 903d aaf4 9bbc
00000110: 3e4d 7bbe 1bf9 67be b678 10be 1e8e 11be
00000120: 247c 803d cb4e 9a3d 7c7c babd f909 f43d
00000130: 52c0 71bc a04e 513c 4983 8c3d f5cf a83d
00000140: 9c7a 8ebd cba2 f23c 08c2 b1bd ffab b9bd
00000150: b3cb eabd 235e 4c3e 5265 0b3e 607a 473e
00000160: 857f 9a3d 0a0f c43c 0e1f 1bbd 356e 80bd
00000170: 9240 43bd 507c 85bd 2aa3 8b3b 1d5f 6ebd
00000180: 4855 da3d dd8c e2bb 9804 bdbd edf2 15bc
00000190: 4ee0 c43d 95ac 28bd e588 e13d e8f7 a6bd
000001a0: be7f 90bd 778e 543d e7e5 b53d 6ea0 4a3d
000001b0: 0a9c d6bc e05d 7bbd cef9 913c 4213 8b3c
000001c0: 9338 183e df33 3f3e ecb4 0b3d b0be 02be
000001d0: ac35 7abe 8862 d0bd 6a10 71bd 7e0f 2cbd
000001e0: f8ed 9ebd b623 4c3d 92d1 df3d 5632 ef3d
000001f0: 8ddb 3d3d f762 293e 1dc8 a93d f5e4 983d
00000200: 5652 163e f6da 9eba 8821 0a3c d936 2bbe
00000210: 523d acbd 75da 813c 4f01 833d f8c1 c13d
00000220: 4d80 693d 2ce1 d5bd 7205 403c 7a6a 613b
00000230: 66a8 a4bd 8a45 0dbe d687 25be 7ce3 84bd
00000240: dab6 583c 52d8 f73d 9ae9 ec3d 79ad 7b3d
00000250: 0c28 85bd bebe 01bd 2c97 ca3d 9040 973c
00000260: 7e25 e6bb ce57 4a3e c0b2 b83b bec8 34be
00000270: 4ae1 05bd ec0e f53d f945 223d 4d37 aa3d

ds.proj_conv1.bias f4 [4]
-0.06145307 -0.061321955 0.15500516 0.07910443
00000000: 37b6 7bbd bb2c 7bbd acb9 1e3e 8101 a23d

ds.proj_bn1.weight f4 [4]
2.2986252 2.3587434 2.4268646 2.5703154
00000000: ad1c 1340 a7f5 1640 c051 1b40 0c80 2440

ds.proj_bn1.bias f4 [4]
0.5341262 0.73235965 0.43542993 0.3622071
00000000: 7fbc 083f ec7b 3b3f acf0 de3e 3673 b93e

ds.proj_bn1.running_mean f4 [4]
-0.3770206 -0.32962593 0.116337836 0.25451612
00000000: d808 c1be bbc4 a8be 8842 ee3d f04f 823e

ds.proj_bn1.running_var f4 [4]
0.3177828 0.20001173 0.22570442 0.18539377
00000000: 6db4 a23e e0cf 4c3e 0f1f 673e ddd7 3d3e

head.weight f4 [15, 128]
0.11002675 -0.039660893 0.0056018676 -0.32805142 -0.32975632 -0.23216224 -0.23668642 0.0034618801
0.31167564 0.4409821 0.39512762 0.32727754 0.2700398 -0.123491175 -0.6098777 0.01194129
0.72752833 0.5141391 0.23934646 0.5721464 0.12140818 0.22460549 0.3009992 0.23741987
0.14379811 -0.4497849 -0.57279897 -0.33817005 -0.15629615 -0.094676584 0.127841 0.27934912
-0.76327646 -0.23014702 -0.20404245 0.04651952 0.3124916 0.3396523 0.08042498 0.0020019119
-0.7145027 -0.54248923 -0.15438174 -0.03278693 0.56645757 0.4570281 -0.38157484 -0.5811192
-0.3363983 -0.36756337 0.015282904 0.4502571 0.06954643 -0.28984037 -0.103650086 -0.57240653
-0.22195669 0.15189391 0.30559522 0.32703105 0.28887314 -0.08652503 -0.26827025 -0.5678019
0.10332536 0.30822393 -0.3216924 -0.60345566 -0.59055495 -0.68486685 -0.5427398 -0.53566605
0.07976278 0.68725294 0.18439491 0.032638226 0.48739964 0.16731842 -0.24810348 -0.5749606
-0.09119588 0.0034174307 0.20297699 0.20206337 0.28964388 0.1014472 -0.73584634 0.017260397
-0.20892256 -0.6817635 -0.90475595 -0.82399875 -0.55545586 -0.39725772 -0.12295564 0.38013157
-0.58097035 -0.3562605 -0.6249766 -0.93579555 -0.14257462 0.22883312 -0.11446836 -0.77311295
-1.2299111 -1.1333313 -0.1246873 -0.084062956 0.14136513 0.64771473 -0.057058766 -0.5178559
-1.0492461 -0.09386641 -0.30286244 0.31300184 0.43340337 -0.01801515 0.064769715 -0.3363412
-0.5394061 -0.5263431 -0.40087312 -0.2500335 0.2589764 -0.43032455 -0.9039015 -0.124886714
0.13057701 -0.031270128 -0.3512456 -0.101326905 0.22154719 0.14876437 0.08677985 -0.06859085
-0.13399847 -0.075718574 -0.009209624 0.01579682 -0.06139512 0.32656583 0.12798265 0.47209787
0.37862685 -0.0050210343 0.31148496 0.035027366 0.10629374 -0.32839197 -0.94452137 -0.27845985
-0.0787317 -0.19146208 0.12489022 0.14971891 0.14863385 0.26076972 0.13565154 -0.5289745
0.20829985 0.3146324 0.15395378 0.08411396 -0.002834591 -0.3801733 -0.26262861 0.04457609
0.16853611 -0.097656615 -0.43742573 0.2676253 -0.5076152 -1.15718 -1.0054754 -0.9605448
-1.9402456 -1.2347125 -0.88494855 -0.71990305 0.015601153 0.48037472 0.09283208 0.048457853
0.2992476 -0.112103246 -0.9073624 -0.28823522 0.13787937 -0.013009618 0.28752998 0.35569763
0.28274274 0.22699726 0.09968628 0.07205848 0.22857961 -0.11888747 -0.2932419 0.05770863
-0.31036648 -0.4598204 0.08759585 0.10102806 0.09676516 -0.527562 -1.0176753 -0.27770707
-0.39974928 -0.6565236 -1.0377727 -0.13558733 0.07969969 0.15735902 -1.6280799 0.2174114
0.4532161 0.082308896 -0.28937894 0.33063397 0.15011354 0.1009975 0.092236675 0.20071988
0.12814553 0.35005793 0.25107816 0.08154469 0.2272669 -0.21771245 -0.3383225 -0.1816737
-0.217395 -0.6181064 -0.69881237 0.5504716 0.042273726 -0.6132427 -1.0885409 -1.9685096
-1.4651538 -1.4737765 -0.54940253 -1.1394179 -0.24864165 0.09909619 -0.48595825 -0.23897079
-0.028459016 -0.7011073 -0.5689086 -0.19768518 0.113350995 0.18034983 0.13036643 0.43346137
00000000: b455 e13d 7673 22bd df8f b73b 5bf6 a7be
00000010: d2d5 a8be f0bb 6dbe ed5d 72be b6e0 623b
00000020: f393 9f3e 68c8 e13e 2b4e ca3e ec90 a73e
00000030: a842 8a3e f1e8 fcbd f220 1cbf 67a5 433c
00000040: 4c3f 3a3f 9f9e 033f 3d17 753e 3078 123f
00000050: daa4 f83d fbfe 653e 911c 9a3e 321e 733e
00000060: d03f 133e 354a e6be f4a2 12bf a024 adbe
00000070: 190c 20be cce5 c1bd c0e8 023e d906 8f3e
00000080: 1666 43bf a9ab 6bbe 81f0 50be 418b 3e3d
00000090: e6fe 9f3e e8e6 ad3e dab5 a43d 8232 033b
000000a0: a6e9 36bf 93e0 0abf 3f16 1ebe 974b 06bd
000000b0: 5d03 113f 96ff e93e c75d c3be 3ac4 14bf
000000c0: 663c acbe 4431 bcbe 2565 7a3c 1988 e63e
000000d0: 5c6e 8e3d f565 94be 7f46 d4bd 3c89 12bf
000000e0: 9d48 63be 148a 1b3e fa76 9c3e 9d70 a73e
000000f0: 2ee7 933e 0934 b1bd b85a 89be 775b 11bf
00000100: 3f9c d33d 87cf 9d3e deb4 a4be 127c 1abf
00000110: 9c2e 17bf 6f53 2fbf fff0 0abf 6921 09bf
00000120: ab5a a33d cfef 2f3f 05d2 3c3e a9af 053d
00000130: 728c f93e 8555 2b3e d70e 7ebe 9e30 13bf
00000140: e8c4 babd f9f6 5f3b 33d9 4f3e b3e9 4e3e
00000150: 344c 943e 8dc3 cf3d 6d60 3cbf ad65 8d3c
00000160: ccef 55be 0e88 2ebf 169e 67bf 95f1 52bf
00000170: 5b32 0ebf 5d65 cbbe 2bd0 fbbd 9ba0 c23e
00000180: 79ba 14bf c767 b6be 77fe 1fbf 4c90 6fbf
00000190: 15ff 11be 3b53 6a3e 636e eabd bbea 45bf
000001a0: ba6d 9dbf 0011 91bf 0e5c ffbd 3329 acbd
000001b0: 05c2 103e a2d0 253f 74b6 69bd 3492 04bf
000001c0: b24d 86bf 083d c0bd c910 9bbe c741 a03e
000001d0: 0ce7 dd3e 8294 93bc fca5 843d ea34 acbe
000001e0: 8516 0abf 6cbe 06bf 3e3f cdbe 6404 80be
000001f0: 8e98 843e 8053 dcbe 1766 67bf 9bc4 ffbd
00000200: fbb5 053e 1b15 00bd 77d6 b3be 7b84 cfbd
00000210: 44dd 623e b055 183e a2b9 b13d 5c79 8cbd
00000220: e536 09be 5712 9bbd f6e3 16bc 5568 813c
00000230: 7379 7bbd a333 a73e e20d 033e d0b6 f13e
00000240: 61db c13e 7d87 a4bb f57a 9f3e db78 0f3d
00000250: 88b0 d93d fe22 a8be 27cc 71bf 4a92 8ebe
00000260: 163e a1bd a30e 44be 72c6 ff3d ea4f 193e
00000270: 7933 183e 9c83 853e 3de8 0a3e df6a 07bf
00000280: 8e4c 553e 7f17 a13e 0fa6 1d3e f143 ac3d
00000290: 8cc4 39bb 13a6 c2be 4277 86be 6b95 363d
000002a0: bb94 2c3e 3100 c8bd 44f6 dfbe 2f06 893e
000002b0: 12f3 01bf 791e 94bf 6bb3 80bf 44e6 75bf
000002c0: f859 f8bf 0f0b 9ebf fd8b 62bf 914b 38bf
000002d0: fa9b 7f3c adf3 f53e bf1e be3d be7b 463d
000002e0: fb36 993e 6396 e5bd e748 68bf 9193 93be
000002f0: 4030 0d3e 4b26 55bc 2137 933e 001e b63e
00000300: a8c3 903e f871 683e 5228 cc3d 6593 933d
00000310: c610 6a3e 467b f3bd cd23 96be e25f 6c3d
00000320: 5be8 9ebe 946d ebbe 7465 b33d cde7 ce3d
00000330: d02c c63d 4e0e 07bf 2f43 82bf 9f2f 8ebe
00000340: f0ab ccbe ee11 28bf bcd5 84bf 68d7 0abe
00000350: 9739 a33d b922 213e ec64 d0bf 18a1 5e3e
00000360: f10b e83e 9191 a83d 7a29 94be db48 a93e
00000370: 5db7 193e c7d7 ce3d 95e6 bc3d 8389 4d3e
00000380: 9538 033e cb3a b33e 518d 803e e700 a73d
00000390: a7b8 683e 03f0 5ebe 9b38 adbe ac08 3abe
000003a0: cb9c 5ebe 393c 1ebf 5ee5 32bf b5eb 0c3f
000003b0: 3727 2d3d 79fd 1cbf 4f55 8bbf 1ff8 fbbf
000003c0: 298a bbbf b5a4 bcbf a5a5 0cbf 72d8 91bf
000003d0: eb9b 7ebe f1f2 ca3d 85cf f8be c2b4 74be
000003e0: e222 e9bc c57b 33bf fea3 11bf fc6d 4abe
000003f0: 9124 e83d a0ad 383e c77e 053e a6ee dd3e

head.bias f4 [15]
0.1305689 0.011663018 -0.07807189 -0.18464111 0.09436 0.038733594 -0.07561652 0.041728504
-0.13016345 0.056866128 0.12401416 0.002878727 0.1370306 -0.018396666 -0.06437608
00000000: dbb3 053e 3e16 3f3c 28e4 9fbd 8f12 3dbe
00000010: d13f c13d 1ea7 1e3d d6dc 9abd 82eb 2a3d
00000020: 9149 05be 75ec 683d 23fb fd3d 06a9 3c3b
00000030: c051 0c3e 9bb4 96bc 9bd7 83bd
