surrogate/trained_model/BCRNet_S/model_direct16_fold1.pth (torch, 17253 bytes, 20 tensors)

encoding.conv2d.weight f4 [4, 2, 8]
0	0x3d903d6a	0.07042964
1	0xbd2f0e0c	-0.042738006
2	0xbdac32a1	-0.08408094
3	0xbe424cd9	-0.18974628
4	0xbe0b1fe5	-0.13586386
5	0xbdd17920	-0.10228181
6	0xbd2cc573	-0.04218049
7	0xbcbe6572	-0.023241732
8	0xbb9772f5	-0.0046218582
9	0x3e369fe1	0.17834426
10	0x3e37dc0e	0.17955038
11	0x3e1c9519	0.15291251
12	0x3d62e135	0.055390555
13	0x3d36df40	0.0446465
14	0x3da7b0e2	0.081880346
15	0x3c7f9b3d	0.0156009765
16	0x3da21f8a	0.07916172
17	0xbb113e8d	-0.0022162527
18	0xbdc04649	-0.09388406
19	0xbd05e945	-0.032693166
20	0xbe12ef2d	-0.14349051
21	0xbc961cfa	-0.018324364
22	0x3c9ba776	0.01900075
23	0x3cb28779	0.021793114
24	0xbe086773	-0.13320713
25	0xba2bb1bf	-0.00065496186
26	0x3df84c44	0.121239215
27	0x3d66d7dc	0.056358203
28	0x3d61f6d9	0.055167053
29	0xbd131ada	-0.03591428
30	0xbca2cae4	-0.019872136
31	0x3b8608a0	0.0040903836
32	0xbe038be6	-0.12846336
33	0xbd188f8f	-0.037246283
34	0xbc1299ae	-0.008947773
35	0x3dba9311	0.09110082
36	0x3da18cab	0.078881584
37	0x3bf610fd	0.0075093494
38	0x3cddf612	0.027094875
39	0x3de70eaf	0.112820975
40	0x3e1e94d6	0.15486464
41	0x3d3487bc	0.04407476
42	0xbc5ee898	-0.013605259
43	0xbd4c1223	-0.049821984
44	0xbd2a77e9	-0.04161826
45	0xbd7f2c47	-0.062298086
46	0xbd47cfca	-0.048782147
47	0xbe086531	-0.13319851
48	0x3e15c24d	0.14624901
49	0x3da58f95	0.08084027
50	0x3ca0db24	0.019635744
51	0xbcefcf6c	-0.029273711
52	0x3cac1574	0.021006323
53	0xbbb6899d	-0.005570604
54	0x3d93e737	0.07221835
55	0x3d3475c3	0.04405762
56	0xbe406fd9	-0.18792666
57	0xbcc048db	-0.02347224
58	0xbce1ee50	-0.027579457
59	0x3defcf04	0.11709407
60	0x3d2f391c	0.042779073
61	0xbcf5fefa	-0.030028809
62	0xbd8f1c72	-0.069878474
63	0xbe22c032	-0.15893629

encoding.conv2d.bias f4 [4]
0	0xbe98ad5b	-0.2981976
1	0x3dcb921e	0.09939979
2	0xbe6f3a0a	-0.23361984
3	0xbea5e9cd	-0.32404938

encoding.bnorm1.weight f4 [4]
0	0x4001b09d	2.0264046
1	0x3fb8e32c	1.4444327
2	0x3ffbaeba	1.9662697
3	0x3fdbdf75	1.7177569

encoding.bnorm1.bias f4 [4]
0	0x3f33cc25	0.70233375
1	0x3e945b56	0.28975934
2	0x3f18c3a1	0.59673506
3	0x3ead554f	0.33854148

encoding.bnorm1.running_mean f4 [4]
0	0xbe9843dd	-0.29739276
1	0x3dcb6cfe	0.09932898
2	0xbe710546	-0.23537168
3	0xbea6900e	-0.3253178

encoding.bnorm1.running_var f4 [4]
0	0x3fbaf42c	1.4605765
1	0x3d6627aa	0.05619017
2	0x3e0b2133	0.13586883
3	0x3ecc7ef6	0.39940614

ds.proj_conv.weight f4 [8, 4, 7]
0	0xbe145aeb	-0.14487807
1	0xbe0e154d	-0.13875313
2	0xbdeaff75	-0.11474506
3	0xbe030fe5	-0.12799032
4	0xbdeba64f	-0.1150633
5	0xbd4a907a	-0.04945419
6	0xbda12972	-0.07869233
7	0xbd2e6075	-0.042572457
8	0x3d041e17	0.03225526
9	0x3d8bd76c	0.06828198
10	0xbd9d2ae9	-0.076742
11	0xbd3d2ab5	-0.046183307
12	0x3d581c1e	0.05276119
13	0xbda239c7	-0.079211764
14	0xbd020b62	-0.031749137
15	0xbe02ee84	-0.12786299
16	0xbe1f962c	-0.1558463
17	0xbe297c6e	-0.16551372
18	0xbda6802a	-0.08129914
19	0xbdc4adf8	-0.096034944
20	0xbbafe222	-0.0053675333
21	0x3df6c458	0.12049168
22	0x3d94dc16	0.072685406
23	0x3d62039d	0.055179227
24	0x3d91a9ab	0.0711244
25	0x3cfcc1f8	0.03085421
26	0x3d5072d9	0.050890777
27	0x3cc843c1	0.02444637
28	0x3d4d0f42	0.05006338
29	0x3d570df6	0.05250355
30	0x3db00c18	0.08596057
31	0x3dc0d0d0	0.09414828
32	0x3dcbe990	0.09956658
33	0x3da8330a	0.0821286
34	0x3ddedafe	0.10881613
35	0xbe267521	-0.16255619
36	0xbd044694	-0.03229387
37	0x3d70fb5e	0.058833472
38	0x3bda1342	0.0066551277
39	0xbdc6b390	-0.097022176
40	0xbde1e5ac	-0.110301346
41	0xbdc5f2c3	-0.09665444
42	0x3ce5be2b	0.02804478
43	0x3b266a8e	0.0025393101
44	0xbd569ac6	-0.052393697
45	0x3c7b01fc	0.015320297
46	0xbd2b458c	-0.041814372
47	0x3ced2d58	0.028952286
48	0x3d372c8f	0.04472023
49	0x3cebe443	0.028795367
50	0x3d3c85e1	0.046026114
51	0x3d9e1aa8	0.07719928
52	0x3d459b88	0.04824403
53	0x3db1128d	0.086461164
54	0x3dbbab54	0.091635376
55	0x3d23d351	0.03999645
56	0x3ccf776f	0.025325505
57	0xbab23f9e	-0.0013599282
58	0xbc874ef0	-0.016517133
59	0xbc7377f7	-0.014860145
60	0xbd7381df	-0.059450027
61	0xbd626539	-0.055272315
62	0xbcba6e9c	-0.02275782
63	0xbdb07a5f	-0.086170904
64	0xbd32cccf	-0.043652352
65	0xbdabbde9	-0.08385832
66	0xbd728508	-0.0592089
67	0xbac9af88	-0.0015387395
68	0xbd9baef4	-0.07601729
69	0xbd43ac6f	-0.047771867
70	0xbdb3ffc0	-0.08789015
71	0xbd757267	-0.059923556
72	0xbdaf0109	-0.08545119
73	0xbc96a7fe	-0.018390652
74	0xbd759797	-0.05995902
75	0xbe7817ea	-0.24227872
76	0xbdb588ef	-0.08864009
77	0xbe5e6bdc	-0.21720833
78	0xbe2f8a99	-0.17142715
79	0xbe347549	-0.17622866
80	0xbd443289	-0.047899757
81	0x3da597d2	0.08085598
82	0x3e030854	0.12796146
83	0x3de17fc5	0.11010698
84	0x3d7768cf	0.060402688
85	0x3da6b30d	0.0813962
86	0x3d3285cb	0.043584626
87	0x3cb9c641	0.022677543
88	0xbcd5026b	-0.02600213
89	0xbd1b68ee	-0.037941866
90	0xbd981a48	-0.07426888
91	0x3dfd883f	0.123795025
92	0x3cd440f1	0.025909873
93	0xbd0cba77	-0.034357514
94	0xbd3414b6	-0.043965064
95	0xbd5b53e4	-0.0535468
96	0xbd405314	-0.04695423
97	0xbe85c84e	-0.26129383
98	0xbe5cd726	-0.21566448
99	0xbe0b5e65	-0.13610227
100	0xbd2594a4	-0.040424958
101	0x3cf92647	0.03041376
102	0xbc223a05	-0.009901528
103	0xbd6a1d9b	-0.05715714
104	0xbd32e830	-0.043678463
105	0x3d8a6323	0.0675719
106	0xbbe2b657	-0.0069187093
107	0xbdf5645d	-0.119820334
108	0xbd877849	-0.066147394
109	0xbd536b6e	-0.051616125
110	0x3d308f2a	0.043105282
111	0x3db75b63	0.089529775
112	0xbc839e46	-0.016066682
113	0xbd8589aa	-0.06520398
114	0xbcf94685	-0.030429134
115	0xbd4689af	-0.04847115
116	0xbdae3beb	-0.08507522
117	0xbd35f242	-0.04442049
118	0xbbf5bcc9	-0.0074993116
119	0xbd98d5d1	-0.07462657
120	0xbd14b322	-0.036303647
121	0x3bef189f	0.0072966362
122	0xbd85a763	-0.06526067
123	0xbd900942	-0.07033016
124	0xbd6180ba	-0.055054404
125	0xbd77f07a	-0.06053207
126	0x3e76434e	0.24049112
127	0x3e3ac4b6	0.18239102
128	0x3d908797	0.07057112
129	0x3d814136	0.06311266
130	0x3d88c5e8	0.066783726
131	0x3e09bf7a	0.13451949
132	0xbdf77326	-0.1208251
133	0x3d914614	0.070934445
134	0x3d1cc345	0.03827216
135	0x3e10ef3a	0.14153758
136	0x3d5525ae	0.052037887
137	0x3d407f9a	0.04699669
138	0x3b988270	0.0046542212
139	0x3d95c5bb	0.07313105
140	0xbe024d83	-0.12724881
141	0xbe1e9294	-0.15485603
142	0xbe0c0c6a	-0.1367661
143	0xbd6538ee	-0.055962496
144	0xbcd6c764	-0.026218124
145	0xbbd2c120	-0.0064317137
146	0x3d2e106a	0.042496122
147	0xbe4ca800	-0.19985962
148	0xbdb0ccd9	-0.086328216
149	0xbdd94089	-0.10608012
150	0xbda2ba96	-0.07945745
151	0xbcd1f510	-0.02562955
152	0xbc877aec	-0.016538106
153	0x3e03a80e	0.12857077
154	0x3c374f7f	0.011188387
155	0x3c115a63	0.0088716475
156	0x3cd8380a	0.026393909
157	0xbc908507	-0.017641557
158	0x3d1137bb	0.03545354
159	0x3d90a66d	0.07062993
160	0x3d310cdf	0.043225165
161	0xbe2bf467	-0.16792451
162	0xbe7e515e	-0.24835727
163	0xbe11d00f	-0.14239524
164	0xbd995ccd	-0.074884035
165	0xbd052a42	-0.032511003
166	0xbd0fdc09	-0.03512195
167	0xba2025a5	-0.0006109125
168	0x3e2eb8b7	0.1706265
169	0x3dde74a9	0.10862095
170	0x3dd455af	0.10367905
171	0x3ce91f75	0.028457383
172	0x3c0f02f7	0.008728734
173	0x3ce20af0	0.027593106
174	0xbc98a068	-0.018631175
175	0x3e7677f2	0.24069193
176	0x3dfe9883	0.12431433
177	0x3e5e124f	0.21686672
178	0x3d3325a2	0.04373706
179	0x3ba17ab4	0.0049279574
180	0x3c999134	0.018745996
181	0xbe8b70cd	-0.27234498
182	0xbbf7349d	-0.007544114
183	0x38a38542	7.797267e-05
184	0x3ddb5d4f	0.107111566
185	0x3e1c63b4	0.15272409
186	0x3d1d381b	0.038383584
187	0x3ccafef9	0.024779784
188	0x3d13cf2f	0.036086258
189	0x3dc59818	0.0964815
190	0x3d6e37b1	0.05815858
191	0x3d2a9e51	0.04165489
192	0x3b579fb6	0.0032901592
193	0xbd1d3579	-0.038381074
194	0xbcd95658	-0.02653043
195	0x3c36a026	0.011146581
196	0xbdb0b3f2	-0.08628072
197	0x3d492c99	0.049114797
198	0x3d9de5bf	0.07709836
199	0x3d987aec	0.074453205
200	0x3d90e0af	0.07074105
201	0xbceb4492	-0.02871922
202	0xbe16b5f0	-0.14717841
203	0x3dcc8dfc	0.09988019
204	0x3d449bd4	0.04800017
205	0x3dac3764	0.084090024
206	0x3e01a318	0.12659872
207	0x3d0fb788	0.03508714
208	0x3d111835	0.035423476
209	0xbac70a36	-0.0015185538
210	0xbe291510	-0.16511941
211	0xbd216326	-0.039401196
212	0xbd78cf8d	-0.06074481
213	0xbda3a76b	-0.07990917
214	0xbe15efb6	-0.14642224
215	0xbe061ffc	-0.13098139
216	0xbe350fb4	-0.17681772
217	0xbe375399	-0.17902984
218	0x3cc2b22c	0.0237666
219	0x3b5b4a59	0.0033461063
220	0xbca2340b	-0.019800207
221	0x3d92809f	0.07153439
222	0x3d572c41	0.05253244
223	0x3c549af1	0.012976394

ds.proj_conv.bias f4 [8]
0	0xbc9962cc	-0.018723868
1	0xbdbfbb07	-0.093618445
2	0x3dbeb8ea	0.09312613
3	0x3e278728	0.16360152
4	0xbe4dda46	-0.20102796
5	0xbd70a6cd	-0.058752824
6	0xbdaeab8b	-0.08528813
7	0x3d92bbb4	0.07164708

ds.proj_bn.weight f4 [8]
0	0x3faf2f0a	1.368623
1	0x3fcba317	1.5909146
2	0x3fac50b5	1.346213
3	0x3fad5845	1.3542563
4	0x3ff1e623	1.8898357
5	0x3fc79f9a	1.5595582
6	0x3faebcda	1.3651383
7	0x3fe56794	1.7922235

ds.proj_bn.bias f4 [8]
0	0xbe4d3137	-0.20038305
1	0x3e9e9f26	0.30980796
2	0xbd2c43fa	-0.042057015
3	0xbd0e617f	-0.03476095
4	0x3e8dfd43	0.27732286
5	0x3d40cea0	0.047072053
6	0xbdff79d9	-0.124744125
7	0x3e693d4c	0.22777289

ds.proj_bn.running_mean f4 [8]
0	0xbec28fe1	-0.38000396
1	0x3def2b85	0.116782226
2	0xbe8b9b7c	-0.27267063
3	0xbc0793c7	-0.008274979
4	0xbdaa6c77	-0.08321469
5	0xbec3b486	-0.38223666
6	0x3e837627	0.2567608
7	0xbdaf0af8	-0.08547014

ds.proj_bn.running_var f4 [8]
0	0x3e020783	0.12698178
1	0x3d13e3e7	0.036106016
2	0x3dbf905b	0.093537055
3	0x3d51a580	0.051183224
4	0x3e987da6	0.29783362
5	0x3de2d93e	0.11076592
6	0x3dcf6c8a	0.10128124
7	0x3e1c0e48	0.15239823

ds.proj_conv1.weight f4 [4, 8, 5]
0	0xbe3ceecd	-0.1845047
1	0xbd1c37d0	-0.038139164
2	0x3d43ad4b	0.047772687
3	0x3d748cb0	0.059704483
4	0x3dc4ca02	0.096088424
5	0x3d240cd6	0.040051304
6	0x3e0dc0f3	0.13843136
7	0x3e2472a1	0.16059352
8	0x3c9a643a	0.01884662
9	0x3d8fa238	0.07013363
10	0x3e0dee4c	0.13860434
11	0xbc0ef429	-0.0087252045
12	0xbe4ad5c0	-0.19808102
13	0xbe90c397	-0.28274223
14	0xbbf8e737	-0.0075959223
15	0xbd08baf6	-0.033381425
16	0xbddf6f3e	-0.1090989
17	0xbd2f4045	-0.0427859
18	0x3bfef482	0.0077806124
19	0x3cf54faf	0.029945223
20	0x3e025075	0.12726004
21	0xbaf40895	-0.001861828
22	0x39255e3f	0.00015770736
23	0xbe0fdff8	-0.14050281
24	0xbdb579bc	-0.088611096
25	0x3c8509ab	0.016239962
26	0xbde073f4	-0.10959616
27	0xbc8f0483	-0.017458206
28	0xbddea128	-0.10870582
29	0xbc27e6a7	-0.010247863
30	0xbd934591	-0.07191003
31	0x3c308a16	0.01077511
32	0x3dc46716	0.095899746
33	0x3e1c6b33	0.15275268
34	0x3dc0ea6d	0.09419713
35	0x3cbc8a58	0.023015186
36	0xbd31bc66	-0.04339256
37	0x3daf7ef1	0.08569134
38	0x3de98dce	0.11404
39	0x3cd4f2ca	0.025994677
40	0xbe698f1d	-0.228085
41	0xbe143f42	-0.14477256
42	0xbd748178	-0.059693784
43	0xbeb8e0fc	-0.3610915
44	0x3b92611b	0.0044671423
45	0xbddec2fd	-0.10877035
46	0xbd097454	-0.033558205
47	0x3e0b6041	0.13610937
48	0x3cf4fd3f	0.029905913
49	0x3db841e5	0.089969434
50	0x3d08ac7d	0.033367623
51	0xbe127342	-0.1430178
52	0xbdf0b79c	-0.11753771
53	0x3e0a9a50	0.13535428
54	0x3e3711f5	0.17877944
55	0xbd85ab4a	-0.065268114
56	0x3c8e9e67	0.017409516
57	0x3db7d7e5	0.089767255
58	0x3d73f917	0.059563722
59	0x3d85a528	0.06525642
60	0xbd4b8450	-0.04968673
61	0x3c67c186	0.014145261
62	0x3d8bce5e	0.06826471
63	0x3ba7b32b	0.005117794
64	0x3db59d5d	0.08867905
65	0xbcb4f535	-0.02208958
66	0xbd8b8e84	-0.06814292
67	0x3ba2d18c	0.0049688276
68	0xbd738319	-0.059451196
69	0xbe3c42ed	-0.18384905
70	0xbdecd268	-0.11563569
71	0xbd62a460	-0.05533254
72	0x3d9c601f	0.07635521
73	0x3d790074	0.060791448
74	0x3ca18650	0.019717366
75	0x3bd1c3dd	0.0064015226
76	0x3db6b1ba	0.089206174
77	0x3de6e80e	0.1127473
78	0x3d976926	0.07393102
79	0x3d19737e	0.037463658
80	0x3bd9b107	0.0066434178
81	0x3c88678a	0.016650934
82	0x3b946e58	0.0045297556
83	0xbd45b92f	-0.048272308
84	0xbcd041ba	-0.025421966
85	0xbb3b4c54	-0.002857943
86	0x3d81f8ca	0.06346281
87	0x3d7aae6c	0.061201498
88	0x3df6d900	0.12053108
89	0x3d89725b	0.06711265
90	0x3dd205bd	0.10255001
91	0x3df7b020	0.1209414
92	0x3e62bfe8	0.22143519
93	0x3debe6e2	0.11518647
94	0x3dadf200	0.084934235
95	0xbdbf4b30	-0.09340513
96	0x3d7d5623	0.061849725
97	0xbc81b419	-0.015832948
98	0x3d906926	0.070513055
99	0x3dc19a7a	0.09453292
100	0xbdba5355	-0.090979256
101	0xbe90b98f	-0.2826657
102	0xbda576fb	-0.08079334
103	0xbe1772ed	-0.14789934
104	0xbe0f7db3	-0.14012794
105	0x3cef55d0	0.029215723
106	0x3d81de95	0.06341282
107	0xbcefa199	-0.02925186
108	0xbdd63894	-0.1046001
109	0xbdf486c2	-0.119397655
110	0xbe3d3eff	-0.18481062
111	0xbd768019	-0.060180757
112	0xbd4060f8	-0.046967477
113	0xbd2fd5f9	-0.04292867
114	0xbd3c8539	-0.04602549
115	0x3dabeca7	0.08394747
116	0x3d4035d9	0.046926353
117	0x3e2351f3	0.1594923
118	0x3cc36046	0.023849618
119	0x3d0e9d5b	0.034818035
120	0xbdb1e952	-0.086870804
121	0xbcc72437	-0.02430926
122	0xbc2986f1	-0.010347114
123	0x3dc5892d	0.09645305
124	0xbc8a48b6	-0.016880374
125	0x3d7c65d5	0.061620552
126	0x3db4904f	0.08816587
127	0x3b9becc5	0.0047584497
128	0x3dfb88a1	0.12281919
129	0x3d06b2a1	0.032885198
130	0x3d849cdf	0.06475233
131	0x3d408733	0.047003936
132	0xbcfca683	-0.030841118
133	0xbe04c2c9	-0.1296493
134	0x3cea9205	0.02863408
135	0xbd06326d	-0.032762934
136	0xbc633f88	-0.0138701275
137	0xbddcc0db	-0.10778972
138	0xbd597110	-0.05308634
139	0x3dbe2004	0.0928345
140	0x3dfc5e52	0.12322678
141	0x3bf1c79d	0.007378532
142	0xbc349189	-0.011021026
143	0xbdec3abc	-0.1153464
144	0xbe1863b0	-0.14881778
145	0x3e0a74d1	0.13521124
146	0xbd42848b	-0.047489684
147	0xbe349065	-0.17633207
148	0xbe6c59c1	-0.23081113
149	0xbe36554a	-0.17805973
150	0xbe6e1d7a	-0.23253432
151	0xbdcea7cc	-0.100905985
152	0xbd53a8c5	-0.051674623
153	0xbd792fad	-0.060836483
154	0xba5f01b7	-0.00085070304
155	0xbc87fe5d	-0.016600782
156	0xbce43a50	-0.027859837
157	0x3d31da2c	0.043420956
158	0x3d8affde	0.06787084
159	0xbb92ddaa	-0.004481991

ds.proj_conv1.bias f4 [4]
0	0xbcaa2464	-0.020769306
1	0xbd2a1d76	-0.041532002
2	0xbcf7aa89	-0.030232685
3	0xbdcf23e0	-0.101142645

ds.proj_bn1.weight f4 [4]
0	0x401fbc09	2.4958518
1	0x402b9319	2.6808531
2	0x401c048f	2.4377782
3	0x401f60a4	2.4902735

ds.proj_bn1.bias f4 [4]
0	0x3f1b35db	0.6062905
1	0x3f170798	0.5899596
2	0x3f26902a	0.65063727
3	0x3f62cef1	0.8859702

ds.proj_bn1.running_mean f4 [4]
0	0xbc6ce0dd	-0.014457908
1	0xbdf44d49	-0.119288035
2	0x3d1755c9	0.036947045
3	0xbeb051b6	-0.3443734

ds.proj_bn1.running_var f4 [4]
0	0x3e555fc2	0.2083731
1	0x3e6c0baa	0.23051324
2	0x3e73ca79	0.23807706
3	0x3e140e4a	0.14458576

head.weight f4 [15, 128]
0	0xbed48b24	-0.41512406
1	0xbf24e6ff	-0.6441497
2	0xbf1dfada	-0.61710894
3	0xbdcca8a8	-0.09993106
4	0x3e4db8f1	0.20090081
5	0x3dc996b1	0.09843195
6	0x3e16d9fa	0.14731589
7	0xbcc58457	-0.024110956
8	0xbf285542	-0.65755093
9	0xbf58b87e	-0.8465651
10	0xbe943dd0	-0.2895341
11	0xbab1606b	-0.0013532763
12	0x3f1030ea	0.56324637
13	0x3ec83ad9	0.39107397
14	0xbeb7d30a	-0.35903198
15	0xbf69482d	-0.91125757
16	0xbea16a9c	-0.3152665
17	0xbed81464	-0.42203057
18	0xbe3de55d	-0.18544526
19	0x3f05a7a0	0.522089
20	0xbca5935e	-0.020211872
21	0xbf38cb86	-0.7218555
22	0x3de35ec4	0.111020595
23	0xbf022477	-0.5083689
24	0xbec616cf	-0.38689277
25	0xbe1ffce3	-0.15623812
26	0x3d26b2a1	0.040697698
27	0x3d8b32aa	0.06796773
28	0x3c8a21f9	0.016861903
29	0xbd42f98e	-0.047601275
30	0xbe4130fb	-0.18866341
31	0xbf088bce	-0.53338325
32	0xbe934af2	-0.28768116
33	0xbebc9f53	-0.36840305
34	0xbe83d6b6	-0.2574975
35	0xbe2a9e2e	-0.16661903
36	0xbe1b252e	-0.15150902
37	0xbe85173e	-0.25994295
38	0xbdbd87fe	-0.09254454
39	0xbee8656e	-0.45389885
40	0xbf0f313b	-0.55934495
41	0xbef14b85	-0.4712793
42	0xbf14fe78	-0.5820079
43	0xbd5ccd12	-0.053906508
44	0x3eebccec	0.4605478
45	0x3f1ebc18	0.6200576
46	0xbe8a8410	-0.2705388
47	0xbeda1a00	-0.4259796
48	0xbf0a0615	-0.5391553
49	0xbe1d60a8	-0.15368903
50	0xbe6d59d2	-0.23178795
51	0x3ea38833	0.3193985
52	0x3eb4a36c	0.3528093
53	0x3c6e2c2d	0.0145368995
54	0xbf1dcc85	-0.616402
55	0xbe118657	-0.14211403
56	0x3c9b5e5d	0.018965894
57	0xbe58a00d	-0.21154805
58	0x3da93b1e	0.08263229
59	0x3d7c6892	0.061623164
60	0xbe93fe3f	-0.28904912
61	0xbf81d184	-1.0142064
62	0xbfbfc05d	-1.498058
63	0xbf0970b4	-0.53687596
64	0x3e853343	0.26015672
65	0x3db0de5d	0.086361624
66	0xbeb230cc	-0.34802854
67	0xbeeb756b	-0.4598802
68	0xbeb06b98	-0.34457088
69	0xbe1b9f20	-0.1519742
70	0xbed11ef6	-0.40843934
71	0xbe3e333a	-0.18574229
72	0x3ea62f4d	0.32457963
73	0x3f0dd805	0.55407745
74	0x3d853741	0.065046795
75	0x3df33ea3	0.118771814
76	0x3f03bd96	0.5146116
77	0x3e942f15	0.2894217
78	0x3cc83de6	0.024443578
79	0x3ebce60b	0.3689426
80	0x3eea8f7d	0.45812598
81	0x3e7f526b	0.24933784
82	0x3e7cf5eb	0.24703185
83	0x3ecc3e8d	0.39891472
84	0x3d817d74	0.063227564
85	0x3ed5bbb8	0.4174478
86	0x3e763d0a	0.24046722
87	0x3ef811af	0.48450992
88	0x3d1af330	0.037829578
89	0xbef29926	-0.47382468
90	0xbed755bb	-0.42057595
91	0xbea6f763	-0.32610616
92	0xbe42fe75	-0.1904238
93	0xbe06622d	-0.13123389
94	0x3cc1ea66	0.02367134
95	0x3e0686df	0.13137387
96	0xbca4455f	-0.02005261
97	0xbe1885e4	-0.14894825
98	0xbe783677	-0.24239527
99	0xbd234881	-0.039864067
100	0x3ea545ec	0.3227991
101	0x3e5c263d	0.21498962
102	0x3e9c0633	0.3047348
103	0x3e33a1f8	0.17542255
104	0xbee56b3e	-0.44808382
105	0xbf5ac2d3	-0.8545353
106	0xbe98e1da	-0.2985981
107	0xbd958679	-0.07301039
108	0x3f2e2efe	0.68040454
109	0x3d956e35	0.07296411
110	0xbedfccb8	-0.43710876
111	0xbf9083bf	-1.1290206
112	0x3e24bdbc	0.16088003
113	0xbe9a3ff5	-0.3012692
114	0x3e74096c	0.23831719
115	0x3f1548cb	0.583142
116	0xbdecdf06	-0.11565976
117	0xbf7a3ed3	-0.9775211
118	0x3d667e46	0.056272767
119	0xbefa9096	-0.48938435
120	0xbf04342b	-0.516421
121	0xbde032aa	-0.109471634
122	0x3e928882	0.28619772
123	0x3e96c8d6	0.294501
124	0xbd0e619d	-0.03476106
125	0xbe65da32	-0.22446516
126	0xbcbb12fe	-0.022836205
127	0x3bd548d9	0.0065089283
128	0x3ec56e9f	0.3856096
129	0x3ec918d5	0.39276758
130	0x3ded187f	0.11576938
131	0x3e4a8f76	0.19781289
132	0xbe47b956	-0.19504294
133	0xbe174c2e	-0.14775154
134	0xbeb62b99	-0.35580137
135	0xbe74f9cb	-0.23923413
136	0x3c57ff64	0.013183448
137	0xbc7599e8	-0.014990307
138	0xbef5989e	-0.47968
139	0x3dacaddd	0.08431599
140	0xbf5fd49a	-0.8743378
141	0xbfc2a739	-1.5207282
142	0xbf386c3b	-0.72040147
143	0xbf4fa868	-0.8111634
144	0xbfaa80d4	-1.3320565
145	0xbf8a8f57	-1.0824994
146	0xbf5d3750	-0.86412525
147	0xbf72109b	-0.9455659
148	0x3e0b7f35	0.13622744
149	0x3d992ad5	0.07478873
150	0xbd952487	-0.07282358
151	0xbcd78f70	-0.026313514
152	0x3e27ae27	0.16375028
153	0x3e69dc15	0.22837861
154	0xbf413891	-0.7547694
155	0xbe5c844a	-0.2153484
156	0x3eb9e98a	0.3631099
157	0x3ecb89fc	0.3975371
158	0x3ef86805	0.4851686
159	0x3f013e0d	0.50485307
160	0x3e9623a4	0.29324067
161	0x3ebbbc95	0.36667314
162	0x3e7132d1	0.23554541
163	0x3e3f377e	0.18673512
164	0x3e2adc78	0.16685665
165	0xbe4a3034	-0.1974495
166	0xbeaceeca	-0.33775932
167	0xbe27aeae	-0.16375229
168	0xbe97e1e9	-0.29664543
169	0xbf672c86	-0.9030231
170	0xbec6895e	-0.38776678
171	0x3ee17da4	0.4404117
172	0xbdc7a9d0	-0.09749186
173	0xbfbaf81e	-1.4606969
174	0xbf802780	-1.0012054
175	0xbf9db441	-1.2320634
176	0xbf8d22ee	-1.1026285
177	0xbed7208c	-0.4201702
178	0xbf407427	-0.75177234
179	0xbfb65030	-1.4243221
180	0xbe0c9676	-0.13729271
181	0x3dc69974	0.096972376
182	0x3e293927	0.16525708
183	0x3e979a4a	0.296099
184	0xbe63408d	-0.22192593
185	0xbf7b8a02	-0.9825746
186	0xbe8522c9	-0.260031
187	0xbe41e8c5	-0.18936451
188	0x3e9ab1da	0.30213815
189	0x3ec0c3b4	0.3764931
190	0x3eceff0e	0.40428966
191	0x3f0c805c	0.5488336
192	0x3e53d5e0	0.20687056
193	0x3e826945	0.2547094
194	0x3e63ed6a	0.22258535
195	0x3e739fb1	0.23791386
196	0x3eac82a4	0.3369342
197	0x3d6e8885	0.058235664
198	0xbdeb8271	-0.11499489
199	0xbe5a3dd8	-0.21312654
200	0xbefb24ab	-0.49051413
201	0xbebf40b3	-0.3735405
202	0xbe31d2eb	-0.17365615
203	0x3ec70b0e	0.38875622
204	0x3bbf5973	0.0058395206
205	0xbf14fe9c	-0.58201003
206	0xbe693172	-0.22772768
207	0xbda2480f	-0.079239
208	0xbee11f5d	-0.4396924
209	0xbf2fbc57	-0.6864676
210	0xbf36417d	-0.7119368
211	0x3c61eb43	0.013789001
212	0x3e876ad0	0.2644868
213	0xbea5f0d2	-0.32410294
214	0xbf8b0d00	-1.0863342
215	0xbf3df417	-0.74200577
216	0xbe86a822	-0.2630015
217	0xbe339adc	-0.17539543
218	0xbe06b000	-0.13153076
219	0x3e8785ba	0.26469213
220	0x3e680420	0.22657824
221	0x3e519647	0.20467483
222	0x3e24dfd9	0.16101016
223	0x3e590bf7	0.2119597
224	0x3ebbdc10	0.36691332
225	0x3e9eb159	0.3099468
226	0xbd402f33	-0.046920013
227	0x3e30cfed	0.17266817
228	0xbd6d6cb3	-0.05796499
229	0xbdd1280f	-0.10212719
230	0xbf1b9d22	-0.6078664
231	0xbe7b9aeb	-0.24570815
232	0x3cb952b8	0.022622451
233	0x3cfe1f1e	0.031020697
234	0xbd9628ea	-0.073320225
235	0x3e2895a1	0.16463329
236	0xbf37c9b4	-0.7179215
237	0xbfcca11b	-1.5986665
238	0xbf8d4f4b	-1.1039823
239	0xbf37ca0e	-0.71792686
240	0xbfa2daea	-1.2723057
241	0xbf54e55f	-0.8316249
242	0xbf7d7646	-0.99008596
243	0xbf1e57cb	-0.6185271
244	0x3e8ae9b5	0.2713143
245	0x3ea61b97	0.32442924
246	0xbcd61df3	-0.026137328
247	0x3de6e176	0.11273472
248	0x3e7b12c8	0.24518883
249	0x3ea23c79	0.31686762
250	0xbe556d88	-0.20842564
251	0xbe1f47ec	-0.1555478
252	0x3ecba38f	0.39773223
253	0x3e92aa35	0.28645483
254	0x3e9f96d2	0.31169754
255	0x3e1eec5f	0.15519856

head.bias f4 [15]
0	0x3e737549	0.2377521
1	0x3d7214f5	0.059102017
2	0xbe7e90c7	-0.24859916
3	0xbebc9808	-0.3683474
4	0x3e6d828e	0.23194334
5	0xbe08393b	-0.13303082
6	0xbe6fd3d1	-0.23420645
7	0x3e83a62e	0.25712723
8	0xbec53a21	-0.3852091
9	0x3b70b935	0.0036731486
10	0x3e38434d	0.17994423
11	0xbc89b702	-0.016810898
12	0xbd76ad46	-0.06022384
13	0x3e8bc861	0.27301314
14	0xbd966b5a	-0.073446944
